_models/bc_ant.pt (torch, 28473 bytes, 7 tensors)

logstd f4 [8]
0	0xbfdd1f86	-1.7275245
1	0xbfdd925f	-1.7310294
2	0xbfdeaecf	-1.7397097
3	0xbfdd6589	-1.7296611
4	0xbfddc96e	-1.7327096
5	0xbfdcc73e	-1.7248304
6	0xbfdcf8aa	-1.7263386
7	0xbfdb6915	-1.7141443

mean_net.0.weight f4 [64, 27]
0	0x3f139415	0.5764783
1	0xbdb3fb11	-0.087881215
2	0xbd919a6c	-0.07109532
3	0xbedd8dd3	-0.43272266
4	0xbe82c1da	-0.25538522
5	0x3eb10234	0.34571993
6	0x3d72960f	0.05922514
7	0xbd92cd72	-0.07168092
8	0x3d396e5b	0.04527126
9	0xbecb9c5e	-0.39767736
10	0x3d901e1d	0.07036994
11	0xbd6967d9	-0.056983802
12	0xbe2101bd	-0.1572332
13	0xbc19797f	-0.009367346
14	0xbd706543	-0.05869032
15	0xbdd5819f	-0.10425114
16	0xbde8b678	-0.11362928
17	0xbc6b9cfb	-0.014380689
18	0x3dfe3d93	0.12414088
19	0xbd3d974b	-0.046286862
20	0xbdbba661	-0.09162594
21	0xbcce2a6c	-0.025166713
22	0x3e25e4ae	0.16200516
23	0xbdc1f67e	-0.09470843
24	0x3e348f12	0.17632702
25	0xbe328d5f	-0.17436741
26	0x3d5c616b	0.053803843
27	0x3e7dc7b2	0.24783209
28	0xbe8fe318	-0.28102946
29	0xbf2d743a	-0.6775547
30	0xbe542222	-0.20716146
31	0x3e0ef211	0.13959529
32	0x3e1c9c52	0.15294006
33	0xbe680c66	-0.2266098
34	0xbc11687c	-0.008875009
35	0xbcd1042e	-0.025514688
36	0x3e5a275b	0.21304075
37	0x3d2b0a05	0.041757602
38	0x3e081569	0.13289417
39	0x3cf11757	0.029430075
40	0x3e35cc0e	0.17753622
41	0x3c73b2f2	0.014874207
42	0x3ead815e	0.33887762
43	0x3d2829bf	0.041055437
44	0xbbfdf881	-0.0077505712
45	0xbb7932e1	-0.003802471
46	0xbda506d8	-0.08057946
47	0x3e2e5663	0.17025141
48	0xbd1148ad	-0.0354697
49	0xbe210f9b	-0.1572861
50	0xbe0a1a90	-0.13486695
51	0xbc9c1a5c	-0.019055538
52	0xbd03e534	-0.032201007
53	0x3c53a232	0.012917088
54	0x3de311b8	0.11087364
55	0x3defb28f	0.11703979
56	0xbdf5bb03	-0.1199856
57	0x3e2355ff	0.15950774
58	0x3df6500f	0.12026989
59	0x3cf1b1e7	0.029503776
60	0xbe02fdb5	-0.12792094
61	0x3ddd7e79	0.10815138
62	0x3e0b9a41	0.13633062
63	0x3e758623	0.2397695
64	0xbdae0c77	-0.08498471
65	0x3a882224	0.0010386151
66	0x3db0c25e	0.086308226
67	0xbc52d437	-0.012867979
68	0xbd422e10	-0.04740721
69	0x3ddf2c7a	0.10897155
70	0x3e6162df	0.22010373
71	0xbd87b650	-0.0662657
72	0x3e22cabf	0.15897654
73	0x3d6ef837	0.058342185
74	0x3d45a91b	0.048256975
75	0xbc4ecbff	-0.012621879
76	0x3d556650	0.052099526
77	0x3d906acb	0.07051619
78	0xbe91514d	-0.2838234
79	0x3dca20ab	0.09869512
80	0xbd8009b8	-0.06251854
81	0xbf208f20	-0.6271839
82	0xbd60ddf1	-0.05489916
83	0x3d9be94b	0.076128565
84	0x3e6593fb	0.22419731
85	0xbeb36752	-0.35039765
86	0xbd9c68eb	-0.07637199
87	0x3e1f7aa1	0.15574123
88	0x3c1b2aea	0.009470681
89	0x3e223961	0.15842201
90	0x3d07e35b	0.033175807
91	0xbdb28153	-0.08716073
92	0x3d9ee842	0.077591434
93	0xbe5c3eaf	-0.21508287
94	0xbe143cde	-0.14476344
95	0x3d4424b5	0.04788657
96	0xbe71354f	-0.23555492
97	0xbc60ca72	-0.013720142
98	0xbd33d862	-0.04390753
99	0x3d154074	0.03643842
100	0x3e9e369b	0.30901036
101	0x3d09ebae	0.033672027
102	0x3dbcc018	0.092163265
103	0x3e72d94d	0.23715706
104	0xbe61efb4	-0.22064096
105	0xbe257c18	-0.1616062
106	0x3e2f3ecf	0.17113803
107	0x3e3ed919	0.18637504
108	0x3e6f18b1	0.23349263
109	0x3d93480e	0.07191478
110	0x3ae69e02	0.0017594697
111	0xbf39ecea	-0.7262713
112	0xbe7c2729	-0.24624313
113	0xbbaf36b5	-0.0053470978
114	0x3d905548	0.07047516
115	0xbadec252	-0.0016995168
116	0x3e229789	0.15878119
117	0xbcda8222	-0.02667338
118	0xbde5def9	-0.11224169
119	0xbeb126de	-0.34599966
120	0xbdff19a8	-0.124560654
121	0x3d38d529	0.04512516
122	0x3e27b3ba	0.16377154
123	0xbe5a9f06	-0.21349725
124	0x3dbd22ec	0.092351764
125	0xbdf957e7	-0.12174969
126	0xbe328f25	-0.17437418
127	0xbd12eb20	-0.035868764
128	0x3ce212e2	0.027596895
129	0x3e08afb9	0.13348283
130	0xbdbf1552	-0.093302384
131	0x3be812be	0.0070823124
132	0x3dade9d2	0.08491863
133	0x3dc82165	0.097719945
134	0x3df8093e	0.12111138
135	0x3f41182c	0.7542751
136	0x3d8b6fe1	0.068084486
137	0xbf0a0334	-0.5391114
138	0xbeae5def	-0.3405604
139	0x3dcc5197	0.099764995
140	0xbe1bd4fa	-0.15217963
141	0xbdf276cb	-0.11839064
142	0x3d476e51	0.04868919
143	0x3df95de9	0.12176115
144	0x3d49d70d	0.049277354
145	0xba24a22b	-0.00062802684
146	0x3cc0aded	0.023520434
147	0x3e8fac94	0.28061354
148	0x3d88196e	0.06645475
149	0x3e18c2d8	0.14918077
150	0x3e9b5436	0.30337685
151	0x3e8f29bc	0.27961528
152	0xbe1ddf28	-0.15417159
153	0x3dec9b1c	0.11553022
154	0xbde2b9b5	-0.11070577
155	0xbefa9144	-0.48938954
156	0xbe269ab3	-0.1626995
157	0xbe790e3b	-0.24321835
158	0x3edf7c8d	0.43649712
159	0xbce67f0d	-0.028136754
160	0xbe3bbb2c	-0.18333119
161	0x3d6f4ade	0.05842101
162	0x3f00b2f5	0.50273067
163	0x3d31b072	0.043381162
164	0xbebe0f84	-0.37121212
165	0x3dc38ca2	0.09548308
166	0x3e808332	0.25100094
167	0xbdab86a4	-0.0837529
168	0xbe578d7a	-0.21050063
169	0x3da4e902	0.08052255
170	0xbd04e5fb	-0.03244589
171	0x3dd54881	0.1041422
172	0x3d824ff9	0.0636291
173	0x3d75efb2	0.060043044
174	0x3f0971a4	0.53689027
175	0x3ddda2c5	0.108220614
176	0x3d8ce2a3	0.06879165
177	0x3e6240c8	0.22095025
178	0xbea4ee6a	-0.32213145
179	0xbe3192d7	-0.17341171
180	0xbca73584	-0.02041126
181	0xbcf669cb	-0.030079743
182	0xbe539a52	-0.20664337
183	0x3dd73812	0.105087414
184	0xbe5d29ca	-0.21597973
185	0x3e93d035	0.28869787
186	0xbda296a2	-0.07938887
187	0xbe97d8e8	-0.29657674
188	0x3d0b8a0e	0.034067206
189	0xbef83962	-0.4848128
190	0x3dca0f2c	0.09866175
191	0xbe8879f0	-0.2665553
192	0xbeda5ace	-0.42647403
193	0xbd588e7e	-0.052870266
194	0x3eaa3566	0.33243865
195	0xbdab264d	-0.08356915
196	0x3e38d02b	0.1804816
197	0x3dc52390	0.09625924
198	0x3e33d23d	0.17560668
199	0xbe236629	-0.1595694
200	0x3d9544cb	0.07288512
201	0xbdeb665d	-0.114941336
202	0x3e5d19cd	0.21591873
203	0x3e2de2a9	0.16980995
204	0x3e927ff9	0.2861326
205	0x3e30004e	0.17187616
206	0xbda50655	-0.08057848
207	0xbcb2aad8	-0.02180998
208	0xbc9cd72f	-0.019145576
209	0x3cc53ead	0.024077738
210	0xbb0d79b0	-0.0021587424
211	0x3e8bade3	0.27281103
212	0xbe0a4c1c	-0.13505596
213	0x3e28e7d9	0.16494693
214	0x3dc9ef5a	0.09860106
215	0x3e2e6648	0.17031205
216	0x3e915fd1	0.28393415
217	0xbe4d2afc	-0.20035928
218	0xbe62bd5a	-0.22142544
219	0xbe05c99c	-0.13065189
220	0xbd980742	-0.07423259
221	0x3e8abbba	0.2709635
222	0xbe184d64	-0.14873272
223	0x3c6a7c38	0.014311843
224	0x3e1d4ff8	0.15362537
225	0xbeb07ef2	-0.34471852
226	0x3c1c46f7	0.009538404
227	0x3e26a889	0.16275229
228	0xbc059b18	-0.008154653
229	0x3e226c4b	0.15861623
230	0x3e554f34	0.20830995
231	0xbdce8baa	-0.100852326
232	0x3e6c4c55	0.23075993
233	0xbe26bea9	-0.16283669
234	0xbc4f6059	-0.012657248
235	0x3dc98c19	0.09841175
236	0xbc0445b8	-0.008073263
237	0x3e2261f3	0.15857677
238	0x3e21bda2	0.15794995
239	0xbe2e2bfb	-0.17008965
240	0xbcd563b3	-0.026048517
241	0x3dc739fc	0.097278565
242	0x3df06a80	0.11739063
243	0xbe412309	-0.18861021
244	0xbdefcab7	-0.11708587
245	0x3e1ce7a5	0.1532274
246	0x3f0ca6d5	0.54942065
247	0x3e22f241	0.15912725
248	0x3e16827c	0.14698213
249	0x3e8c9f04	0.2746507
250	0x3ecda073	0.40161476
251	0xbdb53868	-0.08848649
252	0xbe6f80de	-0.23389003
253	0x3d5ef7d5	0.05443557
254	0x3e3f3a1a	0.18674508
255	0xbe69d37f	-0.22834586

mean_net.0.bias f4 [64]
0	0x3d199635	0.037496764
1	0xbe785d86	-0.24254426
2	0xbdf86f58	-0.12130612
3	0x3d3806ff	0.044928547
4	0xbdad548d	-0.084633924
5	0xbd4b02ee	-0.04956334
6	0x3d89f5b2	0.06736316
7	0xbd2ab6b8	-0.04167816
8	0xbc302c0d	-0.01075269
9	0xbe3f3ea5	-0.1867624
10	0x3e160c4a	0.14653125
11	0xbe413864	-0.18869168
12	0xbc652e49	-0.013988086
13	0xbde831be	-0.113376126
14	0xbe6db808	-0.23214734
15	0x3deb8ebd	0.115018345
16	0xbe28880a	-0.16458145
17	0xbd944fc7	-0.07241779
18	0x3cd15bcd	0.02555647
19	0x3e11d58f	0.14241622
20	0x3dcc58a6	0.09977846
21	0x3df3a7f4	0.11897269
22	0xbdf5ad76	-0.11995976
23	0xbc4f2026	-0.012641942
24	0x3e036ff4	0.12835675
25	0x3d83e598	0.06440276
26	0x3cd08a6b	0.025456628
27	0xbdec7ddd	-0.11547444
28	0xbe6a99ca	-0.22910228
29	0x3d5d05e0	0.05396068
30	0xbd699125	-0.057023186
31	0x3e182f4b	0.14861791
32	0x3e026ea8	0.12737525
33	0xbe147927	-0.14499341
34	0xbdac83a1	-0.08423544
35	0x3e0eadc7	0.13933478
36	0xbd843347	-0.06455093
37	0xbdb1c52b	-0.08680185
38	0xbe0da4d5	-0.1383241
39	0x3cdd3615	0.027003327
40	0x3d07c406	0.033145927
41	0x3e04cfd0	0.12969899
42	0x3e166317	0.14686237
43	0x3b3f24c2	0.0029166196
44	0x3ca00d47	0.019537581
45	0x3e4bdf07	0.19909297
46	0xbe164dcc	-0.14678115
47	0xbdccc5b5	-0.09998647
48	0x3e243cb2	0.16038778
49	0xbd7e3b22	-0.062068112
50	0x3c47a096	0.012184283
51	0x3d48c165	0.04901256
52	0x3d5fbf2e	0.054625683
53	0x396ac6b0	0.00022389996
54	0xbe56443d	-0.20924468
55	0x3e3afbef	0.18260168
56	0x3e76d35d	0.24104066
57	0xbdf739c6	-0.12071566
58	0xbe116527	-0.14198743
59	0xbc7d719d	-0.015468982
60	0x3dafdbac	0.08586821
61	0xbcc32c89	-0.023824947
62	0xbce31be4	-0.02772326
63	0x3e1826f1	0.14858605

mean_net.2.weight f4 [64, 64]
0	0xbd736a8d	-0.059427787
1	0x3db631e1	0.088962324
2	0x3c5c9116	0.013462326
3	0x3c131492	0.008977072
4	0x3d38b2a1	0.04509223
5	0x3d6659ee	0.056238107
6	0x3dbcd501	0.09220315
7	0xbce2e831	-0.027698608
8	0x3defd7a1	0.1171105
9	0x3dbc81e1	0.0920446
10	0xbdcd54de	-0.10025953
11	0x3db407e5	0.08790568
12	0xbdd480d6	-0.10376136
13	0x3d5403f0	0.051761568
14	0xbd6b91f9	-0.057512257
15	0x3d6ec649	0.05829457
16	0xbd58e008	-0.052948028
17	0x3d5738b3	0.052544307
18	0x3b958a9d	0.004563643
19	0x3cef0011	0.029174836
20	0x3dd70e2f	0.10500752
21	0xbdf2c2a7	-0.11853533
22	0x3dc998d5	0.098436035
23	0xbdcda34d	-0.10040913
24	0x3cec16ef	0.02881953
25	0x3d34a960	0.04410684
26	0x3da582d8	0.08081597
27	0x3bf62ca1	0.0075126444
28	0xbd38c8ba	-0.045113303
29	0xbd524b21	-0.05134118
30	0xbdb80f5a	-0.08987303
31	0x3d4883ee	0.048953943
32	0xbda92e9e	-0.08260845
33	0x3d120d33	0.03565712
34	0xbd82d1d6	-0.06387679
35	0xbbfce3cb	-0.0077175847
36	0x3d5ba222	0.05362142
37	0xbe0c4880	-0.13699532
38	0x3c30e974	0.010797847
39	0xbbe26fa2	-0.0069102803
40	0xbbf4da59	-0.007472318
41	0x3dfe46e8	0.12415868
42	0xbdf8aef6	-0.12142746
43	0xbcf2bcb0	-0.029630989
44	0x3d8d80c5	0.069093265
45	0x3c8dbab6	0.017300945
46	0xbd7343e6	-0.059390925
47	0xbe0058db	-0.12533896
48	0x3cd8f094	0.026481904
49	0xbd53c8bf	-0.05170512
50	0x3d5902a8	0.05298105
51	0xbc9d4649	-0.019198554
52	0x3c13dfc4	0.009025518
53	0x3dda4e94	0.10659519
54	0xbda424ce	-0.080148324
55	0xbd716420	-0.058933377
56	0xbe034a29	-0.12821259
57	0x3d9d30c6	0.076753184
58	0x3bc4f838	0.0060110353
59	0xbd52a9bf	-0.051431414
60	0x3db4ad8a	0.088221624
61	0x3db80f16	0.089872524
62	0xbdf4a072	-0.11944665
63	0x3c81902d	0.015815819
64	0x3d74ecce	0.059796147
65	0xbc83d8f2	-0.016094659
66	0x3d6a9051	0.057266537
67	0x3c197deb	0.0093684
68	0x3dd29caf	0.10283791
69	0x3d8f808e	0.07006942
70	0xbe1cefdc	-0.15325874
71	0xbdc32987	-0.09529405
72	0x3d11a6ff	0.03555965
73	0xbd2d2795	-0.042274076
74	0xbd53bc36	-0.051693164
75	0xbdd0ac61	-0.10189129
76	0x3e1b6791	0.15176226
77	0xbdf2536c	-0.11832318
78	0xbce5c06e	-0.02804586
79	0xbe088116	-0.13330492
80	0xbe0d94cb	-0.13826291
81	0xbc3d7ca1	-0.011565358
82	0xbbf67638	-0.007521417
83	0x3dfdc102	0.12390329
84	0x3de51694	0.11185947
85	0xbba352ea	-0.0049842494
86	0x3da7fd92	0.082026616
87	0xbdb13127	-0.08651953
88	0x3d601cfb	0.054715138
89	0x3c06f4db	0.008237089
90	0xbd729bfe	-0.059230797
91	0xbcb93701	-0.022609236
92	0xbdcc06f8	-0.09962267
93	0x3c5ed049	0.013599464
94	0xbdb38322	-0.08765246
95	0xbde0ec0c	-0.10982522
96	0xbd9ccadf	-0.07655882
97	0x3aab8fbe	0.0013089103
98	0xbd0e1d15	-0.034695704
99	0xbd5760a9	-0.052582417
100	0xbd00ded8	-0.03146252
101	0x3cd96918	0.02653937
102	0x3d7c46ac	0.061590835
103	0x3d379c73	0.044826936
104	0x3c252e3d	0.010081825
105	0xbd30f696	-0.043203913
106	0xbdc0de7c	-0.094174355
107	0x3e03c774	0.12869054
108	0xbc922ef2	-0.01784465
109	0xbc28257d	-0.010262844
110	0xbda6b18e	-0.081393346
111	0x3d436ddd	0.047712196
112	0xbd7c764a	-0.061636247
113	0x3d30ea5c	0.043192253
114	0xbe3cf243	-0.1845179
115	0x3da95254	0.08267656
116	0xbd29b164	-0.04142894
117	0x3d4d8847	0.050178792
118	0xbe1fb37f	-0.15595816
119	0x3de49014	0.11160293
120	0x3dc7d036	0.0975651
121	0x3de5226b	0.11188205
122	0xbdb8bb6a	-0.090201214
123	0x3d4a6b4a	0.049418725
124	0xbdb27cc5	-0.08715204
125	0xbde140f8	-0.1099872
126	0x3d687ac9	0.056757722
127	0xb96b69ee	-0.00022450808
128	0xbd0049d4	-0.031320408
129	0xbe1d3f11	-0.15356089
130	0x3d58380a	0.052787818
131	0xbd73a750	-0.059485734
132	0xbd195745	-0.037436742
133	0xbd085838	-0.033287257
134	0xbdc30c3d	-0.09523819
135	0x3d2c3c4d	0.042049695
136	0xbd708550	-0.058720887
137	0xbc702c03	-0.014658931
138	0xbe2cbff7	-0.16870104
139	0xb92a5217	-0.00016243044
140	0xbcfed0a2	-0.031105343
141	0x3dd30d05	0.10305218
142	0x3bf10978	0.007355865
143	0x3cf55d75	0.02995179
144	0x3db0035e	0.08594392
145	0x3d4ae52f	0.049534973
146	0xbda52c77	-0.080651216
147	0xbdf431b6	-0.11923544
148	0xbdae8694	-0.085217625
149	0xbc8b20a4	-0.016983338
150	0xbda8583a	-0.08219953
151	0x3da8b351	0.08237327
152	0xbda1424d	-0.07873974
153	0x3d2a2174	0.04153581
154	0x3cd7cf78	0.026344046
155	0xbd69f283	-0.057116043
156	0x3d3ded43	0.04636885
157	0xbd75ffe1	-0.06005848
158	0xbdd39363	-0.10330846
159	0xbd6538d8	-0.055962414
160	0xbdee80a3	-0.11645629
161	0x3d0cdab9	0.034388278
162	0xbdce91e2	-0.10086419
163	0xbcb172d5	-0.021661201
164	0xbd3b7ee1	-0.045775298
165	0x3db32f79	0.08749289
166	0x3dbb116b	0.091341816
167	0x3de152ac	0.110020965
168	0xbbec47f6	-0.007210727
169	0x3da01d5a	0.07818098
170	0xbda368aa	-0.079789475
171	0xbdc21025	-0.094757356
172	0x3dab87ef	0.08375537
173	0x3c2f1739	0.010686689
174	0x3ddcd1bf	0.107821934
175	0x3d564c16	0.052318655
176	0x3d5f445b	0.05450855
177	0x3ce7015d	0.028198892
178	0xbcfdb79c	-0.03097134
179	0xbd4e911e	-0.050431363
180	0x3d570695	0.05249651
181	0x3dbeaabc	0.09309909
182	0xbc8e88f0	-0.017399281
183	0xbc80c92f	-0.015720932
184	0x3c391b2f	0.011297985
185	0x3d8a96ba	0.0676703
186	0xbc7b47a4	-0.015336905
187	0xbbc3704d	-0.005964315
188	0xbe01cd09	-0.12675871
189	0x3d91769e	0.071027026
190	0x3c5d85c3	0.013520661
191	0xbdee7677	-0.11643689
192	0xbe1c724c	-0.15277976
193	0xbe1ea65e	-0.15493152
194	0x3db27d0c	0.08715257
195	0x3e431c6b	0.1905381
196	0x3dad61d7	0.08465927
197	0x3da56c56	0.08077304
198	0xbe144845	-0.14480694
199	0x3e0c7101	0.13714983
200	0x3e0c5f7a	0.13708296
201	0x3c9cf6b0	0.019160599
202	0xbd7b047a	-0.061283566
203	0x3e3894f7	0.18025576
204	0xbd251fa2	-0.04031337
205	0xbdcc7ae6	-0.099843785
206	0xbd89900d	-0.06716929
207	0x3c9314f2	0.017954323
208	0xbdf7d550	-0.12101233
209	0x3d2bd987	0.041955497
210	0x3db49585	0.08817581
211	0x3d91191f	0.070848696
212	0xbca15760	-0.019694984
213	0x3e2dd81d	0.16976972
214	0xbda3f37a	-0.08005424
215	0xbda0b8cf	-0.078477494
216	0xbd6c3966	-0.057671927
217	0xbd998791	-0.0749656
218	0x3db66030	0.08905065
219	0xbdb51ee3	-0.08843782
220	0x3d665dad	0.05624168
221	0xbd9c1ba0	-0.076224566
222	0xbd0e4fcb	-0.034744065
223	0xbd3387cd	-0.04383068
224	0x3b49a0f3	0.00307661
225	0xbe543db9	-0.2072667
226	0xbccb0baf	-0.024785845
227	0xbe0ffc5a	-0.14061108
228	0xbc45429d	-0.012039808
229	0xbc997abd	-0.018735284
230	0xbd929419	-0.07157154
231	0x3e17af3b	0.14812939
232	0x3b35f215	0.00277627
233	0xbe2d2554	-0.16908771
234	0x3b990404	0.004669668
235	0xbd0c4fce	-0.034255795
236	0xbe7d88c0	-0.24759197
237	0x3dfc0c71	0.123070605
238	0x3df093b2	0.11746921
239	0x3e350b93	0.17680196
240	0x3d8a49ba	0.067523435
241	0xbe79d018	-0.24395788
242	0x3e263349	0.16230501
243	0x3c8cab3f	0.0171715
244	0x3c84bb33	0.016202545
245	0x3e094b5f	0.13407658
246	0x3d4b85f9	0.049688313
247	0xbe407bc3	-0.18797211
248	0xbce71aae	-0.028210964
249	0xbd399b11	-0.0453139
250	0xbde2488b	-0.11048993
251	0xbdc6bfa4	-0.09704521
252	0x3def3a76	0.116810724
253	0xbe63fbbc	-0.22263998
254	0xbe14c451	-0.14528014
255	0xbc95b4f5	-0.018274764

mean_net.2.bias f4 [64]
0	0x3c8b1401	0.016977312
1	0x3e08070a	0.13283935
2	0xbd533752	-0.05156643
3	0xbd9d1d41	-0.07671595
4	0x3de732fc	0.112890214
5	0xbdfad7a6	-0.12248163
6	0xbda660fa	-0.081239656
7	0xbd72791e	-0.059197538
8	0x3c8f237d	0.017472977
9	0x3cdc874b	0.026919981
10	0x3e257cef	0.1616094
11	0xbdf2fc0c	-0.118644804
12	0x3d654273	0.055971574
13	0xbdf50cb6	-0.11965315
14	0x3b5ca902	0.0033670072
15	0xbdad600c	-0.08465585
16	0xbdd8fb13	-0.105947636
17	0xbd8af7dd	-0.067855574
18	0x3e02ebe6	0.127853
19	0xbd8d3f88	-0.06896883
20	0x3d8b186b	0.06791767
21	0x3e402137	0.1876267
22	0xbdb85ad2	-0.090016976
23	0x3dbe346b	0.09287342
24	0x3dcfb373	0.10141649
25	0xbe114d57	-0.14189659
26	0xbdc773be	-0.09738873
27	0x3df22270	0.11822975
28	0xbd7e4910	-0.062081397
29	0x3d81204e	0.0630499
30	0xbe008869	-0.12552036
31	0xbda35f5d	-0.079771735
32	0xbdb23c7a	-0.08702941
33	0x3ce0b6a3	0.027430838
34	0xbe386932	-0.18008879
35	0xbd3245f7	-0.043523755
36	0xbd7b3f62	-0.061339743
37	0x3c832eef	0.01601359
38	0xbd014550	-0.031560242
39	0xbe2328f8	-0.15933597
40	0x3da4360c	0.08018121
41	0x3e0cc62e	0.13747475
42	0x3de83669	0.11338503
43	0xbe01bd37	-0.12669836
44	0xbe96ce98	-0.29454494
45	0xbe05fbcb	-0.13084333
46	0x3e121d08	0.14268887
47	0xbc82fd41	-0.015989901
48	0x3d2b4107	0.04181006
49	0x3b848266	0.004043865
50	0x3d941d8c	0.07232198
51	0x3cde8b2e	0.027165975
52	0x3e29ea49	0.16593279
53	0xbdb4e60e	-0.08832942
54	0xbc196a9e	-0.009363798
55	0xbceb0fe3	-0.028694099
56	0xbd8deea1	-0.069302805
57	0xbdb199fd	-0.08671949
58	0xbe4afcbe	-0.19822976
59	0x3dce0047	0.10058647
60	0x3dffab49	0.12483842
61	0xbbd9d019	-0.0066471216
62	0xbd52f089	-0.051498923
63	0xbcd181ee	-0.02557465

mean_net.4.weight f4 [8, 64]
0	0x3cef418f	0.029206065
1	0xbc4d9548	-0.012547798
2	0x3d14f99e	0.036370866
3	0x3b5d83f9	0.0033800586
4	0x3c48382e	0.0122204255
5	0xbc2256a8	-0.009908356
6	0x3c944313	0.01809839
7	0xbc41d0e3	-0.011829588
8	0xbc46ce49	-0.012134143
9	0x3b6464ec	0.0034850193
10	0xbaaa822c	-0.0013008765
11	0x3d0bd720	0.034140706
12	0xbb220240	-0.002472058
13	0xbd680bc6	-0.056651853
14	0x3d5f5521	0.054524545
15	0x3c6faff8	0.014629357
16	0x3bb49312	0.005510696
17	0xbd2b7f17	-0.04186925
18	0xbbbbb662	-0.005728529
19	0x3cf4cebd	0.029883737
20	0x3b23dd2d	0.0025003657
21	0xbd520b66	-0.0512804
22	0x3d00d0f0	0.03144926
23	0xbd3af734	-0.045645908
24	0x3ab52e0a	0.0013822925
25	0xbb9f447a	-0.004860458
26	0xbc2350ec	-0.009968024
27	0xbd1d536d	-0.03840964
28	0x3b2ab11a	0.0026045502
29	0xbd8a3d78	-0.067500055
30	0x3cd7b3ac	0.026330791
31	0xbd07d41f	-0.03316128
32	0x3c8ed056	0.017433327
33	0x3bef58f7	0.0073043066
34	0xbd91ed49	-0.07125337
35	0x3d8e4d87	0.06948381
36	0x3d30b720	0.04314339
37	0xbd871e60	-0.065975904
38	0xbd707795	-0.058707792
39	0x3c60ffa2	0.013732823
40	0x3c7f5fde	0.015586821
41	0xbc83258b	-0.016009113
42	0xbcb5010f	-0.022095231
43	0x3909fb2d	0.00013158908
44	0xbd9a8bb6	-0.07546179
45	0x3d91b02c	0.0711368
46	0xbd2e41de	-0.042543285
47	0xbcc43f3e	-0.023955937
48	0xbd5b6c30	-0.053569973
49	0xbcdf5d5d	-0.027266199
50	0x3c2c8a25	0.010530983
51	0x3c24f850	0.010068968
52	0x3dd38d20	0.10329652
53	0x3c336272	0.010948764
54	0xbb729836	-0.0037016994
55	0x3d31ce43	0.043409597
56	0x3d0aae98	0.03385791
57	0x3ce47df0	0.027892083
58	0x3cd52a54	0.02602116
59	0xbd0f2f76	-0.03495737
60	0xbcdf79ad	-0.0272797
61	0xba85ec0a	-0.001021744
62	0xba88acb4	-0.0010427446
63	0x3d180af6	0.03711983
64	0x3be36f79	0.006940779
65	0x3d7e90a3	0.062149655
66	0xbc34e6e3	-0.011041376
67	0x3d91f99c	0.07127687
68	0x3d1b71ae	0.03795021
69	0x3d253df5	0.04034229
70	0xbc557464	-0.013028238
71	0xbb6955d0	-0.0035604127
72	0xbd1fb0ef	-0.038987096
73	0x3cc66043	0.024215823
74	0xbc9c33c8	-0.01906766
75	0xbc1e4d56	-0.009661993
76	0x3b6c43da	0.0036051185
77	0xbcbb1cc1	-0.02284086
78	0x3d9aa665	0.075512685
79	0xba52b382	-0.0008037613
80	0xbc9fc498	-0.019502923
81	0x3c71f34b	0.014767478
82	0xbcc4ad69	-0.02400847
83	0xbc3ed17d	-0.011646626
84	0xbcfe245e	-0.0310232
85	0x3c9f232d	0.019425953
86	0x3bcc11e6	0.0062277196
87	0x3bf1f216	0.007383595
88	0x3c63b706	0.013898617
89	0x3c35f638	0.011106066
90	0x3cc85a38	0.024457082
91	0x3ca912da	0.020638872
92	0x3d18a036	0.037262164
93	0xbe21b123	-0.15790229
94	0x3c4fdd5b	0.012687053
95	0x3d7e826b	0.062136095
96	0x38772720	5.8925827e-05
97	0xbce820c3	-0.028335935
98	0x3d140624	0.03613867
99	0x3dbc3b42	0.0919099
100	0xbc6c70a6	-0.014431154
101	0xbc0e1987	-0.008673078
102	0xbc94e98f	-0.018177776
103	0x3d9d671e	0.07685684
104	0x3c16c388	0.009201892
105	0x3c3d0eb3	0.011539149
106	0x3bb83984	0.005622091
107	0xbc1520fc	-0.009102102
108	0x3daab4d0	0.083352685
109	0x3a46455b	0.00075634354
110	0x3da63314	0.08115211
111	0x3c50077c	0.012697097
112	0xbcdc6253	-0.026902353
113	0xbc9d6e7a	-0.019217718
114	0xbd0168bc	-0.031594023
115	0x3af1dd02	0.0018452706
116	0xbdb72db3	-0.08944263
117	0xbc5e491f	-0.013567238
118	0xbc8df463	-0.017328447
119	0x3d4ff987	0.050775077
120	0xbda70fbd	-0.08157299
121	0x3cf46d96	0.02983741
122	0x3ca541e4	0.02017302
123	0xbd905eca	-0.070493296
124	0x3ce75246	0.028237473
125	0x3e98f8ae	0.29877228
126	0x3caf312a	0.021385748
127	0xbc93b887	-0.018032325
128	0xbb9107f9	-0.0044259992
129	0xbd355fb3	-0.04428072
130	0x3d06ef5a	0.032943107
131	0x3d61ea35	0.055154998
132	0x3dabfbda	0.08397646
133	0x39b35c8a	0.00034210488
134	0xbd597c52	-0.053097077
135	0x3c679c8d	0.014136446
136	0x3bd48346	0.0064853756
137	0x3c858493	0.016298568
138	0x3c080996	0.008303067
139	0xbce7116f	-0.028206555
140	0x3c06f9b9	0.008238249
141	0xbc9ebeaa	-0.019378025
142	0xbd2ae4ba	-0.041722037
143	0x3bb208dc	0.005433185
144	0x3cd516e9	0.026011901
145	0xbd0551ab	-0.032548588
146	0xbd8ab30e	-0.06772433
147	0xbd74ba1f	-0.05974781
148	0x3d59ee63	0.05320586
149	0x3d7a4589	0.06110147
150	0x3cf5c7e6	0.030002546
151	0xbbb586fd	-0.0055397735
152	0xbbfa72ce	-0.0076430803
153	0x3d018a65	0.031626124
154	0xbd3f0236	-0.046632968
155	0x3d39e978	0.04538867
156	0xbb6c8768	-0.003609145
157	0xbd497c77	-0.049190965
158	0xbdad6ba5	-0.08467797
159	0x3c14e775	0.009088387
160	0x3bee4ea8	0.00727256
161	0x3b14dc32	0.0022714254
162	0x3dc9b47f	0.0984888
163	0xbd7941b1	-0.060853664
164	0xbd8e5772	-0.069502726
165	0x3d01adc1	0.031659845
166	0x3ccce8e4	0.025013395
167	0xbd975ba5	-0.07390527
168	0xb95aea1b	-0.00020877311
169	0x3cdc6eff	0.026908396
170	0x3d0fa08d	0.035065223
171	0x3bb556db	0.0055340356
172	0xbd3b62bd	-0.04574846
173	0xbdc59829	-0.09648163
174	0x3e88c25f	0.26710793
175	0x3c0c931a	0.008579994
176	0x3db58068	0.08862382
177	0xbd57db4c	-0.052699372
178	0x3a44946c	0.0007498923
179	0xbcc206c3	-0.023684865
180	0x3d8ce6a7	0.06879931
181	0xbd7a118a	-0.061051883
182	0xbd4836d4	-0.048880413
183	0xbc73542a	-0.014851609
184	0x3c380fc8	0.011234231
185	0xbd46d8b4	-0.048546508
186	0xbd9147bd	-0.07093761
187	0x3c186e97	0.00930371
188	0x3d235e57	0.03988489
189	0xbe90214c	-0.28150403
190	0x3d2063c4	0.039157644
191	0x3ca726f7	0.020404322
192	0xbbe5ebba	-0.007016626
193	0x3d3e418e	0.046449237
194	0xbca1bbb1	-0.019742819
195	0x3dde21c6	0.108462855
196	0xbda7e9af	-0.081988685
197	0xbc26ff0c	-0.010192644
198	0xbc4cf334	-0.012509156
199	0x3bfa27f2	0.0076341564
200	0xb94ed7bc	-0.00019726058
201	0x3c36114f	0.011112525
202	0x3c507797	0.012723825
203	0xbc455cdd	-0.012046066
204	0x3c975843	0.018474704
205	0xbd844c19	-0.06459827
206	0x3d6edcd1	0.058316056
207	0x3c450a88	0.012026437
208	0xbc2317ea	-0.009954432
209	0xbba95c68	-0.0051684864
210	0x3cd06fc3	0.025443917
211	0xbd4c34bd	-0.049854983
212	0xbd1cf2df	-0.038317557
213	0x3dad0630	0.08448446
214	0x3d23e468	0.040012747
215	0x3df2dd89	0.11858661
216	0x3b9a609f	0.004711225
217	0x3d0a581c	0.033775434
218	0x3c060a1e	0.008181123
219	0xbcd20942	-0.02563918
220	0x3cc5b094	0.02413205
221	0x38c3d8c6	9.338702e-05
222	0xbd0a4e99	-0.033766363
223	0x3cfd9f89	0.030959861
224	0xbc43a056	-0.011940083
225	0x3c2bba39	0.010481411
226	0xbd35fe96	-0.044432245
227	0x3d3366d4	0.043799236
228	0xbcc0962e	-0.023509111
229	0x3d8aeed6	0.067838356
230	0xbd56fbe3	-0.05248631
231	0x3bcc93b8	0.0062431954
232	0x3c46a454	0.01212414
233	0xbb568b01	-0.0032736661
234	0x3d040f70	0.032241285
235	0xbc181803	-0.009283069
236	0xbdddd24c	-0.108311266
237	0xbcfc1bdc	-0.030775003
238	0x3e082c6c	0.13298196
239	0xbdb90e39	-0.09035916
240	0x3c96eb39	0.01842271
241	0xbc5a804e	-0.013336254
242	0xbd079e2d	-0.033109833
243	0xbe1589f5	-0.14603408
244	0xb9ece11c	-0.00045181147
245	0xbd05e4c9	-0.03268889
246	0xbc3265ca	-0.010888526
247	0x3d2e40de	0.04254233
248	0x3d90e340	0.070745945
249	0x3c0c95c0	0.008580625
250	0x3d81c86c	0.063370556
251	0xbd639f45	-0.055571813
252	0x3d20d3b2	0.03926439
253	0x3da069e7	0.07832699
254	0xbbce41da	-0.006294471
255	0x3c63fd99	0.013915443

mean_net.4.bias f4 [8]
0	0xbb878f41	-0.0041369502
1	0xbd923c7e	-0.07140444
2	0x3d03205f	0.032013293
3	0xbdad6bf6	-0.084678575
4	0xbd5fdd4e	-0.054654412
5	0x3d99fcb4	0.075189024
6	0xbd940b24	-0.072286874
7	0x3dbeb23e	0.09311341
