_models/CartPole-v1_DQN.pt (torch, 22958 bytes, 18 tensors)

mlp.0.weight f4 [32, 4]
0.25526717 -0.1503177 -0.2624998 0.14399159 -0.5293843 0.3128264 -0.25779074 0.17895707
0.06950849 -0.061222076 0.13868046 0.024665892 0.16046561 -0.17839321 -0.17489903 -0.1045997
0.06458788 0.02136971 0.37191537 0.115618065 -0.116553344 -0.30269247 -0.2222111 -0.26089698
-0.1631663 0.05449939 0.15536071 0.20287065 -0.5033254 0.3453941 0.029770102 0.42244998
0.21846826 -0.5329357 -0.57651216 -0.24566254 0.34520984 -0.18223622 0.12710264 -0.20488554
0.9452847 0.029081421 0.32237473 -0.02651576 -0.13443358 0.3711699 -0.29515857 0.18937917
-0.24020194 -0.8002873 -1.866559 -0.56086236 0.617859 0.025651943 0.17422229 0.3699607
-0.117163986 -0.23588555 0.535624 0.160699 -0.3218895 0.40221867 0.21246393 0.38393667
-0.3063435 -0.07441022 -0.17272781 0.013002886 -0.22645561 -0.08356511 1.0447336 0.20153171
0.10272334 0.0026313697 0.022030095 0.08596428 0.08110699 0.21425377 -0.5822352 0.24170041
-0.6247716 -0.4340237 -0.033322945 -0.09044033 0.2763967 -0.11645134 -0.7401695 0.22761536
-0.11789889 0.30440867 0.10512456 -0.4266327 -0.11845203 -0.062992424 -0.37635168 -0.13488233
0.13001849 0.03881287 -0.3476024 -0.17378405 0.39922398 0.02669991 -0.2861743 0.17112125
-0.63226765 -0.4504951 0.98939496 0.16207254 -0.08691022 0.3458588 1.3468347 0.78192806
0.5153964 -0.054368462 0.5594149 0.53095204 0.23364381 0.3276979 -0.5816519 -0.465205
-0.35889706 -0.06458273 0.48139647 -0.2348148 0.333188 -0.36603996 -0.68881136 -0.047352422
00000000: 61b2 823e e2ec 19be 6066 86be 8872 133e
00000010: bb85 07bf c82a a03e 26fd 83be 8640 373e
00000020: 785a 8e3d 00c4 7abd 4002 0e3e 2010 ca3c
00000030: 1951 243e b6ac 36be bb18 33be 5e38 d6bd
00000040: a746 843d 880f af3c b16b be3e 2ac9 ec3d
00000050: 85b3 eebd 82fa 9abe 4e8b 63be 4a94 85be
00000060: 1115 27be c13a 5f3d e116 1f3e 53bd 4f3e
00000070: efd9 00bf 7fd7 b03e 6ee0 f33c 5d4b d83e
00000080: 25b6 5f3e 796e 08bf 4d96 13bf f68e 7bbe
00000090: 58bf b03e 229c 3abe 3227 023e 84cd 51be
000000a0: 2efe 713f 293c ee3c 4d0e a53e 9437 d9bc
000000b0: f5a8 09be fb09 be3e 061f 97be 9dec 413e
000000c0: 7ff7 75be a1df 4cbf 68eb eebf ad94 0fbf
000000d0: 022c 1e3f 0624 d23c 5467 323e 7d6b bd3e
000000e0: acf3 efbd fb8b 71be a81e 093f 478e 243e
000000f0: b3ce a4be 9bef cd3e 2590 593e 5993 c43e
00000100: 0ed9 9cbe 6364 98bd 8fdf 30be 0f0a 553c
00000110: fbe3 67be 2f24 abbd d5b9 853f 545e 4e3e
00000120: 9d60 d23d 0f73 2c3b 7578 b43c 0a0e b03d
00000130: 6c1b a63d 5765 5b3e 5e0d 15bf 5080 773e
00000140: 08f1 1fbf 5b38 debe a47d 08bd c838 b9bd
00000150: de83 8d3e 0a7e eebd c07b 3dbf 0014 693e
00000160: f974 f1bd 74db 9b3e 8c4b d73d 9a6f dabe
00000170: fa96 f2bd 2c02 81bd 2bb1 c0be 981e 0abe
00000180: 9123 053e 3efa 1e3d f1f8 b1be 72f4 31be
00000190: 1667 cc3e c5b9 da3c 7085 92be 693a 2f3e
000001a0: 4bdc 21bf 4ba7 e6be fd48 7d3f 58f6 253e
000001b0: fcfd b1bd 6814 b13e 1465 ac3f 702c 483f
000001c0: 05f1 033f 77b1 5ebd d135 0f3f 79ec 073f
000001d0: 5340 6f3e 05c8 a73e 24e7 14bf 5a2f eebe
000001e0: 5bc1 b7be f343 84bd 9979 f63e 4a73 70be
000001f0: 9e97 aa3e 9769 bbbe f155 30bf 9df4 41bd

mlp.0.bias f4 [32]
0.6021501 0.70576644 -0.3105194 0.3725475 0.68749255 0.6210089 0.58070403 0.6353264
0.5705633 0.45173606 -0.10113922 -0.5470379 0.10189729 0.32646003 -0.33641967 0.47530228
0.42245302 0.17331304 0.39202166 0.38501284 0.52443033 0.66086537 -0.06937743 0.5929367
-0.18282871 0.41956457 -0.5860503 0.2947607 -0.2493507 -0.294224 0.58818376 0.37084228
00000000: 8226 1a3f 1cad 343f 66fc 9ebe 8cbe be3e
00000010: 83ff 2f3f 70fa 1e3f 05a9 143f c0a4 223f
00000020: 7010 123f f349 e73e 1422 cfbd ad0a 0cbf
00000030: 87af d03d c525 a73e 333f acbe d25a f33e
00000040: c34b d83e f978 313e 10b7 c83e 6720 c53e
00000050: 1141 063f 792e 293f c115 8ebd b3ca 173f
00000060: 7337 3bbe 2bd1 d63e 6407 16bf e0ea 963e
00000070: ca55 7fbe 87a4 96be 3693 163f 0adf bd3e

mlp.2.weight f4 [32, 32]
0.118337534 0.27192828 0.056598514 0.3228639 0.11112864 0.30769676 0.14328077 0.166714
0.14651719 0.050450295 -0.21333595 -0.026545642 -0.52528834 0.038708523 0.16467512 0.34948078
0.33792782 -0.048513837 0.12735148 0.27377498 0.28268448 0.26181713 -0.21744929 0.18419583
-0.23639941 0.33553958 -0.3507481 -0.44225818 -0.017774573 -0.17728548 0.24558616 0.1800778
-0.1524509 -0.06690492 0.1279683 -0.20578815 0.0061396663 0.03890666 0.0982965 -0.19677266
-0.027491927 -0.21527672 0.15092315 -0.0685728 0.04901264 -0.05588412 -0.05822693 -0.0809867
-0.04497817 0.04306165 -0.042732764 -0.025059093 -0.22606651 0.062053 0.06556962 0.070593424
0.056530494 -0.19701914 -0.09332084 0.118223645 -0.18788022 0.07085004 -0.21449858 -0.1683045
0.37313068 0.0774679 -0.040499657 0.3159151 0.37005103 0.39103562 0.21122588 0.12126429
0.4244692 0.089747466 0.2557799 -0.058597706 -0.97665936 0.093430355 -0.015416774 0.097969994
0.07769491 -0.15765439 0.33927858 0.15583293 0.24888685 0.3071077 -0.21926607 0.06609422
-0.20349687 0.31689996 -0.14111339 -0.62640864 -0.083256885 -0.0035452873 0.19312264 -0.01984339
-0.04215528 -0.07117117 -0.010245189 0.022445092 -0.12642859 0.23417725 -0.36018378 -0.23356922
0.1748719 -0.14499217 0.096769765 -0.13197698 0.7390425 -0.35942054 0.05960656 -0.87334293
0.043111004 -0.2517495 -0.34204456 -0.5706398 -0.07826684 -0.11814046 0.09224766 0.008572873
-0.08223426 -0.5441381 0.41339445 0.12642598 -0.09650495 -0.15651518 -0.17895807 0.4920524
0.26027018 0.23333529 0.006539166 0.06571391 0.32876065 0.31312746 0.26015362 0.16678832
0.16883662 0.11793958 0.25688848 -0.19974153 -0.888275 -0.07917055 -0.10423237 0.1982092
0.19589789 -0.20017074 0.10441877 0.3077532 0.3807837 0.4680137 -0.09122467 0.13435997
-0.26888865 0.09771128 -0.21675098 -0.80010796 -0.16787949 0.014488896 0.26143697 0.097533286
-0.08425712 -0.06465516 -0.03357111 -0.11372829 0.021518664 -0.108045354 -0.15506685 -0.01599707
-0.17340071 -0.08569212 0.090335295 0.06606665 0.11119037 -0.12057002 0.0015369952 -0.112056226
-0.15182328 -0.09944635 -0.006371172 -0.032127295 -0.1376551 -0.17018867 -0.19330356 0.12528767
-0.07345586 -0.06700697 -0.06500397 -0.08841766 -0.16166443 -0.14917903 0.05959301 0.03874518
0.2328879 0.13203242 0.11292739 0.3063661 0.400227 0.26983202 0.33660936 0.25362596
0.14634429 -0.056400217 0.45863312 -0.12658805 -0.81782836 -0.022176102 -0.32310122 0.15751237
0.26889074 -0.20683567 0.10079392 0.2144208 0.3582008 0.25639874 0.0067862193 0.2208718
-0.16352497 0.32355168 -0.26525754 -0.62160444 -0.14550805 -0.24509841 0.29938465 -0.0067637763
0.17311911 0.32274187 0.06278242 0.2361066 0.19706146 0.17705211 0.2779523 0.39548483
0.28487468 0.04883633 0.45405403 -0.09799555 -0.7226221 0.023920247 0.0445664 0.34014493
0.13639957 -0.01578887 0.27155763 0.022966018 0.3051534 0.14598237 -0.14401074 0.07443268
0.043748636 0.13766298 -0.3205725 -0.45242965 -0.010588411 -0.1967535 0.24414478 0.1680107
00000000: f35a f23d 2f3a 8b3e d8d3 673d 6b4e a53e
00000010: 6a97 e33d 6e8a 9d3e 32b8 123e 13b7 2a3e
00000020: 9a08 163e f8a4 4e3d bd74 5abe 3f76 d9bc
00000030: 4c79 06bf d48c 1e3d 98a0 283e 25ef b23e
00000040: e004 ad3e 72b6 46bd 6d68 023e 3c2c 8c3e
00000050: 05bc 903e e50c 863e 07ab 5ebe d59d 3c3e
00000060: b012 72be d8cb ab3e 4195 b3be aa6f e2be
00000070: fb9b 91bc 538a 35be f07a 7b3e 5166 383e
00000080: 171c 1cbe 7205 89bd 1f0a 033e 21ba 52be
00000090: 412f c93b 975c 1f3d ad4f c93d c67e 49be
000000a0: c036 e1bc 8071 5cbe 998b 1a3e e56f 8cbd
000000b0: 7ac1 483d bfe6 64bd 5d7f 6ebd 5bdc a5bd
000000c0: 083b 38bd 6a61 303d 8d08 2fbd ba48 cdbc
000000d0: fb7d 67be 492b 7e3d 5d49 863d 4993 903d
000000e0: 858c 673d 63bf 49be ff1e bfbd 3d1f f23d
000000f0: ac63 40be d319 913d 84a5 5bbe 0458 2cbe
00000100: fc0a bf3e 7ea7 9e3d f8e2 25bd a0bf a13e
00000110: 5477 bd3e d235 c83e 994b 583e 6959 f83d
00000120: 0754 d93e 85cd b73d 95f5 823e 2604 70bd
00000130: 5906 7abf 6a58 bf3d a396 7cbc 7ea4 c83d
00000140: 821e 9f3d 2770 21be ecb5 ad3e ab92 1f3e
00000150: 32dc 7e3e 383d 9d3e 4987 60be 685c 873d
00000160: 7c61 50be b640 a23e 0780 10be 515c 20bf
00000170: 9682 aabd 0d58 68bb f1c1 453e 9b8e a2bc
00000180: 04ab 2cbd 31c2 91bd 70db 27bc c5de b73c
00000190: 7f76 01be 29cc 6f3e 026a b8be c52c 6fbe
000001a0: 9f11 333e d478 14be 3a2f c63d f924 07be
000001b0: e431 3d3f f805 b8be 0226 743d 6793 5fbf
000001c0: 2a95 303d 4fe5 80be 7720 afbe 7315 12bf
000001d0: 5d4a a0bd a0f3 f1bd 57ec bc3d 3c75 0c3c
000001e0: 706a a8bd a24c 0bbf 70a8 d33e d075 013e
000001f0: 63a4 c5bd 8445 20be c940 37be 4bee fb3e
00000200: 2242 853e 72ef 6e3e 8046 d63b 0495 863d
00000210: 5153 a83e 3e52 a03e db32 853e 8fca 2a3e
00000220: 82e3 2c3e 4e8a f13d e386 833e 0b89 4cbe
00000230: fe65 63bf 2b24 a2bd c877 d5bd 5af7 4a3e
00000240: 7599 483e 8ff9 4cbe 82d9 d53d d491 9d3e
00000250: 15f6 c23e 7e9f ef3e 00d4 babd a995 093e
00000260: c6ab 89be da1c c83d f8f3 5dbe e0d3 4cbf
00000270: 9ae8 2bbe d662 6d3c 11db 853e 88bf c73d
00000280: ff8e acbd ed69 84bd dc81 09bd 61ea e8bd
00000290: e947 b03c e246 ddbd d8c9 1ebe 4a0c 83bc
000002a0: f58f 31be 5a7f afbd b601 b93d f44d 873d
000002b0: c7b7 e33d 6aed f6bd 0075 c93a bc7d e5bd
000002c0: 9077 1bbe 87aa cbbd 44c5 d0bb e997 03bd
000002d0: 75f5 0cbe f045 2ebe 5ef1 45be 694b 003e
000002e0: 0770 96bd f33a 89bd cd20 85bd 5114 b5bd
000002f0: 5c8b 25be 63c2 18be cd17 743d 44b3 1e3d
00000300: 2a7a 6e3e 8233 073e 7a46 e73d 04dc 9c3e
00000310: 8eea cc3e 6c27 8a3e 1058 ac3e 43db 813e
00000320: 47db 153e ea03 67bd f6d1 ea3e 4ca0 01be
00000330: 335d 51bf a8aa b5bc 866d a5be ec4a 213e
00000340: 0cac 893e bbcc 53be 0b6d ce3d 2091 5b3e
00000350: 1866 b73e b246 833e ef5e de3b 382c 623e
00000360: 1773 27be 91a8 a53e d6cf 87be 7821 1fbf
00000370: 1000 15be 14fb 7abe f248 993e aba2 ddbb
00000380: 2346 313e 6c3e a53e 1294 803d eec5 713e
00000390: 7bca 493e 264d 353e c44f 8e3e fd7c ca3e
000003a0: 18db 913e 9b08 483d c579 e83e e4b1 c8bd
000003b0: c3fd 38bf 65f4 c33c 428b 363d 7a27 ae3e
000003c0: 54ac 0b3e a957 81bc 9a09 8b3e 3b23 bc3c
000003d0: 113d 9c3e 677c 153e 8d77 13be 2970 983d
000003e0: c531 333d 86f7 0c3e 1422 a4be dca4 e7be
000003f0: 047b 2dbc c079 49be 1701 7a3e ff0a 2c3e

mlp.2.bias f4 [32]
0.29662973 0.01387917 0.32304105 -0.041458357 0.36993614 -0.02426926 0.417494 0.37560606
0.27585852 0.073427886 0.26684105 0.4215871 0.37536505 -0.13327889 0.24532627 0.04016007
0.06660609 0.1812251 0.35364792 0.3132267 -0.035081834 -0.16613449 -0.117161594 -0.0325781
0.13631324 0.09437886 0.0654192 -0.003278407 -0.19270816 -0.03682152 0.3692039 0.3585613
00000000: dadf 973e 7565 633c a365 a53e 3dd0 29bd
00000010: 4568 bd3e 54d0 c6bc c6c1 d53e 704f c03e
00000020: 543d 8d3e 5c61 963d 649f 883e 44da d73e
00000030: d92f c03e 437a 08be cf36 7b3e e37e 243d
00000040: c668 883d 1393 393e 5711 b53e 405f a03e
00000050: f8b1 0fbd 291f 2abe 6bf2 efbd 9d70 05bd
00000060: b395 0b3e b449 c13d 80fa 853d 8bda 56bb
00000070: 4a55 45be 2ad2 16bd 4b08 bd3e 5995 b73e

mlp.4.weight f4 [2, 32]
0.387419 -0.00023919305 0.3213327 -0.59117275 0.25580254 -0.07093153 0.23888265 0.32971346
0.31828865 -0.4955949 0.21584006 0.20693639 0.2645264 -0.036996394 0.3544926 0.15222031
0.14757805 -0.13486502 0.38735795 0.2138608 0.028266674 -0.04759431 0.051465552 -0.028712716
0.23223776 0.18640846 0.1292802 -0.09367778 -0.28855222 -0.0817177 0.3605721 0.36115175
0.08853443 -0.029622681 0.37472206 -0.20046094 0.33861098 -0.095281 0.30922243 0.3295291
0.13794155 -0.106231146 0.38108024 0.3160205 0.31453514 0.060931254 0.12796238 -0.0781741
0.17640962 -0.038881958 0.39310056 0.3870193 -0.019925265 0.012015775 0.0152434185 0.040341154
0.2980383 0.3346751 -0.044966236 -0.032270126 -0.8107166 -0.10930147 0.33284178 0.08414374
00000000: c85b c63e e5cf 7ab9 b885 a43e 1957 17bf
00000010: 8df8 823e 8d44 91bd a79d 743e 34d0 a83e
00000020: bbf6 a23e 9dbe fdbe 2d05 5d3e 22e7 533e
00000030: 0170 873e 8889 17bd 0e80 b53e a4df 1b3e
00000040: b31e 173e 0e1a 0abe c853 c63e 53fe 5a3e
00000050: 838f e73c 40f2 42bd 8bcd 523d ee36 ebbc
00000060: bccf 6d3e dce1 3e3e 0762 043e 23da bfbd
00000070: 1ebd 93be 9c5b a7bd e89c b83e e2e8 b83e
00000080: 8a51 b53d 44ab f2bc 92db bf3e a245 4dbe
00000090: 6b5e ad3e af22 c3bd 6752 9e3e 0ab8 a83e
000000a0: 8d40 0d3e b78f d9bd f31c c33e 70cd a13e
000000b0: c00a a13e 0d93 793d 9208 033e be19 a0bd
000000c0: b9a4 343e b042 1fbd 7a44 c93e 6527 c63e
000000d0: 4f3a a3bc d0dd 443c 88bf 793c c43c 253d
000000e0: 7a98 983e 895a ab3e 842e 38bd ae2d 04bd
000000f0: 208b 4fbf 73d9 dfbd 3d6a aa3e 8e53 ac3d

mlp.4.bias f4 [2]
0.27021512 0.20782058
00000000: a359 8a3e ebce 543e

exp_avg f4 [32, 4]
0.0029891254 0.001473678 -9.325123e-05 -0.0006944507 0.0016507335 0.0010423276 -8.157062e-05 -0.00060750823
0.0 0.0 0.0 0.0 0.0014773763 0.00084989733 -6.22712e-05 -0.00046167095
0.0026141694 0.0012208475 -7.3179435e-05 -0.00053777045 0.0019524725 0.0012663311 -0.00010046 -0.0007538335
0.0027525611 0.0013071668 -7.983116e-05 -0.00058783713 0.002816404 0.0014086613 -9.113835e-05 -0.00067072076
0.0021188948 0.0012514213 -9.28429e-05 -0.00069768314 -0.00044478304 0.00017189932 -4.454869e-05 -0.0002524316
1.0048148e-07 8.721024e-08 -4.7418364e-08 -1.05315046e-07 -1.664975e-23 -2.1608196e-24 3.5068827e-26 -3.172916e-25
-0.008618584 -0.00541906 0.0003734864 0.0028723527 1.2243008e-05 -5.5503035e-05 1.4214587e-05 5.286842e-06
-0.0010319093 -0.00049275527 3.18748e-06 0.0003595364 0.0023544289 0.0011884012 -7.773716e-05 -0.00057063246
0.0019993628 0.0011470248 -8.3772684e-05 -0.0006218019 -0.0017504006 -0.0010397041 8.275264e-05 0.0006457015
0.001936923 0.001075947 -7.657109e-05 -0.00056766614 0.0017430187 0.00090446183 -6.0599243e-05 -0.0004477155
0.0031187201 0.0017549297 -0.0001258702 -0.0009379097 0.0031804924 0.0017063388 -0.000117595344 -0.0008737308
-0.0007282981 -8.832101e-05 6.0543784e-06 -6.7808025e-05 0.0008961943 0.00067629764 -5.8527883e-05 -0.00043970475
1.5076956e-06 4.4530854e-05 -4.597353e-06 -5.9665603e-05 0.00079678994 0.00029212094 -5.3626773e-05 7.4554104e-05
-0.0052114865 -0.0027956811 5.419486e-05 0.0025792643 -0.0046372307 -0.0046149967 0.00036980002 0.0040422296
-6.270691e-05 -0.00014028774 1.6636749e-06 0.00016010967 9.496501e-06 -2.4893814e-05 6.8441473e-06 4.7788086e-05
0.001226824 0.00075765396 -5.8272246e-05 -0.00043548527 -0.00054967357 3.5279973e-05 -3.2382817e-05 -0.0001538436
00000000: 34e5 433b 6e28 c13a df8f c3b8 cc0b 36ba
00000010: 6d5d d83a b69e 883a e510 abb8 3041 1fba
00000020: 0000 0000 0000 0000 0000 0000 0000 0000
00000030: 86a4 c13a a5cb 5e3a 9997 82b8 6d0c f2b9
00000040: 7c52 2b3b d804 a03a e977 99b8 2af9 0cba
00000050: 1bea ff3a 05fb a53a 0dae d2b8 e99c 45ba
00000060: 5064 343b 3d55 ab3a 076b a7b8 1519 1aba
00000070: 6b93 383b d4a2 b83a 8721 bfb8 4fd3 2fba
00000080: 28dd 0a3b bb06 a43a a7b4 c2b8 b9e4 36ba
00000090: c531 e9b9 df3f 3439 cbd9 3ab8 cc58 84b9
000000a0: 47c8 d733 5648 bb33 0ba9 4bb3 8f29 e2b3
000000b0: c906 a199 712f 2798 05a7 2d15 dc64 c496
000000c0: f634 0dbc 5f92 b1bb 7fd0 c339 153e 3c3b
000000d0: 5267 4d37 eecb 68b8 307b 6e37 a165 b136
000000e0: 2141 87ba 3f2c 01ba 7de8 5536 2980 bc39
000000f0: c34c 1a3b 21c4 9b3a d206 a3b8 7f96 15ba
00000100: be07 033b c457 963a 1eaf afb8 6b00 23ba
00000110: b36d e5ba ae46 88ba 7c8b ad38 4b44 293a
00000120: 5ae0 fd3a ca06 8d3a ca94 a0b8 6ecf 14ba
00000130: 0176 e43a 6819 6d3a f12b 7eb8 5bbb eab9
00000140: 7163 4c3b ab05 e63a 06fc 03b9 0ede 75ba
00000150: cf6f 503b 3ba7 df3a 859d f6b8 150b 65ba
00000160: 42eb 3eba fb38 b9b8 b726 cb36 2834 8eb8
00000170: 95ee 6a3a 9149 313a d67b 75b8 2c88 e6b9
00000180: 075c ca35 a4c6 3a38 f642 9ab6 7441 7ab8
00000190: abdf 503a cf27 9939 4fed 60b8 ee59 9c38
000001a0: 1ec5 aabb bf37 37bb 4a4f 6338 e008 293b
000001b0: e9f3 97bb 6639 97bb b8e1 c139 ae74 843b
000001c0: 8481 83b8 341a 13b9 6f4b df35 1de3 2739
000001d0: 2953 1f37 0fd3 d0b7 c7a6 e536 1170 4838
000001e0: 62cd a03a 4c9d 463a 5969 74b8 d851 e4b9
000001f0: f817 10ba 95f9 1338 c9d2 07b8 1451 21b9

exp_avg_sq f4 [32, 4]
0.00024137167 0.0030001658 0.00010900454 0.007040264 0.00022244402 0.002999303 0.00010395467 0.007258428
0.0 0.0 0.0 0.0 0.00013044575 0.0016012946 5.5891778e-05 0.003900746
0.00016581951 0.0025489978 8.636252e-05 0.0061519216 0.00027427688 0.002724056 0.00010468134 0.0065165837
0.00021059303 0.0029929003 0.000106663785 0.00723137 0.000264054 0.0042423583 0.00014144993 0.0101444665
0.00026387052 0.001700077 8.024547e-05 0.004057585 8.158097e-05 0.0009923931 3.729988e-05 0.0025148105
2.5604553e-05 1.1807299e-05 5.496286e-07 1.9452293e-05 5.6607032e-12 1.2675288e-13 5.1730046e-17 4.0550233e-15
0.0018333548 0.001456802 0.00011043394 0.0009935555 1.2367417e-05 0.0007254246 1.6124852e-05 0.0018175292
9.753676e-06 0.00014969544 5.252807e-06 0.0004107428 0.00022954703 0.0042019794 0.0001270737 0.009873977
0.0002012146 0.0026444986 9.487487e-05 0.006392939 0.00012674283 0.0005582984 6.335384e-05 0.0013148854
0.00018138185 0.002213655 7.645292e-05 0.0051550674 0.00017535889 0.0027240522 9.4601426e-05 0.006611307
0.000275483 0.0031581789 0.00013223861 0.007938687 0.0003843077 0.0037254253 0.00014465736 0.008393543
3.0771425e-05 0.00050453143 1.8158795e-05 0.0012641258 0.00011750197 0.001162754 4.340534e-05 0.002794369
1.0632945e-05 0.00025283467 8.488236e-06 0.00064827624 9.498188e-05 0.0024357634 6.864903e-05 0.0056649414
0.00032433835 0.0012920948 7.3030205e-05 0.0032794552 0.0006558161 0.0028540897 0.00026929996 0.006732719
2.3924993e-05 0.00016937937 1.2849892e-05 0.0004374735 1.965657e-05 0.00043341835 1.4442356e-05 0.0010872644
0.00010828979 0.0013885036 5.0869512e-05 0.0035221418 7.347188e-05 0.00065563805 2.2172066e-05 0.0015703536
00000000: b718 7d39 6e9e 443b 5e99 e438 04b2 e63b
00000010: dd3f 6939 f48f 443b 3d02 da38 1bd8 ed3b
00000020: 0000 0000 0000 0000 0000 0000 0000 0000
00000030: 44c8 0839 88e2 d13a 576d 6a38 a9a3 7f3b
00000040: d6df 2d39 160d 273b 861d b538 0f96 c93b
00000050: d2cc 8f39 1386 323b 5e88 db38 1189 d53b
00000060: a3d2 5c39 8924 443b afb0 df38 21f5 ec3b
00000070: ba70 8a39 7b03 8b3b 2d52 1439 fa34 263c
00000080: 1a58 8a39 1ed5 de3a 7549 a838 7df5 843b
00000090: 7316 ab38 3013 823a 7172 1c38 85cf 243b
000000a0: 5cc9 d637 f717 4637 318a 1335 7b2d a337
000000b0: 152b c72c 08b6 0e2a 0f90 6e24 fd18 9227
000000c0: 2e4d f03a 2af2 be3a c598 e738 313a 823a
000000d0: a77d 4f37 6c2a 3e3a db43 8737 293a ee3a
000000e0: b8a3 2337 90f7 1c39 4541 b036 f758 d739
000000f0: 90b2 7039 c2b0 893b 163f 0539 76c6 213c
00000100: 22fd 5239 534f 2d3b 8ff7 c638 dc7b d13b
00000110: 45e6 0439 c55a 123a d5dc 8438 3c58 ac3a
00000120: 5231 3e39 f812 113b 5955 a038 d7eb a83b
00000130: 8be0 3739 0386 323b c164 c638 aaa3 d83b
00000140: b46e 9039 73f9 4e3b 88a9 0a39 4411 023c
00000150: e87c c939 4426 743b 2aaf 1739 1285 093c
00000160: 9110 0138 8842 043a b753 9837 06b1 a53a
00000170: 646b f638 8d67 983a 210e 3638 bb21 373b
00000180: 2764 3237 e58e 8439 b268 0e37 15f1 293a
00000190: 0231 c738 54a1 1f3b abf7 8f38 f9a0 b93b
000001a0: f50b aa39 825b a93a cb27 9938 21ec 563b
000001b0: 13eb 2b3a ae0b 3b3b d430 8d39 249e dc3b
000001c0: 88b2 c837 6e9b 3139 de95 5737 b35c e539
000001d0: 2ae4 a437 6d3c e339 724d 7237 8a82 8e3a
000001e0: a319 e338 73fe b53a b95c 5538 bcd3 663b
000001f0: ea14 9a38 20df 2b3a 26fe b937 53d4 cd3a

exp_avg f4 [32]
-0.0028147274 -0.0022627036 0.0 -0.0017770791 -0.0022744879 -0.0027641356 -0.002458656 -0.0027396
-0.0026182407 -0.00069995446 4.796279e-07 7.866465e-24 0.008329465 0.00039693672 0.00070114376 -0.0023288126
-0.002389935 0.0015373142 -0.002208916 -0.0017924088 -0.003610249 -0.003431588 0.0008037561 -0.0015594951
6.111422e-05 -0.0012309244 0.004890183 0.0033049146 0.00017199673 -8.609303e-05 -0.0016245822 -0.0007016239
00000000: 4a77 38bb de49 14bb 0000 0000 e1ec e8ba
00000010: 930f 15bb 8026 35bb 6721 21bb dc8a 33bb
00000020: ca96 2bbb 267d 37ba c7bf 0035 d928 1819
00000030: 4f78 083c f21b d039 f6cc 373a fe9e 18bb
00000040: 75a0 1cbb b47f c93a 76c3 10bb 42ef eaba
00000050: ed99 6cbb 7ee4 60bb 29b3 523a f967 ccba
00000060: 722a 8038 f856 a1ba d43d a03b 4497 583b
00000070: 055a 3439 d88c b4b8 efef d4ba 2fed 37ba

exp_avg_sq f4 [32]
0.0049035037 0.00492055 0.0 0.0024788666 0.004064235 0.004787715 0.004943489 0.0068757995
0.0032621843 0.0013888167 3.8778773e-05 1.3020972e-12 0.003404308 0.0006780879 0.00015278895 0.0068061645
0.0043671313 0.0017452198 0.004111724 0.0044555347 0.0059290486 0.007994454 0.00045541974 0.0018262652
0.00016351377 0.004128337 0.0018650343 0.006397014 0.00028971143 0.00029606948 0.00196377 0.0011970818
00000000: 92ad a03b 913c a13b 0000 0000 7b74 223b
00000010: 462d 853b 44e2 9c3b fefc a13b 634e e13b
00000020: 5fca 553b f508 b63a 64a6 2238 ff40 b72b
00000030: d01a 5f3b b5c1 313a f935 2039 3f06 df3b
00000040: 271a 8f3b dcbf e43a a4bb 863b bcff 913b
00000050: 7748 c23b 2cfb 023c 67c5 ee39 4b5f ef3a
00000060: e574 2b39 0047 873b 2b74 f43a 0b9e d13b
00000070: 69e4 9739 c639 9b39 98b2 003b 66e7 9c3a

exp_avg f4 [32, 32]
-0.00033670707 0.00012614293 0.0 -0.00018272722 -0.0002496901 -4.2769767e-05 -7.944759e-05 9.232704e-05
-0.00023482053 -0.0003231396 8.853493e-09 1.3340235e-24 0.00025241447 -0.00022108495 -8.630882e-06 1.5431491e-05
9.1611684e-05 4.6806304e-05 -0.00018418123 -0.0001860691 0.0002991161 -0.00036957386 -1.1521223e-05 -5.6855682e-05
-2.2679803e-06 -0.0003589204 -2.987427e-05 -0.00021538006 -3.130124e-06 -7.415028e-05 9.954146e-05 -0.000279178
6e-45 6e-45 0.0 6e-45 6e-45 6e-45 6e-45 6e-45
6e-45 6e-45 0.0 0.0 6e-45 6e-45 6e-45 6e-45
6e-45 6e-45 6e-45 6e-45 6e-45 6e-45 6e-45 6e-45
6e-45 6e-45 6e-45 6e-45 6e-45 6e-45 6e-45 6e-45
-0.00037894238 -0.0009769017 0.0 -0.00022835561 -0.00055966334 -0.00071419805 -0.0006710489 -0.0009383248
-0.00046463546 -0.00015483324 8.521817e-09 1.1079906e-24 -0.0005062438 -7.047052e-05 -3.6634716e-05 -0.00060766994
-0.00067181507 -0.0004803197 -0.00026242755 -0.00019683037 -0.0011911464 -0.00039970907 -2.713365e-05 -0.00060656614
-1.8788435e-06 -8.5843334e-05 -0.00062723074 -0.00043126405 -1.3237427e-05 -5.783287e-05 -0.0008234472 -0.00016044923
-1.6368315e-20 -8.462219e-20 0.0 -2.740441e-20 -1.9415448e-20 -9.406471e-20 -4.34528e-20 -6.1404835e-20
-7.644093e-20 -5.4856445e-21 0.0 0.0 -1.7473684e-19 1.0142614e-22 -4.5196858e-21 -2.0306458e-20
-7.4572135e-20 -1.8919475e-20 -8.528892e-21 -2.7292113e-22 -1.5103417e-19 -1.9933659e-20 -1.0922938e-20 -7.1623456e-20
1.0023763e-34 1.189125e-22 -6.760537e-20 1.0851669e-22 3.845219e-27 8.677182e-26 -8.7490855e-20 -2.7175387e-20
-0.0003150127 -0.0009213957 0.0 -0.00019201606 -0.00049244735 -0.0006587431 -0.000614685 -0.0008818991
-0.00040580012 -0.00010824438 6.970433e-09 9.067057e-25 -0.00049806054 -4.1245436e-05 -3.3096072e-05 -0.0005662418
-0.00063420244 -0.0004514573 -0.00022352874 -0.00016238009 -0.0011395396 -0.0003306969 -2.3903936e-05 -0.0005571929
-1.4988627e-06 -4.029299e-05 -0.00057956623 -0.00037713288 -1.19545775e-05 -4.5621582e-05 -0.0007758745 -0.00011835957
6e-45 6e-45 0.0 6e-45 6e-45 6e-45 6e-45 6e-45
6e-45 6e-45 0.0 0.0 6e-45 0.0 0.0 6e-45
6e-45 0.0 6e-45 6e-45 6e-45 6e-45 6e-45 6e-45
6e-45 6e-45 0.0 0.0 0.0 6e-45 6e-45 0.0
-0.00029184404 -0.0008351351 0.0 -0.00017751567 -0.0004516212 -0.0005992844 -0.00055986573 -0.00079981575
-0.00037264326 -0.00010373084 6.4823116e-09 8.490329e-25 -0.0004483741 -4.116849e-05 -3.0219946e-05 -0.0005142663
-0.0005747542 -0.00040945708 -0.00020617554 -0.00015064124 -0.0010304922 -0.0003066425 -2.1909394e-05 -0.00050724065
-1.4000719e-06 -4.258979e-05 -0.0005271689 -0.0003462921 -1.0915345e-05 -4.269686e-05 -0.0007033473 -0.00011219668
-0.00037067177 -0.0008041747 0.0 -0.00022028078 -0.0005097296 -0.0006084628 -0.0005777109 -0.00077684317
-0.00042737296 -0.00017968031 8.538828e-09 1.1434098e-24 -0.0003882654 -9.311926e-05 -3.220191e-05 -0.0005098418
-0.00055230636 -0.00039777244 -0.00024923 -0.00019422531 -0.0009584716 -0.00039318294 -2.4603174e-05 -0.00051988015
-1.930451e-06 -0.00012702611 -0.00053334044 -0.00039639423 -1.1635217e-05 -6.0067505e-05 -0.00067886675 -0.00017775428
00000000: 0f88 b0b9 3c45 0439 0000 0000 779a 3fb9
00000010: d7e8 82b9 b063 33b8 1a9d a6b8 b49f c138
00000020: 283a 76b9 106b a9b9 131a 1832 1e6e ce17
00000030: 7f56 8439 0ad3 67b9 5bcd 10b7 e072 8137
00000040: a61f c038 e351 4438 c620 41b9 8b1b 43b9
00000050: afd2 9c39 5dc3 c1b9 474b 41b7 5378 6eb8
00000060: 9b33 18b6 7b2d bcb9 829a fab7 a5d7 61b9
00000070: 1f0f 52b6 2181 9bb8 eac0 d038 a35e 92b9
00000080: 0400 0000 0400 0000 0000 0000 0400 0000
00000090: 0400 0000 0400 0000 0400 0000 0400 0000
000000a0: 0400 0000 0400 0000 0000 0000 0000 0000
000000b0: 0400 0000 0400 0000 0400 0000 0400 0000
000000c0: 0400 0000 0400 0000 0400 0000 0400 0000
000000d0: 0400 0000 0400 0000 0400 0000 0400 0000
000000e0: 0400 0000 0400 0000 0400 0000 0400 0000
000000f0: 0400 0000 0400 0000 0400 0000 0400 0000
00000100: c9ac c6b9 620b 80ba 0000 0000 be72 6fb9
00000110: 5fb6 12ba 0539 3bba 54e9 2fba e9f9 75ba
00000120: 519a f3b9 bb5a 22b9 5967 1232 0874 ab17
00000130: 72b5 04ba 93c9 93b8 3aa8 19b8 0a4c 1fba
00000140: bf1c 30ba 6bd3 fbb9 6e96 89b9 4064 4eb9
00000150: 3e20 9cba 0b90 d1b9 129d e3b7 f701 1fba
00000160: 922c fcb5 ca06 b4b8 be6c 24ba 481b e2b9
00000170: 5116 5eb7 9291 72b8 9bdc 57ba 433e 28b9
00000180: 2898 9a9e face c79f 0000 0000 e669 019f
00000190: ac5f b79e a11a de9f 3633 4d9f f2fc 909f
000001a0: b57d b49f e63d cf9d 0000 0000 0000 0000
000001b0: f84a 4ea0 bd3b f51a b8bf aa9d 01ca bf9e
000001c0: 1714 b09f 7cb0 b29e 311b 219e 80f8 a49b
000001d0: 474f 32a0 a144 bc9e 1654 4e9e b91d a99f
000001e0: 193d 0507 a3c1 0f1b f0a0 9f9f 4a30 031b
000001f0: 2753 9813 2dd6 d615 fa94 ce9f 0755 009f
00000200: 4a28 a5b9 d289 71ba 0000 0000 eb57 49b9
00000210: 9517 01ba 80af 2cba d022 21ba 3f2f 67ba
00000220: 92c1 d4b9 4201 e3b8 9480 ef31 504e 8c17
00000230: 4790 02ba f3fe 2cb8 a3d0 0ab8 d86f 14ba
00000240: 9b40 26ba 93b1 ecb9 0a63 6ab9 9344 2ab9
00000250: 9b5c 95ba 6361 adb9 5085 c8b7 9510 12ba
00000260: 882c c9b5 4500 29b8 08ee 17ba ebb9 c5b9
00000270: 8590 48b7 cd59 3fb8 0e64 4bba cf37 f8b8
00000280: 0400 0000 0400 0000 0000 0000 0400 0000
00000290: 0400 0000 0400 0000 0400 0000 0400 0000
000002a0: 0400 0000 0400 0000 0000 0000 0000 0000
000002b0: 0400 0000 0000 0000 0000 0000 0400 0000
000002c0: 0400 0000 0000 0000 0400 0000 0400 0000
000002d0: 0400 0000 0400 0000 0400 0000 0400 0000
000002e0: 0400 0000 0400 0000 0000 0000 0000 0000
000002f0: 0000 0000 0400 0000 0400 0000 0000 0000
00000300: a502 99b9 f8ec 5aba 0000 0000 8023 3ab9
00000310: 92c7 ecb9 4c19 1dba f4c3 12ba baaa 51ba
00000320: 555f c3b9 128a d9b8 04bb de31 a961 8317
00000330: c113 ebb9 54ac 2cb8 d780 fdb7 d4cf 06ba
00000340: 1aab 16ba 66ac d6b9 d330 58b9 73f5 1db9
00000350: 9511 87ba dcc4 a0b9 11ca b7b7 58f8 04ba
00000360: 1bea bbb5 70a2 32b8 b531 0aba 8a8e b5b9
00000370: 0d21 37b7 6815 33b8 d760 38ba 224b ebb8
00000380: b956 c2b9 40cf 52ba 0000 0000 2cfb 66b9
00000390: 609f 05ba 3f81 1fba 8671 17ba 10a5 4bba
000003a0: 0711 e0b9 9168 3cb9 2ab2 1232 21ef b017
000003b0: 1a90 cbb9 0649 c3b8 8a10 07b8 e7a6 05ba
000003c0: a7c8 10ba 1d8c d0b9 16ab 82b9 f6a8 4bb9
000003d0: f141 7bba 1f24 ceb9 ea62 ceb7 9148 08ba
000003e0: e58c 01b6 5032 05b9 dfcf 0bba 22d3 cfb9
000003f0: e034 43b7 fef0 7bb8 faf5 31ba 8d63 3ab9

exp_avg_sq f4 [32, 32]
0.00015667338 0.00016405652 0.0 4.372935e-05 0.00016196826 0.00011608568 0.00013755793 0.0001918374
8.921229e-05 8.890436e-05 7.7133575e-07 6.4241926e-14 3.676535e-05 0.00025902834 0.00012693396 0.00010201893
6.22631e-05 3.4643086e-05 5.116605e-05 5.0386006e-05 0.00012735333 0.00018369684 0.0001633036 0.000117417396
1.8316525e-05 6.322992e-05 5.795907e-05 0.0001325124 0.00021635168 0.00017953957 0.00012700939 1.17998425e-05
2.9774355e-07 1.5868347e-06 0.0 6.891966e-08 1.0628049e-06 9.01086e-07 3.875292e-07 5.181236e-07
7.574176e-07 3.9222797e-07 0.0 0.0 2.4710705e-09 1.00377155e-08 1.947538e-10 1.3132751e-07
1.0022557e-07 1.560753e-11 1.7544771e-07 2.1789293e-07 3.7309374e-07 3.8403581e-07 2.6899707e-07 3.1280435e-06
4.563198e-08 5.0200355e-09 1.1859171e-11 1.9233738e-11 1.9362025e-09 3.420743e-07 1.5793332e-06 1.414026e-12
0.0002522811 0.0004284588 0.0 0.000111571724 0.0003729232 0.00029381106 0.00026814037 0.00034713137
0.00020149446 0.00025125142 1.6409076e-06 4.4318736e-14 4.5305707e-05 0.00029545312 0.00013347887 0.00018613347
0.00013095494 4.219694e-05 8.568848e-05 0.00012720477 0.00019036751 0.00028903698 0.00040986357 0.00033651758
4.69516e-05 9.3359165e-05 6.20315e-05 0.00016887957 0.0002298987 0.00047838443 0.00033334875 1.687333e-05
1.7505606e-06 7.843612e-06 0.0 1.6457416e-06 2.1400554e-06 1.1110342e-05 2.770324e-06 3.965344e-06
8.012512e-06 1.097406e-06 0.0 0.0 2.4647554e-05 1.5694434e-08 1.1737059e-09 8.389087e-07
5.046417e-06 6.0343075e-07 5.279768e-07 1.375259e-07 1.6990212e-05 2.1714666e-06 6.0888135e-07 6.797267e-06
1.0206577e-09 5.6531167e-08 1.2716467e-06 2.6452376e-10 5.0075717e-09 4.245523e-09 9.440173e-06 1.618579e-06
0.00015836052 0.0002764663 0.0 7.489412e-05 0.00023873313 0.00019386061 0.00017156938 0.00022126976
0.00013287032 0.00016983402 1.2656463e-06 2.9680675e-14 3.2955344e-05 0.00018077863 7.824892e-05 0.00012164265
8.6293476e-05 2.7199292e-05 5.6249948e-05 8.4268235e-05 0.00012220991 0.00018162811 0.0002756646 0.00021854181
3.1562e-05 6.134619e-05 3.7990838e-05 0.000108488435 0.00013608395 0.0003237352 0.00022153661 1.1853377e-05
2.4958851e-08 7.1719495e-07 0.0 1.5532436e-08 3.5395286e-07 5.081251e-07 6.590974e-08 1.0065657e-07
4.1697143e-07 2.9893843e-07 0.0 0.0 3.873672e-09 0.0 0.0 1.4086092e-08
1.7382808e-08 0.0 5.6663147e-08 7.1912794e-08 1.1482459e-07 1.9989594e-08 2.578626e-07 2.3511764e-06
6.07474e-08 1.5856315e-12 0.0 0.0 0.0 2.97525e-07 1.3724089e-06 0.0
0.00013285317 0.00022143494 0.0 6.0595903e-05 0.00019366802 0.00015553948 0.00014164897 0.00018420475
0.000107871725 0.00013606496 1.0630139e-06 2.6023227e-14 2.8128692e-05 0.00015906186 6.961128e-05 0.00010198572
7.0780356e-05 2.3930788e-05 4.7550588e-05 6.837336e-05 0.00010318739 0.00015304425 0.00022416841 0.00017274315
2.5625965e-05 5.2538104e-05 3.3997367e-05 9.568913e-05 0.000120901415 0.0002632347 0.00017704823 1.0094443e-05
0.00024425707 0.00039261862 0.0 0.00010197271 0.00034649775 0.00026779348 0.00025346386 0.00033098273
0.00018535803 0.00022758916 1.383091e-06 4.719304e-14 4.132617e-05 0.00030283234 0.00014031216 0.00017661939
0.00012191578 4.223587e-05 8.20754e-05 0.00011677388 0.0001837465 0.0002808777 0.00037897524 0.00030455852
4.338613e-05 9.058817e-05 6.441705e-05 0.0001686616 0.00024031862 0.00044067268 0.0003029224 1.5725333e-05
00000000: b148 2439 9606 2c39 0000 0000 086a 3738
00000010: 06d6 2939 0673 f338 6d3d 1039 f627 4939
00000020: 7c17 bb38 2a72 ba38 ca0d 4f35 f3a8 9029
00000030: 7e34 1a38 32ce 8739 9319 0539 fff2 d538
00000040: 3f93 8238 bb4d 1138 219b 5638 9055 5338
00000050: 268a 0539 bf9e 4039 7a3c 2b39 fc3d f638
00000060: 70a6 9937 4e9a 8438 1419 7338 07f3 0a39
00000070: 76dc 6239 c942 3c39 d32d 0539 f0f7 4537
00000080: 90d9 9f34 3afb d435 0000 0000 fc00 9433
00000090: b3a5 8e35 29e2 7135 9c0d d034 2f15 0b35
000000a0: 5751 4b35 6793 d234 0000 0000 0000 0000
000000b0: 88cf 2931 5772 2c32 5222 562f 0803 0d34
000000c0: 973b d733 0849 892d b362 3c34 f4f5 6934
000000d0: 9d4d c834 7b2d ce34 ad6a 9034 61eb 5136
000000e0: e5fc 4333 b37c ac31 f5a0 502d 872e a92d
000000f0: 090e 0531 55a6 b734 7af9 d335 a801 c72b
00000100: 9944 8439 c4a2 e039 0000 0000 9dfb e938
00000110: e884 c339 a70a 9a39 3195 8c39 2fff b539
00000120: 4248 5339 65ba 8339 283d dc35 0698 4729
00000130: a206 3e38 0ce7 9a39 76f6 0b39 d32c 4339
00000140: f350 0939 9ffc 3038 a7b3 b338 4562 0539
00000150: 649d 4739 e389 9739 f5e2 d639 a06e b039
00000160: e6ed 4438 d2c9 c338 e816 8238 4415 3139
00000170: f610 7139 accf fa39 50c5 ae39 338b 8d37
00000180: cef4 ea35 0f98 0337 0000 0000 40e3 dc35
00000190: df9d 0f36 8e66 3a37 cee9 3936 0c0e 8536
000001a0: 7a6d 0637 954a 9335 0000 0000 0000 0000
000001b0: 38c2 ce37 6dd0 8632 1b50 a130 5e31 6135
000001c0: 6454 a936 72fb 2135 4aba 0d35 d5aa 1334
000001d0: 3486 8e37 83b9 1136 0272 2335 1414 e436
000001e0: 3347 8c30 adcc 7233 73ad aa35 696c 912f
000001f0: 110f ac31 04e0 9131 3c61 1e37 f33d d935
00000200: 940d 2639 aef2 9039 0000 0000 7910 9d38
00000210: 7054 7a39 1047 4b39 4ee7 3339 a604 6839
00000220: 1b53 0b39 7915 3239 47df a935 7dab 0529
00000230: 8839 0a38 658f 3d39 9219 a438 671a ff38
00000240: 75f8 b438 092a e437 eced 6b38 2ab9 b038
00000250: 7925 0039 6d73 3e39 1487 9039 5f28 6539
00000260: 7061 0438 fca6 8038 5a58 1f38 4984 e338
00000270: c2b1 0e39 01bb a939 484c 6839 dedd 4637
00000280: 1865 d632 4385 4035 0000 0000 306c 8532
00000290: e906 be34 1766 0835 438a 8d33 8928 d833
000002a0: 1edc df34 c97d a034 0000 0000 0000 0000
000002b0: 2e19 8531 0000 0000 0000 0000 4aff 7132
000002c0: 3351 9532 0000 0000 ca5d 7333 7a6e 9a33
000002d0: 7c95 f633 95b5 ab32 5e70 8a34 e7c8 1d36
000002e0: 3d74 8233 6528 df2b 0000 0000 0000 0000
000002f0: 0000 0000 86bb 9f34 9c33 b835 0000 0000
00000300: 804e 0b39 fd30 6839 0000 0000 5b28 7e38
00000310: 5d13 4b39 5018 2339 9b87 1439 1627 4139
00000320: 3139 e238 a9ac 0e39 e1ac 8e35 7a65 ea28
00000330: e8f5 eb37 d8c9 2639 45fc 9138 2be1 d538
00000340: ea6f 9438 fabe c837 0e71 4738 ab63 8f38
00000350: 4f66 d838 817a 2039 c00e 6b39 6322 3539
00000360: 57f7 d637 5c5c 5c38 6598 0e38 b6ac c838
00000370: 748c fd38 c302 8a39 06a6 3939 4d5b 2937
00000380: a10f 8039 61d8 cd39 0000 0000 2fda d538
00000390: 24aa b539 a266 8c39 58e3 8439 c087 ad39
000003a0: ab5c 4239 00a5 6e39 a5a2 b935 df89 5429
000003b0: a355 2d38 78c5 9e39 c220 1339 e832 3939
000003c0: 09ad ff38 6c26 3138 e51f ac38 80e4 f438
000003d0: 13ac 4039 c442 9339 32b1 c639 27ad 9f39
000003e0: 81f9 3538 27fa bd38 a417 8738 c1da 3039
000003f0: 0afe 7b39 160a e739 8ed1 9e39 e5e9 8337

exp_avg f4 [32]
-0.00026991693 6e-45 -0.000863267 -5.328379e-20 -0.00077222777 6e-45 -0.0007061788 -0.00076868205
-0.00035989512 0.00030801157 -0.00085368054 -0.0007132652 -0.00072281354 6.6900547e-25 -0.0003465403 6e-45
0.0 0.00010452662 -0.0009160505 -0.0008658477 2.8523967e-23 0.0 6e-45 6e-45
-0.0006812255 -0.00074913696 6e-45 6e-45 1.4675673e-17 6e-45 -0.00078275346 -0.00025502485
00000000: a383 8db9 0400 0000 de4c 62ba 26a0 7b9f
00000010: 546f 4aba 0400 0000 db1e 39ba 6181 49ba
00000020: 4eb0 bcb9 9d7c a139 88c9 5fba 6bfa 3aba
00000030: 327b 3dba 130c 4f17 daaf b5b9 0400 0000
00000040: 0000 0000 4d35 db38 1c23 70ba 0efa 62ba
00000050: f6ee 091a 0000 0000 0400 0000 0400 0000
00000060: 4594 32ba bb61 44ba 0400 0000 0400 0000
00000070: f45b 8723 0400 0000 b231 4dba dbb4 85b9

exp_avg_sq f4 [32]
0.00032618857 7.966421e-06 0.0008660811 8.97448e-06 0.00052902283 4.18672e-06 0.00041635212 0.0007969515
0.0003555574 0.00019708599 0.00037565452 0.00024510594 0.00033732233 1.6378273e-06 0.00038632355 1.9289988e-08
0.0 2.7319837e-05 0.0010414621 0.0005451207 4.6118753e-06 0.0 3.1177916e-07 4.707648e-07
0.000550652 0.00033610192 2.4120243e-07 1.30740755e-05 0.00015299828 2.8232769e-06 0.00086326106 0.00030531758
00000000: 4a04 ab39 85a7 0537 b809 633a 1991 1637
00000010: 1fae 0a3a a77b 8c36 d649 da39 83ea 503a
00000020: 1b6a ba39 dea8 4e39 7ff3 c439 9081 8039
00000030: a3da b039 51d3 db35 788b ca39 22b3 a532
00000040: 0000 0000 e72c e537 ab81 883a 6ee6 0e3a
00000050: b5bf 9a36 0000 0000 9a62 a734 6cbd fc34
00000060: a159 103a d636 b039 9c7e 8134 ba58 5b37
00000070: 2a6e 2039 8777 3d36 784c 623a 0813 a039

exp_avg f4 [2, 32]
-5.4762135e-05 -6e-45 -0.0016278207 4.3301706e-20 -0.0004206517 -6e-45 -0.0002641578 0.00012573386
-1.851872e-05 0.0006037514 -0.0005273796 0.00011665547 -6.562298e-05 -3.3966307e-25 -6.633037e-05 -6e-45
0.0 -0.0010497617 -0.0003492707 -0.00030039746 4.411715e-24 0.0 -6e-45 -6e-45
-0.00048693342 -0.0010955152 -6e-45 -6e-45 -1.1904994e-17 -6e-45 -0.0011105841 -0.00032796306
-0.0049799155 -6e-45 -0.0025028146 2.4030284e-19 -0.0043183207 -6e-45 -0.004810782 -0.005418936
-0.006430261 -0.0050708717 -0.0024419213 -0.003505482 -0.0041513187 2.0488318e-25 -0.0057223127 -6e-45
0.0 -0.00035879193 -0.004581981 -0.004034944 -2.8481192e-23 0.0 -6e-45 -6e-45
-0.004238829 -0.0024778803 -6e-45 -6e-45 6.7009374e-19 -6e-45 -0.0034451575 -0.00375673
00000000: 65b0 65b8 0400 0080 995c d5ba 8d7c 4c1f
00000010: ea8a dcb9 0400 0080 a97e 8ab9 6dd7 0339
00000020: a658 9bb7 1245 1e3a d93f 0aba eea4 f438
00000030: 129f 89b8 c33d d296 d91a 8bb8 0400 0080
00000040: 0000 0000 2898 89ba 521e b7b9 aa7e 9db9
00000050: 82ab aa18 0000 0000 0400 0080 0400 0080
00000060: 194b ffb9 6497 8fba 0400 0080 0400 0080
00000070: bf9b 5ba3 0400 0080 0591 91ba 75f2 abb9
00000080: 8f2e a3bb 0400 0080 4306 24bb 8ad9 8d20
00000090: b380 8dbb 0400 0080 c4a3 9dbb 5491 b1bb
000000a0: f0b4 d2bb 8e29 a6bb a408 20bb 3bbc 65bb
000000b0: c907 88bb 12a2 7d16 3d82 bbbb 0400 0080
000000c0: 0000 0000 3d1c bcb9 7124 96bb 9037 84bb
000000d0: 02ba 099a 0000 0000 0400 0080 0400 0080
000000e0: e0e5 8abb ef63 22bb 0400 0080 0400 0080
000000f0: dac6 4521 0400 0080 27c8 61bb 7833 76bb

exp_avg_sq f4 [2, 32]
0.010670274 8.862779e-06 0.012746651 3.763368e-05 0.012158524 1.6319471e-07 0.012786123 0.01312993
0.016804004 0.0018510382 0.0048035826 0.0036441153 0.0071542263 4.4563367e-06 0.014432259 1.4420357e-09
0.0 0.0005780472 0.012224235 0.010945065 9.780444e-06 0.0 1.1277732e-06 3.452483e-07
0.016027814 0.00789678 9.0700087e-07 3.2475818e-06 0.0017150115 4.249864e-08 0.014135247 0.005709041
0.011747098 1.4227784e-05 0.01629314 3.0891548e-05 0.017739188 2.063451e-07 0.01799425 0.015839722
0.022290867 0.0031977699 0.0076266294 0.0050894986 0.010521024 6.884196e-06 0.017785665 4.051561e-09
0.0 0.00083084893 0.015073994 0.013991401 1.4858503e-05 0.0 1.7282931e-06 5.635063e-07
0.021175927 0.012175251 1.4292541e-06 5.169123e-06 0.0010722822 9.9609004e-08 0.018862229 0.008762311
00000000: 5fd2 2e3c 59b1 1437 54d7 503c dbd8 1d38
00000010: 8c34 473c 9f3a 2f34 e37c 513c eb1e 573c
00000020: 8da8 893c 899e f23a 5f67 9d3b 1cd2 6e3b
00000030: 006e ea3b a487 9536 4875 6c3c 1f31 c630
00000040: 0000 0000 1788 173a 2848 483c ee52 333c
00000050: b016 2437 0000 0000 fe5d 9735 915a b934
00000060: c34c 833c 7f61 013c a078 7335 08f1 5936
00000070: 3dca e03a c087 3633 8697 673c e812 bb3b
00000080: e676 403c deb3 6e37 3179 853c 8c91 0138
00000090: c651 913c b68f 5d34 ad68 933c 4ec2 813c
000000a0: 569b b63c ad91 513b cee8 f93b cfc5 a63b
000000b0: 6060 2c3c cbfe e636 3eb3 913c e835 8b31
000000c0: 0000 0000 54cd 593a eaf8 763c 303c 653c
000000d0: c948 7937 0000 0000 b3f7 e735 dc43 1735
000000e0: 2379 ad3c b47a 473c ccd4 bf35 6e72 ad36
000000f0: d28b 8c3a a1e8 d533 f684 9a3c cc8f 0f3c

exp_avg f4 [2]
-0.00021544547 -0.002120802
00000000: 34e9 61b9 27fd 0abb

exp_avg_sq f4 [2]
0.0039909063 0.004475882
00000000: 26c6 823b 6baa 923b
