_models/CartPole-v1_actor.pt (torch, 6894 bytes, 12 tensors)

mlp.0.weight f4 [16, 4]
000000 af 72 a9 be 43 10 2e bf 52 0a 23 c0 89 7c 76 bf
       -0.3309531 -0.67993563 -2.547505 -0.96283776
000010 a9 98 7e bd 53 0f a6 3c ec e4 63 bc ba 70 7f 3e
       -0.062157307 0.020270979 -0.01390956 0.24945346
000020 3c 4a 22 3e eb 4b 97 3e a7 7b 7a 3f b8 13 02 3e
       0.1584863 0.29550108 0.9784493 0.12702835
000030 60 07 91 3e 59 e9 55 3e 66 83 85 be fb d3 3c bf
       0.2832594 0.20889796 -0.26076812 -0.73760957
000040 9a 43 08 bd 2a fc 79 3f 3b e4 24 40 92 2b 44 3f
       -0.033267595 0.97650397 2.57643 0.76628983
000050 fc 84 f6 3d 11 3b 93 3b 23 56 f0 be 42 61 04 bd
       0.120370835 0.0044931252 -0.46940717 -0.032319315
000060 d2 0c ba be 05 72 37 bf 9e e9 69 3f e2 c4 fb 3e
       -0.36337906 -0.71658355 0.91372097 0.49173647
000070 58 ef 10 be 0c c8 e8 3d 2c bc 79 bf e4 17 76 bf
       -0.14153802 0.11366281 -0.9755275 -0.96130204
000080 12 15 cf 3c 15 f9 93 bf 90 7b c8 bf 44 32 83 bf
       0.025278602 -1.1560389 -1.5662708 -1.0249715
000090 99 80 df 3d 41 9b 9f be 30 1c 76 bf e6 c3 70 bf
       0.109132 -0.31173137 -0.9613676 -0.9404892
0000a0 34 a5 eb 3e 45 4d c8 3e e4 0f 27 bf d7 1f c1 bd
       0.46024477 0.39121452 -0.6525862 -0.09429901
0000b0 2e 88 94 bc 99 31 a3 bf 9d 57 fd bf ee 37 70 bf
       -0.018131342 -1.2749511 -1.9792362 -0.9383534
0000c0 c1 af b9 bd aa ae 7c 3f 21 ad 25 40 01 fb a8 3f
       -0.090667255 0.98704016 2.588692 1.32016
0000d0 71 78 29 be 8b 54 86 bf 71 4d 92 bf 48 1e 4b bf
       -0.16549851 -1.049455 -1.1429883 -0.7934308
0000e0 3c 28 36 3e 59 b1 ac be 3e d0 14 bf f4 02 ff bd
       0.17788786 -0.33729056 -0.5813025 -0.12451735
0000f0 68 5f 2d 3d e6 e7 18 3e 8d aa bc bf 45 91 40 bf
       0.042327315 0.14932212 -1.4739548 -0.75221664

mlp.0.bias f4 [16]
000000 ec f2 f4 3e 7f 42 bc be a2 40 53 be 0c 16 ea be
       0.47841585 -0.36769482 -0.20630124 -0.45719945
000010 31 4c 4b 3e 3e a8 ea be 29 2c 2e be 69 d4 7d bd
       0.19853283 -0.45831484 -0.17009033 -0.06197015
000020 6d 39 d7 3e ad 4a 75 be a1 5e 64 be ff e5 f4 3e
       0.42036 -0.23954268 -0.22301723 0.47831723
000030 fe 0a de 3e a9 a8 f6 3e ef 4e 6a bf 0f 0f 92 be
       0.4336776 0.48175552 -0.91526693 -0.28527114

mlp.2.weight f4 [2, 16]
000000 83 45 82 3f ad e5 da 3d 4a 09 30 3d 63 4a e3 bd
       1.0177463 0.106883384 0.04297761 -0.110981725
000010 d2 54 35 bf 9a 52 b8 bd 86 b8 27 bf ca 5a 9f 3d
       -0.7083255 -0.0900013 -0.65515935 0.077809885
000020 28 45 5f 3f ba ab 64 3e 36 18 c5 bd fb 39 9c 3f
       0.872149 0.22331133 -0.096237585 1.2205194
000030 e1 00 75 bf f7 af 1c 3f 77 11 86 be f9 ad 88 3e
       -0.95704466 0.61206 -0.261852 0.2669523
000040 32 32 67 bf 1c 06 a8 bd b9 48 08 3e fd a8 46 bd
       -0.90310967 -0.0820429 0.13308991 -0.048501004
000050 36 1b 10 3f 21 06 8c bd 69 3e 8c 3e 0f c3 7c be
       0.5629152 -0.068371065 0.27391365 -0.24683784
000060 24 48 10 bf f8 1b e5 3d d2 21 b0 3d 92 db 93 bf
       -0.5636008 0.11186975 0.08600201 -1.1551383
000070 e6 ce 92 3f 25 bb ca be 25 21 20 bc 71 2c ae bd
       1.146939 -0.39595905 -0.009773527 -0.0850457

mlp.2.bias f4 [2]
000000 19 6e 12 be e8 68 3d be
       -0.14299811 -0.1849705

exp_avg f4 [16, 4]
000000 3e 7f 82 c0 1e 53 16 c0 b3 00 ea 3c 52 3e 0c 40
       -4.0780325 -2.348823 0.028564787 2.1913037
000010 66 6d e5 32 c8 2b a3 32 89 bb a6 30 80 ef cb b0
       2.6708857e-08 1.8995607e-08 1.213139e-09 -1.4838264e-09
000020 21 3c 08 3e 8e e4 13 3e 9a e5 08 3b ea a3 1d be
       0.13304187 0.14442655 0.0020888806 -0.1539456
000030 fa 95 44 3e 28 e9 37 3e 52 bb 4b 3b 84 52 32 be
       0.19197837 0.17960036 0.0031086993 -0.1741429
000040 21 6e 38 40 f2 99 fb 3f dc 45 75 3c d2 10 fb bf
       2.8817217 1.9656355 0.014970269 -1.9614508
000050 cb 6a 24 3a 9a ae a2 37 c1 0c 2f b7 6c 5c 89 37
       0.0006272017 1.939321e-05 -1.0433782e-05 1.637471e-05
000060 96 0d c4 bd 03 0c 80 3d b8 f1 8b 3c da b8 d0 bc
       -0.09572904 0.06252291 0.017083034 -0.02547877
000070 3a 7c cb be db ef b7 be b0 57 c2 3c 5c 7d d7 3e
       -0.39743215 -0.35925183 0.023723453 0.4208783
000080 bc 74 2c c0 0e 6c 02 c0 4b 60 33 bd 44 7d 01 40
       -2.694625 -2.0378451 -0.043793004 2.0232706
000090 d5 92 e1 bd 06 cc 12 be f7 5f 33 3b e1 82 15 3e
       -0.11014334 -0.14335641 0.0027370432 0.14600708
0000a0 da 60 e4 3e d3 3b ba 3e 6b e8 2e 3c ba 32 b9 be
       0.44605142 0.36373767 0.01067553 -0.36171514
0000b0 5e fa 6b c0 b3 5b 37 c0 a7 8b 1b 3d 71 64 40 40
       -3.6871562 -2.8649719 0.03797498 3.0061305
0000c0 09 b0 2a 40 65 da 87 3f ac 38 81 3c ad 59 43 bf
       2.6669943 1.0613524 0.015774094 -0.7630871
0000d0 b6 ea 12 c0 e9 c8 b5 bf 29 9c 3f bd 64 e2 b5 3f
       -2.2955756 -1.4201938 -0.046779785 1.4209714
0000e0 a9 bd e7 3b 8f 96 c1 ba 31 32 95 b9 86 f9 57 3b
       0.00707217 -0.0014769601 -0.0002845689 0.0032955124
0000f0 c1 98 e7 be 47 e3 ed be 83 9c 4c 3c a9 9a fa 3e
       -0.4523373 -0.4646246 0.012488487 0.4894612

exp_avg_sq f4 [16, 4]
000000 8e 73 26 42 c2 28 5a 41 b1 7b 45 3e 76 31 e8 40
       41.612846 13.634951 0.19285466 7.2560377
000010 7e ae 07 3c 7d 63 15 3c a5 af 07 39 f5 8a 3b 3c
       0.008281348 0.009117958 0.00012940036 0.011446704
000020 87 c9 bd 3e 23 e1 ce 3d 0c 87 3f 3b 5f 3f 02 3e
       0.37067816 0.10101535 0.0029224781 0.12719487
000030 ce 81 27 3f fe 2b 97 3e 19 96 db 3b 67 ac fe 3d
       0.6543244 0.2952575 0.0067012426 0.12435227
000040 d3 2f c6 41 56 fb b0 40 b4 6f 8d 3d e9 4c 41 40
       24.773352 5.5306807 0.06906071 3.0203192
000050 91 3a 2f 3e 21 83 92 3d 7b 9c 24 3b 2b fe 7e 3d
       0.17112185 0.07153917 0.0025117684 0.062254112
000060 8c f8 6a 41 e5 23 a5 40 18 29 2a 3d a8 39 7f 3f
       14.68568 5.1606317 0.041543096 0.9969735
000070 93 f6 80 40 bd 72 a3 3f 13 35 a2 3c 5b 6b 02 3f
       4.0300994 1.276939 0.019800698 0.5094506
000080 b4 d6 14 42 65 6b ce 40 fe f2 e1 3d da c7 91 40
       37.20967 6.4506097 0.11032675 4.555646
000090 3b 3b 54 3f f7 9f 8a 3e 97 8f d1 3b 53 6c e1 3d
       0.8290288 0.27075168 0.006395291 0.11006989
0000a0 1e ca 76 3f 89 1c 8e 3e d5 37 b3 3b 42 b7 a7 3e
       0.96402156 0.27756146 0.005469302 0.32757002
0000b0 c2 99 d3 42 c9 19 91 41 8f d0 98 3e 15 97 49 41
       105.80031 18.13759 0.29846618 12.599385
0000c0 f6 6f ed 42 d9 26 b9 41 1b aa b4 3e c3 cd 41 41
       118.71867 23.143969 0.3528603 12.112735
0000d0 0c 2f f7 40 f2 7b 15 40 67 c5 2f 3d 09 f0 f5 3f
       7.724493 2.33569 0.042912867 1.9213878
0000e0 df cf 34 3b 70 31 80 39 d5 2d 51 35 d7 40 05 39
       0.002758972 0.00024450896 7.792526e-07 0.00012708023
0000f0 b2 20 9f 40 3e 77 d2 3f 0f 84 cf 3c f3 cd 39 3f
       4.972741 1.644264 0.025331525 0.7257988

exp_avg f4 [16]
000000 70 c2 b8 c0 b7 7a 46 32 11 7b 24 3e 20 a1 70 3e
       -5.773735 1.1553019e-08 0.16062571 0.23498964
000010 ee 2b 87 40 86 3f b6 39 da 5d c9 3e 2b 6e d9 be
       4.2241125 0.00034761074 0.39329416 -0.42466864
000020 47 f5 8c c0 4c 56 37 be 9b 6a 1c 3f c6 43 c5 c0
       -4.404941 -0.17904013 0.6110017 -6.164523
000030 83 d1 9f 40 ea 65 47 c0 f6 8f 47 3b 82 05 0e bf
       4.994325 -3.1155953 0.0030450798 -0.55477154

exp_avg_sq f4 [16]
000000 d8 49 98 42 80 8d 00 3c f3 21 a5 3f 68 e7 9b 3f
       76.144226 0.007846236 1.2900985 1.2179995
000010 44 08 f0 41 01 43 d6 3e e0 b8 52 41 3a 7a aa 40
       30.004036 0.41847995 13.1701355 5.32742
000020 2c 4b 30 42 43 cc af 3f 37 50 44 40 9a 15 fa 42
       44.07341 1.3734211 3.067396 125.04219
000030 7f f6 04 43 9e 4a 90 41 fe 6f 9b 3a 1e 15 b1 40
       132.96288 18.036434 0.0011858938 5.533828

exp_avg f4 [2, 16]
000000 33 b4 60 bf ad 15 61 31 55 01 46 be 45 78 95 bf
       -0.8777496 3.275413e-09 -0.19336446 -1.1677328
000010 e6 76 95 bf 3a 53 f2 b9 1c 27 8f 3d 64 05 a2 bf
       -1.167691 -0.00046219846 0.069898814 -1.2657895
000020 25 14 56 bf 84 84 31 bf ca 32 a1 bf c7 02 22 bf
       -0.8362449 -0.6934283 -1.2593625 -0.6328549
000030 db 0a 8b bf 8b 7e db be 5d e3 01 3b 80 7f 72 bf
       -1.0862688 -0.42869982 0.0019819357 -0.947258
000040 35 b4 60 3f ad 15 61 b1 55 01 46 3e 44 78 95 3f
       0.87774974 -3.275413e-09 0.19336446 1.1677327
000050 e6 76 95 3f 3a 53 f2 39 22 27 8f bd 64 05 a2 3f
       1.167691 0.00046219846 -0.06989886 1.2657895
000060 26 14 56 3f 84 84 31 3f ca 32 a1 3f c1 02 22 3f
       0.83624494 0.6934283 1.2593625 0.6328545
000070 da 0a 8b 3f 8d 7e db 3e 5d e3 01 bb 7f 7f 72 3f
       1.0862687 0.42869988 -0.0019819357 0.94725794

exp_avg_sq f4 [2, 16]
000000 4d 64 d2 40 61 b4 b7 3b 8b 73 8d 40 ec bb 2a 40
       6.5747437 0.0056062196 4.4203544 2.6677198
000010 aa 04 6f 40 61 40 17 40 ad 39 d1 40 ef 0a 16 40
       3.7346597 2.3633044 6.5382905 2.3444173
000020 3e d7 32 40 ba 85 bb 3f 74 7a 16 41 74 a7 91 40
       2.7943873 1.4650185 9.404896 4.551691
000030 6b db 44 41 ce 84 c8 40 70 1a 50 38 f7 1a 61 3f
       12.303569 6.2662115 4.9615686e-05 0.8793177
000040 4d 64 d2 40 61 b4 b7 3b 8c 73 8d 40 ea bb 2a 40
       6.5747437 0.0056062196 4.420355 2.6677194
000050 a8 04 6f 40 60 40 17 40 ab 39 d1 40 ef 0a 16 40
       3.7346592 2.3633041 6.5382895 2.3444173
000060 3e d7 32 40 b9 85 bb 3f 74 7a 16 41 74 a7 91 40
       2.7943873 1.4650184 9.404896 4.551691
000070 6f db 44 41 cf 84 c8 40 70 1a 50 38 f7 1a 61 3f
       12.303573 6.266212 4.9615686e-05 0.8793177

exp_avg f4 [2]
000000 de 13 41 c0 de 13 41 40
       -3.0168376 3.0168376

exp_avg_sq f4 [2]
000000 d0 b6 0b 42 cf b6 0b 42
       34.928528 34.928524
