_models/CartPole-v1_duelingDQN.pt (torch, 25810 bytes, 21 tensors)

mlp.0.weight f4 [32, 4]
000000 8e 4e 61 3e 89 26 92 be 68 3f dd be 83 29 b5 3d
       0.22002622 -0.28545025 -0.43212438 0.08845808
000010 91 fa 01 bf 16 61 80 3e 30 54 f3 be eb 8c d6 3d
       -0.5077296 0.2507407 -0.47525167 0.10476097
000020 78 5a 8e 3d 00 c4 7a bd 40 02 0e 3e 20 10 ca 3c
       0.06950849 -0.061222076 0.13868046 0.024665892
000030 a1 78 64 3d e2 e4 a0 be 02 c5 ab be f1 30 e1 bd
       0.055779103 -0.31424624 -0.33548743 -0.10995663
000040 4a 92 07 3e 14 fe c0 3d ef a6 c2 3e 8f 0d da 3c
       0.13239399 0.094234616 0.38017985 0.026617793
000050 fc 9b 8d be 2a 70 da be 5b af 18 bf 63 43 d0 be
       -0.2765807 -0.426637 -0.5964257 -0.40676412
000060 a9 44 23 be 05 9c 88 3d aa 86 93 3e e6 09 59 3e
       -0.1594416 0.06670383 0.28813678 0.21195182
000070 f2 42 1d bf b3 66 9e 3e c8 f2 1b 3e d5 66 dc 3e
       -0.61430275 0.30937728 0.15229332 0.43047205
000080 b9 b1 84 3f 8e 98 5f be da 56 97 bf 86 a5 d3 be
       1.0366737 -0.21835539 -1.182338 -0.41337222
000090 ff c5 5e 3e 08 b1 d3 be 60 e1 bf be 34 3b a2 be
       0.21755217 -0.41346002 -0.37476635 -0.31685793
0000a0 bb 3a fe 3d b2 02 de be ac b9 31 3e 74 12 37 bd
       0.12413546 -0.4336143 0.17355984 -0.044695333
0000b0 82 dd 86 be 7a 96 83 3e d4 e3 87 be e4 94 16 3e
       -0.26340872 0.25700742 -0.26541007 0.14705235
0000c0 75 e3 f9 3f 7d fb c6 3e eb 09 cb bf f9 24 b4 3d
       1.9522539 0.38863745 -1.5862402 0.087961145
0000d0 e5 47 81 3f 41 35 b8 3f 08 07 9a 40 fc 57 a9 3f
       1.0100065 1.4391252 4.8133583 1.3229976
0000e0 6a bb bb be 1e 01 03 3f 4e 50 8c 40 db 01 80 3f
       -0.36666423 0.5117358 4.384803 1.0000566
0000f0 99 36 e2 be ea 31 e5 3e 0e 1e 0c 3f 00 70 b8 3e
       -0.4418228 0.44764644 0.5473336 0.3602295
000100 1a 9c da be cc 91 37 be 2b 32 91 be d0 75 61 bd
       -0.4269722 -0.17926711 -0.28358588 -0.055043995
000110 84 c6 9c bf c0 9f 01 c0 63 5e ab c0 bb e2 01 c0
       -1.2248082 -2.0253754 -5.355272 -2.0294635
000120 43 a9 1b 3f 68 12 7d 3e 96 fe a1 be bb 2b 19 be
       0.6080515 0.24714053 -0.31639546 -0.14958088
000130 48 0f f1 3e 16 32 ce 3e cf d9 35 bf a9 05 0a 3e
       0.4708197 0.40272588 -0.71035475 0.13478722
000140 a2 be 83 be 1d f9 d6 be 41 1e cf be 10 fb 8d be
       -0.2573138 -0.41986933 -0.4045277 -0.27730608
000150 18 0a 58 3e 09 03 7b be f3 b5 35 bf 31 1a 29 3e
       0.210976 -0.24512877 -0.7098076 0.16513897
000160 7c 4c 8a 3f 82 cc 38 3f 59 0f 88 bf 17 48 c3 bd
       1.0804591 0.72187054 -1.0629684 -0.095352344
000170 77 a8 76 3d 1b 50 07 be e7 0f 39 bf 4e c2 4d be
       0.060219254 -0.13214152 -0.7228989 -0.20093653
000180 2f 79 8c be 6d 0e d6 bd 41 ed a3 be e8 b3 f7 bd
       -0.27436206 -0.1045197 -0.32016948 -0.12094861
000190 76 67 07 3f 22 f7 4e 3e ac 1c a3 3e b2 52 3c 3d
       0.52892244 0.20211461 0.31857812 0.045977302
0001a0 2d 67 77 c0 2a 43 05 bf 44 a3 08 40 38 d1 1c be
       -3.8656723 -0.5205561 2.134965 -0.15314186
0001b0 aa b2 ee 3e 99 40 a3 3f 1a d5 8e 40 d2 24 87 3f
       0.46620685 1.2754089 4.4635134 1.0558112
0001c0 af 2b fc bd b4 b8 07 3f e8 45 8f 40 4b 1d a6 3f
       -0.123130195 0.5301621 4.4772835 1.297769
0001d0 ab 85 2f 3f a3 33 63 bf 27 fd a9 c0 4f 8e 92 bf
       0.68563336 -0.88750666 -5.3121524 -1.1449679
0001e0 5e 13 ca be bb c9 2c be d7 db 81 3e db 4a 99 be
       -0.394679 -0.16873829 0.25363037 -0.29939923
0001f0 e0 7a cc bf ec 8d e6 bf 38 9d b2 c0 e9 fa b6 bf
       -1.5974998 -1.8012061 -5.5816917 -1.4295322

mlp.0.bias f4 [32]
000000 10 65 d9 3f 2b aa e4 3f 66 fc 9e be b4 ef bd 3f
       1.6983967 1.7864431 -0.3105194 1.4838777
000010 9b a7 e2 3f d3 e0 cd 3f 82 25 de 3f 4f 74 e8 3f
       1.7707399 1.6084236 1.7355196 1.8160495
000020 16 5a a0 3f 14 2b b6 3f fc 92 3d bf 6a fa d6 be
       1.2527492 1.4231896 -0.74052405 -0.41987926
000030 e7 c1 8d 3d 6f 25 ed 3e 58 d3 60 bf 4c 24 dc 3f
       0.069217496 0.46317622 -0.87822485 1.7198577
000040 b4 b6 c7 3f 63 d5 7c bf 7a f4 b7 3f 57 38 b2 3f
       1.5602632 -0.987631 1.4371483 1.3923444
000050 a4 c2 ca 3f 5b 28 e4 3f a3 eb c7 3f da b0 d3 3f
       1.584065 1.7824816 1.5618786 1.6538346
000060 36 72 b8 3f f7 25 c6 3f 3b 0b fa be 0d ae a5 bf
       1.4409854 1.5480336 -0.48836693 -1.2943741
000070 7b 19 98 bf a6 f0 7e 3f ae da d4 3f d9 be 25 be
       -1.1882776 0.9958595 1.6629236 -0.16186084

mlp.2.weight f4 [32, 32]
000000 e7 71 4c 3f 68 44 85 3f d8 d3 67 3d 55 08 91 3f
       0.798613 1.0411501 0.056598514 1.1330668
000010 47 d8 65 3f f3 30 77 3f ed bb 5e 3f 2f ee 55 3f
       0.8978314 0.96559066 0.870055 0.83566564
000020 aa ec 5b 3f 8b 0b 80 3f 06 1b 03 3d 0e d2 9a 3d
       0.85907996 1.0003523 0.032008193 0.07559596
000030 50 31 cc bf 90 72 9d bf 6b 88 be bf 58 74 8a 3f
       -1.5952549 -1.2300587 -1.4885381 1.0816755
000040 f2 63 83 3f 5c 4a 99 c0 5c be 70 3f bd 76 96 3f
       1.0264876 -4.790327 0.94040465 1.1754986
000050 3c 3c 58 3f ac a4 5b 3f df a0 c1 3e 63 56 7a 3f
       0.8446691 0.85798144 0.37818047 0.97788066
000060 a4 2a 64 3f 6f d2 8b 3f 63 bd 15 c0 2b 59 53 c0
       0.89127564 1.0923594 -2.3396842 -3.3023174
000070 a7 d6 0e c0 df 57 a4 bf 14 9c 8c 3f f6 45 86 c0
       -2.2318513 -1.2839316 1.0985131 -4.19604
000080 f1 0b 1a be c2 b6 7a bd 1f 0a 03 3e f8 60 48 be
       -0.15043618 -0.061209448 0.1279683 -0.1956824
000090 69 8a 5d 3c 8f 58 24 3d 7b f2 d9 3d b6 79 43 be
       0.013521769 0.04012352 0.106419526 -0.19089398
0000a0 57 52 00 bd 79 5b 5b be 99 8b 1a 3e e5 6f 8c bd
       -0.031328525 -0.21421613 0.15092315 -0.0685728
0000b0 84 66 9d 3c 54 d2 5e bd a9 58 8a bd 22 43 90 bd
       0.019213922 -0.054399803 -0.06755192 -0.070440546
0000c0 1d f0 1d bd 34 74 15 3d 69 14 32 bd 1d cf 71 bc
       -0.038559068 0.036487773 -0.043476496 -0.014758852
0000d0 22 4c 6a be 90 ed 7f 3d 39 3e 62 3d a0 ca 8c 3d
       -0.22880605 0.062482417 0.05523512 0.06874585
0000e0 7d fb 00 3d 9b 4c 3f be 2e 35 86 bd c1 20 dc 3d
       0.031489838 -0.18681566 -0.06553112 0.10748435
0000f0 74 16 44 be f9 c0 78 3d 0b f0 5d be 5d c2 2f be
       -0.1914919 0.060730908 -0.216736 -0.17163987
000100 a6 a4 93 3f 79 be 77 3f f8 e2 25 bd 9d cb a2 3f
       1.1534622 0.96775013 -0.040499657 1.2718388
000110 1b af 98 3f 2e c4 9b 3f ff 10 84 3f 07 04 6d 3f
       1.1928438 1.2169244 1.0317687 0.9258427
000120 dc 12 93 3f a5 0a 89 3f ac b6 32 bd d8 82 30 3d
       1.149013 1.0706373 -0.04363124 0.043093532
000130 a8 40 0e c0 24 76 bb bf f3 53 e7 bf ce a1 68 3f
       -2.2226963 -1.4645429 -1.8072494 0.90871894
000140 8b 42 74 3f 21 05 86 c0 9f b6 8f 3f 40 5f 89 3f
       0.95414037 -4.188126 1.1227607 1.0732193
000150 23 be 76 3f ef 92 82 3f 7e 9a b8 3e 04 26 70 3f
       0.96383876 1.020109 0.36055368 0.9380801
000160 d3 40 76 3f 82 15 8b 3f 34 7e 06 c0 6c de 48 c0
       0.96192664 1.0865939 -2.1014528 -3.1385756
000170 5d 4c 0c c0 53 b7 60 bf a8 40 8c 3f 8f 36 45 c0
       -2.1921608 -0.8777973 1.0957232 -3.081455
000180 17 f8 ab 3c 55 eb ec 3c 70 db 27 bc 6d 1f d5 bd
       0.020992322 0.028920809 -0.010245189 -0.104063846
000190 a4 78 a6 3d 3b 65 9a 3d e7 c4 38 be 22 29 ba 3d
       0.08128479 0.075388394 -0.18043862 0.09089877
0001a0 15 aa 07 bd a9 ab 48 be 3a 2f c6 3d f9 24 07 be
       -0.033121187 -0.19596733 0.096769765 -0.13197698
0001b0 98 60 f8 3d 65 7a 48 be 24 3b fa bc a4 67 ec bc
       0.12127799 -0.1957794 -0.030545779 -0.028858013
0001c0 5c e7 25 bd d8 38 e0 3b 62 23 1e be a7 d5 1f be
       -0.040503845 0.006842714 -0.15443185 -0.15608846
0001d0 0d da 6d be 5f 61 b5 bd 47 ef 15 be 4b 0a 8f bd
       -0.23227711 -0.08856463 -0.14642058 -0.06984385
0001e0 86 0c d4 bd ff 6a bd bc 1c 3f 42 bb 96 a3 4c bc
       -0.10353951 -0.023122309 -0.0029639667 -0.012490174
0001f0 c6 a0 0d be c1 e8 16 be bc d2 6c be 99 a5 33 bd
       -0.13830861 -0.14737226 -0.23127264 -0.043859098
000200 08 09 91 bd ba 4d fa bc 80 46 d6 3b c2 9b 25 be
       -0.07081801 -0.030554641 0.006539166 -0.16172698
000210 5f fb 17 3d 25 b5 16 3d df a9 42 bd 57 82 24 be
       0.03710496 0.036793847 -0.047525283 -0.16065346
000220 e2 28 09 be 85 d7 82 bd 9e d8 ce bd a1 00 ca bd
       -0.13394502 -0.06388763 -0.1009991 -0.09863401
000230 39 93 0b bd d1 f0 a3 3b e4 99 ac 3d c6 81 b4 bd
       -0.03407595 0.005003073 0.0842779 -0.08813815
000240 0e 31 9f bd b4 07 b0 bd eb e6 66 be 39 1b bb 3d
       -0.07773028 -0.08595219 -0.22549026 0.09136052
000250 69 ab ca bc 19 5b 0e 3e d6 53 cf bd 09 1c e2 bd
       -0.024739938 0.13901938 -0.10123412 -0.110405035
000260 f5 7a 72 be 1c b0 0f bc e6 40 77 3d 4c 90 db bd
       -0.23679717 -0.008770015 0.060364626 -0.10720882
000270 07 f5 89 bc ac 93 1f 3d 17 41 0d 3d 49 ac 1e 3d
       -0.016840471 0.03895919 0.034485903 0.038738523
000280 c3 02 aa bd aa 11 82 bd dc 81 09 bd 06 55 e7 bd
       -0.08301308 -0.063510254 -0.03357111 -0.11295514
000290 88 ad c2 3c d3 ab df bd 1e 0f 19 be 40 49 2c bc
       0.023764387 -0.10921445 -0.14947173 -0.010515511
0002a0 05 38 34 be b6 03 b3 bd b6 01 b9 3d f4 4d 87 3d
       -0.17599495 -0.08740942 0.090335295 0.06606665
0002b0 78 f1 ea 3d 73 dd 19 be 00 75 c9 3a 15 db d1 bd
       0.11471838 -0.15025882 0.0015369952 -0.10246865
0002c0 d2 1c 18 be 87 aa cb bd e9 68 c0 bb f9 59 f6 bc
       -0.14854744 -0.09944635 -0.0058718813 -0.0300722
0002d0 64 a0 0e be de 9a 2d be b0 10 4a be 34 5e fd 3d
       -0.13928372 -0.16953608 -0.19732928 0.123714834
0002e0 56 fe 9e bd a4 6e 27 bd cd 20 85 bd 51 14 b5 bd
       -0.077633545 -0.040877 -0.06500397 -0.08841766
0002f0 5c 8b 25 be 80 db 1c be e2 bc 6d 3d 45 8c 0f 3c
       -0.16166443 -0.15318108 0.05804146 0.00876147
000300 e4 68 02 be 0d d6 05 be 7a 46 e7 3d 12 c6 77 3d
       -0.12735325 -0.13069935 0.11292739 0.06049163
000310 55 c0 d9 3d ed 08 57 bc 2a 7b af 3c ce 84 a2 bd
       0.106323875 -0.013124687 0.021421034 -0.07935487
000320 a6 14 2b be 57 57 73 be 02 84 dc 3d 18 7c d2 bc
       -0.16707096 -0.23763786 0.10767366 -0.025693938
000330 7c f9 b3 3c 71 be 55 bd cc c0 62 be c4 ba 1a be
       0.02196955 -0.052183572 -0.22143859 -0.15110308
000340 8f c8 89 bc c6 d2 aa bd 52 84 71 be 3c 4b f7 ba
       -0.016819267 -0.08340983 -0.23585632 -0.0018867026
000350 5d 57 6c bd b0 4b f8 bd 31 b2 ec 3c 42 37 d3 bc
       -0.057700504 -0.12123811 0.028893562 -0.025783185
000360 d3 d0 e1 bd 36 e2 c9 3d 9e a0 b5 3d 6e f0 d7 bc
       -0.11026158 0.098575994 0.08868526 -0.026359763
000370 3c 44 bd bd c8 17 44 be 8c 9a 95 3d dd c8 bc bd
       -0.0924153 -0.19149697 0.07304868 -0.09217999
000380 2b 9a 62 3f 65 6d 93 3f 12 94 80 3d e5 fc 8f 3f
       0.8851649 1.151776 0.06278242 1.1249052
000390 29 58 7d 3f b1 e7 6c 3f 1d a6 84 3f bd c3 8e 3f
       0.98962647 0.92541033 1.0363194 1.1153485
0003a0 a5 89 81 3f 69 c7 80 3f e7 c1 6c 3e 40 c6 77 3b
       1.0120131 1.0060855 0.23120843 0.0037807375
0003b0 76 0c e2 bf 78 6d b9 bf ac a6 db bf 2f 17 8c 3f
       -1.7660053 -1.4486532 -1.7160239 1.0944575
0003c0 f0 e3 69 3f 2b 0c 89 c0 cc 70 88 3f d9 13 6e 3f
       0.9136343 -4.2827353 1.0659423 0.92999035
0003d0 95 a0 6d 3f 6b 3f 49 3f e0 17 e6 3e fb 78 68 3f
       0.92823154 0.78612393 0.4494009 0.908096
0003e0 29 2e 95 3f 9f 25 69 3f ee 42 17 c0 db 8d 44 c0
       1.1654712 0.9107303 -2.36346 -3.0711582
0003f0 8f db 0b c0 c2 89 91 bf 3d 83 8e 3f 00 f8 54 c0
       -2.1852758 -1.1370165 1.1133801 -3.3276367

mlp.2.bias f4 [32]
000000 cd c1 5c 3f b9 a9 82 3c 66 17 80 3f 28 c9 e6 3b
       0.86233217 0.01595007 1.0007141 0.0070430227
000010 07 b7 3d 3d 5f 70 c9 bc 52 06 b4 3d 19 11 7e 3f
       0.046317127 -0.024589716 0.08790268 0.9924484
000020 52 03 5e 3f 9a 8b 0a 3e 80 ff 3f 3c 46 8e 93 3d
       0.86723816 0.13529816 0.011718631 0.07204871
000030 58 0e 83 3d f9 62 17 be cf 0c 40 3f 92 c1 b3 3f
       0.0639922 -0.14783849 0.75019544 1.4043448
000040 c6 68 88 3d c6 0d af 3d 08 3d 9f 3f a9 0a 7d 3b
       0.06660609 0.08547549 1.24405 0.003861109
000050 a4 d2 99 3f 29 1f 2a be 93 a6 76 3f a0 d4 18 bd
       1.2017407 -0.16613449 0.9634792 -0.03731215
000060 9d 9f a6 3f c0 94 4a be 03 d8 79 3f 5a f6 08 bc
       1.301746 -0.19783306 0.9759523 -0.008359516
000070 b3 23 5d 3d 7a 42 19 bd 80 82 76 3f b0 ca df 3e
       0.053989124 -0.037416913 0.9629288 0.43709326

V.weight f4 [1, 32]
000000 a5 68 2f 40 ac d1 6d bb 04 ad 15 40 9d 47 9b bd
       2.740762 -0.0036288304 2.338685 -0.075820185
000010 29 13 2f 3d 91 2b 8c bd bd 15 02 3d 63 be 1c 40
       0.042742882 -0.06844247 0.031759012 2.4491203
000020 48 60 08 40 0d 74 b2 bf 60 8c 33 bd 7f 97 6e 3d
       2.1308765 -1.3941666 -0.043835044 0.058249947
000030 99 ca bc bc a3 14 08 bd f5 58 26 40 a0 dc 16 40
       -0.023045825 -0.033222806 2.5991795 2.357216
000040 b3 1e 17 3e ed 22 d4 bc b4 12 12 40 bf 41 e6 bb
       0.14757805 -0.02589556 2.2823915 -0.0070268805
000050 db 25 3b 40 40 f2 42 bd 95 17 28 40 91 8c f5 bc
       2.9241855 -0.04759431 2.6264393 -0.029974254
000060 3d 9a 0b 40 3c 3e 98 bd 31 93 23 40 cc 0c b6 bd
       2.181289 -0.07433745 2.5558589 -0.088891596
000070 6f cc 12 bd 4d 81 a7 bd 09 18 24 40 9f 8f 12 40
       -0.035839494 -0.08178959 2.563967 2.290016

A.weight f4 [2, 32]
000000 bb 69 d4 be f4 84 19 3e 56 0b 89 3e 25 0d 8e 3d
       -0.41486916 0.14992124 0.2676646 0.06936101
000010 f9 0e 05 be 96 53 03 3e f6 3f 17 3e fb 64 14 3d
       -0.12993993 0.12824854 0.14770493 0.036229115
000020 31 5c 16 3f c4 fc 3c bf f0 70 45 3d fa 12 c5 3d
       0.5873442 -0.7382319 0.04820341 0.0962276
000030 53 e4 1b bd 62 96 d7 bd 99 45 06 bf f6 9a f5 3b
       -0.038059544 -0.1052673 -0.5244995 0.0074952794
000040 d0 cd 64 bc 90 12 d5 3d 9a 99 e1 3e 40 89 10 be
       -0.013965085 0.10403931 0.440625 -0.14114857
000050 fa bd f6 be bc 35 39 bd c7 f4 cf 3e 66 e0 8b 3d
       -0.48191816 -0.04521726 0.40616438 0.0682991
000060 20 04 82 3d a5 60 19 be d8 9d da be 1a 3c 16 be
       0.06348443 -0.14978273 -0.4269855 -0.14671364
000070 86 25 dd bf 85 dc 8e 3d 8f c1 f9 bc e9 5a 7d be
       -1.7277076 0.069756545 -0.030487804 -0.2474171
000080 bf e6 a2 3e 92 d4 1d 3d b1 ee 67 be bd 8e 13 3e
       0.3181667 0.0385328 -0.22649647 0.14409919
000090 1a 1c 99 3c 6b 5b a0 3d 97 42 43 3b ab b6 a2 bd
       0.018690158 0.078299366 0.002979433 -0.079449974
0000a0 66 08 12 bf 4a 26 7c 3f 70 93 da 3c cf da a1 3d
       -0.57044065 0.98495924 0.026681632 0.079030626
0000b0 93 dd b2 3c 02 29 07 3d d5 97 10 3f 91 70 04 3b
       0.02183417 0.032998092 0.5648168 0.0020208696
0000c0 98 77 90 3c 6a 71 5b 3e 82 f6 c4 be fa e8 83 3c
       0.017635152 0.21429983 -0.3846932 0.016102303
0000d0 ee 70 f7 3e 8c 8b 6e 3d d1 63 af be b8 be b4 3d
       0.48328346 0.05823855 -0.3425584 0.08825439
0000e0 c8 27 d4 3d 2e db d8 bc c8 e8 d3 3e 1c 0a 0f bd
       0.1035915 -0.0264717 0.41388535 -0.03492175
0000f0 18 27 d8 3f 01 f3 06 bc 74 c6 6a be 09 53 86 3e
       1.688693 -0.008236648 -0.22927266 0.26235226

A.bias f4 [2]
000000 e7 9b d4 bd 2a 67 41 3e
       -0.103812985 0.1888701

exp_avg f4 [32, 4]
000000 09 59 ba 3a 8e ce 80 39 a7 26 e6 b9 16 7e ab ba
       0.0014217208 0.00024567958 -0.00043897817 -0.0013083841
000010 5d f9 c9 3a d7 73 9e 39 5a a2 ff b9 5b 82 c9 ba
       0.0015409399 0.00030222416 -0.00048758351 -0.0015373932
000020 00 00 00 00 00 00 00 00 00 00 00 00 00 00 00 00
       0.0 0.0 0.0 0.0
000030 e5 e6 d1 3a e1 96 92 39 8d a1 02 ba 17 af bf ba
       0.0016014247 0.00027959704 -0.00049831794 -0.0014624324
000040 ac 4a b4 3a 80 6b 3b 39 50 c5 db b9 47 bb 92 ba
       0.0013755164 0.00017873757 -0.00041917944 -0.0011194729
000050 28 71 c7 3a e9 ab a8 39 38 a5 02 ba bd 27 d8 ba
       0.0015216218 0.0003217154 -0.0004983726 -0.0016491335
000060 3e 5d b5 3a 2f 05 40 39 3a 76 d8 b9 80 e9 91 ba
       0.0013836992 0.00018312478 -0.00041286816 -0.001113221
000070 74 9a c5 3a 00 d7 65 39 1d fe ef b9 e2 31 a9 ba
       0.0015075938 0.00021919236 -0.00045774961 -0.0012908543
000080 69 78 a2 3a 3b 78 c6 39 25 98 d8 b9 9b df cb ba
       0.0012395504 0.00037855082 -0.00041312087 -0.001555431
000090 c1 80 c5 3a f2 05 a4 39 50 a8 00 ba cb 0a d0 ba
       0.0015068279 0.00031284947 -0.0004907893 -0.0015872357
0000a0 04 00 00 00 04 00 00 00 04 00 00 00 04 00 00 80
       6e-45 6e-45 6e-45 -6e-45
0000b0 00 00 00 00 00 00 00 00 00 00 00 00 00 00 00 00
       0.0 0.0 0.0 0.0
0000c0 2f c6 39 bc 07 72 62 bb 38 98 21 39 21 7e ec 39
       -0.011338755 -0.003455283 0.00015410862 0.000451074
0000d0 5f 10 9e bb dd de 85 b9 3d 72 6c 3a 8b 3b 0f 3b
       -0.004823729 -0.00025533783 0.00090197084 0.0021855559
0000e0 d7 32 cd 33 1f 36 b5 34 7a 3f 07 b4 70 15 5d b5
       9.555304e-08 3.3753255e-07 -1.2595947e-07 -8.236011e-07
0000f0 5f 76 b7 3a 6f 9a 37 39 ef ce db b9 56 51 90 ba
       0.0013997069 0.00017509771 -0.00041925113 -0.0011010568
000100 cc bc cd 3a 85 60 92 39 82 f3 00 ba 4e 34 c3 ba
       0.0015696525 0.00027919203 -0.0004919098 -0.0014892907
000110 e7 76 04 bb c8 9f 9e 3b 7b a6 0f ba 86 fa fc bb
       -0.0020212473 0.0048408248 -0.00054798246 -0.0077202944
000120 3c db b4 3a 56 45 8c 39 70 0d e2 b9 e0 12 ad ba
       0.0013798247 0.0002675454 -0.0004311609 -0.0013204478
000130 0b 09 bf 3a b9 96 89 39 0b 96 e9 b9 98 51 ab ba
       0.0014574839 0.00026242973 -0.00044553014 -0.0013070581
000140 88 ca c2 3a 36 4b 90 39 77 1f fc b9 dd 14 c5 ba
       0.0014861384 0.00027521857 -0.0004808863 -0.0015036125
000150 f0 62 ba 3a 8a 4e 80 39 03 03 e6 b9 0e b9 a8 ba
       0.001422016 0.0002447258 -0.00043871262 -0.0012872533
000160 10 66 3b 3a 38 8a ae 39 0c b7 82 b9 1b 07 9d ba
       0.00071486924 0.00033290847 -0.00024931913 -0.0011980267
000170 5e 19 bb 3a a5 9a a0 39 c3 1b f0 b9 5b e8 c3 ba
       0.0014274528 0.00030632797 -0.0004579705 -0.0014946567
000180 e6 7c c5 3a 94 d9 91 39 89 29 fb b9 79 fe bd ba
       0.001506713 0.00027818664 -0.00047905397 -0.0014495394
000190 ea e7 a5 3a f8 eb 1b 39 e0 00 c5 b9 bb 9e 7f ba
       0.0012657617 0.00014869857 -0.0003757542 -0.0009751131
0001a0 4a a8 00 3c b2 62 a2 3a 72 4c 01 3a d5 b7 5c 3b
       0.007852623 0.0012389033 0.0004932351 0.0033678908
0001b0 c8 34 c6 39 08 a9 27 38 d7 90 24 b6 67 ef 27 b5
       0.00037804828 3.9973325e-05 -2.4522212e-06 -6.2560724e-07
0001c0 32 35 e3 30 74 b9 98 b1 8c 22 14 30 89 ba c0 31
       1.6531543e-09 -4.444866e-09 5.389118e-10 5.609142e-09
0001d0 47 bd 99 ba ca a3 c0 b8 07 26 c5 39 f3 68 48 3a
       -0.0011729383 -9.1857815e-05 0.000376031 0.0007645033
0001e0 2b ad c4 3a c6 6a 88 39 44 dd f8 b9 ca 04 b9 ba
       0.0015005221 0.00026019494 -0.00047467102 -0.0014115807
0001f0 08 7b 4e 3c 8a 4a 5f 3b 90 b9 f2 39 8c d4 8d 3a
       0.012602575 0.0034071528 0.00046296092 0.001082079

exp_avg_sq f4 [32, 4]
000000 ea 34 83 3b 71 25 8b 3a 6f f6 08 37 32 b4 17 3a
       0.0040041106 0.0010616017 8.163609e-06 0.0005787044
000010 4a c6 9d 3b 6d b2 a6 3a a8 c9 23 37 c4 ad 36 3a
       0.0048148977 0.001271797 9.762509e-06 0.0006968642
000020 00 00 00 00 00 00 00 00 00 00 00 00 00 00 00 00
       0.0 0.0 0.0 0.0
000030 26 a9 a8 3b e4 35 b4 3a 62 18 35 37 6d 0b 45 3a
       0.005147117 0.0013748971 1.0794118e-05 0.0007516656
000040 e5 49 6e 3b 89 2c 7c 3a 3b 80 01 37 f0 bc 0d 3a
       0.0036359963 0.00096196734 7.718855e-06 0.0005406877
000050 92 40 9c 3b 9a bd a5 3a fb 46 21 37 fa 05 3a 3a
       0.0047684396 0.0012645007 9.612874e-06 0.00070962275
000060 27 af 68 3b f2 ab 71 3a 17 e0 ee 36 1e ab 06 3a
       0.003550479 0.0009219042 7.11904e-06 0.0005137193
000070 1e bb 8d 3b 16 32 94 3a a5 fa 14 37 97 a3 25 3a
       0.0043252846 0.0011306431 8.879845e-06 0.0006318627
000080 e2 ca 66 3b 84 f4 7a 3a 2d 0e f0 36 8f 4f 02 3a
       0.0035216142 0.0009573179 7.1542077e-06 0.00049709616
000090 5d 82 9d 3b c0 87 aa 3a 77 e1 27 37 7b f2 39 3a
       0.0048068003 0.0013010427 1.0006471e-05 0.00070933223
0000a0 ad 8d 99 2f 63 88 b0 2d 15 6f 4f 2a 19 43 8f 2d
       2.7931205e-10 2.0069451e-11 1.8423833e-13 1.6287015e-11
0000b0 00 00 00 00 00 00 00 00 00 00 00 00 00 00 00 00
       0.0 0.0 0.0 0.0
0000c0 a6 83 8e 3c ea ba 93 3b 22 88 f3 37 59 b2 f3 3a
       0.01739676 0.004508366 2.903125e-05 0.001859258
0000d0 0b 21 10 3c 20 c3 1f 3b 2c 59 63 37 4c 93 85 3a
       0.008796941 0.0024377778 1.3551016e-05 0.0010190993
0000e0 17 77 b9 39 25 4e 49 39 9f 37 60 37 e8 50 94 39
       0.0003537468 0.00019197965 1.3364391e-05 0.0002828904
0000f0 27 fe 6f 3b c1 be 79 3a 7e 3d 00 37 8b db 0c 3a
       0.0036619992 0.0009527021 7.643712e-06 0.00053732906
000100 2e 57 9f 3b d3 65 a8 3a 67 9d 22 37 67 87 38 3a
       0.0048626876 0.0012847729 9.6926005e-06 0.00070392195
000110 ef 15 0d 39 19 b4 49 3a 65 93 40 37 c1 25 c0 3a
       0.00013454979 0.0007694378 1.147841e-05 0.0014659689
000120 18 81 81 3b f0 19 8b 3a 90 7c 11 37 b3 85 18 3a
       0.0039521568 0.0010612588 8.6716755e-06 0.00058182626
000130 15 cb 8d 3b c3 fd 97 3a 15 6b 21 37 71 d5 26 3a
       0.004327188 0.0011596013 9.62128e-06 0.00063642027
000140 b9 04 92 3b a7 4a 9b 3a c3 a7 17 37 27 9f 2d 3a
       0.0044561294 0.001184781 9.039361e-06 0.0006623142
000150 16 23 83 3b d0 e9 8a 3a 0a 3d 0a 37 12 b9 17 3a
       0.0040019853 0.0010598246 8.239653e-06 0.00057877705
000160 e7 9d 9d 3a 81 9d a5 39 6c c0 f4 35 f1 e9 1c 39
       0.0012025208 0.00031588602 1.8235419e-06 0.0001496447
000170 de a8 8a 3b ed 58 93 3a d5 ed 0d 37 4b 69 1f 3a
       0.0042315563 0.0011241712 8.4596295e-06 0.00060810585
000180 da c1 95 3b ac 98 9e 3a dc 39 17 37 83 a7 2c 3a
       0.004570228 0.0012099943 9.013773e-06 0.00065862405
000190 bf 70 46 3b 6c b7 50 3a d0 50 d9 36 2a 2f eb 39
       0.0030279604 0.00079619023 6.4765118e-06 0.00044857833
0001a0 cb ba a3 39 c7 5a 29 39 3d dd 5b 37 c2 33 ac 39
       0.00031228954 0.00016150913 1.3104928e-05 0.0003284496
0001b0 00 d3 76 3c 1d b1 d8 3b 49 51 72 38 61 bb b9 3a
       0.015064955 0.0066129104 5.7773e-05 0.0014170223
0001c0 90 64 7b 3a b8 5e dd 39 1d 8d b9 37 10 e1 fb 39
       0.0009589875 0.00042222976 2.211943e-05 0.00048042135
0001d0 11 84 7c 3b 3e cb 97 3a 19 6c dc 36 08 96 16 3a
       0.0038530866 0.0011580957 6.569095e-06 0.00057444023
0001e0 3c dd 91 3b d6 48 9a 3a fc 94 14 37 4d c9 29 3a
       0.004451422 0.0011770974 8.856176e-06 0.00064768345
0001f0 8f fc 30 3a 59 af 5c 3a 49 29 41 37 3f ec c3 3a
       0.00067515014 0.0008418463 1.1513309e-05 0.0014947726

exp_avg f4 [32]
000000 82 29 8a 3c 2f d9 99 3c 00 00 00 00 a0 d8 9b 3c
       0.016865496 0.018780319 0.0 0.019024193
000010 0c 45 83 3c c5 b3 9d 3c 45 b4 81 3c 99 49 90 3c
       0.016024135 0.01925076 0.01583303 0.01761322
000020 d0 35 82 3c d6 6e 9a 3c 04 00 00 00 00 00 00 00
       0.0158948 0.018851679 6e-45 0.0
000030 3e c6 ed ba 92 82 9c bc ff 82 bc b5 d4 ae 83 3c
       -0.0018140746 -0.01910523 -1.4045216e-06 0.016074575
000040 e7 c2 9a 3c 61 ea 24 3c da 17 87 3c e0 31 8b 3c
       0.018891765 0.010065646 0.016490865 0.016991556
000050 f3 89 97 3c bb a9 89 3c 47 39 1f 3c 1b 80 90 3c
       0.018498397 0.016804567 0.009718246 0.01763921
000060 15 24 96 3c 43 df 6b 3c 25 3b e2 bc cc e1 01 39
       0.018327752 0.014396491 -0.027616093 0.00012386515
000070 7e b4 c7 31 51 b8 62 bc 27 d9 94 3c 83 86 4e bd
       5.812182e-09 -0.01383789 0.018169953 -0.05042125

exp_avg_sq f4 [32]
000000 41 58 8e 3c 1c cc ac 3c 00 00 00 00 ad 5e b7 3c
       0.017376067 0.02109342 0.0 0.022384012
000010 05 09 84 3c 66 35 b1 3c 14 b8 7e 3c e9 a7 9b 3c
       0.016117582 0.021631908 0.015546817 0.019000964
000020 98 12 73 3c 59 90 ae 3c 88 21 83 2e 00 00 00 00
       0.014835976 0.021309065 5.9631466e-11 0.0
000030 d7 ca 2f 3d 42 b6 27 3d df 98 ea 39 22 f5 83 3c
       0.042918053 0.0409453 0.00044745856 0.0161081
000040 c5 c6 af 3c b0 a7 80 3b 34 ef 8a 3c 09 3e 96 3c
       0.021457085 0.00392624 0.016959764 0.018340128
000050 af 1b a6 3c 5f 1e 8e 3c 3e a2 a1 3b b2 7b 97 3c
       0.020276872 0.017348466 0.004932671 0.0184916
000060 64 ec a5 3c e2 c2 58 3c 72 8d b2 3b 60 df 1c 3c
       0.020254321 0.013230057 0.0054489905 0.009574741
000070 12 84 4f 3a 1c 48 84 3c cf df a2 3c 8c 10 81 3c
       0.00079161033 0.016147666 0.01988211 0.01575496

exp_avg f4 [32, 32]
000000 42 b9 0d 3b c6 84 0f 3b 00 00 00 00 5d ab f6 3a
       0.0021625315 0.0021899207 0.0 0.0018819381
000010 18 99 11 3b 57 4a 04 3b 10 da 0b 3b d4 76 0e 3b
       0.0022216495 0.0020185912 0.0021339692 0.0021738308
000020 2e a4 e7 3a 09 e7 f0 3a 04 00 00 80 00 00 00 00
       0.0017672831 0.0018379401 -6e-45 0.0
000030 1a 3b 6a 3a f7 45 dd 39 36 2f 8b 2f 15 85 07 3b
       0.00089351984 0.00042204533 2.5317498e-10 0.0020678688
000040 b1 ce fa 3a 33 78 ec b7 65 9e f9 3a b1 3e f0 3a
       0.0019135085 -2.8189364e-05 0.0019044398 0.001832923
000050 ab 8e 01 3b bf ed 14 3b 8a 03 0d 3b 71 aa 0a 3b
       0.0019768875 0.0022724716 0.0021517002 0.002115872
000060 57 b6 ea 3a 50 ef 02 3b 3d 12 25 3a 4c 38 1b b6
       0.0017907125 0.0019979067 0.0006296968 -2.312957e-06
000070 ea cf 2b ad 9b d3 ca 3a 49 a2 05 3b 54 d8 31 3a
       -9.766391e-12 0.001547444 0.002039092 0.00067842496
000080 04 00 00 00 04 00 00 00 00 00 00 00 04 00 00 00
       6e-45 6e-45 0.0 6e-45
000090 04 00 00 00 04 00 00 00 04 00 00 00 04 00 00 00
       6e-45 6e-45 6e-45 6e-45
0000a0 04 00 00 00 04 00 00 00 00 00 00 00 00 00 00 00
       6e-45 6e-45 0.0 0.0
0000b0 04 00 00 00 04 00 00 00 04 00 00 00 04 00 00 00
       6e-45 6e-45 6e-45 6e-45
0000c0 04 00 00 00 04 00 00 00 04 00 00 00 04 00 00 00
       6e-45 6e-45 6e-45 6e-45
0000d0 04 00 00 00 04 00 00 00 04 00 00 00 04 00 00 00
       6e-45 6e-45 6e-45 6e-45
0000e0 04 00 00 00 04 00 00 00 00 00 00 00 04 00 00 00
       6e-45 6e-45 0.0 6e-45
0000f0 04 00 00 00 04 00 00 00 04 00 00 00 04 00 00 00
       6e-45 6e-45 6e-45 6e-45
000100 cf 1e 0f 3b 30 e5 12 3b 00 00 00 00 b7 b7 fb 3a
       0.0021838432 0.0022414438 0.0 0.0019204532
000110 c1 21 14 3b 38 43 09 3b eb ef 0d 3b eb 9a 10 3b
       0.0022603127 0.0020944607 0.0021657895 0.0022064995
000120 3b 3a ea 3a b1 25 f7 3a 04 00 00 00 00 00 00 00
       0.0017870137 0.0018855837 6e-45 0.0
000130 c7 a3 76 3a 80 6c a5 39 2d 49 3b 2f 88 b2 09 3b
       0.000940856 0.0003155209 1.7033548e-10 0.0021010954
000140 05 f3 00 3b e0 c2 00 b8 68 f9 fc 3a cb d6 f0 3a
       0.00196761 -3.069907e-05 0.0019300403 0.001837456
000150 ad ce 05 3b 66 fc 15 3b a8 7d 0d 3b 77 e9 0d 3b
       0.0020417378 0.0022886037 0.002158979 0.0021654048
000160 23 79 f1 3a 9f 1c 04 3b 25 5e 48 3a 95 a5 96 b5
       0.0018422942 0.002015866 0.0007643423 -1.1224062e-06
000170 0d cd e6 ac 55 16 d3 3a 98 cf 0a 3b 97 e4 38 3a
       -6.5597584e-12 0.0016104678 0.0021180864 0.00070531055
000180 04 00 00 00 04 00 00 00 00 00 00 00 04 00 00 00
       6e-45 6e-45 0.0 6e-45
000190 04 00 00 00 04 00 00 00 04 00 00 00 04 00 00 00
       6e-45 6e-45 6e-45 6e-45
0001a0 04 00 00 00 04 00 00 00 00 00 00 00 00 00 00 00
       6e-45 6e-45 0.0 0.0
0001b0 04 00 00 00 04 00 00 00 04 00 00 00 04 00 00 00
       6e-45 6e-45 6e-45 6e-45
0001c0 04 00 00 00 04 00 00 00 04 00 00 00 04 00 00 00
       6e-45 6e-45 6e-45 6e-45
0001d0 04 00 00 00 04 00 00 00 04 00 00 00 04 00 00 00
       6e-45 6e-45 6e-45 6e-45
0001e0 04 00 00 00 04 00 00 00 04 00 00 00 04 00 00 00
       6e-45 6e-45 6e-45 6e-45
0001f0 04 00 00 00 04 00 00 00 04 00 00 00 04 00 00 00
       6e-45 6e-45 6e-45 6e-45
000200 04 00 00 00 04 00 00 00 00 00 00 00 04 00 00 00
       6e-45 6e-45 0.0 6e-45
000210 04 00 00 00 04 00 00 00 04 00 00 00 04 00 00 00
       6e-45 6e-45 6e-45 6e-45
000220 04 00 00 00 04 00 00 00 00 00 00 00 00 00 00 00
       6e-45 6e-45 0.0 0.0
000230 04 00 00 00 04 00 00 80 04 00 00 80 04 00 00 00
       6e-45 -6e-45 -6e-45 6e-45
000240 04 00 00 00 04 00 00 00 04 00 00 00 04 00 00 00
       6e-45 6e-45 6e-45 6e-45
000250 04 00 00 00 04 00 00 00 04 00 00 00 04 00 00 00
       6e-45 6e-45 6e-45 6e-45
000260 04 00 00 00 04 00 00 80 04 00 00 00 04 00 00 80
       6e-45 -6e-45 6e-45 -6e-45
000270 04 00 00 80 04 00 00 00 04 00 00 00 04 00 00 00
       -6e-45 6e-45 6e-45 6e-45
000280 04 00 00 00 04 00 00 00 00 00 00 00 04 00 00 00
       6e-45 6e-45 0.0 6e-45
000290 04 00 00 00 04 00 00 00 04 00 00 00 04 00 00 00
       6e-45 6e-45 6e-45 6e-45
0002a0 04 00 00 00 04 00 00 00 00 00 00 00 00 00 00 00
       6e-45 6e-45 0.0 0.0
0002b0 04 00 00 00 04 00 00 00 00 00 00 00 04 00 00 00
       6e-45 6e-45 0.0 6e-45
0002c0 04 00 00 00 00 00 00 00 04 00 00 00 04 00 00 00
       6e-45 0.0 6e-45 6e-45
0002d0 04 00 00 00 04 00 00 00 04 00 00 00 04 00 00 00
       6e-45 6e-45 6e-45 6e-45
0002e0 04 00 00 00 00 00 00 00 00 00 00 00 00 00 00 00
       6e-45 0.0 0.0 0.0
0002f0 00 00 00 00 04 00 00 00 04 00 00 00 04 00 00 00
       0.0 6e-45 6e-45 6e-45
000300 04 00 00 00 04 00 00 00 00 00 00 00 04 00 00 00
       6e-45 6e-45 0.0 6e-45
000310 04 00 00 00 04 00 00 00 04 00 00 00 04 00 00 00
       6e-45 6e-45 6e-45 6e-45
000320 04 00 00 00 04 00 00 00 00 00 00 00 00 00 00 00
       6e-45 6e-45 0.0 0.0
000330 04 00 00 00 04 00 00 00 04 00 00 00 04 00 00 00
       6e-45 6e-45 6e-45 6e-45
000340 04 00 00 00 04 00 00 00 04 00 00 00 04 00 00 00
       6e-45 6e-45 6e-45 6e-45
000350 04 00 00 00 04 00 00 00 04 00 00 00 04 00 00 00
       6e-45 6e-45 6e-45 6e-45
000360 04 00 00 00 04 00 00 00 00 00 00 00 04 00 00 00
       6e-45 6e-45 0.0 6e-45
000370 04 00 00 00 04 00 00 00 04 00 00 00 04 00 00 00
       6e-45 6e-45 6e-45 6e-45
000380 26 ec 0d 3b 14 12 11 3b 00 00 00 00 1e d1 f8 3a
       0.0021655648 0.002213602 0.0 0.001898322
000390 0e 8f 12 3b 44 00 07 3b e9 88 0c 3b df 2b 0f 3b
       0.00223631 0.0020599524 0.002144391 0.0021846218
0003a0 c7 2c e8 3a 9e e7 f3 3a 04 00 00 00 00 00 00 00
       0.001771354 0.0018608456 6e-45 0.0
0003b0 a1 82 71 3a 3b a5 b5 39 06 29 56 2f 23 4a 08 3b
       0.00092128856 0.00034646117 1.9477761e-10 0.0020796142
0003c0 ca 56 fe 3a 32 ae f9 b7 df 95 fa 3a 74 5c ef 3a
       0.0019404527 -2.976423e-05 0.0019118151 0.0018261806
0003d0 1b c9 03 3b e7 da 14 3b 5a 95 0c 3b 77 27 0c 3b
       0.0020108882 0.0022713484 0.0021451325 0.0021385828
0003e0 65 1a ee 3a 5e 0a 03 3b fb 79 3c 3a b2 c2 c6 b5
       0.0018165825 0.0019995193 0.00071898074 -1.4808813e-06
0003f0 ed 0b 04 ad a2 6b cf 3a 7a 7a 08 3b 01 bc 35 3a
       -7.505979e-12 0.0015824924 0.0020824955 0.0006932617

exp_avg_sq f4 [32, 32]
000000 d6 1d c9 39 b9 51 ad 39 00 00 00 00 b8 7d 8c 39
       0.00038359937 0.0003305802 0.0 0.0002679655
000010 42 08 dc 39 90 63 8a 39 55 84 ba 39 2f e2 af 39
       0.00041967822 0.0002639559 0.0003557528 0.0003354712
000020 72 80 ab 39 52 57 89 39 e4 77 02 2c 00 00 00 00
       0.0003271136 0.00026195735 1.8540664e-12 0.0
000030 e5 13 28 39 8d 53 2e 39 ea 22 cd 35 cb 66 aa 39
       0.0001602914 0.00016625058 1.5283852e-06 0.00032501513
000040 b4 ce 7a 39 6d f4 a7 35 d5 30 bb 39 88 db a9 39
       0.00023918861 1.2513607e-06 0.00035703802 0.00032397755
000050 cd df 87 39 dc ef dd 39 64 28 0a 3a ba 6c b2 39
       0.0002591595 0.00042331114 0.0005270301 0.00034031813
000060 49 ce 64 39 34 35 ce 39 27 5f 82 36 8d cb 65 37
       0.00021820622 0.0003933102 3.885379e-06 1.36968565e-05
000070 67 5e c4 35 02 87 3d 39 17 64 93 39 66 62 33 36
       1.4630613e-06 0.00018074739 0.00028112598 2.6730354e-06
000080 66 df 6c 31 20 d5 cc 31 00 00 00 00 bd e1 15 30
       3.4469507e-09 5.961411e-09 0.0 5.452668e-10
000090 a2 68 b9 31 4b f7 80 31 f4 4f 54 31 ee 0c 8d 31
       5.396104e-09 3.7534043e-09 3.0895508e-09 4.10511e-09
0000a0 5c de 7b 31 1f fa 18 30 00 00 00 00 00 00 00 00
       3.6651704e-09 5.565272e-10 0.0 0.0
0000b0 21 27 9f 2b e7 11 af 2f 30 85 c8 2c d2 8d 9c 30
       1.130849e-12 3.1845035e-10 5.6991287e-12 1.1390802e-09
0000c0 e0 dd 8b 30 d5 bf 10 2b 60 c8 9e 30 1d 7f 31 30
       1.0176642e-09 5.14253e-13 1.1552963e-09 6.4572864e-10
0000d0 3b 00 74 31 4b ed aa 31 6a e4 c3 2e fd fe d6 31
       3.5506804e-09 4.9746283e-09 8.908148e-11 6.2572085e-09
0000e0 6b 61 ca 2d 2f 83 e2 2e 00 00 00 00 d0 b9 c0 2a
       2.3008003e-11 1.0300593e-10 0.0 3.4234985e-13
0000f0 66 c4 72 2e ec d9 d7 2e 23 5d 56 31 05 a1 02 28
       5.5198866e-11 9.815779e-11 3.119404e-09 7.251365e-15
000100 d5 f3 8e 39 f0 7a 7b 39 00 00 00 00 ea ca 49 39
       0.0002726602 0.00023983023 0.0 0.00019244445
000110 94 bc 9e 39 a9 2a 4a 39 7a 1d 85 39 99 12 7a 39
       0.0003027661 0.00019280113 0.000253897 0.00023848786
000120 c2 77 7b 39 db 6c 47 39 ba 35 8c 2b 00 00 00 00
       0.00023981839 0.0001901867 9.96251e-13 0.0
000130 75 99 ee 38 31 56 e4 38 8d 69 58 35 4d 37 74 39
       0.00011377308 0.000108879416 8.0619867e-07 0.00023290254
000140 92 72 34 39 e1 a2 a8 35 e0 0d 89 39 82 1e 76 39
       0.00017208818 1.2564379e-06 0.00026141014 0.00023471753
000150 5c 9d 44 39 31 6c 9d 39 85 7d cc 39 ef 02 82 39
       0.00018750638 0.00030025982 0.0003900343 0.00024797718
000160 b4 2a 26 39 18 c0 94 39 4c 50 2a 36 6f 92 f5 36
       0.00015846902 0.0002837188 2.5378713e-06 7.318616e-06
000170 81 80 4d 35 c4 61 11 39 33 bd 57 39 83 de 1c 36
       7.655545e-07 0.00013864698 0.0002057448 2.337533e-06
000180 13 69 9c 32 7b 97 01 33 00 00 00 00 9d 91 44 31
       1.8208572e-08 3.0172924e-08 0.0 2.8604525e-09
000190 11 f9 e9 32 63 1d 92 32 2a 58 8c 32 16 c5 cd 32
       2.7238032e-08 1.701e-08 1.6338237e-08 2.3954765e-08
0001a0 2a 64 81 32 fd 97 04 31 00 00 00 00 00 00 00 00
       1.5063126e-08 1.9294923e-09 0.0 0.0
0001b0 2e e5 99 2a d4 ec e0 30 96 f2 4d 2e d5 67 e6 31
       2.7337285e-13 1.6365456e-09 4.6827063e-11 6.7056853e-09
0001c0 7b f1 c6 31 c9 b0 2b 2c e3 47 d1 31 2f 1d 7c 31
       5.7900116e-09 2.4398697e-12 6.090873e-09 3.6687415e-09
0001d0 ba 52 91 32 ec d6 e2 32 e9 2b 5e 2e c8 f4 d9 32
       1.6917841e-08 2.6407598e-08 5.0515956e-11 2.5373438e-08
0001e0 ad 4a 75 2d 87 4f 0a 30 d7 2a b9 2b e5 78 4c 2b
       1.3943219e-11 5.031712e-10 1.3156931e-12 7.2643134e-13
0001f0 de 6b b1 2f 25 3f 21 2e 5b 20 5b 32 cf f7 ce 2a
       3.2272757e-10 3.6663245e-11 1.27548345e-08 3.6764903e-13
000200 e4 68 b0 2d 06 85 8f 2f 00 00 00 00 b1 72 e4 2c
       2.0055464e-11 2.6106067e-10 0.0 6.492883e-12
000210 08 2a 25 2f 7f 22 2a 2f 51 7b 33 2e fa 0b 8f 2e
       1.5021595e-10 1.5473665e-10 4.0809415e-11 6.5050146e-11
000220 cb e8 08 2f 7e c8 7f 2e 00 00 00 00 00 00 00 00
       1.2451833e-10 5.815836e-11 0.0 0.0
000230 6b dd bf 29 05 1f 2c 2d 98 c2 e1 2b d2 89 29 2d
       8.520514e-14 9.783956e-12 1.6041222e-12 9.63714e-12
000240 f1 6d 54 2d a7 8f 1b 2a 7f da fb 2d 6b 6c aa 2d
       1.2075217e-11 1.3816605e-13 2.8632428e-11 1.937491e-11
000250 c0 68 9c 2e f7 44 c0 2d b9 5a 81 2d d0 23 21 30
       7.112666e-11 2.18585e-11 1.4705891e-11 5.862235e-10
000260 f8 78 33 2c 9f b1 5c 2c 4a 45 96 29 55 d0 d2 29
       2.5504581e-12 3.136248e-12 6.673358e-14 9.362013e-14
000270 c6 97 d1 2c ef 0c 44 2d 67 55 ca 2f ae e8 11 28
       5.9569875e-12 1.1144182e-11 3.6804268e-10 8.099571e-15
000280 a0 72 4e 2e d1 5f 33 30 00 00 00 00 95 c8 d6 2d
       4.6940785e-11 6.5255984e-10 0.0 2.441806e-11
000290 3c 21 e2 2f 2c e2 0d 30 1e f2 dc 2e bc 4a 16 2f
       4.1132775e-10 5.161691e-10 1.00474504e-10 1.3668972e-10
0002a0 f2 00 f2 2f e7 01 60 2f 00 00 00 00 00 00 00 00
       4.4020215e-10 2.0373357e-10 0.0 0.0
0002b0 ab 51 4b 2b 24 5c 98 23 00 00 00 00 8c 47 7d 2d
       7.2233425e-13 1.6518896e-17 0.0 1.4397272e-11
0002c0 95 3f 12 2e 00 00 00 00 7a a3 9c 2e 29 39 31 2e
       3.325303e-11 0.0 7.123098e-11 4.029591e-11
0002d0 b9 ac 7e 2f 34 f8 1a 2e 4c 7d 96 2e ad 0f eb 30
       2.3162529e-10 3.5235995e-11 6.8434675e-11 1.7102956e-09
0002e0 af 85 88 2d 00 00 00 00 00 00 00 00 00 00 00 00
       1.5520777e-11 0.0 0.0 0.0
0002f0 00 00 00 00 5c 5a 84 2e 8f 0b 96 30 27 f2 91 26
       0.0 6.018716e-11 1.0917222e-09 1.0127032e-15
000300 4d f7 3b 30 8a 6f 92 30 00 00 00 00 d6 f6 dd 2e
       6.838164e-10 1.0654599e-09 0.0 1.0093763e-10
000310 91 fd 89 30 1e 41 33 30 91 15 27 30 ad 2f 5a 30
       1.004013e-09 6.521236e-10 6.0784894e-10 7.937569e-10
000320 ac a4 2f 30 d6 b4 a3 2e 00 00 00 00 00 00 00 00
       6.389864e-10 7.444505e-11 0.0 0.0
000330 91 91 5a 2a d1 d6 a3 2e dc ed cf 2b 03 b2 80 2f
       1.9412793e-13 7.450541e-11 1.4774254e-12 2.340955e-10
000340 93 d7 55 2f c8 72 17 2a a8 1b 66 2f 66 c7 04 2f
       1.9448824e-10 1.3451317e-13 2.0928204e-10 1.207617e-10
000350 ad be 36 30 97 f9 8a 30 74 ed 08 2d 35 2b 85 30
       6.648218e-10 1.0111759e-09 7.78343e-12 9.689304e-10
000360 c6 cd 13 2c a6 38 d5 2d 00 00 00 00 ce 74 c7 29
       2.1004184e-12 2.4240453e-11 0.0 8.8576377e-14
000370 70 32 6f 2d 8b 3a 1b 2d 5e 47 01 30 86 ac 01 27
       1.35967765e-11 8.823729e-12 4.7031345e-10 1.7995871e-15
000380 7e 2e 9d 39 e7 38 89 39 00 00 00 00 84 19 5d 39
       0.00029980013 0.00026173072 0.0 0.00021085708
000390 74 9e ad 39 d9 21 5c 39 f1 21 92 39 e8 69 89 39
       0.00033115188 0.00020993444 0.00027872578 0.00026209583
0003a0 15 d7 88 39 80 ad 59 39 e4 cc a2 2b 00 00 00 00
       0.0002610019 0.00020759366 1.1567661e-12 0.0
0003b0 90 b1 03 39 08 b5 01 39 f6 bf 75 35 42 d6 85 39
       0.00012559281 0.00012369838 9.154895e-07 0.0002552737
0003c0 53 8a 45 39 99 d7 a2 35 d8 32 95 39 8a 74 86 39
       0.00018838914 1.2132688e-06 0.00028457376 0.000256453
0003d0 3d ce 56 39 e8 35 ad 39 7c e2 dd 39 fb b5 8d 39
       0.0002048546 0.00033037295 0.0004232115 0.00027029202
0003e0 74 59 35 39 d4 c2 a2 39 f9 56 3c 36 5f 19 18 37
       0.00017294829 0.00031044206 2.8064808e-06 9.065813e-06
0003f0 8c be 6b 35 64 7f 1b 39 bf c3 6a 39 3b d9 1d 36
       8.7821604e-07 0.00014829409 0.000223889 2.3521268e-06

exp_avg f4 [32]
000000 49 de a2 3a 04 00 00 00 6a 31 a6 3a 04 00 00 00
       0.0012425865 6e-45 0.0012679521 6e-45
000010 04 00 00 00 04 00 00 00 04 00 00 00 d7 47 a4 3a
       6e-45 6e-45 6e-45 0.0012533617
000020 c4 9e a8 3a ea 16 9b ba 00 00 00 00 04 00 00 00
       0.0012864699 -0.001183239 0.0 6e-45
000030 04 00 00 00 04 00 00 00 21 fa 90 3a bb 96 9b 3a
       6e-45 6e-45 0.0011060872 0.0011870483
000040 00 00 00 00 04 00 00 00 b3 89 aa 3a 04 00 00 00
       0.0 6e-45 0.0013011008 6e-45
000050 5c 4a a9 3a 00 00 00 00 eb 31 bf 3a 04 00 00 00
       0.0012915838 0.0 0.001458702 6e-45
000060 43 fb 8e 3a 04 00 00 00 05 25 94 3a 04 00 00 00
       0.0010908622 6e-45 0.0011302537 6e-45
000070 d6 48 07 38 04 00 00 00 c7 ce ad 3a 0c 5e 77 3a
       3.2254342e-05 6e-45 0.0013260477 0.00094363163

exp_avg_sq f4 [32]
000000 8c a2 0a 39 b3 4e 00 33 20 96 c7 38 da fe 18 34
       0.00013221259 2.98739e-08 9.5170224e-05 1.4248818e-07
000010 d3 39 b6 30 7c 04 84 31 91 c0 b2 31 66 2e da 38
       1.3258677e-09 3.8422154e-09 5.202374e-09 0.000104036924
000020 46 64 a9 38 24 37 32 38 00 00 00 00 ed 3a 72 27
       8.077225e-05 4.248986e-05 0.0 3.361619e-15
000030 2f dd c1 31 7d c0 91 33 1e f1 fb 38 6a e1 cb 38
       5.642185e-09 6.787102e-08 0.00012013524 9.721781e-05
000040 00 00 00 00 e1 8e a5 33 63 18 c0 38 84 7c fc 31
       0.0 7.709401e-08 9.159816e-05 7.348321e-09
000050 46 17 1e 39 00 00 00 00 cc a4 fb 38 a3 2f d1 32
       0.00015076724 0.0 0.000119993085 2.4352465e-08
000060 9b 90 aa 38 73 59 26 32 71 42 f0 38 94 25 f8 33
       8.1331666e-05 9.68281e-09 0.000114564675 1.1555235e-07
000070 92 89 bf 36 b0 ad d3 32 3c ee ef 38 40 df 8b 38
       5.708259e-06 2.4642617e-08 0.00011440783 6.66962e-05

exp_avg f4 [1, 32]
000000 1e d0 4c 3c 04 00 00 80 f4 d7 6a 3c 04 00 00 80
       0.012500791 -6e-45 0.014333714 -6e-45
000010 04 00 00 80 04 00 00 80 04 00 00 80 5b e7 5b 3c
       -6e-45 -6e-45 -6e-45 0.013421859
000020 1c 00 66 3c d5 ab 95 3a 00 00 00 00 04 00 00 80
       0.014038112 0.0011419008 0.0 -6e-45
000030 04 00 00 80 04 00 00 00 bc f0 3e 3c 4c 99 c8 3c
       -6e-45 6e-45 0.011654075 0.02448716
000040 00 00 00 00 04 00 00 80 b9 00 a8 3c 04 00 00 80
       0.0 -6e-45 0.020508157 -6e-45
000050 fd 81 90 3c 00 00 00 00 ce 5a 75 3c 04 00 00 80
       0.017640108 0.0 0.014975263 -6e-45
000060 fc 7d c1 3c 04 00 00 80 a9 b6 4b 3c 04 00 00 80
       0.023619644 -6e-45 0.012433686 -6e-45
000070 a2 b1 6f 37 04 00 00 80 07 bb 5f 3c 36 ea 51 3b
       1.42868685e-05 -6e-45 0.013655431 0.003203047

exp_avg_sq f4 [1, 32]
000000 ad c3 2a 3c f2 32 00 34 5d 77 52 3c b3 43 31 34
       0.010422629 1.1939463e-07 0.012845841 1.6509038e-07
000010 79 84 03 34 91 86 03 30 32 59 18 34 69 98 3b 3c
       1.2248519e-07 4.784875e-10 1.4188552e-07 0.011449912
000020 a9 ca 45 3c 83 28 ee 39 00 00 00 00 af fb 93 25
       0.012072244 0.0004542508 0.0 2.5670983e-16
000030 9a 3e 04 31 28 36 1d 34 93 37 19 3c 3e b2 0f 3d
       1.9244113e-09 1.4641466e-07 0.009351629 0.035082094
000040 00 00 00 00 30 69 a0 34 47 0d ba 3c 8e 85 7d 32
       0.0 2.9878856e-07 0.02271141 1.4756905e-08
000050 17 10 9c 3c 00 00 00 00 11 e8 65 3c c4 18 b2 32
       0.019050641 0.0 0.01403238 2.073319e-08
000060 89 41 02 3d e7 76 44 30 04 ae 2b 3c ad eb 50 33
       0.03180078 7.1473355e-10 0.0104785 4.864312e-08
000070 c3 3c 19 39 54 40 99 31 43 e3 44 3c 76 80 70 3a
       0.00014613853 4.4601993e-09 0.012017074 0.00091744156

exp_avg f4 [2, 32]
000000 6c a4 8c 3b 04 00 00 00 b1 52 a4 3b 04 00 00 80
       0.0042920616 6e-45 0.0050147404 -6e-45
000010 04 00 00 80 04 00 00 80 04 00 00 80 ff c0 98 3b
       -6e-45 -6e-45 -6e-45 0.004661679
000020 87 15 a0 3b 92 5b 03 3a 00 00 00 00 04 00 00 80
       0.0048853788 0.00050108985 0.0 -6e-45
000030 04 00 00 00 04 00 00 80 45 20 82 3b af 5c 14 3c
       6e-45 -6e-45 0.003971132 0.009055301
000040 00 00 00 00 04 00 00 00 ac cc fa 3b 04 00 00 00
       0.0 6e-45 0.0076537933 6e-45
000050 1c 7c ce 3b 00 00 00 00 91 20 ab 3b 04 00 00 00
       0.006301416 0.0 0.005222388 6e-45
000060 30 01 0f 3c 04 00 00 00 85 76 8b 3b 04 00 00 00
       0.0087283105 6e-45 0.004256072 6e-45
000070 16 77 f2 b6 04 00 00 00 cb a4 99 3b 7a 66 a5 3a
       -7.2260254e-06 6e-45 0.0046888343 0.0012619041
000080 6c a4 8c bb 04 00 00 80 b1 52 a4 bb 04 00 00 00
       -0.0042920616 -6e-45 -0.0050147404 6e-45
000090 04 00 00 00 04 00 00 00 04 00 00 00 ff c0 98 bb
       6e-45 6e-45 6e-45 -0.004661679
0000a0 87 15 a0 bb 92 5b 03 ba 00 00 00 00 04 00 00 00
       -0.0048853788 -0.00050108985 0.0 6e-45
0000b0 04 00 00 80 04 00 00 00 45 20 82 bb af 5c 14 bc
       -6e-45 6e-45 -0.003971132 -0.009055301
0000c0 00 00 00 00 04 00 00 80 ac cc fa bb 04 00 00 80
       0.0 -6e-45 -0.0076537933 -6e-45
0000d0 1c 7c ce bb 00 00 00 00 91 20 ab bb 04 00 00 80
       -0.006301416 0.0 -0.005222388 -6e-45
0000e0 30 01 0f bc 04 00 00 80 85 76 8b bb 04 00 00 80
       -0.0087283105 -6e-45 -0.004256072 -6e-45
0000f0 16 77 f2 36 04 00 00 80 cb a4 99 bb 7a 66 a5 ba
       7.2260254e-06 -6e-45 -0.0046888343 -0.0012619041

exp_avg_sq f4 [2, 32]
000000 04 03 67 3a 39 f7 96 2e 62 7b 8e 3a 79 1d b1 2f
       0.00088124 6.865126e-11 0.0010870511 3.2217054e-10
000010 19 12 24 2e 1a c6 89 2c 53 b0 aa 2e 14 b2 7d 3a
       3.7305357e-11 3.915768e-12 7.7620264e-11 0.000967772
000020 f0 f9 85 3a 0c 3b 60 38 00 00 00 00 af fb 93 24
       0.0010221582 5.3460753e-05 0.0 6.4177456e-17
000030 35 5b aa 2b 38 52 b8 2e 9f 29 50 3a 43 94 46 3b
       1.2104542e-12 8.381956e-11 0.00079407723 0.0030300773
000040 00 00 00 00 f7 b0 b9 2f 3e c6 fe 3a fd f4 1a 2f
       0.0 3.3777045e-10 0.0019437743 1.4093256e-10
000050 eb f3 d3 3a 00 00 00 00 4b bc 9b 3a fa 4c e1 2e
       0.0016170716 0.0 0.0011881677 1.0245489e-10
000060 b2 24 33 3b d5 9b ca 2a 58 fc 68 3a ce a7 1c 2e
       0.0027335105 3.5990538e-13 0.00088877 3.5619334e-11
000070 dc 10 18 38 e4 81 da 2d 5f 29 85 3a 0f c1 e9 38
       3.6255326e-05 2.4841414e-11 0.0010159424 0.00011146266
000080 04 03 67 3a 39 f7 96 2e 62 7b 8e 3a 79 1d b1 2f
       0.00088124 6.865126e-11 0.0010870511 3.2217054e-10
000090 19 12 24 2e 1a c6 89 2c 53 b0 aa 2e 14 b2 7d 3a
       3.7305357e-11 3.915768e-12 7.7620264e-11 0.000967772
0000a0 f0 f9 85 3a 0c 3b 60 38 00 00 00 00 af fb 93 24
       0.0010221582 5.3460753e-05 0.0 6.4177456e-17
0000b0 35 5b aa 2b 38 52 b8 2e 9f 29 50 3a 43 94 46 3b
       1.2104542e-12 8.381956e-11 0.00079407723 0.0030300773
0000c0 00 00 00 00 f7 b0 b9 2f 3e c6 fe 3a fd f4 1a 2f
       0.0 3.3777045e-10 0.0019437743 1.4093256e-10
0000d0 eb f3 d3 3a 00 00 00 00 4b bc 9b 3a fa 4c e1 2e
       0.0016170716 0.0 0.0011881677 1.0245489e-10
0000e0 b2 24 33 3b d5 9b ca 2a 58 fc 68 3a ce a7 1c 2e
       0.0027335105 3.5990538e-13 0.00088877 3.5619334e-11
0000f0 dc 10 18 38 e4 81 da 2d 5f 29 85 3a 0f c1 e9 38
       3.6255326e-05 2.4841414e-11 0.0010159424 0.00011146266

exp_avg f4 [2]
000000 37 51 41 39 37 51 41 b9
       0.00018436169 -0.00018436169

exp_avg_sq f4 [2]
000000 52 52 4a 36 52 52 4a 36
       3.0148262e-06 3.0148262e-06
