_models/CartPole-v1_policy_gradient.pt (torch, 7158 bytes, 12 tensors)

mlp.0.weight f4 [16, 4]
0	0x3aa9e1c0	0.0012960956
1	0xba39264c	-0.00070628966
2	0x3d3a3c61	0.045467738
3	0x3d72c250	0.059267342
4	0xbeced457	-0.40396377
5	0xbf0fa13c	-0.561054
6	0xc01d5e87	-2.4588945
7	0xbf9493e9	-1.1607639
8	0xbddc53ab	-0.10758146
9	0x3e7a21bb	0.2442693
10	0x3f3c0988	0.73452044
11	0x3e4c88aa	0.19974008
12	0x3e27fdff	0.16405486
13	0xbe149ee5	-0.14513738
14	0xbebdf7ee	-0.37103218
15	0xbebb3870	-0.36566496
16	0x3f782540	0.9693184
17	0xbe775eb6	-0.24157223
18	0x3ff2a49d	1.8956486
19	0x3f54fd1d	0.8319872
20	0x3e9c446a	0.30520946
21	0x3f30b8d6	0.6903204
22	0x400463e5	2.068597
23	0x3fa74bc8	1.3070002
24	0xbec3ef9f	-0.38268754
25	0x3ee58887	0.44830725
26	0x3b6141da	0.0034371526
27	0x3e990368	0.2988541
28	0xbee82b2c	-0.45345438
29	0xbed58798	-0.41705012
30	0xbf6f00c9	-0.93360573
31	0xbf80b9a0	-1.0056648
32	0xbd89a6b8	-0.06721252
33	0x3e44d982	0.19223598
34	0x4024b31a	2.5734315
35	0x3f4cbe39	0.79977757
36	0xbe9e052a	-0.30863315
37	0xbeba2d10	-0.36362505
38	0xbea23bef	-0.3168635
39	0xbe815e47	-0.2526724
40	0xbe6637cf	-0.22482227
41	0x3e51e556	0.20497641
42	0xbdd9b2d1	-0.1062981
43	0xbad2a0d7	-0.0016069663
44	0xbe917d82	-0.28416067
45	0xbf249726	-0.64293134
46	0xc0057c32	-2.0857053
47	0xbfbb1bf5	-1.4617907
48	0x3f8c944d	1.0982758
49	0x3ed2bdd5	0.41160455
50	0x3f7a9dd3	0.9789707
51	0x3f7bf8a1	0.9842625
52	0xbed6dcff	-0.41965482
53	0xbea750f4	-0.3267895
54	0xbf4a4e62	-0.7902585
55	0x3d340ac1	0.04395557
56	0xbf0f75fc	-0.56039405
57	0xbefa9858	-0.48944354
58	0xc00bd2f3	-2.1847503
59	0xbfa030db	-1.251491
60	0xbe414bf4	-0.1887663
61	0x3d83227d	0.064030625
62	0xbca362cb	-0.01994457
63	0x3e2c81bc	0.16846365

mlp.0.bias f4 [16]
0	0xbe1d4441	-0.15358068
1	0x3f0231d1	0.50857264
2	0xbe8779c6	-0.26460093
3	0xbf019c37	-0.5062899
4	0x3da76658	0.081738174
5	0x3f09673a	0.53673136
6	0xbf14e6f3	-0.581649
7	0x3e727200	0.236763
8	0x3efbf6c1	0.49211696
9	0xbee90773	-0.45513496
10	0xbf2fde2a	-0.6869837
11	0x3f1f2d35	0.62178355
12	0x3e57a76d	0.21059962
13	0xbf05f942	-0.5233346
14	0x3f01d01b	0.5070817
15	0xbf10773b	-0.5643193

mlp.2.weight f4 [2, 16]
0	0x3b7b4dcb	0.0038345929
1	0x3f70d785	0.94078857
2	0x3d247a87	0.040155914
3	0xbe240c46	-0.16020307
4	0xbf27a968	-0.6549287
5	0xbf674882	-0.90345013
6	0x3ccd417f	0.025055645
7	0x3f43e382	0.76519024
8	0xbe8c872f	-0.27446887
9	0x3dc2ef3d	0.09518287
10	0xbd201e8a	-0.039091624
11	0x3f36f884	0.71472955
12	0xbf1effb5	-0.6210893
13	0x3e7309bf	0.23734187
14	0x3f22e1b8	0.6362567
15	0xbe49bebd	-0.19701667
16	0x3dafb183	0.085787795
17	0xbf9ec01a	-1.2402375
18	0x3d2cd333	0.042193603
19	0xbdb25c18	-0.08708972
20	0x3ed4c2e6	0.41554946
21	0x3f50cb79	0.81560475
22	0x3d07784e	0.033073716
23	0xbf65d15a	-0.8977257
24	0x3ea47c34	0.3212601
25	0xbdd8a6db	-0.105787
26	0x3e0c6f0d	0.13714238
27	0xbf8a6b2f	-1.081396
28	0x3f11394a	0.5672804
29	0xbceaf272	-0.02868006
30	0xbf84c34e	-1.0372102
31	0x3c9504bf	0.01819074

mlp.2.bias f4 [2]
0	0xbe13d875	-0.1443804
1	0x3cba155c	0.022715263

exp_avg f4 [16, 4]
0	0x851a377d	-7.251237e-36
1	0x8515af12	-7.038102e-36
2	0x030a9d8a	4.07354e-37
3	0x053c9cde	8.8685295e-36
4	0xbf7fcf7c	-0.9992597
5	0xbf9aa555	-1.2081705
6	0x3e5c795f	0.21530674
7	0x3f920dff	1.1410521
8	0xb38e4313	-6.624591e-08
9	0x3481049e	2.4031482e-07
10	0x333e7e16	4.4352497e-08
11	0xb3e6e571	-1.0751945e-07
12	0x9546201d	-4.0011114e-26
13	0x95280dec	-3.3938312e-26
14	0x920209a7	-4.1032665e-28
15	0x15483e4c	4.0438822e-26
16	0x3e9b0b36	0.3028199
17	0x3e2ff6f5	0.1718405
18	0xbd943530	-0.07236707
19	0xbe4cd969	-0.2000481
20	0x3f5c055f	0.85945696
21	0x3f82bd3e	1.0214002
22	0xbe2c5abf	-0.16831492
23	0xbf5f8c2b	-0.87323254
24	0x87dd3826	-3.3285385e-34
25	0x87ed1bda	-3.5676166e-34
26	0x85a43450	-1.5441702e-35
27	0x86f9f4ca	-9.4023075e-35
28	0xbf364e23	-0.7121298
29	0xbf6cf671	-0.9256354
30	0x3e0c5b5b	0.13706724
31	0x3f50c725	0.8155387
32	0x3ea3bacf	0.3197846
33	0x3ec632b6	0.38710564
34	0xbd7fd161	-0.06245554
35	0xbea7750e	-0.32706493
36	0x09296502	2.0390129e-33
37	0x891af702	-1.8653218e-33
38	0x04e83ecb	5.4600604e-36
39	0x09165f0a	1.810028e-33
40	0x8861d41e	-6.7957817e-34
41	0x87ba6e7e	-2.805111e-34
42	0x8555f66f	-1.00604746e-35
43	0x85ec027c	-2.2194246e-35
44	0xbf509f0a	-0.81492674
45	0xbf7c63fe	-0.98590076
46	0x3e2d6dd3	0.16936426
47	0x3f6c16b1	0.92222124
48	0x3f17ef3d	0.59349424
49	0x3f3e8f94	0.7443783
50	0xbdd70368	-0.104986966
51	0xbf25f61a	-0.64828646
52	0xaea3fefd	-7.457677e-11
53	0xaf26a965	-1.5157793e-10
54	0x2cd565fb	6.065146e-12
55	0x2ee64c39	1.0472729e-10
56	0xbf207e39	-0.626926
57	0xbf741484	-0.95343804
58	0x3e01ccd0	0.12675786
59	0x3f803cc3	1.0018543
60	0x871770c1	-1.1393113e-34
61	0x87009161	-9.672373e-35
62	0x851340b2	-6.9237894e-36
63	0x05b5a476	1.7081572e-35

exp_avg_sq f4 [16, 4]
0	0x38a1ef27	7.721624e-05
1	0x386ca114	5.64168e-05
2	0x358fd1b7	1.0715365e-06
3	0x37d2a8ea	2.5112608e-05
4	0x4196c30f	18.845243
5	0x4172f825	15.185582
6	0x3eb6c9fb	0.35700974
7	0x414e767e	12.903929
8	0x3d37c348	0.04486397
9	0x3d2562cd	0.040377427
10	0x3a04bda4	0.0005063659
11	0x3c355b9c	0.011069205
12	0x3ac2c3df	0.00148594
13	0x3ab831bb	0.0014052907
14	0x380a4889	3.2969318e-05
15	0x3a5b050c	0.0008354939
16	0x3f9a990c	1.2077956
17	0x3fda6d39	1.7064582
18	0x3d6da261	0.058016185
19	0x3fc1227d	1.508865
20	0x4195f5a9	18.744951
21	0x4150adaf	13.042403
22	0x3ea06942	0.31330305
23	0x4136b540	11.4192505
24	0x3e6f989e	0.23398063
25	0x3e34677c	0.17617601
26	0x3aa87ac9	0.0012853976
27	0x3c326b5b	0.010889853
28	0x40c1b08f	6.0528026
29	0x40918ed0	4.548683
30	0x3e048ae5	0.12943609
31	0x40809fd0	4.0195084
32	0x408da9ff	4.4270015
33	0x403857e0	2.8803635
34	0x3d69597e	0.056970112
35	0x40011b05	2.0172741
36	0x3e8deb9e	0.27718824
37	0x3dc34375	0.09534351
38	0x3a6124d3	0.0008588556
39	0x3c781020	0.015140563
40	0x3e0be2c6	0.13660726
41	0x3dd25ed4	0.10271993
42	0x3a6bd6cc	0.0008996546
43	0x3baf81fd	0.005356072
44	0x413db4fa	11.856684
45	0x4114630e	9.274183
46	0x3e607aa1	0.21921779
47	0x40fe704a	7.951207
48	0x4012fb75	2.2965977
49	0x4070507c	3.7549124
50	0x3dd24aec	0.102681965
51	0x4040a256	3.0099082
52	0x3f058970	0.5216284
53	0x3e357f59	0.1772436
54	0x3ad2551c	0.0016047093
55	0x3d34cb57	0.044139232
56	0x4103cdec	8.237774
57	0x40e30cdc	7.0953197
58	0x3e35dd66	0.17760238
59	0x40c06ae9	6.0130506
60	0x3def9b45	0.11699537
61	0x3d939783	0.07206633
62	0x3a07edad	0.0005185258
63	0x3c74ba19	0.014936947

exp_avg f4 [16]
0	0x04de124f	5.2208763e-36
1	0xc057e12a	-3.373118
2	0x349a707a	2.8766573e-07
3	0x95130515	-2.9690423e-26
4	0x3f8452f0	1.033781
5	0x403f289d	2.9868538
6	0x050d896b	6.655028e-36
7	0xc03999ca	-2.9000115
8	0x3f8b9361	1.0904351
9	0x88721818	-7.285255e-34
10	0x07f42c01	3.6738903e-34
11	0xc0337a5e	-2.8043437
12	0x400e736b	2.2257946
13	0x2f2dd3ca	1.5809501e-10
14	0xc0131a60	-2.2984848
15	0x06ab2e98	6.4391514e-35

exp_avg_sq f4 [16]
0	0x38da1377	0.00010398676
1	0x4317860a	151.52359
2	0x3d0c5168	0.034257323
3	0x3ad12efb	0.0015959436
4	0x41c44dfd	24.53808
5	0x43059ba6	133.608
6	0x3db1d448	0.086830676
7	0x424d9d9d	51.40392
8	0x41b72a92	22.895786
9	0x3e01166f	0.12606214
10	0x3d6e02c9	0.058108125
11	0x42bbceed	93.90415
12	0x42399071	46.391056
13	0x3e818032	0.25293118
14	0x4296ec5b	75.46163
15	0x3d667122	0.056260236

exp_avg f4 [2, 16]
0	0x83513533	-6.148065e-37
1	0xbf8b1a25	-1.0867354
2	0xb4d9d139	-4.057163e-07
3	0x145003e0	1.05020806e-26
4	0xbda06d91	-0.07833398
5	0xbf31c021	-0.6943379
6	0x888d53da	-8.505842e-34
7	0xbef0e388	-0.47048593
8	0xbea959c3	-0.33076295
9	0x08c6bc67	1.1960985e-33
10	0x87a9ce94	-2.554971e-34
11	0xbfb32ec8	-1.3998652
12	0xbf29cdcf	-0.66329664
13	0x2c4518d8	2.8009175e-12
14	0xbf88958e	-1.067064
15	0x862c6391	-3.2422754e-35
16	0x03513533	6.148065e-37
17	0x3f8b1a26	1.0867355
18	0x34d9d139	4.057163e-07
19	0x945003e0	-1.05020806e-26
20	0x3da06d99	0.07833404
21	0x3f31c02b	0.6943385
22	0x088d53da	8.505842e-34
23	0x3ef0e385	0.47048584
24	0x3ea959c0	0.33076286
25	0x88c6bc67	-1.1960985e-33
26	0x07a9ce94	2.554971e-34
27	0x3fb32ec9	1.3998653
28	0x3f29cdd1	0.66329676
29	0xac4518d8	-2.8009175e-12
30	0x3f88958e	1.067064
31	0x062c6391	3.2422754e-35

exp_avg_sq f4 [2, 16]
0	0x3aa55034	0.0012612403
1	0x410ff343	8.99689
2	0x3ec5ba15	0.38618532
3	0x3a1e9ca0	0.00060505606
4	0x4026827d	2.6017144
5	0x419b085b	19.37908
6	0x3e0c7d67	0.13719712
7	0x3f8aeeab	1.0854086
8	0x41928f42	18.31995
9	0x3eb9448e	0.36185116
10	0x3e8e89ba	0.27839452
11	0x41666ee3	14.402072
12	0x4071293f	3.7681425
13	0x3ec9be5b	0.39403042
14	0x41158a24	9.346226
15	0x3da94c31	0.082664855
16	0x3aa55034	0.0012612403
17	0x410ff342	8.996889
18	0x3ec5ba15	0.38618532
19	0x3a1e9ca0	0.00060505606
20	0x4026827d	2.6017144
21	0x419b085b	19.37908
22	0x3e0c7d67	0.13719712
23	0x3f8aeeab	1.0854086
24	0x41928f42	18.31995
25	0x3eb9448f	0.3618512
26	0x3e8e89bc	0.27839458
27	0x41666ee3	14.402072
28	0x40712940	3.7681427
29	0x3ec9be5b	0.39403042
30	0x41158a26	9.346228
31	0x3da94c31	0.082664855

exp_avg f4 [2]
0	0xbfda7e78	-1.7069845
1	0x3fda7e78	1.7069845

exp_avg_sq f4 [2]
0	0x4237948d	45.89507
1	0x4237948e	45.895073
