_models/CartPole-v1_DQN.pt (torch, 22958 bytes, 18 tensors)

mlp.0.weight f4 [32, 4]
000000 6a 69 ca 3d 80 9a 3b bb ff 27 c2 be b7 7a 9d 3e
       0.098833874 -0.0028626025 -0.3792114 0.30757686
000010 b0 59 35 bf 2a 4f 0b 3f dd 55 14 bf d5 6e 81 3e
       -0.7083998 0.5441767 -0.57943517 0.2527987
000020 78 5a 8e 3d 00 c4 7a bd 40 02 0e 3e 20 10 ca 3c
       0.06950849 -0.061222076 0.13868046 0.024665892
000030 9b 5b d8 bc 54 b8 d5 bb ef 99 4a bf de 2e fd bd
       -0.026410868 -0.0065222178 -0.79141134 -0.12362455
000040 2b 57 2f be 66 b7 18 3e 4b e8 04 3e 75 2d 80 3e
       -0.17123096 0.14913711 0.12979238 0.2503468
000050 e4 4f aa be ec 0f f9 bc 6d b6 1b bf 4e ec 49 be
       -0.33264077 -0.0304031 -0.60825235 -0.1971905
000060 4d 89 ef be b1 20 3e 3e b4 cb 4c 3d 4a 67 b1 3e
       -0.4678444 0.18567158 0.049998954 0.34649116
000070 dc 73 75 bf 26 a5 18 3f 44 7e 56 3e 15 2a 23 3f
       -0.9587991 0.59626997 0.20946604 0.6373609
000080 d9 94 ae 3e 73 c4 c5 be 40 33 c2 bf 48 b4 8e be
       0.34097937 -0.3862644 -1.517189 -0.2787192
000090 62 1a ad 3d 34 60 81 3d 0a ad a0 be 99 ce 76 be
       0.08452298 0.063171774 -0.31382018 -0.24102248
0000a0 10 b1 4b 40 27 6c 0c 40 0f ed 2b 40 bb fe d6 3f
       3.182682 2.194101 2.686344 1.6796488
0000b0 1d 6c 47 be 7f 38 94 3e 8a f3 26 bf 3d c4 a3 3e
       -0.19474836 0.28949353 -0.6521536 0.31985655
0000c0 e3 00 d9 bf 8a 98 1f c0 0c c8 00 c1 36 88 00 c0
       -1.6953396 -2.4936852 -8.04884 -2.0083137
0000d0 0e 90 5e bd 88 32 08 3f 70 4b c4 40 61 89 c5 3f
       -0.0543366 0.53202105 6.1342087 1.543255
0000e0 f1 21 04 40 bb c5 0e 40 fe 87 e6 40 3b 9b fb 3f
       2.0645716 2.2308185 7.2041006 1.9656748
0000f0 19 48 11 bf 3b 5f 1a 3f 40 df c3 3e e8 f7 11 3f
       -0.5675064 0.6030156 0.38256264 0.570189
000100 b5 e1 5a bf 26 32 93 3b 40 d0 47 bd b5 83 97 3e
       -0.8550065 0.004492062 -0.048782587 0.29592672
000110 70 fd f2 bf 53 22 30 c0 5e b8 fd c0 69 80 01 c0
       -1.8983593 -2.752095 -7.9287558 -2.0234625
000120 39 ab 27 3f 99 b8 da 3e 28 20 10 bf 43 64 36 3e
       0.6549564 0.42718962 -0.56299067 0.17811684
000130 6d f1 fb 3e 7d 63 3e 3f 42 b8 84 bf 6e 44 a5 3e
       0.4920763 0.7437056 -1.0368731 0.3227877
000140 20 cd ac be f8 4d c9 bd 09 ef a3 be 1e 9b b8 3a
       -0.33750248 -0.098293245 -0.32018307 0.0014084314
000150 69 81 11 3e 81 4e cd 3b 28 c0 58 bf 8f f8 aa 3e
       0.14209522 0.006265462 -0.8466821 0.3339276
000160 28 fb c5 3e 4a 8a 9a 3e 7e 80 1e c0 5f 30 0b bf
       0.3866818 0.3018363 -2.4765925 -0.54370683
000170 fb 94 0b be 36 05 05 3d 77 3e 90 bf 28 df d5 bd
       -0.1363105 0.032475673 -1.1269063 -0.10442954
000180 3d 98 34 40 24 40 ae 3f e3 f7 26 c0 55 06 6d 3e
       2.821792 1.3613324 -2.6088798 0.23146947
000190 e7 c8 28 3f a0 c8 f1 3e 15 d6 2d bd d4 23 84 3e
       0.6593155 0.47223377 -0.042440493 0.25808585
0001a0 d8 13 14 c0 2f 32 5d bf b4 e7 a2 40 38 d8 84 bd
       -2.3137112 -0.864047 5.090784 -0.06486553
0001b0 55 00 d7 3b 52 8c 43 3f b9 b9 c1 40 fc e7 ec 3f
       0.006561319 0.76385987 6.053921 1.8508296
0001c0 82 9b a6 3f 35 c3 d9 3f 48 8a ca 40 be 16 dc 3f
       1.3016207 1.7012697 6.32938 1.719444
0001d0 32 22 69 40 61 24 ea 3f 17 8c f3 bf 2f d6 10 3f
       3.642712 1.8292352 -1.9027127 0.5657682
0001e0 e6 08 08 bf d5 c9 4e 3e 88 01 4a 3d 62 5c 27 be
       -0.5313858 0.2019418 0.049317867 -0.16343835
0001f0 2e 70 7d 3f 64 96 e6 3d d9 01 bc c0 ce 77 11 bf
       0.989993 0.112591535 -5.8752255 -0.5682343

mlp.0.bias f4 [32]
000000 93 ec 21 40 fa e4 22 40 66 fc 9e be a7 7b 09 40
       2.5300643 2.5452256 -0.3105194 2.1481721
000010 99 35 27 40 ef c6 18 40 d0 66 1b 40 30 45 20 40
       2.6126463 2.387142 2.4281502 2.5042229
000020 e2 a9 0a 40 e6 64 0f 40 10 5d 04 be b4 ed 03 bf
       2.1666188 2.2405334 -0.12926126 -0.5153458
000030 1e c5 5a be bf 5b 9c 3f 18 8a 6f be 65 fd 24 40
       -0.21364257 1.2215499 -0.23392522 2.577966
000040 4f 6d 07 40 3a eb 0c 3d a5 65 02 40 92 f1 04 40
       2.1160467 0.034404017 2.037454 2.0772443
000050 a5 c4 17 40 af 2c 20 40 ff b6 e9 3f a1 ad 16 40
       2.3713772 2.5027273 1.8258971 2.3543475
000060 85 dc b3 be 99 59 10 40 81 7c c4 be c5 b7 b2 bf
       -0.3512918 2.2554686 -0.3837624 -1.3962332
000070 ec 4f c3 3e 0f 98 8c bd bb 94 1a 40 27 63 7f 3f
       0.38146913 -0.068649404 2.4153278 0.9976067

mlp.2.weight f4 [32, 32]
000000 0e e0 b8 3f 68 11 ff 3f d8 d3 67 3d 50 6f 00 40
       1.4443376 1.9927187 0.056598514 2.006794
000010 d5 6e c7 3f 5c 4e 03 40 ea e6 ce 3f b5 37 d7 3f
       1.5580698 2.0516577 1.6164219 1.6813875
000020 fe 4a db 3f 7b 24 d4 3f b1 1d 89 c0 d2 91 0b 3d
       1.7132261 1.6573633 -4.2848744 0.034074612
000030 36 9b 6f c0 f5 8b 0a c0 df 45 a9 c0 3d 9a e1 3f
       -3.7438483 -2.1647923 -5.289779 1.7625195
000040 e4 31 ee 3f eb de 22 c0 2b 70 b7 3f c0 15 e6 3f
       1.8608975 -2.5448558 1.4331106 1.7975388
000050 3b db ed 3f 43 c0 c9 3f a7 8e 86 3f e5 80 ed 3f
       1.8582529 1.5761799 1.0512284 1.855496
000060 85 95 7e c0 45 68 b5 3f 17 0f 77 c0 95 82 6f c0
       -3.977876 1.4172446 -3.860296 -3.742345
000070 21 bb 52 c0 84 d9 23 c0 39 18 01 40 25 14 d7 bf
       -3.2926714 -2.560151 2.0171034 -1.6803023
000080 ba cf 1a be 48 0d 89 bd 1f 0a 03 3e 05 f4 53 be
       -0.15118304 -0.06691986 0.1279683 -0.20698555
000090 d2 c3 0e 3c 97 79 08 3d 7e c2 d4 3d ed 4b 45 be
       0.008713679 0.033319082 0.10388659 -0.19267245
0000a0 db 0f 11 bd 85 17 63 be 99 8b 1a 3e e5 6f 8c bd
       -0.03541551 -0.2217694 0.15092315 -0.0685728
0000b0 41 88 ef 3c 5e 9a 6e bd 05 64 8e bd 6a 02 94 bd
       0.029239776 -0.058252685 -0.06952671 -0.07227023
0000c0 aa ad 21 bd d1 a8 20 3d 83 15 39 bd bb 5c 98 bc
       -0.03947226 0.039223496 -0.04518653 -0.018598905
0000d0 72 5c 6b be b2 96 7c 3d 00 8a 63 3d dd 32 82 3d
       -0.22984484 0.06166715 0.05555153 0.06357358
0000e0 ad d1 2d 3d de e4 44 be 2e 35 86 bd bf f8 ed 3d
       0.04243629 -0.19227931 -0.06553112 0.1161971
0000f0 3c db 46 be 66 22 7b 3d 1c fb 63 be ec 05 ff bd
       -0.19419569 0.0613121 -0.2226376 -0.124523014
000100 70 ae f9 3f e0 8b de 3f f8 e2 25 bd 98 a3 09 40
       1.9506359 1.7386436 -0.040499657 2.15061
000110 b0 30 fc 3f de b6 fc 3f 97 c4 ea 3f 80 59 de 3f
       1.9702358 1.9743307 1.8341244 1.7371063
000120 d0 b6 02 40 0f d0 f3 3f c8 62 41 c0 48 fd b1 3d
       2.042408 1.904787 -3.0216541 0.08690888
000130 2a 5c b5 c0 28 49 fc be 25 6e 90 c0 92 d4 df 3f
       -5.6675005 -0.49274564 -4.5134454 1.7486746
000140 1b 69 dc 3f 68 4e a0 c0 91 c7 d9 3f 97 01 d5 3f
       1.7219576 -5.009571 1.7014028 1.664111
000150 71 8f dd 3f ba 9f ef 3f 65 8c 75 3e db 2b de 3f
       1.73094 1.872062 0.23979338 1.7357134
000160 75 64 43 c0 f8 14 e2 3f 08 bf 65 c0 46 1c 7e c0
       -3.0530064 1.7662649 -3.5897846 -3.9704757
000170 2c ab b0 bf ec 80 18 c0 28 9e e6 3f b6 0d 82 c0
       -1.3802238 -2.3828688 1.8017015 -4.0641737
000180 0d c2 24 3f 9a cc d7 be 70 db 27 bc 20 64 a0 3e
       0.643586 -0.42148286 -0.010245189 0.3132639
000190 2a 75 94 3e 08 9e ae 3e 99 e5 ba bd dd af d3 be
       0.2899564 0.34104943 -0.091258235 -0.4134511
0001a0 61 6c 83 3f 30 22 58 3e 9f 3a d4 bf f9 24 07 be
       1.026745 0.21106791 -1.658039 -0.13197698
0001b0 ee 90 c4 3f 46 cc b9 c0 95 03 d6 3e 9e cd f5 be
       1.5356729 -5.8061857 0.41799608 -0.48008436
0001c0 08 d0 01 3e 0e 5e c7 3f 5c 1c 24 bf 45 05 75 bf
       0.12677014 1.5575578 -0.6410577 -0.95711166
0001d0 cf 7b 68 3e f7 36 f7 3e 5b 9d 44 3e fb bc 49 3e
       0.22703479 0.48284122 0.19200651 0.19700997
0001e0 78 76 31 bf 00 d1 69 bf 98 1a 9a 3f 34 95 13 bf
       -0.69321394 -0.91334534 1.2039366 -0.5764954
0001f0 98 57 24 bf bf 87 d3 bf 81 d3 93 be f8 66 28 3f
       -0.6419616 -1.6525801 -0.28872302 0.6578212
000200 27 75 e7 3f f0 a6 f6 3f 80 46 d6 3b 13 ba e5 3f
       1.8082627 1.9269695 0.006539166 1.794741
000210 e5 9d f6 3f d9 64 fe 3f 93 77 f8 3f 59 74 ed 3f
       1.9266936 1.9874526 1.9411491 1.8551131
000220 b1 c5 d8 3f b8 84 e5 3f fc ed 71 c0 bc 5e 88 bd
       1.6935331 1.7931128 -3.7801504 -0.06658694
000230 3d 20 a1 c0 b8 7a 46 bf 47 f2 9f c0 75 1f eb 3f
       -5.0351853 -0.77531004 -4.998325 1.8368975
000240 83 c7 fb 3f 1a 7e 92 c0 1b 05 9c 3f 0a f9 c7 3f
       1.9670261 -4.5778933 1.2189058 1.5622876
000250 c4 de 01 40 7b ae fd 3f 50 e3 86 3d 35 99 e2 3f
       2.0292215 1.9818872 0.06586325 1.7703005
000260 a9 d8 76 c0 28 d2 a7 3f d5 dd 7c c0 21 e7 8b c0
       -3.856974 1.311101 -3.9510396 -4.371964
000270 fc 6f e2 bf db d9 42 c0 4c d8 f9 3f 11 1d 62 c0
       -1.7690425 -3.0445468 1.9519134 -3.533024
000280 cf 3a a3 bd a8 b5 79 bd dc 81 09 bd 6b 71 e7 bd
       -0.07970201 -0.060964257 -0.03357111 -0.1130093
000290 d3 f1 d7 3c 7b f8 db bd 28 8c 15 be a1 8d e6 bb
       0.026360428 -0.10740753 -0.14604247 -0.0070359265
0002a0 49 5d 32 be 48 97 af bd b6 01 b9 3d f4 4d 87 3d
       -0.17418398 -0.085737765 0.090335295 0.06606665
0002b0 2d dd e0 3d 69 81 20 be 00 75 c9 3a 48 52 c8 bd
       0.10979686 -0.15674366 0.0015369952 -0.09781319
0002c0 1e ba 14 be 87 aa cb bd 38 a2 3c bb 46 7e e8 bc
       -0.14524123 -0.09944635 -0.0028783213 -0.028380524
0002d0 73 21 0c be 6e 88 2b be 0a 52 47 be f5 e6 00 3e
       -0.13684635 -0.16751263 -0.19464889 0.12588103
0002e0 5d 16 9c bd 84 9e 96 bd cd 20 85 bd 51 14 b5 bd
       -0.07621453 -0.07354453 -0.06500397 -0.08841766
0002f0 5c 8b 25 be 8d d6 1a be 74 dd 77 3d 44 b3 1e 3d
       -0.16166443 -0.15120907 0.06051393 0.03874518
000300 69 78 da 3f e4 fb ef 3f 7a 46 e7 3d 8a 27 fb 3f
       1.7067996 1.8748746 0.11292739 1.9621441
000310 ec 40 fb 3f b1 1f 01 40 38 ba 01 40 db ef fe 3f
       1.9629188 2.0175593 2.026991 1.9916948
000320 0a 5e c9 3f 77 7a c2 3f 63 b9 88 c0 d8 2e 2b 3b
       1.5731823 1.5193623 -4.27263 0.002612045
000330 dd 77 8f c0 f5 58 50 bf 7f bc af c0 c3 b0 e3 3f
       -4.4833817 -0.8138574 -5.49176 1.7788318
000340 8e a3 05 40 68 6b 85 c0 8a ca 87 3f 8b 13 ab 3f
       2.0881076 -4.169361 1.0608685 1.3365339
000350 55 c1 06 40 87 7a d7 3f 93 db ee 3d d9 2f e9 3f
       2.10555 1.6834267 0.11662974 1.8217727
000360 c0 88 8c c0 22 ac af 3f 40 05 82 c0 4a 81 87 c0
       -4.391693 1.3724406 -4.063141 -4.2345324
000370 33 52 f8 bf 06 fd 6b c0 09 da 05 40 68 25 49 c0
       -1.9400085 -3.6873183 2.0914328 -3.142908
000380 6f 50 ce 3f cc ae fc 3f 12 94 80 3d ac 49 f6 3f
       1.6118296 1.9740844 0.06278242 1.9241233
000390 25 61 d8 3f 84 17 eb 3f 24 01 ee 3f 4f 15 00 40
       1.6904646 1.8366551 1.8594098 2.0013006
0003a0 6d d6 df 3f e6 15 d5 3f f9 a2 7d c0 a0 37 ef 3c
       1.7487313 1.6647308 -3.963072 0.029201329
0003b0 e7 0e 93 c0 1a 2c 5a bf 66 1e a2 c0 6f 3f f2 3f
       -4.595569 -0.85223544 -5.0662107 1.8925608
0003c0 d6 71 e9 3f 59 db 81 c0 c4 71 a4 3f a9 45 9a 3f
       1.8237865 -4.058026 1.2847219 1.2052509
0003d0 bc 12 f5 3f bf 54 c7 3f 9d 18 66 3e b1 e1 d0 3f
       1.9146342 1.5572737 0.22470327 1.6318876
0003e0 33 66 73 c0 06 1f 9f 3f 78 c3 80 c0 18 63 7f c0
       -3.8031127 1.2431343 -4.023861 -3.9904232
0003f0 54 cb ee bf 89 b5 51 c0 4f a9 f7 3f 6f a9 41 c0
       -1.8655801 -3.276705 1.9348544 -3.0259664

mlp.2.bias f4 [32]
000000 dc 2b c1 3f 8f 5b 31 3c bc 15 c4 3f 31 5e 16 3e
       1.509151 0.010825052 1.5319133 0.14684369
000010 e1 70 cf 3f bd 23 b7 bc 3f eb d2 3f 50 3f bf 3f
       1.6206323 -0.022355909 1.6478041 1.4941196
000020 98 f0 b6 3f 98 6e f5 bd 80 ff 3f 3c 34 02 74 3d
       1.4292173 -0.11983985 0.011718631 0.059572414
000030 6f 08 db 3f 27 94 13 be 7e 06 b5 3f b4 62 cb 3f
       1.7111949 -0.14411984 1.4142606 1.5889497
000040 c6 68 88 3d 40 11 be 3d 63 ba bb 3f f9 6a c5 3f
       0.06660609 0.09280634 1.4666256 1.542327
000050 42 ff 32 bd ec b0 90 be b8 82 04 be 89 45 00 bd
       -0.043700464 -0.2825998 -0.1294049 -0.031316314
000060 c6 a4 aa 3f a2 ae bb 3f 10 f2 81 3d df 60 ef bb
       1.3331535 1.4662669 0.06344998 -0.007305249
000070 c4 3a 3f 3f b8 18 1c bd 75 9c c0 3f 72 c2 f0 3f
       0.74699044 -0.03810951 1.5047747 1.880934

mlp.4.weight f4 [2, 32]
000000 b1 9e 5f 40 f0 76 f2 39 93 72 40 40 38 7f f6 bf
       3.4940608 0.00046246452 3.006993 -1.9257574
000010 da 1e 3b 40 db 8f 90 bd 36 5f 2d 40 6b 76 3f 40
       2.923758 -0.07058688 2.7089362 2.9916027
000020 b1 69 4f 40 00 d5 da 3c 60 8c 33 bd 00 db 10 bd
       3.240826 0.026712894 -0.043835044 -0.035365105
000030 2f 2e 4b 40 a6 a5 f4 bc 9e d8 54 40 21 b5 61 40
       3.1746938 -0.029864144 3.3257213 3.5266802
000040 b3 1e 17 3e 00 4f f1 bc c3 9b 48 40 84 79 20 40
       0.14757805 -0.029456615 3.134507 2.5074167
000050 98 47 22 3d 65 00 59 3d 3c c5 4f 3d bd 58 07 bd
       0.03961906 0.052978892 0.050725207 -0.03304361
000060 5a 57 36 40 c0 71 43 40 d6 61 03 3e a8 f8 b2 bd
       2.8490815 3.0538177 0.1283029 -0.08738834
000070 54 bb 29 c0 93 e4 a3 bd 40 6d 54 40 ab a9 5d 40
       -2.6520586 -0.080025814 3.319168 3.4634807
000080 11 6c 1d 40 cc 5d c7 bc 10 2b 5c 40 8a 16 1a be
       2.4597208 -0.024336718 3.4401283 -0.1504766
000090 b2 16 53 40 da e3 c2 bd 2c 98 5e 40 f5 9d 5f 40
       3.2982602 -0.095161155 3.4780378 3.494016
0000a0 ce d7 2b 40 20 77 05 bc d3 fe 03 3e 05 d3 f4 bc
       2.6850467 -0.008146077 0.12890176 -0.029885778
0000b0 a7 f5 78 40 66 3a 89 3d 3d 3e 10 40 2e ce 0a 40
       3.8899934 0.06700592 2.2537987 2.1688342
0000c0 b9 a4 34 3e 1a dc 5c 3d 38 0a 63 40 ba 39 65 40
       0.17640962 0.053920843 3.5474987 3.5816483
0000d0 57 9a 57 bc d0 dd 44 3c 2d f1 bf 3c 1e b7 2d 3d
       -0.013159356 0.012015775 0.023430431 0.042410962
0000e0 e9 ac 51 40 c9 a4 5d 40 45 5f 33 bd 3f 8f c7 bc
       3.2761786 3.4631827 -0.043792028 -0.024360297
0000f0 b8 c3 81 3f aa ac dc bd e1 81 4d 40 31 b5 ca 3f
       1.0137854 -0.107751206 3.2110522 1.5836545

mlp.4.bias f4 [2]
000000 4b a3 28 3f df bd ba 3e
       0.65874165 0.36472985

exp_avg f4 [32, 4]
000000 d4 2b 02 3c db 32 ef 3b 05 ea 52 b9 60 65 7d bb
       0.00794502 0.0072997636 -0.0002011434 -0.003866516
000010 cc 1b 06 3c 43 03 01 3c f1 6f 85 b9 56 0f 9a bb
       0.008185338 0.007874313 -0.0002545114 -0.004701535
000020 00 00 00 00 00 00 00 00 00 00 00 00 00 00 00 00
       0.0 0.0 0.0 0.0
000030 c8 3c 0d 3c 2f 88 07 3c e7 15 7b b9 15 dc a2 bb
       0.008620448 0.008272215 -0.00023945385 -0.0049700835
000040 cd 7f f4 3b f9 a6 ea 3b a3 3a 6a b9 50 67 83 bb
       0.007461524 0.007161018 -0.00022337823 -0.0040101185
000050 a0 77 0b 3c 32 9e 07 3c 68 ea 81 b9 a5 8e a3 bb
       0.008512408 0.008277463 -0.00024779444 -0.00499137
000060 c6 8b 05 3c f3 73 f8 3b 37 c6 77 b9 2e 58 88 bb
       0.008151 0.0075821816 -0.00023629596 -0.0041609025
000070 d6 bd 02 3c 54 69 f7 3b db 21 83 b9 1e 50 8a bb
       0.007979831 0.007550398 -0.0002501149 -0.0042209765
000080 ab 66 0d 3c 3f b5 05 3c 99 a0 51 b9 8e ec a1 bb
       0.008630435 0.008160888 -0.0001999162 -0.0049415296
000090 e2 61 04 3c f1 93 fa 3b 9d e3 61 b9 85 ff 94 bb
       0.008079978 0.0076470305 -0.00021542465 -0.004547062
0000a0 f0 80 dc bc 9b ec ac bc 42 1f f7 ba 7c 6a 00 ba
       -0.026916951 -0.021108916 -0.001885392 -0.000489868
0000b0 04 00 00 80 04 00 00 80 04 00 00 00 04 00 00 00
       -6e-45 -6e-45 6e-45 6e-45
0000c0 b0 9a 23 3c 92 a6 54 3b a9 f5 19 3b a6 27 74 3c
       0.009985611 0.0032447916 0.0023492372 0.014902031
0000d0 c2 5a 9e bb b6 1e bf bb 89 45 56 38 2a f0 89 3b
       -0.0048325965 -0.0058325185 5.1086336e-05 0.004209538
0000e0 54 75 1d bd 40 32 f4 bc 82 62 12 bb d3 cf 9c 3a
       -0.03844197 -0.029809117 -0.0022336547 0.0011963792
0000f0 bf 06 f7 3b e8 e0 e6 3b 93 cf 76 b9 06 a5 7a bb
       0.007538646 0.007045854 -0.00023537716 -0.0038245334
000100 a1 6f 0b 3c e5 b0 01 3c c4 79 78 b9 9d 1e 8f bb
       0.008510501 0.00791571 -0.00023696484 -0.004367663
000110 0a 6e e8 3b 57 c8 8b 3a 93 59 11 3b df 9d 5b 3c
       0.007093196 0.0010664564 0.0022178635 0.013404339
000120 d5 ff c1 3b 9c 9a c3 3b e4 a6 4e b9 b1 62 83 bb
       0.00592039 0.0059693586 -0.00019707863 -0.0040095677
000130 b3 ab d7 3b 27 9b d6 3b 12 e8 62 b9 e5 db 90 bb
       0.0065817474 0.0065492573 -0.00021639492 -0.0044207447
000140 59 e3 06 3c 77 4d 02 3c df 04 82 b9 6c 3b 98 bb
       0.008232915 0.007953039 -0.00024799161 -0.0046457555
000150 70 51 05 3c 6f 4f f8 3b c3 5e 61 b9 d0 1b 88 bb
       0.008137092 0.0075778286 -0.00021492974 -0.004153706
000160 c3 88 df 3a eb fa 31 3b 5a d1 8a b8 69 b3 58 bb
       0.0017054308 0.0027157615 -6.6193476e-05 -0.003306592
000170 0a 57 03 3c cd 9c fc 3b 57 8c 6c b9 8c 95 99 bb
       0.008016357 0.007709122 -0.00022558995 -0.004687017
000180 f4 15 dc bc d2 84 46 bc e4 d6 00 bb 7c 5a 64 bc
       -0.026865937 -0.012116628 -0.0019659335 -0.013937589
000190 6f 6c be 3b 6e fb ba 3b bb 06 56 b9 a4 d5 69 bb
       0.005811266 0.0057062423 -0.00020411138 -0.0035680318
0001a0 93 eb 00 3c 0e c9 e4 3a c7 e3 40 3b 14 08 a2 3c
       0.007868665 0.0017454938 0.002943264 0.019779243
0001b0 74 d1 0d 39 de 15 cd 37 26 4d e4 35 2b 25 86 38
       0.00013524835 2.4448087e-05 1.7009777e-06 6.396541e-05
0001c0 3a 67 85 bc e9 08 6e bc 62 74 94 ba 48 ba 63 3a
       -0.016284574 -0.0145284915 -0.0011326189 0.0008687121
0001d0 3e e2 a4 bc da 0f 2c bc 11 f7 d9 ba 97 96 19 bc
       -0.020127412 -0.010501826 -0.0016629418 -0.009374282
0001e0 cb 9c 00 3c b9 50 fc 3b 45 53 83 b9 4a 4c 9b bb
       0.007849882 0.0077000526 -0.00025048308 -0.004739319
0001f0 4b a4 39 bc a4 58 88 bc 5b 7c 8b ba db f0 77 ba
       -0.011330674 -0.01664383 -0.0010641919 -0.00094581925

exp_avg_sq f4 [32, 4]
000000 f1 08 19 3c 9d dc 10 3b 0b a9 2c 38 82 ee cd 3a
       0.009340511 0.0022104152 4.116543e-05 0.001571134
000010 4f 95 36 3c 0e 7b 29 3b 78 26 3f 38 9e 87 e8 3a
       0.011143996 0.00258607 4.5573775e-05 0.0017740612
000020 00 00 00 00 00 00 00 00 00 00 00 00 00 00 00 00
       0.0 0.0 0.0 0.0
000030 74 ca 45 3c 46 34 3a 3b 2b 31 54 38 97 b0 ff 3a
       0.012072194 0.0028412505 5.059053e-05 0.0019507584
000040 d8 70 1d 3c 1d 3e 14 3b 6c 7b 2e 38 cc 27 d1 3a
       0.009609424 0.002262003 4.159978e-05 0.0015957295
000050 9e b0 47 3c 49 cc 3a 3b 78 41 51 38 bd 39 fe 3a
       0.012188105 0.002850311 4.9890456e-05 0.001939587
000060 7d 80 28 3c 7b 8e 1d 3b 54 9c 37 38 82 0a dd 3a
       0.01028454 0.0024041224 4.3776192e-05 0.0016864093
000070 bc a4 29 3c 1d 8e 1d 3b 04 e4 35 38 44 66 dc 3a
       0.010354217 0.0024041005 4.336612e-05 0.0016815146
000080 35 97 32 3c 08 b0 28 3b 01 8f 3c 38 62 df e3 3a
       0.010900308 0.0025739688 4.4955876e-05 0.0017385299
000090 e7 6c 26 3c 5d 83 1c 3b 66 19 33 38 fd 14 d8 3a
       0.0101578 0.002388201 4.270058e-05 0.0016485747
0000a0 15 dc ee 3b b7 b5 13 3b 14 82 18 37 e0 46 bc 39
       0.0072894194 0.002253873 9.090192e-06 0.0003591096
0000b0 a4 65 4b 31 99 3e 15 2e a0 32 87 2a 51 f2 c5 2d
       2.9598164e-09 3.3934276e-11 2.4015945e-13 2.2503917e-11
0000c0 43 6f eb 3c 11 3e 83 3b b8 68 1e 38 21 a6 1c 3b
       0.028739577 0.0040052016 3.7767662e-05 0.0023902731
0000d0 0b a1 bf 3b a4 5f a9 3a b9 a9 81 37 05 25 18 3a
       0.0058480552 0.001292218 1.5457032e-05 0.0005803856
0000e0 6e b7 88 3c 2a 3c b5 3b f5 86 cb 38 fe b8 14 3b
       0.016689029 0.0055308538 9.704932e-05 0.0022693272
0000f0 23 18 18 3c 82 04 0e 3b 65 7f 28 38 7c 63 ca 3a
       0.009283098 0.0021670167 4.0172967e-05 0.0015441026
000100 0a db 2e 3c 18 58 22 3b 88 4e 37 38 32 53 df 3a
       0.01067234 0.0024771746 4.3703738e-05 0.0017038344
000110 57 f8 a4 3c 74 2e 47 3b 17 7b db 37 1b c2 f5 3a
       0.020137949 0.0030392678 2.6164153e-05 0.0018749865
000120 73 70 ba 3b e5 3d db 3a 8e 46 1d 38 d0 0d b1 3a
       0.0056896745 0.001672682 3.7497426e-05 0.0013508145
000130 72 c8 eb 3b 2b 51 ff 3a 98 fb 2b 38 06 fa c3 3a
       0.007195526 0.0019479146 4.1003892e-05 0.0014951832
000140 e7 a1 3d 3c 7a 66 31 3b 4c 37 4a 38 c3 b5 f4 3a
       0.011574245 0.0027069137 4.8212052e-05 0.0018669892
000150 57 c8 27 3c 23 0a 1f 3b f1 00 3d 38 60 40 e1 3a
       0.010240636 0.0024267517 4.506199e-05 0.0017185323
000160 af b4 a0 3a f6 ee 87 39 c2 b8 17 36 2f 12 f6 38
       0.0012260879 0.00025927246 2.2608297e-06 0.00011733581
000170 d3 05 2a 3c ea 94 1e 3b 6f 09 31 38 b3 65 d7 3a
       0.010377365 0.0024197646 4.2208874e-05 0.0016433507
000180 6f 5b 2f 3c 30 16 5c 3b dc d2 ed 37 81 96 af 3a
       0.010702952 0.003358256 2.835079e-05 0.0013396294
000190 f1 7a c5 3b 07 a1 d2 3a 65 20 10 38 86 e9 a3 3a
       0.0060266186 0.0016069718 3.4362445e-05 0.0012505508
0001a0 cd c4 d3 3c 35 aa 66 3b 7d 07 0f 39 ad 7c 77 3b
       0.025850678 0.0035196666 0.00013640332 0.0037763522
0001b0 0c 71 ba 3a a0 d5 d5 3a 3c f4 25 39 a6 f4 71 3b
       0.0014224364 0.0016314276 0.0001582661 0.0036919503
0001c0 eb d0 ac 3b a7 5a f6 3a 12 44 d9 37 c3 03 51 3a
       0.0052739284 0.0018795327 2.5900114e-05 0.0007973278
0001d0 18 5e ab 3b 03 c0 c9 3a f9 50 66 37 4c 6b 35 3a
       0.0052297227 0.0015392307 1.3727921e-05 0.00069205905
0001e0 01 fc 30 3c fc 32 24 3b 31 c2 36 38 bf 41 df 3a
       0.01080227 0.0025054803 4.3573036e-05 0.0017033144
0001f0 af 24 72 3c 33 96 96 3b 08 4d 36 38 d0 a8 46 3b
       0.014779254 0.004595542 4.3463922e-05 0.0030313022

exp_avg f4 [32]
000000 c4 d2 72 bc 5b 7e 83 bc 00 00 00 00 bb 52 87 bc
       -0.014820758 -0.016051462 0.0 -0.016518941
000010 67 6f 76 bc 26 1c 88 bc b0 dc 7e bc 48 41 80 bc
       -0.015041209 -0.016614985 -0.015555546 -0.015656129
000020 ea ca 7f bc 89 d0 7a bc 33 7e 91 bc 04 00 00 00
       -0.015612343 -0.015308508 -0.017760372 6e-45
000030 fd d6 18 3d 04 6d 22 3c 73 df 13 bd f8 7c 74 bc
       0.037314404 0.009913687 -0.03610177 -0.014922373
000040 0b 11 82 bc f0 e9 33 3d 28 14 4b bc dc bf 59 bc
       -0.015877267 0.043924272 -0.012394942 -0.013290372
000050 ae c0 85 bc 70 5e 7b bc a3 ce 92 bb 73 d5 7b bc
       -0.016327228 -0.01534234 -0.0044801994 -0.0153707145
000060 a9 9f e3 bc c9 5d 49 bc 17 40 9e 3c 7c 57 bd 38
       -0.027786093 -0.0122904265 0.01931767 9.0285175e-05
000070 a9 f5 27 3c 3c 75 2f bc 1e 45 81 bc ff e1 c9 3c
       0.010251441 -0.010709103 -0.015780028 0.024643896

exp_avg_sq f4 [32]
000000 e9 7f 2a 3c fd 97 49 3c 00 00 00 00 74 75 5b 3c
       0.010406473 0.012304303 0.0 0.013394702
000010 19 fa 2e 3c c4 79 5d 3c cd 49 3b 3c a0 58 3c 3c
       0.010679745 0.013517801 0.01143117 0.011495739
000020 6b 20 46 3c 20 fe 37 3c 6e 78 fc 3b 2f 8e b9 30
       0.01209269 0.011230022 0.007704786 1.3500933e-09
000030 31 ce bc 3c c4 7b d5 3b d7 61 8f 3c 78 f2 28 3c
       0.023047538 0.006514998 0.017502708 0.010311715
000040 47 a8 42 3c 0d c7 bd 3c b6 e2 01 3c 81 b7 15 3c
       0.011880941 0.023166204 0.007927587 0.009137989
000050 cd b5 52 3c de e4 3a 3c a9 de be 3a d5 88 3b 3c
       0.0128607275 0.011407105 0.0014562208 0.0114461975
000060 36 97 13 3c 12 dc f5 3b c4 bc 8f 3c ed c6 a7 3b
       0.009008219 0.007503041 0.017546065 0.0051201493
000070 3d ad 0f 3c da 86 b4 3b 82 60 43 3c 9c 35 e1 3c
       0.008769331 0.0055092396 0.011924865 0.027491383

exp_avg f4 [32, 32]
000000 a3 71 93 ba d4 de 86 ba 00 00 00 00 07 6e 61 ba
       -0.0011249076 -0.0010289797 0.0 -0.0008599464
000010 b6 03 94 ba 1c fb 79 ba b9 2c 8c ba da ca 90 ba
       -0.001129261 -0.00095360144 -0.0010694481 -0.0011046783
000020 71 f0 67 ba bf b7 62 ba 81 a2 14 3b 04 00 00 80
       -0.0008847779 -0.0008648596 0.0022679868 -6e-45
000030 fe e3 0c 3b e9 a2 64 ba 0e 65 ee 3a 78 71 92 ba
       0.0021498199 -0.0008721785 0.0018188076 -0.0011172732
000040 8e ba 7b ba b0 6b 0c 3b ed 65 52 ba 21 02 50 ba
       -0.0009602689 0.0021426491 -0.00080260524 -0.00079348875
000050 dc 30 84 ba 88 a4 91 ba 7b 92 0e ba 57 cd 76 ba
       -0.0010085362 -0.0011111656 -0.00054386974 -0.00094147533
000060 02 ae b4 3a 50 27 6f ba 07 27 6d 3a 79 01 e1 b2
       0.0013784769 -0.00091229845 0.0009046648 -2.6194117e-08
000070 b8 6c b8 3a d4 fc 07 3b bf 50 77 ba 7f 50 aa b9
       0.0014070487 0.0020750063 -0.00094343344 -0.000324849
000080 04 00 00 00 04 00 00 00 00 00 00 00 04 00 00 00
       6e-45 6e-45 0.0 6e-45
000090 04 00 00 00 04 00 00 00 04 00 00 00 04 00 00 00
       6e-45 6e-45 6e-45 6e-45
0000a0 04 00 00 00 04 00 00 00 00 00 00 00 00 00 00 00
       6e-45 6e-45 0.0 0.0
0000b0 04 00 00 00 04 00 00 00 04 00 00 00 04 00 00 00
       6e-45 6e-45 6e-45 6e-45
0000c0 04 00 00 00 04 00 00 00 04 00 00 00 04 00 00 00
       6e-45 6e-45 6e-45 6e-45
0000d0 04 00 00 00 04 00 00 00 04 00 00 00 04 00 00 00
       6e-45 6e-45 6e-45 6e-45
0000e0 04 00 00 00 04 00 00 00 00 00 00 00 04 00 00 00
       6e-45 6e-45 0.0 6e-45
0000f0 04 00 00 00 04 00 00 00 04 00 00 00 00 00 00 00
       6e-45 6e-45 6e-45 0.0
000100 1a b7 fd ba 7d c5 0e bb 00 00 00 00 8f 3a d7 ba
       -0.0019356937 -0.0021785193 0.0 -0.001642065
000110 55 9c 08 bb 7b 03 03 bb 6c 6c 0a bb 85 fa 18 bb
       -0.0020845134 -0.0019991088 -0.0021121753 -0.002334268
000120 f7 00 ce ba 79 32 d2 ba 91 9f 13 3b 04 00 00 80
       -0.001571684 -0.001603677 0.002252553 -6e-45
000130 c0 30 ea 39 83 1d 88 ba ba ca f6 3a 60 33 0d bb
       0.0004466828 -0.0010384772 0.0018828728 -0.0021545514
000140 e8 53 0d bb ed 1e 80 39 ff da 88 ba e3 55 8b ba
       -0.0021564905 0.00024437104 -0.0010441242 -0.0010630455
000150 e2 62 06 bb dc a9 f7 ba 27 d4 7b ba 82 85 f2 ba
       -0.0020505716 -0.0018895227 -0.00096065033 -0.0018502923
000160 f4 13 a9 3a 26 1d 9e ba db 66 ed b9 b3 95 1c b5
       0.0012899623 -0.001206313 -0.00045280796 -5.833237e-07
000170 ac 37 ac 3a c2 90 03 3b af 38 06 bb 6c c9 11 ba
       0.001313915 0.0020075296 -0.0020480563 -0.0005561325
000180 7f b1 e2 b8 c3 38 03 b9 00 00 00 00 bd 1d 25 b9
       -0.00010809581 -0.00012514279 0.0 -0.00015746705
000190 f4 ed ef b8 2d b7 4a b9 0a ff da b8 77 89 89 b8
       -0.0001144073 -0.0001933246 -0.00010442555 -6.558274e-05
0001a0 54 0e 50 b9 fb 88 27 b9 04 00 00 00 00 00 00 00
       -0.00019841763 -0.0001597739 6e-45 0.0
0001b0 ff 95 25 ba 6d e5 93 39 04 00 00 80 e7 e6 6c b8
       -0.00063166016 0.0002820896 -6e-45 -5.648183e-05
0001c0 b2 7b 02 b9 02 ec 2f ba 4f 15 4c b8 ce 15 f5 b7
       -0.00012443846 -0.0006710888 -4.8657235e-05 -2.921643e-05
0001d0 88 03 2d b9 64 48 e5 b8 d8 59 47 b9 3d 6e 38 b9
       -0.00016499881 -0.00010933055 -0.00019011588 -0.00017588674
0001e0 62 27 8b 1c ed ce 1d b8 92 29 43 b8 04 00 00 80
       9.208429e-22 -3.762443e-05 -4.653034e-05 -6e-45
0001f0 04 00 00 80 8f 51 4b 32 1b d1 35 b9 73 69 97 b8
       -6e-45 1.1834699e-08 -0.00017339403 -7.2198825e-05
000200 f8 93 cb ba 7b d7 ed ba 00 00 00 00 3b e8 ae ba
       -0.0015531769 -0.0018145883 0.0 -0.0013344357
000210 64 a1 de ba 8f 58 da ba 2d 1a e6 ba 17 e7 00 bb
       -0.0016985354 -0.0016658473 -0.0017555408 -0.001966899
000220 2b e8 a4 ba cc 7f a8 ba 75 b2 2e 3b 04 00 00 80
       -0.0012581398 -0.0012855469 0.0026656662 -6e-45
000230 97 33 22 3a 77 5c 53 ba 4b c2 0e 3b ab 26 e8 ba
       0.0006187497 -0.00080627896 0.0021783288 -0.0017711719
000240 d2 12 f3 ba be 84 ec 39 1f f4 3e ba 25 0f 42 ba
       -0.0018545038 0.00045112328 -0.00072843017 -0.00074027694
000250 be 5b e0 ba 2f c3 c5 ba 6b ae 39 ba ed 76 c6 ba
       -0.0017117185 -0.0015088076 -0.000708318 -0.0015141644
000260 8b 87 d1 3a 41 69 60 ba d9 f8 86 b9 18 0d 16 b5
       0.001598583 -0.0008560606 -0.00025743878 -5.589841e-07
000270 b9 10 ce 3a 56 d8 1f 3b d4 bf e0 ba 62 cf b5 b9
       0.0015721536 0.002439042 -0.0017147013 -0.00034677522
000280 04 00 00 00 04 00 00 00 00 00 00 00 04 00 00 00
       6e-45 6e-45 0.0 6e-45
000290 04 00 00 00 04 00 00 00 04 00 00 00 04 00 00 00
       6e-45 6e-45 6e-45 6e-45
0002a0 04 00 00 00 04 00 00 00 00 00 00 00 00 00 00 00
       6e-45 6e-45 0.0 0.0
0002b0 04 00 00 00 04 00 00 00 00 00 00 00 04 00 00 00
       6e-45 6e-45 0.0 6e-45
0002c0 04 00 00 00 00 00 00 00 04 00 00 00 04 00 00 00
       6e-45 0.0 6e-45 6e-45
0002d0 04 00 00 00 04 00 00 00 04 00 00 00 04 00 00 00
       6e-45 6e-45 6e-45 6e-45
0002e0 04 00 00 00 04 00 00 00 00 00 00 00 00 00 00 00
       6e-45 6e-45 0.0 0.0
0002f0 00 00 00 00 04 00 00 00 04 00 00 00 00 00 00 00
       0.0 6e-45 6e-45 0.0
000300 88 34 7c ba 22 4e 46 ba 00 00 00 00 ef 90 44 ba
       -0.0009620865 -0.0007564743 0.0 -0.00074984034
000310 c7 67 74 ba c9 95 47 ba f5 9b 50 ba b2 ec 3d ba
       -0.00093233254 -0.0007613567 -0.000795781 -0.0007245048
000320 c4 7a 57 ba fa 78 55 ba 82 0b 1d 3b 04 00 00 80
       -0.00082198926 -0.0008143332 0.0023963158 -6e-45
000330 f5 5a 34 3b e3 cb 36 ba 5f 3c 02 3b 95 47 5e ba
       0.0027520035 -0.00069731305 0.001987241 -0.00084792945
000340 6f fc 17 ba 0b a9 3f 3b 8b 3f 6c ba 5d fc 64 ba
       -0.00057978084 0.0029245045 -0.0009012154 -0.0008735115
000350 b6 32 4b ba 4e eb 79 ba a3 68 2d ba e3 a7 4f ba
       -0.0007751392 -0.00095336593 -0.00066150184 -0.00079214404
000360 e2 03 b6 3a db 1e 83 ba 54 73 d3 3a 19 c6 1f b3
       0.0013886655 -0.0010003702 0.0016132393 -3.720024e-08
000370 81 db b3 3a 51 b7 0c 3b bc be 41 ba dc de 00 ba
       0.0013722033 0.002147157 -0.00073907874 -0.0004916021
000380 4b 29 d3 ba a3 f8 ea ba 00 00 00 00 16 f6 b2 ba
       -0.0016110329 -0.0017926883 0.0 -0.0013653662
000390 82 f5 e2 ba b9 c3 d9 ba c3 4c e5 ba f7 9d fb ba
       -0.0017315599 -0.0016614116 -0.001749419 -0.0019196857
0003a0 b5 87 ac ba 02 26 af ba 12 de 2b 3b 04 00 00 80
       -0.0013163002 -0.0013362768 0.0026224894 -6e-45
0003b0 7c 7e 76 3a c4 90 65 ba 9d 61 0d 3b 11 b8 e8 ba
       0.0009403003 -0.00087572285 0.0021573075 -0.0017755051
0003c0 9c fb e9 ba 39 00 55 3a d3 bd 62 ba c1 f7 63 ba
       -0.0017851475 0.00081253384 -0.0008649502 -0.0008696281
0003d0 62 8e df ba 5e da cd ba 5f 39 4f ba d3 41 c9 ba
       -0.0017055983 -0.0015705337 -0.00079049723 -0.00153547
0003e0 99 4a ca 3a 56 3f 83 ba ec 60 b5 34 5c 7a 20 b3
       0.0015433609 -0.0010013382 3.3784397e-07 -3.7364188e-08
0003f0 ea d8 c8 3a cc 5b 1b 3b 9a 90 de ba 0f db e7 b9
       0.0015323434 0.0023705838 -0.001698035 -0.00044222965

exp_avg_sq f4 [32, 32]
000000 9f 54 cb 38 1b 5c e6 38 00 00 00 00 66 76 93 38
       9.695556e-05 0.000109844106 0.0 7.03156e-05
000010 e7 ae df 38 16 f4 bf 38 12 3f c7 38 f3 b1 e8 38
       0.00010666047 9.153054e-05 9.500807e-05 0.00011095768
000020 c7 dc 90 38 cf 1f a3 38 d7 cc b9 37 99 43 27 2d
       6.907578e-05 7.7783705e-05 2.2149105e-05 9.507861e-12
000030 50 5b 18 38 f4 93 09 38 2b ca 34 37 f9 a2 e4 38
       3.6324665e-05 3.2801137e-05 1.0775907e-05 0.00010902243
000040 c6 25 ab 38 c4 df 6d 38 b5 b6 ae 38 f2 ae b0 38
       8.160951e-05 5.67136e-05 8.3309984e-05 8.42492e-05
000050 27 d5 ba 38 cf b8 c5 38 f5 18 71 38 38 9d b4 38
       8.908874e-05 9.428115e-05 5.748212e-05 8.612353e-05
000060 35 6d 7d 37 5f e4 c7 38 ce df f8 37 ce 4e c5 35
       1.5105402e-05 9.531597e-05 2.9668121e-05 1.4700579e-06
000070 e0 b8 d1 37 1e e3 4f 38 ba a7 cc 38 dd 8e b0 37
       2.500083e-05 4.9564165e-05 9.7587195e-05 2.104736e-05
000080 a1 8f d1 30 e1 70 a1 31 00 00 00 00 fd 41 87 2f
       1.5247573e-09 4.6985495e-09 0.0 2.4603244e-10
000090 62 97 83 31 6c a6 2c 31 db f8 fe 30 c9 3d 3a 31
       3.829812e-09 2.5123894e-09 1.8551661e-09 2.7101683e-09
0000a0 45 15 f1 30 99 ee 34 30 00 00 00 00 00 00 00 00
       1.7541103e-09 6.5822686e-10 0.0 0.0
0000b0 c8 f4 e0 2b 47 2f 31 2f 38 3c 86 2a 9c 2d 81 30
       1.5984098e-12 1.6114853e-10 2.3844967e-13 9.398948e-10
0000c0 15 ed 09 30 eb 4f 25 29 e4 7a 33 30 b0 11 ef 2f
       5.0177223e-10 3.6706678e-14 6.529446e-10 4.3486414e-10
0000d0 b8 7b e2 30 49 75 05 31 85 35 c7 2f 77 d5 c9 31
       1.6478827e-09 1.9420716e-09 3.6235917e-10 5.874138e-09
0000e0 6a b4 2c 2e 92 69 7a 2e 00 00 00 00 e3 c1 cb 26
       3.9268512e-11 5.6937184e-11 0.0 1.4138508e-15
0000f0 b1 2f 10 2d 0b 7a e1 2f 48 9f 72 31 00 00 00 00
       8.196042e-12 4.1013978e-10 3.5306176e-09 0.0
000100 a7 f3 00 39 8e 69 06 39 00 00 00 00 5a 4f ae 38
       0.00012297799 0.00012818558 0.0 8.311747e-05
000110 1c 04 0a 39 d7 13 de 38 bd 83 f3 38 20 7d 0c 39
       0.00013162236 0.000105894804 0.00011611681 0.00013398053
000120 63 9d ae 38 da 20 c0 38 1d fd 24 38 c2 6b 6c 2d
       8.326282e-05 9.1613925e-05 3.9336377e-05 1.3438974e-11
000130 98 f5 04 38 aa 36 81 38 65 da b6 37 21 3d 0c 39
       3.169998e-05 6.161381e-05 2.1797789e-05 0.00013374213
000140 10 c7 cc 38 95 c0 59 38 75 55 e0 38 98 a5 df 38
       9.764556e-05 5.1916188e-05 0.0001069707 0.00010664313
000150 55 b1 de 38 d9 2f fb 38 5e da 7a 38 c0 35 d4 38
       0.000106188156 0.00011977525 5.9808015e-05 0.000101189595
000160 94 50 c5 37 5f de 00 39 4b 7d 0b 38 26 ff 92 36
       2.3521752e-05 0.00012289871 3.325687e-05 4.3808423e-06
000170 9f 0f 56 38 12 30 9c 38 fa f4 e9 38 d9 43 c4 37
       5.1036124e-05 7.4476135e-05 0.00011155936 2.3396615e-05
000180 c8 3f b4 35 ef 7b 3e 36 00 00 00 00 9e b4 a2 35
       1.3429608e-06 2.8384345e-06 0.0 1.2122507e-06
000190 36 e5 fd 35 3f 18 12 36 15 99 14 36 3b d4 59 36
       1.8916678e-06 2.1769808e-06 2.2142824e-06 3.2459054e-06
0001a0 13 73 6d 35 2c 3c 96 35 94 e4 32 2f 00 00 00 00
       8.8456835e-07 1.1193383e-06 1.6270213e-10 0.0
0001b0 ec 5f 5e 36 d5 fc 4d 34 c1 0a 24 30 a6 af 1e 36
       3.3136412e-06 1.9184093e-07 5.9678135e-10 2.3646076e-06
0001c0 6e db 3a 36 b8 43 9f 36 3f aa 75 34 2e 9b a0 34
       2.7843885e-06 4.7464528e-06 2.2879338e-07 2.991523e-07
0001d0 e8 5e 0f 36 23 0c a7 35 c6 e2 05 35 66 90 dd 35
       2.1363903e-06 1.2446002e-06 4.987636e-07 1.6507809e-06
0001e0 14 74 76 31 31 a5 ad 34 7d 8e 2e 36 4b 94 ea 2f
       3.5863694e-09 3.2343954e-07 2.601096e-06 4.266972e-10
0001f0 0d a3 1d 31 27 20 0a 32 a2 85 28 36 9d 28 5c 34
       2.293919e-09 8.039968e-09 2.5111735e-06 2.0503872e-07
000200 aa 0d e8 38 93 8f f6 38 00 00 00 00 42 75 9e 38
       0.00011065167 0.00011756937 0.0 7.555868e-05
000210 1e e2 f9 38 b4 c3 cb 38 ac 46 de 38 50 01 01 39
       0.00011915363 9.716247e-05 0.000105989486 0.00012302888
000220 d0 b9 9d 38 7e d0 ad 38 58 70 03 38 86 76 46 2d
       7.520954e-05 8.2881175e-05 3.1337462e-05 1.1281314e-11
000230 d1 33 14 38 9c e8 5e 38 8e 8a 92 37 a4 f8 fe 38
       3.5334207e-05 5.314556e-05 1.7469076e-05 0.00012157977
000240 23 c7 bd 38 81 2f 6b 38 eb 34 c5 38 7f 24 c5 38
       9.0493144e-05 5.6072608e-05 9.403549e-05 9.40049e-05
000250 d1 16 cc 38 27 d5 e1 38 31 09 63 38 af 58 c1 38
       9.731728e-05 0.00010768539 5.4129578e-05 9.219476e-05
000260 b0 e9 9d 37 11 02 e3 38 82 a8 0f 38 4f 8f 6e 36
       1.8824678e-05 0.000108245884 3.4250792e-05 3.554818e-06
000270 b7 bc 32 38 41 b8 80 38 ae 13 d7 38 67 5e af 37
       4.261426e-05 6.1378356e-05 0.000102556645 2.0905585e-05
000280 d1 7e 3f 2e 80 85 50 30 00 00 00 00 7c e8 a5 2d
       4.3541008e-11 7.5859674e-10 0.0 1.8861572e-11
000290 6a af ec 2f cc 82 0b 30 fd b5 e4 2e 50 11 2f 2f
       4.305279e-10 5.075378e-10 1.0400567e-10 1.5922308e-10
0002a0 1a 74 cf 2f 96 94 87 2f 00 00 00 00 00 00 00 00
       3.7735576e-10 2.4661934e-10 0.0 0.0
0002b0 2e 61 ea 2b 2b 67 5c 28 00 00 00 00 ed 99 05 2e
       1.6653673e-12 1.2234824e-14 0.0 3.0377412e-11
0002c0 ad 1b f1 2d 00 00 00 00 11 37 a0 2e 10 93 7e 2e
       2.7410818e-11 0.0 7.2857394e-11 5.788353e-11
0002d0 b3 6c 41 2f a7 96 2c 2e 70 e8 35 2f 9b d8 09 31
       1.7591865e-10 3.924208e-11 1.6544432e-10 2.005925e-09
0002e0 14 fb 17 2e 86 3d 69 27 00 00 00 00 00 00 00 00
       3.4556427e-11 3.2368598e-15 0.0 0.0
0002f0 00 00 00 00 9c e5 41 2f 5d 8c b1 30 00 00 00 00
       0.0 1.7634821e-10 1.2918339e-09 0.0
000300 45 bf de 38 da 34 f0 38 00 00 00 00 76 d2 97 38
       0.00010621412 0.00011453936 0.0 7.2394425e-05
000310 ac 57 f1 38 ff bd c5 38 c3 84 d9 38 17 8a fe 38
       0.00011508106 9.4290815e-05 0.00010372095 0.00012137385
000320 43 a0 95 38 94 97 a4 38 cd 8f b7 37 a8 c6 26 2d
       7.134725e-05 7.848363e-05 2.1882262e-05 9.480118e-12
000330 6c 52 22 38 c9 9d 5b 38 0f a3 61 37 56 29 f8 38
       3.870057e-05 5.2360618e-05 1.344901e-05 0.00011833261
000340 5f f8 bc 38 a9 2f 7e 38 ad 38 af 38 be 3e b0 38
       9.010801e-05 6.0602706e-05 8.355207e-05 8.4040206e-05
000350 1e 6b c7 38 26 6a d8 38 cb 83 49 38 58 f1 b9 38
       9.5090116e-05 0.00010319454 4.8044876e-05 8.866441e-05
000360 40 67 4b 37 68 ff cc 38 99 70 1c 38 8e 08 65 36
       1.2123783e-05 9.775051e-05 3.7298163e-05 3.4128639e-06
000370 eb 1c 22 38 42 8d 36 38 9b e7 d0 38 bc e9 91 37
       3.865074e-05 4.3523738e-05 9.961353e-05 1.7394188e-05
000380 86 57 f6 38 f1 63 04 39 00 00 00 00 a6 98 a8 38
       0.000117464966 0.00012625732 0.0 8.039297e-05
000390 cd 42 05 39 11 6f da 38 ca 86 ee 38 b8 0f 0b 39
       0.00012708754 0.00010415738 0.00011373831 0.00013261929
0003a0 1e df a6 38 46 09 b8 38 fc c3 ec 37 62 0a 4c 2d
       7.957056e-05 8.775531e-05 2.8224655e-05 1.1598363e-11
0003b0 b9 df 20 38 f8 df 6b 38 54 fb 88 37 9f 77 08 39
       3.835533e-05 5.6236953e-05 1.6329497e-05 0.00013014533
0003c0 17 59 cd 38 42 26 80 38 70 10 ca 38 b5 bd ca 38
       9.791756e-05 6.110642e-05 9.635172e-05 9.667446e-05
0003d0 21 0e db 38 83 85 ef 38 04 9e 6a 38 87 43 ce 38
       0.000104453655 0.000114212766 5.593711e-05 9.8354234e-05
0003e0 28 ee 89 37 3b 37 ea 38 60 2b 1d 38 cc d7 77 36
       1.6442573e-05 0.00011168277 3.7472113e-05 3.6931478e-06
0003f0 0d d1 34 38 4b 9d 6b 38 4c d7 e6 38 44 6a ae 37
       4.3110038e-05 5.6174857e-05 0.00011007357 2.07919e-05

exp_avg f4 [32]
000000 d9 96 dd b9 04 00 00 00 37 2b 4a ba fd 88 6f b8
       -0.00042264795 6e-45 -0.0007712128 -5.710962e-05
000010 cb 03 24 ba 04 00 00 00 ef bc c1 b9 a8 c3 28 ba
       -0.0006256669 6e-45 -0.00036952595 -0.00064378465
000020 1a a4 d1 b9 04 00 00 00 00 00 00 00 04 00 00 00
       -0.00039985852 6e-45 0.0 6e-45
000030 87 06 20 ba 04 00 00 00 74 f0 af b9 c2 7f b7 b9
       -0.0006104488 6e-45 -0.00033557753 -0.00034999667
000040 00 00 00 00 04 00 00 00 76 a2 33 ba 53 76 2c ba
       0.0 6e-45 -0.00068525167 -0.0006578911
000050 04 00 00 00 04 00 00 00 04 00 00 00 04 00 00 00
       6e-45 6e-45 6e-45 6e-45
000060 bb a4 1f ba 4f dd 28 ba 04 00 00 00 04 00 00 00
       -0.00060899154 -0.0006441669 6e-45 6e-45
000070 aa 85 05 39 04 00 00 00 c5 47 29 ba 7a de 36 ba
       0.00012733662 6e-45 -0.0006457533 -0.00069759006

exp_avg_sq f4 [32]
000000 83 ae 95 37 1c 5c ba 32 d9 ce ba 37 69 36 9b 34
       1.7843447e-05 2.1695136e-08 2.2269249e-05 2.8910588e-07
000010 20 2d a6 37 37 76 90 31 72 da 9d 37 f8 0d b2 37
       1.9809755e-05 4.204391e-09 1.881758e-05 2.1225758e-05
000020 d0 a2 86 37 5e cb c6 2a 00 00 00 00 ca 5f 35 2a
       1.604986e-05 3.531298e-13 0.0 1.6109263e-13
000030 04 2b d9 37 64 4f ab 31 fa 0b 87 37 cc 44 95 37
       2.5888447e-05 4.9857807e-09 1.6098831e-05 1.779422e-05
000040 00 00 00 00 00 7f 03 32 31 66 c4 37 97 fc a7 37
       0.0 7.65408e-09 2.3412607e-05 2.0025573e-05
000050 a5 c3 6e 32 b7 a3 e0 24 8f 50 85 2f b5 80 f5 30
       1.3897908e-08 9.742186e-17 2.42498e-10 1.7862677e-09
000060 27 7c a2 37 f2 18 ba 37 ff e6 9e 2f e0 42 ed 32
       1.9369718e-05 2.2184544e-05 2.8904165e-10 2.7620843e-08
000070 ea ad a5 37 dd 5a 61 32 77 e1 b8 37 22 e6 8a 37
       1.9750518e-05 1.3117384e-08 2.20395e-05 1.6558046e-05

exp_avg f4 [2, 32]
000000 3f ca 5b bc 04 00 00 80 0b f5 50 bc d2 82 02 3b
       -0.013414918 -6e-45 -0.012753735 0.00199144
000010 36 72 64 bc 04 00 00 80 38 b3 6d bc d7 3d 5f bc
       -0.013943246 -6e-45 -0.014508061 -0.013625584
000020 b3 2a 63 bc 04 00 00 80 00 00 00 00 00 00 00 00
       -0.013865161 -6e-45 0.0 0.0
000030 4f b1 69 bc 04 00 00 80 b9 90 58 bc 16 f6 59 bc
       -0.014263465 -6e-45 -0.013218098 -0.0133033
000040 00 00 00 00 04 00 00 80 89 d7 59 bc 79 0b 5d bc
       0.0 -6e-45 -0.0132960165 -0.013491505
000050 04 00 00 00 04 00 00 80 04 00 00 00 04 00 00 80
       6e-45 -6e-45 6e-45 -6e-45
000060 fe 93 5d bc 1a 83 67 bc 04 00 00 80 04 00 00 80
       -0.013524054 -0.014130378 -6e-45 -6e-45
000070 6a d4 a4 bb 04 00 00 80 95 26 5d bc e6 6c 2f bc
       -0.0050302045 -6e-45 -0.013497968 -0.010707116
000080 9a 04 61 bc 04 00 00 80 de 4e 67 bc 24 56 11 3b
       -0.013734007 -6e-45 -0.0141179245 0.0022176588
000090 ff e7 73 bc 04 00 00 80 85 f0 7b bc 01 1c 71 bc
       -0.014886855 -6e-45 -0.015377169 -0.014716149
0000a0 7c c6 6e bc 00 00 00 00 00 00 00 00 04 00 00 00
       -0.01457369 0.0 0.0 6e-45
0000b0 b6 f5 7a bc 04 00 00 80 9d 3b 59 bc e2 ad 55 bc
       -0.015317371 -6e-45 -0.013258842 -0.013041945
0000c0 00 00 00 00 04 00 00 80 7f 9d 69 bc fb fb 67 bc
       0.0 -6e-45 -0.014258741 -0.014159198
0000d0 04 00 00 80 00 00 00 00 04 00 00 00 04 00 00 80
       -6e-45 0.0 6e-45 -6e-45
0000e0 95 77 6d bc f7 df 77 bc 04 00 00 80 04 00 00 80
       -0.014493843 -0.015129081 -6e-45 -6e-45
0000f0 11 a1 d8 ba 04 00 00 80 a4 2d 71 bc b1 bf 85 bc
       -0.0016527494 -6e-45 -0.014720354 -0.016326757

exp_avg_sq f4 [2, 32]
000000 ba e5 93 3b 91 41 87 32 81 a1 a1 3b af 5c 8f 37
       0.0045134695 1.5745885e-08 0.004932583 1.7090088e-05
000010 d2 7c a7 3b be 85 41 2f 60 37 98 3b fa 4d 8e 3b
       0.0051113153 1.7600763e-10 0.004645273 0.0043427916
000020 84 e5 8c 3b 3d 98 6d 24 00 00 00 00 00 00 00 00
       0.0042998213 5.1520134e-17 0.0 0.0
000030 72 82 98 3b 14 c9 97 32 12 76 a2 3b d1 ef ae 3b
       0.004654222 1.7670153e-08 0.0049579227 0.005338647
000040 00 00 00 00 2c 0e ae 32 00 37 93 3b db a0 92 3b
       0.0 2.026271e-08 0.0044926405 0.004474742
000050 41 e2 61 33 28 5e 42 22 fb 56 7b 30 3c 38 9a 30
       5.259267e-08 2.6341749e-18 9.1436875e-10 1.1220957e-09
000060 c3 bb a6 3b 75 12 b2 3b df 6a 71 31 dc c2 90 31
       0.005088301 0.005434329 3.5130865e-09 4.2131045e-09
000070 fc 61 9f 3a a9 94 06 30 88 4f a5 3b b3 1d 02 3c
       0.0012159939 4.8960175e-10 0.0050448813 0.007941651
000080 89 38 96 3b 1b 12 ae 32 8c 32 b8 3b 1a 8d cd 37
       0.0045843762 2.02645e-08 0.00562126 2.450361e-05
000090 3d 67 bc 3b b2 2b cf 2e 2f 44 aa 3b d2 6e 9e 3b
       0.0057496116 9.421032e-11 0.0051961164 0.004834988
0000a0 46 a0 8f 3b 00 00 00 00 00 00 00 00 1b bf a7 29
       0.0043831198 0.0 0.0 7.449441e-14
0000b0 d9 d9 a9 3b 59 9c b7 32 e8 9d a5 3b f3 41 b1 3b
       0.00518344 2.1375103e-08 0.0050542243 0.005409473
0000c0 00 00 00 00 23 69 f2 32 02 f0 a5 3b a4 de ac 3b
       0.0 2.8220319e-08 0.0050640116 0.0052755643
0000d0 86 b1 8c 33 00 00 00 00 10 c7 b6 30 1a 7b 02 31
       6.551549e-08 0.0 1.329882e-09 1.8987465e-09
0000e0 9f aa bd 3b 11 07 c9 3b 86 39 cf 31 83 e0 d1 31
       0.005788162 0.0061348756 6.0310326e-09 6.1082246e-09
0000f0 66 da 19 3b 65 3f 69 30 78 df b5 3b ba 5e 03 3c
       0.0023476123 8.4854995e-10 0.005550321 0.00801819

exp_avg f4 [2]
000000 b0 76 02 b9 f8 13 58 b9
       -0.0001244198 -0.00020606804

exp_avg_sq f4 [2]
000000 d9 34 99 36 14 bc b0 36
       4.5659076e-06 5.267104e-06
