_models/CartPole-v1_duelingDQN.pt (torch, 25810 bytes, 21 tensors)

mlp.0.weight f4 [32, 4]
0.46030796 -0.2824451 -0.3802101 0.09659711 -0.35959685 0.28699195 -0.15200825 0.16000302
0.06950849 -0.061222076 0.13868046 0.024665892 0.22794636 -0.2664041 -0.3134114 -0.19850688
0.23048289 0.058838494 0.39266804 0.0025758687 -0.12498754 -0.3662513 -0.36746463 -0.3910563
-0.0151141165 0.03794029 0.43824956 0.2240325 -0.41307262 0.3153084 0.24696235 0.42263734
0.51889485 -0.504295 -0.7674355 -0.42030376 0.41414645 -0.24127875 0.112868875 -0.27408078
1.1670878 0.2564151 0.9024559 0.15622236 -0.26340872 0.25700742 -0.26541007 0.14705235
-0.33669 -0.882637 -2.8938475 -0.8215233 0.086955324 0.44608608 2.5521004 0.9188099
-0.8658129 -0.015860388 2.4629235 0.9606049 -0.1484395 0.3695904 0.5776167 0.42975777
-0.24779718 -0.19292188 -0.052009255 0.04169342 -0.58378124 -0.99516565 -2.408391 -0.8719463
0.6707294 0.13796292 -0.059242494 -0.079622716 0.5195886 0.24824385 -0.5019396 0.21249045
-0.21322219 -0.40943325 -0.023279564 -0.15082178 0.5219187 -0.25756106 -0.673532 0.17072234
1.268594 0.13329034 -2.1342196 -1.1028929 0.12188863 -0.11466976 -0.37632844 -0.17742428
-0.13025476 0.012214245 0.17869896 -0.13199858 0.4822426 -0.056578834 0.49794582 0.15392153
-0.7222575 -1.1316848 -2.0543635 -1.0143976 -0.040648922 0.8953584 2.7111335 1.194268
-0.4202129 0.35887977 2.4903827 1.1111184 2.338803 0.36354187 -2.6605875 -1.1162694
-0.35843956 -0.14617409 0.59642005 -0.24293731 0.3839832 -0.17951505 -0.3264046 -0.13555796
00000000: 7cad eb3e a59c 90be e6aa c2be b5d4 c53d
00000010: 141d b8be 9cf0 923e 0da8 1bbe d5d7 233e
00000020: 785a 8e3d 00c4 7abd 4002 0e3e 2010 ca3c
00000030: c56a 693e 1e66 88be 7677 a0be 6345 4bbe
00000040: b503 6c3e a200 713d c90b c93e e8cf 283b
00000050: 78f9 ffbd 4a85 bbbe 5324 bcbe 8838 c8be
00000060: 33a1 77bc 4767 1b3d 3f62 e03e c768 653e
00000070: 417e d3be 1a70 a13e b3e3 7c3e ec63 d83e
00000080: 4bd6 043f 7a19 01bf a776 44bf 0e32 d7be
00000090: 010b d43e c711 77be cc27 e73d 5154 8cbe
000000a0: 2263 953f d748 833e 5a07 673f c1f8 1f3e
000000b0: 82dd 86be 7a96 833e d4e3 87be e494 163e
000000c0: a262 acbe 80f4 61bf cc34 39c0 5a4f 52bf
000000d0: a215 b23d 6565 e43e 9d55 2340 2037 6b3f
000000e0: eaa5 5dbf a5ed 81bc 8aa0 1d40 34ea 753f
000000f0: 8600 18be f43a bd3e b0de 133f 3609 dc3e
00000100: 8bbe 7dbe 508d 45be a807 55bd b8c6 2a3d
00000110: b072 15bf 2dc3 7ebf 1423 1ac0 df37 5fbf
00000120: ecb4 2b3f 2746 0d3e 42a8 72bd 3c11 a3bd
00000130: c203 053f a333 7e3e 1d7f 00bf 1997 593e
00000140: eb56 5abe 3ca1 d1be c9b4 bebc 0671 1abe
00000150: 779c 053f 0bdf 83be 986c 2cbf d6d1 2e3e
00000160: 4a61 a23f 437d 083e 0e97 08c0 982b 8dbf
00000170: bfa0 f93d fbd7 eabd 1fae c0be b6ae 35be
00000180: 8161 05be 421e 483c dcfc 363e a32a 07be
00000190: 81e8 f63e 35bf 67bd c1f2 fe3e 9b9d 1d3e
000001a0: dee5 38bf 0cdb 90bf b17a 03c0 c8d7 81bf
000001b0: 7c7f 26bd 3536 653f 3683 2d40 c6dd 983f
000001c0: 2526 d7be 17bf b73e 6e62 1f40 2139 8e3f
000001d0: f3ae 1540 2922 ba3e 1147 2ac0 eae1 8ebf
000001e0: 6485 b7be a9ae 15be fcae 183f 8fc4 78be
000001f0: 7299 c43e cbd2 37be 811e a7be b5cf 0abe

mlp.0.bias f4 [32]
0.9596638 1.0976893 -0.3105194 0.7533042 1.0571576 0.93819153 1.001114 1.07154
0.7462099 0.80873585 -0.20072524 -0.41987926 0.075739846 0.33694762 0.25925538 0.97455037
0.83749545 0.17034142 0.815041 0.7462105 0.92226547 1.0392919 0.39094672 0.95308965
0.7387173 0.8443695 0.24188344 -0.40407643 -0.6173604 -0.4257014 0.9884051 -0.32976523
00000000: 87ac 753f 1581 8c3f 66fc 9ebe 8bd8 403f
00000010: f150 873f 522d 703f 8124 803f 3928 893f
00000020: 9d07 3f3f 5009 4f3f eb8a 4dbe 6afa d6be
00000030: 7e1d 9b3d 6684 ac3e 1fbd 843e 227c 793f
00000040: 1a66 563f fb6d 2e3e 87a6 503f a707 3f3f
00000050: 9719 6c3f 8407 853f 2b2a c83e affd 733f
00000060: 941c 3d3f 9928 583f 4bb0 773e 1be3 cebe
00000070: 550b 1ebf 89f5 d9be 1e08 7d3f fdd6 a8be

mlp.2.weight f4 [32, 32]
0.4022446 0.5074629 0.056598514 0.69563913 0.4149455 0.5247812 0.45392716 0.42644414
0.41936824 0.4318128 -0.61308825 0.07559596 -1.7517444 -0.28347793 -0.5744173 0.62793213
0.64564663 -1.4524959 0.41204512 0.688282 0.4691295 0.49809664 -0.7371284 0.4325051
0.22623545 0.62414354 -1.5807503 -1.5621365 -1.0614951 -0.9547919 0.5257097 -0.07096964
-0.14832371 -0.071657486 0.1279683 -0.19782832 0.005789149 0.029216375 0.105447575 -0.1920753
-0.04066526 -0.22402255 0.15092315 -0.0685728 0.039451763 -0.047004983 -0.0630656 -0.06665542
-0.038805604 0.039522905 -0.053589366 -0.020189853 -0.23430768 0.06519725 0.06195917 0.05910351
0.03629982 -0.18057795 -0.106982484 0.11392124 -0.18390295 0.06738253 -0.22593844 -0.154286
0.5728806 0.44801307 -0.040499657 0.7596133 0.6770181 0.8125437 0.5178157 0.4127644
0.7434796 0.49172738 -0.65709955 0.043093532 -1.5190632 -0.5049129 -0.56488085 0.33358648
0.50407046 -0.8285246 0.6263071 0.52670276 0.5865974 0.4622834 -0.45766583 0.4148546
0.38842675 0.49417314 -0.39691296 -1.4124995 -0.8670621 -0.7315326 0.65655994 -0.1421716
0.023131223 0.031276993 -0.010245189 -0.10228646 0.083503075 0.07776533 -0.17765138 0.093606636
-0.03187135 -0.19383842 0.096769765 -0.13197698 0.1396735 -0.19036402 -0.026581926 -0.025416112
-0.03790917 0.08295768 -0.15234566 -0.15409969 -0.22983299 -0.08595116 -0.14332564 -0.06870178
-0.088135146 -0.018865416 0.09425782 -0.0047252458 -0.12798764 -0.14307845 -0.22950162 0.11894464
0.4821528 0.49471927 0.006539166 0.45133254 0.63910663 0.5964599 0.5162727 0.3606943
0.5042989 0.5568174 -0.69584745 -0.09863401 -1.9478239 -0.7091952 -1.0629187 0.38191834
0.46598253 -1.6983023 0.40150017 0.7100133 0.526385 0.6483238 -0.67560595 0.47146067
0.15819517 0.33828908 -1.4547095 -1.8477663 -1.432523 -0.9436949 0.5919838 0.009446179
-0.08309746 -0.062496107 -0.03357111 -0.11329935 0.02427747 -0.10870768 -0.14940676 -0.010170961
-0.17584217 -0.08621849 0.090335295 0.06606665 0.108344145 -0.12057002 0.0015369952 -0.10233759
-0.14795966 -0.09944635 -0.0054090573 -0.02959075 -0.13918553 -0.17100781 -0.19419707 0.12494612
-0.0766212 -0.040877 -0.06500397 -0.08841766 -0.16166443 -0.15104471 0.05958126 0.03874518
-0.123929895 -0.13333264 0.11292739 0.061909646 0.10506028 -0.015477518 0.022985496 -0.077707596
-0.16974121 -0.24317327 0.10767366 -0.025693938 0.01966429 -0.043940157 -0.21643896 -0.14635184
-0.013960992 -0.0834214 -0.23793678 -0.0028454054 -0.05749067 -0.11704762 0.005340265 -0.030798996
-0.12752515 0.10593372 0.04734849 -0.021377271 -0.08434908 -0.21507266 0.06844767 -0.07514813
0.43486562 0.61124855 0.06278242 0.6476132 0.47430417 0.50007087 0.6144336 0.69655687
0.55307615 0.41054296 -0.396109 0.0037807375 -1.2906991 -0.32151857 -0.4410021 0.6194393
0.5639187 -0.93415326 0.48701173 0.37431264 0.6039475 0.36427104 -0.75600195 0.34783202
0.54439974 0.41848108 -0.9294017 -1.3508104 -0.9592013 -1.0647184 0.6178992 0.095117085
00000000: 01f3 cd3e 17e9 013f d8d3 673d 6815 323f
00000010: bd73 d43e 1058 063f 2469 e83e e356 da3e
00000020: 6fb7 d63e 9116 dd3e 5af3 1cbf 0ed2 9a3d
00000030: 2939 e0bf 0524 91be 030d 13bf 29c0 203f
00000040: 1949 253f 63eb b9bf 94f7 d23e 4033 303f
00000050: be31 f03e 8606 ff3e 72b4 3cbf 4f71 dd3e
00000060: 44aa 673e dfc7 1f3f 0756 cabf 17f4 c7bf
00000070: 12df 87bf 3e6d 74bf e994 063f 8858 91bd
00000080: 2ce2 17be 29c1 92bd 1f0a 033e 8293 4abe
00000090: e7b2 bd3b 2e57 ef3c e6f4 d73d 63af 44be
000000a0: 9e90 26bd 2b66 65be 998b 1a3e e56f 8cbd
000000b0: 2c98 213d 4c88 40bd 8a28 81bd a382 88bd
000000c0: a0f2 1ebd c5e2 213d 8680 5bbd 3165 a5bc
000000d0: 5aee 6fbe 2386 853d e6c8 7d3d 8616 723d
000000e0: 1faf 143d 6de9 38be a219 dbbd 8a4f e93d
000000f0: 0e51 3cbe daff 893d 685c 67be 26fd 1dbe
00000100: 4ea8 123f f861 e53e f8e2 25bd 0476 423f
00000110: 0f51 2d3f dd02 503f 928f 043f db55 d33e
00000120: ae54 3e3f b1c3 fb3e ad37 28bf d882 303d
00000130: aa70 c2bf f941 01bf 089c 10bf d9cb aa3e
00000140: c30a 013f 301a 54bf a955 203f fed5 063f
00000150: 3f2b 163f 69b0 ec3e 2d53 eabe d267 d43e
00000160: dfdf c63e 4304 fd3e 2d38 cbbe c9cc b4bf
00000170: c8f7 5dbf b845 3bbf 5014 283f 6f95 11be
00000180: b17d bd3c 4e1c 003d 70db 27bc 907b d1bd
00000190: a903 ab3d 6e43 9f3d 3eea 35be d6b4 bf3d
000001a0: 888b 02bd 947d 46be 3a2f c63d f924 07be
000001b0: 9206 0f3e c9ee 42be 57c2 d9bc 7335 d0bc
000001c0: a546 1bbd b7e5 a93d 8000 1cbe 4fcc 1dbe
000001d0: 5759 6bbe 2907 b0bd f5c3 12be 85b3 8cbd
000001e0: 3380 b4bd a58b 9abc 3e0a c13d 3cd6 9abb
000001f0: 310f 03be 2883 12be 7902 6bbe 3f99 f33d
00000200: bbdc f63e d84b fd3e 8046 d63b 0f15 e73e
00000210: 7e9c 233f 99b1 183f 732a 043f ecac b83e
00000220: bc19 013f 968b 0e3f 0f23 32bf a100 cabd
00000230: 4b52 f9bf d18d 35bf b80d 88bf cd8a c33e
00000240: 4395 ee3e f861 d9bf 6e91 cd3e 6ec3 353f
00000250: 2bc1 063f 8cf8 253f 83f4 2cbf 4b63 f13e
00000260: eafd 213e 3a34 ad3e ec33 babf 9b83 ecbf
00000270: ea5c b7bf fd95 71bf 408c 173f 25c4 1a3c
00000280: 002f aabd ebfb 7fbd dc81 09bd 7d09 e8bd
00000290: 8be1 c63c 22a2 debd 16fe 18be 1aa4 26bc
000002a0: f80f 34be 5293 b0bd b601 b93d f44d 873d
000002b0: 89e3 dd3d 6aed f6bd 0075 c93a 5f96 d1bd
000002c0: bd82 17be 87aa cbbd 763e b1bb 4d68 f2bc
000002d0: a786 0ebe ac1c 2fbe 99db 46be c0e3 ff3d
000002e0: 93eb 9cbd a46e 27bd cd20 85bd 5114 b5bd
000002f0: 5c8b 25be 77ab 1abe 7b0b 743d 44b3 1e3d
00000300: f5ce fdbd 5a88 08be 7a46 e73d f894 7d3d
00000310: d829 d73d 6a95 7dbc 144c bc3c 2925 9fbd
00000320: a4d0 2dbe 6a02 79be 0284 dc3d 187c d2bc
00000330: 0117 a13c 98fa 33bd 2da2 5dbe 42dd 15be
00000340: a5bc 64bc d7d8 aabd b3a5 73be fb79 3abb
00000350: 567b 6bbd aab6 efbd 64fd ae3b 2d4e fcbc
00000360: f495 02be c7f3 d83d 7ef0 413d 631f afbc
00000370: 36bf acbd 023c 5cbe 4b2e 8c3d 43e7 99bd
00000380: b5a6 de3e c97a 1c3f 1294 803d fbc9 253f
00000390: ffd7 f23e a504 003f 854b 1d3f 8d51 323f
000003a0: 6696 0d3f b032 d23e cdce cabe 40c6 773b
000003b0: a135 a5bf 159e a4be 07cb e1be 9393 1e3f
000003c0: fa5c 103f ab24 6fbf 9a59 f93e e8a5 bf3e
000003d0: 4e9c 1a3f bc81 ba3e 5889 41bf 0a17 b23e
000003e0: c85d 0b3f 2743 d63e 45ed 6dbf 5be7 acbf
000003f0: 378e 75bf b148 88bf a42e 1e3f bfcc c23d

mlp.2.bias f4 [32]
0.4542722 0.0064504202 0.5604554 0.008785396 0.6073 -0.023684403 0.08541823 0.5582595
0.40300936 0.09568001 0.011718631 0.46810013 0.07020986 -0.15897736 0.34469178 0.63584745
0.06660609 0.08882657 0.59332687 0.002249033 0.50070196 -0.16613449 0.43383956 -0.036267806
0.41993925 -0.1925634 0.5440705 -0.014602224 -0.19799475 -0.03669476 0.50664055 0.51387787
00000000: 5e96 e83e 0c5e d33b 017a 0f3f 9ff0 0f3c
00000010: 0378 1b3f cb05 c2bc c1ef ae3d 18ea 0e3f
00000020: 3e57 ce3e e2f3 c33d 80ff 3f3c d2aa ef3e
00000030: 30ca 8f3d f6ca 22be 717b b03e e6c6 223f
00000040: c668 883d b4ea b53d 45e4 173f 8364 133b
00000050: 012e 003f 291f 2abe 3820 de3e 8d8d 14bd
00000060: 4702 d73e 572f 45be 3448 0b3f 2b3e 6fbc
00000070: 23bf 4abe 3f4d 16bd 32b3 013f 808d 033f

V.weight f4 [1, 32]
1.1682383 0.010875271 0.9308668 -0.0784899 1.3645849 -0.06961277 0.029187694 1.0221142
0.9142182 -1.0020546 -0.043835044 -0.77956027 -0.029854035 0.0811042 1.0658461 0.9853126
0.14757805 -0.029093046 0.97928697 -0.0054888157 1.4170673 -0.04759431 1.0120366 -0.029777745
0.7704951 -0.07846606 1.0650973 -0.08278626 -0.018160764 -0.0824226 1.0143838 1.1191585
00000000: d588 953f 312e 323c 494d 6e3f 50bf a0bd
00000010: b8aa ae3f 2491 8ebd 081b ef3c a3d4 823f
00000020: 340a 6a3f 5343 80bf 608c 33bd 4391 47bf
00000030: 7390 f4bc f519 a63d a56d 883f 723d 7c3f
00000040: b31e 173e 8a54 eebc 8db2 7a3f 86db b3bb
00000050: 7662 b53f 40f2 42bd 6a8a 813f 75f0 f3bc
00000060: 2b3f 453f d0b2 a0bd 1c55 883f d88b a9bd
00000070: e2c5 94bc 2ecd a8bd 54d7 813f 9640 8f3f

A.weight f4 [2, 32]
-0.36953878 0.089811385 0.19132203 0.14337537 -0.27778807 0.032678008 0.0404236 -0.25121966
0.0977724 -0.47202784 0.04820341 -0.75016063 0.025152493 -0.9370235 -0.17682424 0.5805621
-0.013965085 0.13692157 0.30798778 -0.040994953 -0.14801002 -0.04521726 0.15591803 0.16870753
0.26993403 -0.06231056 -0.18896037 -0.18577395 -0.090717204 0.16069576 -0.0053019878 0.060603388
0.27283663 0.098642655 -0.15015376 0.0700847 0.16653843 0.17386985 0.11026079 0.20799896
-0.08086885 0.71875286 0.026681632 0.9254192 -0.041377883 0.8647543 0.21714091 -0.5710459
0.017635152 0.18141757 -0.25205737 -0.08405135 0.14937532 0.05823855 -0.09231235 -0.012154123
-0.102858104 -0.11394389 0.17586088 0.00413854 0.051702213 -0.09917587 -0.25445852 -0.045668192
00000000: 3034 bdbe 08ef b73d ece9 433e fed0 123e
00000010: 3d3a 8ebe 60d9 053d 3793 253d dd9f 80be
00000020: e53c c83d a2ad f1be f070 453d 870a 40bf
00000030: 9a0c ce3c c6e0 6fbf 6a11 35be b89f 143f
00000040: d0cd 64bc 2b35 0c3e 93b0 9d3e 53ea 27bd
00000050: f08f 17be bc35 39bd faa8 1f3e abc1 2c3e
00000060: cb34 8a3e 5c39 7fbd d47e 41be 873b 3ebe
00000070: f1c9 b9bd 6e8d 243e 4cbc adbb 423b 783d
00000080: 3eb1 8b3e 2905 ca3d e8c1 19be 9188 8f3d
00000090: 0d89 2a3e f00a 323e 69d0 e13d aefd 543e
000000a0: 919e a5bd 3000 383f 7093 da3c 46e8 6c3f
000000b0: db7b 29bd 8a60 5d3f 305a 5e3e 1030 12bf
000000c0: 9877 903c 87c5 393e aa0d 81be 1d23 acbd
000000d0: d8f5 183e 8c8b 6e3d 420e bdbd 1622 47bc
000000e0: 45a7 d2bd 6a5b e9bd e014 343e 979c 873b
000000f0: b3c5 533d b81c cbbd 6348 82be 920e 3bbd

A.bias f4 [2]
0.3338972 -0.24883988
00000000: 93f4 aa3e e2cf 7ebe

exp_avg f4 [32, 4]
0.0011291896 -0.008855781 -9.328877e-05 0.00985287 0.0012258327 -0.0094546145 -0.00038450034 0.009479784
0.0 0.0 0.0 0.0 0.0012457961 -0.012546386 0.00031382262 0.014196299
0.0007656236 -0.009364813 -0.00049409654 0.008968301 0.0015250195 -0.011925581 0.0004424217 0.013481336
0.0011996396 -0.007214093 -0.0007500061 0.006785897 0.0016696121 -0.007554502 -0.0008906049 0.007056772
0.0010906397 -0.012059623 0.0010269589 0.01494395 0.00041557456 -0.011427179 0.00013592913 0.011875891
-0.001495231 -0.0024917433 -8.968725e-05 0.0035697038 0.0 0.0 0.0 0.0
-9.426343e-05 -0.01171033 0.013628418 0.052359093 0.0034565984 0.01853343 -0.005646035 -0.03169429
0.004268256 0.024826976 -0.007701321 -0.043496624 0.0014426708 -0.0058608665 -0.00096572813 0.005389528
0.0017607595 -0.009583772 -0.0001593174 0.010879908 0.0010552157 -0.010577336 0.010134276 0.039187513
-0.0068723895 -0.017272223 -0.00045670103 0.011625076 -0.0057874504 -0.01677176 -0.0004564651 0.012388324
0.0013630008 -0.0109552555 -2.083564e-05 0.012141582 0.0010861713 -0.010001672 -0.00012966893 0.011063786
-0.004894015 -0.0060700565 0.002987275 0.010242054 0.0005058671 -0.01001368 0.00025048637 0.0111080585
0.0013738533 -0.00670781 -0.00036415362 0.0066221063 0.00018488354 -0.0063886945 -0.0008063904 0.0054380232
0.002329121 -0.006105292 0.008659855 0.030476738 0.002739436 0.047364086 -0.013651628 -0.0858373
0.00092014915 0.029827682 -0.009915668 -0.0610311 -0.0038739422 -0.0031830627 0.0069808406 0.02244107
0.0019324551 -0.008817016 -0.00023683054 0.009527498 1.0340379e-33 1.0645927e-32 -2.3990334e-33 -2.166728e-32
00000000: 5101 943a d617 11bc 07a4 c3b8 ef6d 213c
00000010: 1fac a03a 87e7 1abc c396 c9b9 1951 1b3c
00000020: 0000 0000 0000 0000 0000 0000 0000 0000
00000030: fb49 a33a 5b8f 4dbc 8f88 a439 9897 683c
00000040: 21b4 483a df6e 19bc 4286 01ba c8ef 123c
00000050: 2ae3 c73a 8363 43bc d6f4 e739 d2e0 5c3c
00000060: 3a3d 9d3a 3364 ecbb 0f9c 44ba 3b5c de3b
00000070: e3d6 da3a c28b f7bb 7c77 69ba 7e3c e73b
00000080: ccf3 8e3a ba95 45bc 069b 863a 78d7 743c
00000090: 79e1 d939 1039 3bbc 3388 0e39 1993 423c
000000a0: a0fb c3ba 844c 23bb 7a16 bcb8 b1f1 693b
000000b0: 0000 0000 0000 0000 0000 0000 0000 0000
000000c0: 4baf c5b8 afdc 3fbc ba49 5f3c 7d76 563d
000000d0: 1988 623b 6bd3 973c 6002 b9bb dfd1 01bd
000000e0: badc 8b3b f161 cb3c 5d5b fcbb 8429 32bd
000000f0: 0018 bd3a 830c c0bb eb28 7dba a39a b03b
00000100: 49c9 e63a 4105 1dbc 700e 27b9 a441 323c
00000110: 2a4f 8a3a 904c 2dbc 3c0a 263c 1683 203d
00000120: c831 e1bb 7a7e 8dbc 6071 efb9 1a77 3e3c
00000130: a7a4 bdbb ee64 89bc b551 efb9 66f8 4a3c
00000140: b8a6 b23a ac7d 33bc 32c8 aeb7 7ced 463c
00000150: dc5d 8e3a 0ede 23bc bdf7 07b9 e244 353c
00000160: f95d a0bb 53e7 c6bb 28c6 433b 4ace 273c
00000170: 2b9c 043a 6b10 24bc b653 8339 93fe 353c
00000180: de12 b43a 30cd dbbb dfeb beb9 41fe d83b
00000190: 4cdd 4139 4158 d1bb f263 53ba 7231 b23b
000001a0: 2ba4 183b e70e c8bb 11e2 0d3c 5aaa f93c
000001b0: 1c88 333b d800 423d 14ab 5fbc 77cb afbd
000001c0: 2a36 713a 2f59 f43c 5375 22bc bffb 79bd
000001d0: f7e1 7dbb ee9a 50bb 89bf e43b 56d6 b73c
000001e0: 6f4a fd3a 3f75 10bc b755 78b9 3919 1c3c
000001f0: 1ccf ab08 751b 5d0a cc4d 4789 8301 e18a

exp_avg_sq f4 [32, 4]
0.0003714177 0.0013743503 6.7517685e-05 0.002400958 0.0003929464 0.0015821836 7.754185e-05 0.0028859274
0.0 0.0 0.0 0.0 0.00070189306 0.0025015364 0.000119143326 0.0043325406
0.00035082104 0.0014638414 7.182096e-05 0.0026864442 0.0006724716 0.0022948568 0.0001069766 0.003946044
0.00025247902 0.0010837507 5.620333e-05 0.001993497 0.00031802402 0.0014776638 7.464189e-05 0.0028469372
0.00065308623 0.0020005507 9.096284e-05 0.003245715 0.00049373775 0.0017320799 8.191304e-05 0.0029676366
2.0360494e-05 7.930231e-05 6.9263833e-06 0.00011707514 0.0 0.0 0.0 0.0
0.0020313796 0.0049196593 0.00021674603 0.0067859227 9.5036485e-05 0.00068917125 4.7897414e-05 0.001303711
0.0012440935 0.0030293905 0.00015703592 0.003911921 0.00018614756 0.00088288536 4.719688e-05 0.001682885
0.00048790214 0.0019048078 9.400567e-05 0.003419396 0.0009109724 0.0024083906 0.00010310835 0.0032602309
0.00043077918 0.0016933056 8.301744e-05 0.0030309618 0.0004561977 0.002053691 0.00010318992 0.0038331922
0.0005479445 0.002053978 0.000100538855 0.0036483167 0.00044008158 0.0016845239 8.421168e-05 0.002995533
3.599353e-05 0.00022155962 1.9460807e-05 0.0005404334 0.00038251266 0.0013427149 6.380852e-05 0.002286345
0.00017409264 0.00063472684 3.073988e-05 0.0010826542 0.00014061801 0.0006491919 3.4677243e-05 0.0011867397
0.000694119 0.0018340896 7.644197e-05 0.0023741103 0.0006158222 0.0055711786 0.00046190483 0.011063667
0.0005120921 0.0024754815 0.00017855038 0.004458713 7.5653494e-05 0.0008904483 6.928672e-05 0.002293545
0.0003930499 0.0014949777 7.2768715e-05 0.0026566698 2.8603439e-11 9.93364e-10 9.108631e-12 5.310171e-10
00000000: d7ba c239 8b23 b43a 4898 8d38 6459 1d3b
00000010: 5f04 ce39 4661 cf3a f79d a238 d421 3d3b
00000020: 0000 0000 0000 0000 0000 0000 0000 0000
00000030: 3fff 373a d1f0 233b 96dc f938 fcf7 8d3b
00000040: 67ee b739 5ede bf3a 969e 9638 0e0f 303b
00000050: ce48 303a 4f65 163b a058 e038 d14d 813b
00000060: 295f 8439 a40c 8e3a debb 6b38 54a5 023b
00000070: 76bc a639 2bae c13a 0f89 9c38 ae93 3a3b
00000080: e033 2b3a ac1b 033b 4ec3 be38 10b6 543b
00000090: 2e6e 013a f506 e33a bac8 ab38 ae7c 423b
000000a0: d4cb aa37 1a4f a638 2e69 e836 3d86 f538
000000b0: 0000 0000 0000 0000 0000 0000 0000 0000
000000c0: e520 053b 1835 a13b 5246 6339 725c de3b
000000d0: 534e c738 80a9 343a 75e5 4838 48e1 aa3a
000000e0: da10 a33a bd88 463b 02aa 2439 922f 803b
000000f0: 9b30 4339 6f71 673a 44f5 4538 4094 dc3a
00000100: 1ecd ff39 beaa f93a e924 c538 f217 603b
00000110: 53ce 6e3a 17d6 1d3b e03b d838 99a9 553b
00000120: 34da e139 e8f1 dd3a a619 ae38 1aa3 463b
00000130: d22d ef39 3897 063b ab67 d838 4b36 7b3b
00000140: efa3 0f3a 089c 063b 63d8 d238 9918 6f3b
00000150: c0ba e639 3ecb dc3a cd9a b038 b450 443b
00000160: c2f7 1638 7552 6839 c43f a337 dfab 0d3a
00000170: fb8b c839 09fe af3a f0d0 8538 81d6 153b
00000180: a38c 3639 cc63 263a b2ee 0038 d9e7 8d3a
00000190: dc72 1339 882e 2a3a 6872 1138 608c 9b3a
000001a0: 8af5 353a d665 f03a 784f a038 f696 1b3b
000001b0: 216f 213a 6f8e b63b d12b f239 6244 353c
000001c0: eb3d 063a b03b 223b 4139 3b39 651a 923b
000001d0: 29a8 9e38 f96c 693a 064e 9138 4d4f 163b
000001e0: 4412 ce39 21f3 c33a 689b 9838 861b 2e3b
000001f0: 3899 fb2d e386 8830 a13d 202d 02f7 1130

exp_avg f4 [32]
0.01622039 0.018089622 0.0 0.02175773 0.017283717 0.021519905 0.015030926 0.01619543
0.02035774 0.019619394 0.0065893135 0.0 -0.038158845 -0.018474888 -0.02424738 0.012958017
0.018387772 -0.030562812 0.024317658 0.023837887 0.01955287 0.017256439 -0.017514728 0.01690996
0.013597033 0.012414901 -0.033582058 -0.02177728 -0.019176474 -0.017063668 0.017435782 1.3195835e-32
00000000: a0e0 843c b030 943c 0000 0000 443d b23c
00000010: 9596 8d3c 834a b03c 4644 763c 47ac 843c
00000020: 46c5 a63c dab8 a03c 2beb d73b 0000 0000
00000030: 734c 1cbd a658 97bc 71a2 c6bc dd4d 543c
00000040: f4a1 963c dd5e fabc d335 c73c ac47 c33c
00000050: 572d a03c 605d 8d3c 0c7b 8fbc c286 8a3c
00000060: 17c6 5e3c de67 4b3c 578d 09bd 4466 b2bc
00000070: fb17 9dbc 1bc9 8bbc 7cd5 8e3c 8c08 890a

exp_avg_sq f4 [32]
0.004829301 0.005419571 0.0 0.0090126395 0.004934163 0.008380631 0.0035506268 0.004829841
0.007676008 0.0062686927 0.00019377716 0.0 0.0118517745 0.0036610176 0.012011811 0.0028270073
0.0065807253 0.0071252375 0.005979369 0.0072520496 0.007236596 0.005995096 0.00064072915 0.0048441677
0.00210653 0.002095476 0.00622554 0.015037445 0.005305607 0.0016935336 0.0051532807 6.939693e-10
00000000: 1d3f 9e3b a896 b13b 0000 0000 c0a9 133c
00000010: c2ae a13b ea4e 093c a2b1 683b a543 9e3b
00000020: 0687 fb3b 9b69 cd3b a930 4b39 0000 0000
00000030: f22d 423c afed 6f3b 30cd 443c 5045 393b
00000040: 20a3 d73b d37a e93b 95ee c33b 9aa2 ed3b
00000050: f820 ed3b 8372 c43b 9bf6 273a d3bb 9e3b
00000060: b50d 0a3b 4154 093b 9dff cb3b 9e5f 763c
00000070: a8da ad3b 8ff9 dd3a dadc a83b c0c1 3e30

exp_avg f4 [32, 32]
0.0018651062 0.0012682134 0.0 0.000625876 0.0013630189 0.00028137275 0.0020127369 0.0021620041
0.00017470201 0.0005874098 0.0007677822 0.0 0.0010616626 0.0048600934 0.005450604 0.0021591494
0.0013772623 0.0010116496 0.00061965856 0.0011472676 0.0012036472 0.0020722207 0.0026147347 0.0006527041
0.00049987296 0.0018780216 0.0010558355 0.004908949 0.0054925974 0.0019980134 0.0007563003 -4.3243665e-35
4.5e-44 -2.5191436e-28 0.0 -9.63e-29 -2.050688e-28 -2.2823307e-28 -2.9406248e-29 -7.174379e-29
-1.0669256e-28 -1.6002448e-28 0.0 0.0 -1.6429084e-28 1.4e-44 6e-45 -7.1935096e-29
2.8e-44 -9.655908e-29 -1.9954549e-28 -7.1283614e-29 -9.321299e-30 5.5e-44 -9.969196e-28 -2.1958473e-28
-1.6614549e-28 -3.3209683e-30 6e-45 6e-45 8e-45 -8.920646e-28 -2.2855535e-28 6e-45
0.0028139115 0.0019934762 0.0 0.0019504417 0.0026820265 0.0017507849 0.00221747 0.0018810993
0.0023159136 0.0023160873 0.00022967222 0.0 0.0018839195 0.003922122 0.0032129625 0.0020692602
0.0014458714 0.0011153114 0.0020351084 0.0019108683 0.0015848171 0.0031213874 0.0053332644 0.0022679686
0.0014319463 0.0024398998 0.0008446824 0.0030932082 0.0034320601 0.005252091 0.0015162072 1.545925e-33
-4.3108297e-08 -3.4590724e-07 0.0 -1.7448878e-07 -9.562848e-08 -4.6383786e-07 -1.5767333e-07 -2.8069113e-07
-1.4809976e-07 -8.541127e-08 0.0 0.0 -6.956806e-07 7.4e-44 -1.6180027e-07 -9.477903e-08
-3.510964e-07 -8.540087e-07 9.2e-44 7.1e-44 -4.4208656e-07 -2.2355993e-08 1.1e-44 -2.4134687e-07
-2.541996e-07 4e-44 -9.842228e-07 6e-45 3.9e-44 1e-44 -4.6666784e-07 6e-45
0.0033565385 0.003127366 0.0 0.0020750787 0.0027679699 0.0025649217 0.003499197 0.0038294066
0.0017428504 0.0018665275 0.0007410544 0.0 0.0035462542 0.005369295 0.007031784 0.0032838057
0.0032183768 0.0038257057 0.0012648769 0.0016760147 0.0034421496 0.0036407493 0.0040536034 0.002385274
0.0018656604 0.00273376 0.0041977805 0.0052126986 0.0058911555 0.003323465 0.0028817623 1.2749742e-33
6e-45 2.2e-44 0.0 6e-45 1.5e-44 2e-44 6e-45 6e-45
1.8e-44 1.7e-44 0.0 0.0 6e-45 0.0 0.0 6e-45
6e-45 0.0 6e-45 6e-45 1e-44 6e-45 1.5e-44 4.5e-44
6e-45 0.0 0.0 0.0 0.0 1.7e-44 3.5e-44 0.0
1.8e-44 3.5e-44 0.0 7e-45 3e-44 2.7e-44 1.8e-44 2.2e-44
2.5e-44 1.5e-44 0.0 0.0 6e-45 6e-45 6e-45 1.1e-44
1.1e-44 6e-45 1.4e-44 1e-44 2.1e-44 2.1e-44 1.1e-44 4.3e-44
6e-45 6e-45 6e-45 6e-45 6e-45 1.3e-44 3.2e-44 6e-45
0.0021516941 0.0014961764 0.0 0.0012710025 0.002070984 0.00081733306 0.0017536532 0.0015669931
0.0014166182 0.001591374 0.0006246825 0.0 0.0013980636 0.0042531267 0.0031984919 0.0018581524
0.00088026444 0.0007596174 0.0020800245 0.0021006651 0.0007900085 0.0024440542 0.005692346 0.0015283859
0.0009215455 0.002164803 0.00054321124 0.0041971104 0.0046301903 0.0047066887 0.00075556675 -3.6255124e-35
00000000: 9476 f43a 2e3a a63a 0000 0000 d411 243a
00000010: 53a7 b23a 3685 9339 1fe8 033b 69b0 0d3b
00000020: 3730 3739 68fc 193a fe44 493a 0000 0000
00000030: 7c27 8b3a 6b41 9f3b fb9a b23b 8480 0d3b
00000040: 4185 b43a 5499 843a 9570 223a ea5f 963a
00000050: b3c3 9d3a 18ce 073b f85b 2b3b 3b1a 2b3a
00000060: e809 033a f327 f63a f663 8a3a 40db a03b
00000070: 3ffb b33b 1af1 023b 7442 463a 3aec 6586
00000080: 2000 0000 71ab 9f91 0000 0000 4626 f490
00000090: 51fa 8191 efa8 9091 7e1b 1590 62e4 b590
000000a0: b73f 0791 eada 4a91 0000 0000 0000 0000
000000b0: 6d43 5091 0a00 0000 0400 0000 8c60 b690
000000c0: 1400 0000 6dce f490 37f4 7c91 b6b9 b490
000000d0: f40e 3d8f 2700 0000 ddf7 9d92 a92d 8b91
000000e0: 4b9d 5291 e8b6 868e 0400 0000 0400 0000
000000f0: 0600 0000 705a 8d92 3add 9091 0400 0000
00000100: 9a69 383b fba4 023b 0000 0000 f7a5 ff3a
00000110: f0c4 2f3b 987a e53a f952 113b 388f f63a
00000120: 95c6 173b 7fc9 173b 2bd4 7039 0000 0000
00000130: d9ed f63a 2585 803b 9190 523b 6d9c 073b
00000140: 6583 bd3a a42f 923a 745f 053b 1a76 fa3a
00000150: a3b9 cf3a 3190 4c3b aac2 ae3b 33a2 143b
00000160: 25b0 bb3a bae6 1f3b ad6d 5d3a 6cb7 4a3b
00000170: 6aec 603b bc19 ac3b 79bb c63a 306e 0009
00000180: 1326 39b3 21b5 b9b4 0000 0000 1c5b 3bb4
00000190: 505c cdb3 6405 f9b4 ea4c 29b4 e5b1 96b4
000001a0: 5a05 1fb4 586b b7b3 0000 0000 0000 0000
000001b0: cfbe 3ab5 3500 0000 52bb 2db4 5389 cbb3
000001c0: 527e bcb4 083f 65b5 4200 0000 3300 0000
000001d0: ea57 edb4 5909 c0b2 0800 0000 7692 81b4
000001e0: ed78 88b4 1d00 0000 a319 84b5 0400 0000
000001f0: 1c00 0000 0700 0000 578a fab4 0400 0000
00000200: 5ff9 5b3b 7ff4 4c3b 0000 0000 0bfe 073b
00000210: d466 353b 3f18 283b c952 653b c8f6 7a3b
00000220: 5b70 e43a 45a6 f43a 5243 423a 0000 0000
00000230: 4668 683b e9f0 af3b e16a e63b 1e35 573b
00000240: 67eb 523b b1b8 7a3b 3aca a53a b9ad db3a
00000250: b095 613b a399 6e3b 17d4 843b 4252 1c3b
00000260: 2d89 f43a e228 333b 898d 893b 49cf aa3b
00000270: 980a c13b 7dce 593b f3db 3c3b 68d7 d308
00000280: 0400 0000 1000 0000 0000 0000 0400 0000
00000290: 0b00 0000 0e00 0000 0400 0000 0400 0000
000002a0: 0d00 0000 0c00 0000 0000 0000 0000 0000
000002b0: 0400 0000 0000 0000 0000 0000 0400 0000
000002c0: 0400 0000 0000 0000 0400 0000 0400 0000
000002d0: 0700 0000 0400 0000 0b00 0000 2000 0000
000002e0: 0400 0000 0000 0000 0000 0000 0000 0000
000002f0: 0000 0000 0c00 0000 1900 0000 0000 0000
00000300: 0d00 0000 1900 0000 0000 0000 0500 0000
00000310: 1500 0000 1300 0000 0d00 0000 1000 0000
00000320: 1200 0000 0b00 0000 0000 0000 0000 0000
00000330: 0400 0000 0400 0000 0400 0000 0800 0000
00000340: 0800 0000 0400 0000 0a00 0000 0700 0000
00000350: 0f00 0000 0f00 0000 0800 0000 1f00 0000
00000360: 0400 0000 0400 0000 0400 0000 0400 0000
00000370: 0400 0000 0900 0000 1700 0000 0400 0000
00000380: 7003 0d3b 591b c43a 0000 0000 c497 a63a
00000390: 59b9 073b 4b42 563a d6da e53a 9063 cd3a
000003a0: d2ad b93a a795 d03a bcc1 233a 0000 0000
000003b0: 3b3f b73a d05d 8b3b ca9d 513b 408d f33a
000003c0: 8cc1 663a 1021 473a 0551 083b 50ab 093b
000003d0: 9318 4f3a 6d2c 203b dc86 ba3b 1f54 c83a
000003e0: df93 713a 5edf 0d3b 4a66 0e3a ea87 893b
000003f0: dab8 973b 913a 9a3b 3a11 463a ebc3 4086

exp_avg_sq f4 [32, 32]
0.00019024225 0.00026544573 0.0 9.602062e-05 0.00022412116 0.00018978826 0.00020254616 0.00026671967
0.00010714572 0.00011588888 1.3307804e-06 0.0 1.9992049e-05 0.0001212805 0.00013917926 0.00019565741
0.00014458668 3.1381525e-05 0.00012811492 0.0001048177 0.00018405473 0.00023827454 0.00012610473 0.00018714245
7.273814e-05 0.00011319856 3.6858757e-05 9.911457e-05 7.907061e-05 0.00010988211 0.00019764106 1.6109445e-13
2.7538388e-07 8.951391e-07 0.0 4.6489085e-08 6.3687133e-07 5.9296735e-07 2.7622627e-07 3.733802e-07
5.325153e-07 2.4890446e-07 0.0 0.0 9.630329e-10 5.1008993e-08 5.397505e-09 9.6895704e-08
8.456517e-08 1.4243414e-09 1.4497037e-07 7.908541e-08 3.4430758e-07 3.9453133e-07 1.9878253e-07 1.6191949e-06
2.917694e-08 1.581421e-08 1.8640736e-10 2.1262148e-10 2.2059757e-08 2.2077883e-07 8.884981e-07 3.6557853e-15
0.000113074246 0.00016559545 0.0 6.212758e-05 0.00013631608 0.00012844974 0.000119506854 0.00015752799
7.136531e-05 7.499927e-05 5.177599e-07 0.0 1.9914838e-05 6.0653325e-05 7.603995e-05 0.0001121296
9.102421e-05 2.9342029e-05 8.030226e-05 6.185662e-05 0.000118413205 0.0001410741 0.00011565757 0.00012239609
4.866341e-05 6.4947344e-05 3.720998e-05 4.5798606e-05 4.093547e-05 9.643255e-05 0.00013132035 9.807814e-13
2.0857158e-06 2.8590014e-06 0.0 2.925055e-07 2.7263109e-06 1.5140259e-06 1.7762193e-06 2.5411357e-06
1.3958446e-06 1.6409354e-07 0.0 0.0 2.944446e-11 4.2469858e-07 4.7312813e-08 7.5660836e-07
6.131371e-07 9.26459e-09 5.9867233e-07 3.5487523e-07 1.7368478e-06 3.0627168e-06 1.897714e-08 2.0272123e-06
4.4708144e-09 1.3170805e-07 1.615527e-09 9.189733e-10 1.514726e-07 1.8562423e-08 1.0093333e-06 5.1167583e-15
0.00017870999 0.000245868 0.0 9.718057e-05 0.00021152322 0.00018034304 0.00019912688 0.00025294026
0.00010398858 0.000113938266 1.5011925e-06 0.0 2.4599822e-05 0.000114249415 0.00014036754 0.00019480257
0.00014403161 3.700105e-05 0.00012557015 0.000103909886 0.00018018293 0.0002171042 0.00013331616 0.00017178075
7.944841e-05 0.000117614356 4.4475186e-05 9.086035e-05 6.732213e-05 0.00010413399 0.00019251382 7.572961e-13
3.3893754e-09 1.5725702e-07 0.0 3.1440506e-09 7.369569e-08 1.3088798e-07 8.817435e-09 1.29140565e-08
1.11190054e-07 8.384102e-08 0.0 0.0 7.406484e-10 0.0 0.0 5.0013077e-10
2.947929e-09 0.0 1.3080106e-08 1.1212372e-08 3.081658e-08 2.5269717e-09 8.348915e-08 5.9777824e-07
1.6841147e-08 0.0 0.0 0.0 0.0 9.107515e-08 3.6708747e-07 0.0
5.4149513e-08 1.4383956e-07 0.0 8.392741e-09 1.1167496e-07 8.8090516e-08 5.4147687e-08 7.282056e-08
8.033581e-08 2.638025e-08 0.0 0.0 1.5129849e-10 1.1007592e-08 1.2148951e-09 2.0042215e-08
1.624636e-08 3.051294e-10 2.335965e-08 1.4396839e-08 6.2149795e-08 7.856751e-08 1.7319914e-08 2.1478763e-07
3.0685559e-09 3.4107106e-09 3.6927184e-11 4.9575143e-11 4.887686e-09 1.8845029e-08 1.1853495e-07 1.0236194e-15
0.00013695059 0.00019638323 0.0 7.140206e-05 0.00016285465 0.00014450138 0.00014784464 0.00019483737
8.03822e-05 8.591659e-05 9.5007476e-07 0.0 1.8165003e-05 8.480691e-05 0.00010256447 0.00014169652
0.000108993896 2.8514929e-05 9.307407e-05 7.520113e-05 0.0001398455 0.00017058806 0.000105016006 0.00014140665
5.578002e-05 8.143622e-05 3.5253957e-05 6.911498e-05 5.5393484e-05 9.041016e-05 0.00015167489 1.1435017e-13
00000000: c47b 4739 862b 8b39 0000 0000 ae5e c938
00000010: 1102 6b39 e601 4739 9262 5439 82d6 8b39
00000020: 6cb3 e038 5e09 f338 449d b235 0000 0000
00000030: 99b4 a737 f957 fe38 a6f0 1139 6329 4d39
00000040: 319c 1739 a89f 0338 9656 0639 93d1 db38
00000050: d1fe 4039 56d9 7939 fb3a 0439 ab3b 4439
00000060: fe8a 9838 0465 ed38 ca98 1a38 bbdb cf38
00000070: b6d2 a538 8270 e638 de3d 4f39 5060 352a
00000080: 79d8 9334 7e49 7035 0000 0000 4aab 4733
00000090: 77f5 2a35 682c 1f35 404c 9434 fc74 c834
000000a0: 2cf2 0e35 2ba1 8534 0000 0000 0000 0000
000000b0: b55b 8430 fb14 5b33 f574 b931 fa14 d033
000000c0: 329a b533 8fc2 c330 27a9 1b34 aad5 a933
000000d0: 46d9 b834 f9cf d334 ed70 5534 1d53 d935
000000e0: c5a0 fa32 d1d7 8732 02f5 4c2f a0c7 692f
000000f0: eb7d bd32 390f 6d34 2081 6e35 abb6 8327
00000100: 4622 ed38 b1a3 2d39 0000 0000 7e4a 8238
00000110: 12f0 0e39 77b0 0639 c19f fa38 192e 2539
00000120: f6a9 9538 ed48 9d38 30fc 0a35 0000 0000
00000130: ca0e a737 0366 7e38 a377 9f38 1f27 eb38
00000140: 40e4 be38 8723 f637 f367 a838 05b9 8138
00000150: 9b54 f838 4aed 1339 2f8d f238 7357 0039
00000160: f01b 4c38 5734 8838 e911 1c38 e117 4038
00000170: 20b2 2b38 d53b ca38 0ab3 0939 6008 8a2b
00000180: 53f8 0b36 45dd 3f36 0000 0000 a609 9d34
00000190: aaf5 3636 8935 cb35 6e66 ee35 6188 2a36
000001a0: db58 bb35 b031 3034 0000 0000 0000 0000
000001b0: 847f 012e 2102 e434 fd34 4b33 bb19 4b35
000001c0: 7696 2435 192a 1f32 73b4 2035 ae85 be34
000001d0: a31d e935 1389 4d36 2c03 a332 3e0b 0836
000001e0: b39d 9931 a26b 0d34 4e09 de30 ff9a 7c30
000001f0: 79a4 2234 3373 9f32 6e78 8735 c459 b827
00000200: 1964 3b39 d8e7 8039 0000 0000 6ccd cb38
00000210: 55cc 5d39 771a 3d39 b7cc 5039 119d 8439
00000220: 7214 da38 24f2 ee38 957c c935 0000 0000
00000230: b75b ce37 3099 ef38 a02f 1339 eb43 4c39
00000240: 3107 1739 9331 1b38 7bab 0339 32ea d938
00000250: 7def 3c39 77a6 6339 c9ca 0b39 0b20 3439
00000260: 8a9d a638 baa7 f638 de8a 3a38 478c be38
00000270: 4b2f 8d38 8362 da38 89dd 4939 ef28 552b
00000280: 86ea 6831 7bda 2834 0000 0000 b90e 5831
00000290: a242 9e33 378a 0c34 7d7b 1732 9fdc 5d32
000002a0: 61c7 ee33 170c b433 0000 0000 0000 0000
000002b0: 7f96 4b30 0000 0000 0000 0000 9379 0930
000002c0: 8494 4a31 0000 0000 eab6 6032 89a0 4032
000002d0: 305b 0433 f5a6 2d31 a54a b333 0277 2035
000002e0: 13aa 9032 0000 0000 0000 0000 0000 0000
000002f0: 0000 0000 1895 c333 1e14 c534 0000 0000
00000300: 0592 6833 5172 1a34 0000 0000 aa2f 1032
00000310: f5d1 ef33 462c bd33 0390 6833 8761 9c33
00000320: 1485 ac33 c99a e232 0000 0000 0000 0000
00000330: bd5a 262f e71b 3d32 52f9 a630 4c29 ac32
00000340: 208e 8b32 25bf a72f 6aa8 c832 f855 7732
00000350: 3677 8533 f2b8 a833 e5c6 9432 60a0 6634
00000360: 9bde 5231 db61 6a31 5068 222e a608 5a2e
00000370: 8af0 a731 a8e0 a132 478d fe33 e484 9326
00000380: 659a 0f39 39ec 4d39 0000 0000 b0bd 9538
00000390: f6c3 2a39 4b85 1739 be06 1b39 424d 4c39
000003a0: dd92 a838 1e2e b438 a408 7f35 0000 0000
000003b0: 0c61 9837 5dda b138 e117 d738 5f94 1439
000003c0: a793 e438 5833 ef37 c330 c338 4db5 9d38
000003d0: 7ea3 1239 e2df 3239 0a3c dc38 8f46 1439
000003e0: 57f5 6938 bdc8 aa38 a6dd 1338 d3f1 9038
000003f0: 4d56 6838 969a bd38 eb0a 1f39 31bf 002a

exp_avg f4 [32]
0.0011498681 -2.6988974e-28 0.0021676281 -2.3255724e-07 0.0028112829 5.7e-44 7.7e-44 0.0015468595
0.0027296424 -0.0014014522 0.0 -0.002731178 1.489028e-07 -0.0041096318 0.0021444943 0.0029511373
0.0 3.64e-43 0.0024508603 5.6e-44 0.0024535132 0.0 0.0033277525 9.8e-44
0.0018816144 3.5e-44 0.0023522459 4.54e-43 6e-45 7.7e-44 0.003267866 0.0034430483
00000000: 2cb7 963a 1d10 ab91 c40e 0e3b d9b4 79b4
00000010: 803d 383b 2900 0000 3700 0000 febf ca3a
00000020: cde3 323b efb0 b7ba 0000 0000 90fd 32bb
00000030: 17e2 1f34 17aa 86bb a58a 0c3b de67 413b
00000040: 0000 0000 0401 0000 9d9e 203b 2800 0000
00000050: 1fcb 203b 0000 0000 6c16 5a3b 4600 0000
00000060: 81a0 f63a 1900 0000 2328 1a3b 4401 0000
00000070: 0400 0000 3700 0000 b229 563b c4a4 613b

exp_avg_sq f4 [32]
0.00037458018 4.680073e-06 0.00022930214 1.3057321e-05 0.00026942533 1.0004395e-06 7.301998e-07 0.0002731548
0.00021768788 0.00023057399 0.0 0.00019573714 3.295654e-07 1.5590977e-05 0.00031597502 0.00037681923
0.0 9.122337e-06 0.00031176145 7.0921175e-07 0.00026479157 0.0 0.00016321828 2.0984155e-06
0.00013008017 6.911126e-07 0.0002445109 1.7046303e-05 9.570767e-09 1.9897886e-06 0.00028641472 0.00029515283
00000000: 4d63 c439 8509 9d36 d370 7039 c410 5b37
00000010: a841 8d39 d746 8635 f302 4435 3736 8f39
00000020: 2543 6439 3cc6 7139 0000 0000 ca3e 4d39
00000030: 20ef b034 5ec9 8237 73a9 a539 d28f c539
00000040: 0000 0000 240c 1937 ea73 a339 a960 3e35
00000050: b9d3 8a39 0000 0000 9325 2b39 81d2 0c36
00000060: 2166 0839 e584 3935 b331 8039 a8fe 8e37
00000070: ae6c 2432 4f88 0536 ef29 9639 bebe 9a39

exp_avg f4 [1, 32]
-0.012037513 -5.369831e-29 -0.0009899978 3.580678e-08 -0.020116556 -2e-44 -3.25e-43 -0.0059009586
-0.010243352 0.017152868 0.0 0.02494748 2.348639e-07 -0.0018486349 -0.011868062 0.0068543763
0.0 -5.63e-43 0.0015102407 -9.4e-44 -0.019481381 0.0 -0.01624837 -9.5e-44
0.0024458522 -6e-45 -0.01482284 -3e-43 -7e-45 -3.4e-44 -0.012832392 -0.017235579
00000000: fd38 45bc 3224 8890 d0c2 81ba f9c9 1933
00000010: 7acb a4bc 0e00 0080 e800 0080 d45c c1bb
00000020: bbd3 27bc 2c84 8c3c 0000 0000 a85e cc3c
00000030: e62e 7c34 e54d f2ba 4372 42bc ad9a e03b
00000040: 0000 0000 9201 0080 45f3 c53a 4300 0080
00000050: 6b97 9fbc 0000 0000 4d1b 85bc 4400 0080
00000060: 974a 203b 0400 0080 7fdb 72bc d600 0080
00000070: 0500 0080 1800 0080 f43e 52bc a131 8dbc

exp_avg_sq f4 [1, 32]
0.0092779305 2.6893247e-05 0.011950628 1.719598e-05 0.0069050677 1.7438592e-07 1.4828973e-05 0.009823841
0.011417491 0.0032268262 0.0 0.0053891884 7.892393e-08 4.8054142e-05 0.009346825 0.013800203
0.0 3.5011817e-05 0.012097779 2.5826994e-06 0.0071638506 0.0 0.0103357695 2.850997e-06
0.015487785 3.0767957e-08 0.010412753 1.1007328e-05 2.3872635e-08 5.289083e-07 0.010823086 0.008719147
00000000: 7602 183c cf98 e137 91cc 433c 1640 9037
00000010: e843 e23b d63e 3b34 f4c9 7837 2df4 203c
00000020: 6e10 3b3c 2979 533b 0000 0000 ca97 b03b
00000030: e47c a933 be8d 4938 6d23 193c 3f1a 623c
00000040: 0000 0000 a7d9 1238 c335 463c 7052 2d36
00000050: bcbe ea3b 0000 0000 5c57 293c c153 3f36
00000060: 7bc0 7d3c ba25 0433 409a 2a3c 1dac 3837
00000070: 7b10 cd32 4dfa 0d35 5053 313c c1da 0e3c

exp_avg f4 [2, 32]
0.0011505428 2.6849155e-29 0.0075389617 1.790339e-08 0.0005218506 6e-45 1.5e-44 0.0070708124
0.0009869883 0.005540623 0.0 0.0067806044 1.1743195e-07 0.0022708932 0.00028734255 0.007819411
0.0 6e-45 0.007438404 -6e-45 0.0014560905 0.0 -0.00051372935 -6e-45
0.007562726 -6e-45 0.00034625825 1.1e-44 -6e-45 -6e-45 -0.00087604625 -0.0010766647
-0.0011505428 -2.6849155e-29 -0.0075389617 -1.790339e-08 -0.0005218506 -6e-45 -1.5e-44 -0.0070708124
-0.0009869883 -0.005540623 0.0 -0.0067806044 -1.1743195e-07 -0.0022708932 -0.00028734255 -0.007819411
0.0 -6e-45 -0.007438404 6e-45 -0.0014560905 0.0 0.00051372935 6e-45
-0.007562726 6e-45 -0.00034625825 -1.1e-44 6e-45 6e-45 0.00087604625 0.0010766647
00000000: cfcd 963a 3224 0810 6509 f73b f9c9 9932
00000010: cdcc 083a 0400 0000 0b00 0000 46b2 e73b
00000020: d55d 813a 1d8e b53b 0000 0000 d52f de3b
00000030: e62e fc33 44d3 143b 77a6 9639 fd1c 003c
00000040: 0000 0000 0400 0000 dbbd f33b 0400 0080
00000050: 4ada be3a 0000 0000 cbab 06ba 0400 0080
00000060: bed0 f73b 0400 0080 ff89 b539 0800 0000
00000070: 0400 0080 0400 0080 78a6 65ba df1e 8dba
00000080: cfcd 96ba 3224 0890 6509 f7bb f9c9 99b2
00000090: cdcc 08ba 0400 0080 0b00 0080 46b2 e7bb
000000a0: d55d 81ba 1d8e b5bb 0000 0000 d52f debb
000000b0: e62e fcb3 44d3 14bb 77a6 96b9 fd1c 00bc
000000c0: 0000 0000 0400 0080 dbbd f3bb 0400 0000
000000d0: 4ada beba 0000 0000 cbab 063a 0400 0000
000000e0: bed0 f7bb 0400 0000 ff89 b5b9 0800 0080
000000f0: 0400 0000 0400 0000 78a6 653a df1e 8d3a

exp_avg_sq f4 [2, 32]
0.0014178727 7.298202e-08 0.0020341028 6.5228165e-09 0.0010503076 2.0743278e-09 2.0239394e-08 0.0015652487
0.0018041773 0.00087518647 0.0 0.0014175454 4.6729613e-11 7.903637e-06 0.0014107417 0.0026332098
0.0 1.2214207e-08 0.0021120694 3.5957692e-09 0.0011255033 0.0 0.0016980325 1.4442839e-09
0.0026947802 1.6796193e-11 0.0015343344 2.1457385e-08 2.7952696e-10 6.8573464e-10 0.0016724974 0.0013435283
0.0014178727 7.298202e-08 0.0020341028 6.5228165e-09 0.0010503076 2.0743278e-09 2.0239394e-08 0.0015652487
0.0018041773 0.00087518647 0.0 0.0014175454 4.6729613e-11 7.903637e-06 0.0014107417 0.0026332098
0.0 1.2214207e-08 0.0021120694 3.5957692e-09 0.0011255033 0.0 0.0016980325 1.4442839e-09
0.0026947802 1.6796193e-11 0.0015343344 2.1457385e-08 2.7952696e-10 6.8573464e-10 0.0016724974 0.0013435283
00000000: ead7 b93a 4aba 9c33 954e 053b 4d1f e031
00000010: 7aaa 893a f68b 0e31 e6da ad32 0829 cd3a
00000020: 257a ec3a c56c 653a 0000 0000 eecc b93a
00000030: de84 4d2e dd99 0437 a3e8 b83a ee91 2c3b
00000040: 0000 0000 a7d6 5132 a56a 0a3b 7119 7731
00000050: a085 933a 0000 0000 8490 de3a 3980 c630
00000060: e99a 303b aabd 932d b81b c93a 4a51 b832
00000070: ecab 992f 497e 3c30 b337 db3a 5419 b03a
00000080: ead7 b93a 4aba 9c33 954e 053b 4d1f e031
00000090: 7aaa 893a f68b 0e31 e6da ad32 0829 cd3a
000000a0: 257a ec3a c56c 653a 0000 0000 eecc b93a
000000b0: de84 4d2e dd99 0437 a3e8 b83a ee91 2c3b
000000c0: 0000 0000 a7d6 5132 a56a 0a3b 7119 7731
000000d0: a085 933a 0000 0000 8490 de3a 3980 c630
000000e0: e99a 303b aabd 932d b81b c93a 4a51 b832
000000f0: ecab 992f 497e 3c30 b337 db3a 5419 b03a

exp_avg f4 [2]
0.00081444177 -0.00081444177
00000000: 4380 553a 4380 55ba

exp_avg_sq f4 [2]
0.00015241926 0.00015241926
00000000: bcd2 1f39 bcd2 1f39
