_models/CartPole-v1_duelingDQN.pt (torch, 25810 bytes, 21 tensors)

mlp.0.weight f4 [32, 4]
00000000: f3da 983e e1fc 0abe cde3 1fbe 9d9c 3d3e
00000010: 8152 cdbe 9432 c63e 48ce 0dbe 123d 573e
00000020: 785a 8e3d 00c4 7abd 4002 0e3e 2010 ca3c
00000030: 13bb 543e 4658 1abe f2e4 a0bc 813d debc
00000040: dc5e 273e e798 8a3d 0398 de3e c6b7 fd3d
00000050: 4347 123c baac 69be 56bc c4bd 898c 54be
00000060: 6ba1 fdbd 33d6 ac3d a71e 693e 4e28 6d3e
00000070: 1d31 d8be 69b7 c63e 2fda 453e 0bdf ee3e
00000080: 2d3b ca3e 2ccf 05bf c2d5 0ebf 4294 36be
00000090: 229d ce3e 1b1a 4ebe 7607 ac3e 7309 2ebd
000000a0: 96b5 253f 87d7 08be 7b31 c63e f0fc febd
000000b0: 82dd 86be 7a96 833e d4e3 87be e494 163e
000000c0: e5af 44be 097f 7abe 0ca6 efbf 16e0 4bbf
000000d0: 457f 0f3f c403 65bd 77a3 073f f9f4 c03e
000000e0: 9287 babe 1b6a cabe 9bf2 9a3e 40ea 1a3e
000000f0: 4e08 82be c790 dc3e 5755 c83e d8b7 cf3e
00000100: 1861 ccbd 140c 48bd 30d9 3b3d ffb5 f53d
00000110: 5c36 42bf e4f8 0cbf af17 dbbe ed73 c2be
00000120: 38e9 9e3e c399 db3d 4bf4 a93d 79c6 623d
00000130: eaf1 023e 3998 7f3e 8f97 f6be 1012 893e
00000140: 8429 d5bc a207 8bbe ae9f 923b cfaf dabd
00000150: 6fb7 aa3e 5cab 3ebe 0cfe f6be c030 9d3e
00000160: a164 81be 695b cc3e 6d6e 9c3e bda2 dabe
00000170: f01b 4e3d d00b c03c 3a6f 9abe 32ec 03be
00000180: 0f0e b63d 4bbe f63d 23b1 5fbc 7e54 acbd
00000190: 2cd0 003f fdd9 72bd 3350 493e 54ef 293e
000001a0: c2d0 abbf c56c 22bf c098 833f 434b 0e3e
000001b0: 2718 ac3e 1a13 b53e 8d7f 863f f7e1 1f3f
000001c0: c7b2 123f a455 88bd 7cda 183f 81f1 e93e
000001d0: 02c3 783e 61a4 c83e 2d9a 9cbe 50bb d2be
000001e0: 7047 8abe d96d 123d 5651 0f3f c2eb 75be
000001f0: 5e25 a53e 461f c0be 26df 86be 11b5 923e
0.29854545 -0.13573028 -0.15614243 0.18516774 -0.40102008 0.38710463 -0.13848221 0.2101939
0.06950849 -0.061222076 0.13868046 0.024665892 0.20774488 -0.15072736 -0.01964042 -0.027128937
0.1634478 0.06767445 0.4347535 0.123885676 0.008928123 -0.22819796 -0.09606235 -0.20756735
-0.12384304 0.08439293 0.22765599 0.23159906 -0.4222497 0.38811806 0.19321512 0.46654543
0.39498273 -0.52269244 -0.5579492 -0.17829993 0.40354258 -0.20127146 0.33599442 -0.04248948
0.64730203 -0.13363467 0.38709626 -0.12450588 -0.26340872 0.25700742 -0.26541007 0.14705235
-0.19207723 -0.24462523 -1.8722548 -0.79638803 0.5605357 -0.055911794 0.529838 0.376869
-0.36431557 -0.39534077 0.30263218 0.15128422 -0.2539696 0.43079206 0.3912761 0.4056995
-0.09979457 -0.048839644 0.045861423 0.119976036 -0.75864196 -0.55067277 -0.42791507 -0.3797907
0.31037307 0.10722687 0.08298548 0.05536506 0.12787595 0.24960412 -0.48162505 0.26771593
-0.026020773 -0.2715426 0.0044746017 -0.10678064 0.33343074 -0.18620056 -0.48240697 0.30701256
-0.25272086 0.3991349 0.30552998 -0.42702284 0.050319612 0.023443133 -0.30162984 -0.1288307
0.088894 0.12048014 -0.0136530725 -0.08414553 0.50317645 -0.05928992 0.196595 0.16595203
-1.3423083 -0.6344722 1.0280991 0.13895898 0.33612177 0.35366136 1.0507675 0.6245417
0.5730404 -0.0665696 0.5970838 0.45692065 0.2429314 0.3918791 -0.30586377 -0.41158533
-0.27007627 0.03574929 0.55983484 -0.24015716 0.3225507 -0.3752386 -0.26342124 0.28653768

mlp.0.bias f4 [32]
00000000: 6061 173f cd9d 353f 66fc 9ebe 33d5 ce3e
00000010: b0c6 223f 6b11 1c3f 33d8 013f dd20 2c3f
00000020: 3bcc 013f 088a 0e3f 5a29 e5be 6afa d6be
00000030: 8957 97be f621 313e d31a 08be 2bbd ff3e
00000040: 964d e93e 6e11 abbd cece f63e 864f dc3e
00000050: 2953 083f e131 2d3f 1617 563e ba83 273f
00000060: 57a6 cb3e 0735 8e3e 44d8 84be e93a 07be
00000070: 2cc9 adbe ac8c 113e 7762 143f c380 ee3a
0.5913296 0.7094391 -0.3105194 0.40397033 0.63584423 0.6096408 0.5072052 0.67237645
0.50702256 0.5567937 -0.4475811 -0.41987926 -0.29558972 0.17298111 -0.13291483 0.4994901
0.45567006 -0.08352934 0.48204654 0.43029422 0.5325189 0.67654234 0.20907244 0.65435374
0.39775345 0.27774832 -0.25946248 -0.13206066 -0.33942544 0.14213818 0.57962745 0.0018196333

mlp.2.weight f4 [32, 32]
00000000: 63ac e53c a620 b23e d8d3 673d f231 983e
00000010: 9ef3 163e 432c 893e cf47 133e 1bee 443e
00000020: 0ab8 7f3c 67d8 753e f7e2 b5be 0ed2 9a3d
00000030: ee60 0bbf 0e5a c43c 6fc5 e93d 7701 c03e
00000040: dd4a 9f3e c49f bbbe 83bf e73d 48e6 b43e
00000050: a7a7 113e 5a8f f03d b8f6 14bd f580 743e
00000060: 6c13 213d 71be 4b3e 0a41 11bf 9eb6 0bbf
00000070: 5daa debd 755a 6abd 5f7d b83e 001d 94bd
00000080: 17b8 2ebd 78d2 b13d 1f0a 033e 1afc 81bc
00000090: 82ac 613d 376d 583e e6ea 383e 5e46 cabd
000000a0: 7e3f 2d3e 92a3 e1bd 30c3 063e e56f 8cbd
000000b0: 86d2 1e3e a37f fabe 9444 1dbf 4667 3fbd
000000c0: ae55 bd3d 595a 33bf 178e 8c3d aadc 303e
000000d0: 7dfb 9dbd 4b93 3e3e a282 183e 239e 613e
000000e0: 501c 753e 4f93 4fbe 0836 64bf 415f 8ebe
000000f0: ad8a 20be 3fc8 123e 97f0 dfbd 3500 14be
00000100: 1b21 753e fa6a 223e f8e2 25bd 8943 9f3e
00000110: a5c0 bd3e 8585 cf3e 32b8 253e 756f ad3d
00000120: f0cc af3e 352b 923e 965f c6be d882 303d
00000130: f618 2fbf 65ab b43d 64df 343d fa7c 4c3d
00000140: bc91 193d 8567 cfbe 5666 9f3e 0dc1 5b3e
00000150: db33 c43d 9219 063e 08b6 f7bc 6360 2a3e
00000160: 7d36 5c3d 3bac 303e 4482 8cbe 6f11 f2be
00000170: 1498 b7bd fdc8 043e 2c23 a83e 344d 7bbd
00000180: 0dd0 2e3d dc6e 433d 70db 27bc fab2 a8bd
00000190: 4b64 cd3d 96a8 bf3d 4378 23be 84f7 e73d
000001a0: cf18 8ebc 230c 3bbe 3a2f c63d f924 07be
000001b0: 3195 083e 80e3 25be 719b 473c 266d 8abb
000001c0: e956 8cbc 45c2 d63d 0fb6 0abe c093 0abe
000001d0: 21c8 59be ab14 86bd c28f 09be 3aa6 62bd
000001e0: 18a0 afbd a564 1e3c f8c8 d43d 68de dd3b
000001f0: b17c cebd 38e1 0abe 3806 5dbe 7351 183e
00000200: 2a99 c5bd b81f debc 8046 d63b d5a7 34be
00000210: 2d93 153d ab2a 153d f451 5bbd abf5 26be
00000220: 2b5b 0dbe 9807 75bd 9ed8 cebd a100 cabd
00000230: d7eb 9fbd 8d72 92bd 4588 8d3d 75e6 d5bd
00000240: e770 afbd 5548 4dbd 9538 67be 5071 bb3d
00000250: 9ce2 ebbc f58c c53d 2fda bebd 82ef d8bd
00000260: e1a9 69be 8fc0 c4bd bf00 293e 5560 0fbe
00000270: a1a0 3dbd 0cd0 393d 3f0c 263d 5aae 853d
00000280: a233 aabd 9b1d 81bd dc81 09bd cc16 e8bd
00000290: 1059 c63c 1fa8 debd f4c3 18be 11ec 21bc
000002a0: 2cd3 33be 56f2 b2bd b601 b93d f44d 873d
000002b0: a404 ec3d 6aed f6bd 0075 c93a 632d d0bd
000002c0: 001b 17be 87aa cbbd e7a0 c8bb ec06 f7bc
000002d0: b885 0ebe 672b 2fbe 1043 48be eca2 fe3d
000002e0: c310 9ebd a46e 27bd cd20 85bd 5114 b5bd
000002f0: 5c8b 25be 56b7 1bbe dd76 713d 44b3 1e3d
00000300: d2e2 e6bd 17e6 f1bd 7a46 e73d c307 9e3d
00000310: c9bc f43d f10d 943a cf26 0f3d 3862 85bd
00000320: 89e2 1dbe 293e 67be 0284 dc3d 187c d2bc
00000330: 1067 cd3c 9255 1bbd 77b6 58be 04cb 0cbe
00000340: 2ea6 a5b9 47e7 98bd 67d1 63be cd7b 263c
00000350: ef53 30bd 46e0 dabd 2a2e bd3c d53e 6ebc
00000360: 33bc e5bd 3223 e63d 37c3 3d3d 7047 a3bc
00000370: 78b2 a5bd a3c0 4bbe 7273 ae3d 50d7 3abd
00000380: f919 303d 396b c93e 1294 803d e044 693e
00000390: e2b9 493e fb1b 373e cf33 6c3e 3323 b93e
000003a0: 9604 453e 94b6 763e a03b 0abe 40c6 773b
000003b0: eba0 cabe d79b af3c cf5d c93d b035 973e
000003c0: 37d1 c43d 3f54 7bbe 97dc 713e d5a4 9c3d
000003d0: 3d91 183e 74f9 eabc 43fd 2d3d 67bb 1f3e
000003e0: d259 963e fe6a 6bbb 1322 e4be 1e12 a1be
000003f0: 19fe b5bc 7ffc 6fbd 2675 b93e 9b84 a93d
0.028036302 0.34790534 0.056598514 0.29725605 0.1474137 0.26791582 0.14382862 0.19231455
0.015607843 0.24008332 -0.35524723 0.07559596 -0.5444478 0.023968723 0.114146106 0.37501118
0.31111804 -0.3664533 0.11315825 0.3533194 0.1422411 0.11746092 -0.0363681 0.23877318
0.039325163 0.19896866 -0.56739867 -0.54575527 -0.10872338 -0.057215173 0.3603315 -0.07232094
-0.04265603 0.08682722 0.1279683 -0.015867282 0.055096157 0.21135412 0.18058357 -0.09876703
0.16918752 -0.11017527 0.13160396 -0.0685728 0.15509996 -0.48925504 -0.61432767 -0.04672935
0.09244858 -0.70059735 0.06863039 0.17271677 -0.07713983 0.18610875 0.14893582 0.2203298
0.23936582 -0.20271038 -0.89144945 -0.27807048 -0.156779 0.143342 -0.10934561 -0.14453204
0.2393841 0.15861121 -0.040499657 0.31106213 0.3706104 0.40531555 0.16183546 0.08468524
0.34336042 0.2854859 -0.387448 0.043093532 -0.6839746 0.088217534 0.044158354 0.049923874
0.0374925 -0.40508667 0.31132764 0.21460362 0.09580203 0.13095692 -0.030238166 0.16638331
0.0537629 0.172532 -0.27443135 -0.47278926 -0.089645535 0.12967296 0.32839334 -0.061352924
0.04267888 0.047713146 -0.010245189 -0.08237262 0.10028895 0.09358327 -0.15963845 0.11326507
-0.017345814 -0.18266349 0.096769765 -0.13197698 0.13338162 -0.16200066 0.012183056 -0.0042244373
-0.017131286 0.10486273 -0.13546012 -0.13532925 -0.2126775 -0.06546911 -0.13433746 -0.055334307
-0.08575457 0.00966755 0.10389894 0.0067708977 -0.10082377 -0.13562477 -0.21584404 0.1487482
-0.09648354 -0.027114734 0.006539166 -0.17642148 0.03651731 0.036417644 -0.053544953 -0.16304652
-0.13804309 -0.059821695 -0.1009991 -0.09863401 -0.07808655 -0.07150755 0.06910757 -0.10444347
-0.08566456 -0.05011781 -0.22580178 0.09152472 -0.02879458 0.09646026 -0.09318959 -0.105925575
-0.2281871 -0.0960704 0.16504191 -0.14001592 -0.046295766 0.045364425 0.040539023 0.065273955
-0.083106294 -0.06304475 -0.03357111 -0.11332473 0.02421239 -0.1087191 -0.149185 -0.009882943
-0.17561024 -0.08737628 0.090335295 0.06606665 0.11524323 -0.12057002 0.0015369952 -0.10164907
-0.14756393 -0.09944635 -0.0061226967 -0.030154668 -0.13918197 -0.171064 -0.19556832 0.12433419
-0.07718041 -0.040877 -0.06500397 -0.08841766 -0.16166443 -0.15206656 0.058951247 0.03874518
-0.11273731 -0.11811464 0.11292739 0.07716324 0.119500704 0.0011295659 0.03494912 -0.06512874
-0.15418448 -0.22582306 0.10767366 -0.025693938 0.025073558 -0.037923403 -0.21163355 -0.1374932
-0.00031595066 -0.07465988 -0.2224785 0.010161352 -0.043048795 -0.10687308 0.023093302 -0.0145413475
-0.11217537 0.11237182 0.04632875 -0.019931525 -0.08090681 -0.19897704 0.08518113 -0.045615494
0.04299352 0.39339617 0.06278242 0.2278018 0.19699815 0.17881767 0.23066638 0.36159667
0.1924003 0.24093086 -0.13499308 0.0037807375 -0.39575896 0.021436615 0.09832346 0.29533148
0.09610217 -0.24543856 0.23619305 0.07648627 0.14899154 -0.028683402 0.042477857 0.15598832
0.29365402 -0.0035921927 -0.44557247 -0.31459135 -0.02221589 -0.05859041 0.3622219 0.082772456

mlp.2.bias f4 [32]
00000000: 293e 9f3e b333 da3d 9ea2 b13e 8375 cc3c
00000010: 5249 433d 36e9 c6bc c69e ce3d bd43 c83e
00000020: 059f 8c3e cdf5 d8bc 80ff 3f3c dffa 0c3e
00000030: c2fe a03d 989b 0bbe 0ab6 7e3e e3f7 b03e
00000040: c668 883d a4aa be3d 4a0b ba3e 2011 f73b
00000050: 2044 6e3e 291f 2abe b5db 233e e392 04bd
00000060: 4c92 293e 5767 3ebe a845 d03e 8962 d939
00000070: bbd9 c8bd 7494 13bd a940 c43e 50cb c43e
0.31102112 0.10654392 0.3469438 0.024958378 0.047677346 -0.024281126 0.100888774 0.3911418
0.27465072 -0.026484394 0.011718631 0.13767575 0.07861091 -0.13633573 0.2487413 0.34564123
0.06660609 0.09309891 0.36336738 0.0075398833 0.23268175 -0.16613449 0.1600178 -0.032366645
0.16559714 -0.18594109 0.40678144 0.0004146288 -0.09807154 -0.036030248 0.38330582 0.38436365

V.weight f4 [1, 32]
00000000: c58f c13e a295 d33c 67f1 923e 2b0d aebd
00000010: 483f 0b3d fce8 8dbd 16ea c03c 3b8a 9d3e
00000020: 5db5 9e3e d28a a2bd 608c 33bd 00db 10bd
00000030: 67ba 0fbd 4ae1 25bd bee7 aa3e df95 cb3e
00000040: b31e 173e 612b b2be a0cd b43e 8111 27bc
00000050: 8a49 723e 40f2 42bd 2a7c 643e 53ae 08bd
00000060: 7780 593e 7134 aabd dd70 993e 85b8 c5bd
00000070: ba52 bcbe cc4c adbd cbde b43e eb46 c23e
0.37805 0.025828186 0.286998 -0.08498605 0.033995897 -0.06929204 0.02354912 0.30769524
0.30997744 -0.07936634 -0.043835044 -0.035365105 -0.035089877 -0.040498056 0.3337993 0.3976278
0.14757805 -0.3479872 0.3531313 -0.010197044 0.23660865 -0.04759431 0.2231299 -0.033369374
0.21240412 -0.08310784 0.2996892 -0.09654335 -0.36781865 -0.084619135 0.35326228 0.3794473

A.weight f4 [2, 32]
00000000: b2b8 e1bd 1a7c d73e b9ab 9c3c 9729 c23d
00000010: 0a48 d9bd 19b9 a53d 47c1 113e b6c8 0ebd
00000020: 9a2c 123d add7 9c3e f070 453d e8c2 4f3d
00000030: 28d0 aa3c b0a4 a9bd 6d0f e8bd 1cde 243e
00000040: d0cd 64bc fd1f 123e 6eb5 d93d 24f3 12be
00000050: 0d6a 25bd bc35 39bd 5eda 06bc de7d 943d
00000060: d579 a43d 0ce9 0bbe fd72 97bd 2ba8 fcbd
00000070: 3d32 bdbe 7a00 943d 9ae9 08be 116f 563d
00000080: 9a67 5d3c 27fe 6dbe 8394 b43c f900 f33d
00000090: c2ed a8bb c5a4 003e 3abb 083c d7fd 08bc
000000a0: eddf 99bc e727 74bd 7093 da3c 560c ff3d
000000b0: a5dd 17bd 7116 2d3c 6250 1d3e 741f 1bbe
000000c0: 9877 903c bada 333e 2f54 4ebd 0238 973c
000000d0: b501 2b3d 8c8b 6e3d 011f 933d 4021 ac3d
000000e0: 49b2 b13d f34b 22bd 3a3e 793d 46aa 6ebd
000000f0: 7738 a93e 9e12 30bc fa14 01be 6542 19bd
-0.11021556 0.4208687 0.019124852 0.09480589 -0.106094435 0.08091945 0.14233886 -0.03485938
0.035687067 0.30633298 0.04820341 0.050722986 0.02085121 -0.08283365 -0.11331067 0.16100353
-0.013965085 0.14270015 0.10630308 -0.14350563 -0.04038434 -0.04521726 -0.008230774 0.0725057
0.0803105 -0.13663119 -0.07394979 -0.12336763 -0.3695239 0.072266534 -0.13370362 0.052352015
0.01351347 -0.23241483 0.022043472 0.1186542 -0.005155296 0.12562855 0.00834542 -0.008361301
-0.018783534 -0.059608366 0.026681632 0.12453525 -0.03707661 0.0105644325 0.15362695 -0.15148717
0.017635152 0.17563906 -0.050373252 0.018459324 0.041749675 0.05823855 0.07183648 0.084047794
0.08676583 -0.039623212 0.06085036 -0.058267854 0.33050892 -0.010746626 -0.12605658 -0.037416834

A.bias f4 [2]
00000000: b7fa bb3d 1a84 dcbb
0.091786794 -0.006729615

exp_avg f4 [32, 4]
00000000: ae79 0939 cd1b f139 42f4 01b9 e945 30b9
00000010: 1bd0 6939 cf24 a33a 0ce6 68b9 8ce3 14ba
00000020: 0000 0000 0000 0000 0000 0000 0000 0000
00000030: c7f3 1639 4dfa 403a 10f2 14b9 54d3 adb9
00000040: 41c7 2639 c046 483a 52bb 22b9 937f adb9
00000050: eda8 d338 6e9e 883a e7f7 efb8 7dc0 16ba
00000060: 5f3a a638 799f 213a 87f3 afb8 5560 a6b9
00000070: c4b5 8239 9b62 883a ee8b 7ab9 f665 d7b9
00000080: 9fbf 29b8 1c8a 113a 2794 5a37 0073 cab9
00000090: f7e5 6a39 bba2 af3a 058f 6bb9 15c7 22ba
000000a0: a4ab 0735 942d 84b2 687d d2b3 e8c0 89b3
000000b0: 0000 0000 0000 0000 0000 0000 0000 0000
000000c0: d29e e639 9d9a e439 c021 b9b8 f74c ecb9
000000d0: b0e0 4e39 bf4a 34b9 ea28 29b9 c58f b239
000000e0: 4543 0839 65d8 2bb9 b16c a537 50d3 3a39
000000f0: daae 8239 370d 263a 89d9 6eb9 7f62 2ab9
00000100: 2447 1039 8dde 513a c78e 0fb9 a5dc bdb9
00000110: 021f 5437 ca4d 6fb7 6c34 75b6 85bb e337
00000120: 07e1 2b39 7ae9 6d3a 7895 2ab9 1baf d7b9
00000130: d0e1 1e39 53d6 863a 945d 25b9 a065 08ba
00000140: 2d4a fc38 a76a 493a 54f8 feb8 5ed4 bdb9
00000150: 9a11 0239 98a9 133a b08e fdb8 4882 7db9
00000160: 3af1 c238 03c1 aa39 7677 a637 3689 fd37
00000170: dd6e d138 fb7e 8e3a da07 efb8 2252 1cba
00000180: 9cd5 6938 6d17 0e3a 52ad 85b8 28a8 a4b9
00000190: 1293 ec38 d50c 8237 3160 cab8 ee8d c038
000001a0: 0252 71b8 5868 e4b9 bba7 c238 6fc6 533a
000001b0: 3de3 f3b8 a339 e9ba de91 303a 412e f23a
000001c0: 898c b239 ccc7 a1b9 d687 c338 3cff ff39
000001d0: 6a2f 83b6 236c 14b7 1441 03b6 3ce0 8d35
000001e0: 826b 2539 5cab 9f3a 6170 2bb9 da72 1bba
000001f0: bcbc 5db7 2a61 9538 4910 a7b5 29a0 3ab9
0.00013110667 0.00045987815 -0.00012393392 -0.00016810712 0.00022298137 0.0012446883 -0.00022210943 -0.0005679659
0.0 0.0 0.0 0.0 0.00014395929 0.00073615165 -0.00014204555 -0.00033154583
0.00015905222 0.0007639937 -0.00015519306 -0.00033092182 0.00010092729 0.0010423192 -0.000114425835 -0.0005750729
7.926369e-05 0.0006165426 -8.390011e-05 -0.0003173376 0.00024930958 0.0010405363 -0.00023893986 -0.00041083962
-4.04712e-05 0.0005551891 1.3028307e-05 -0.00038614124 0.00022401648 0.0013399938 -0.00022464625 -0.0006209475
5.054119e-07 -1.5387549e-08 -9.801698e-08 -6.414649e-08 0.0 0.0 0.0 0.0
0.0004398735 0.00043602745 -8.827774e-05 -0.0004507077 0.00019729394 -0.00017193983 -0.00016132338 0.00034057922
0.0001299503 -0.00016388444 1.9720146e-05 0.00017817062 0.00024925807 0.00063343666 -0.00022778487 -0.00016249156
0.00013759412 0.000800588 -0.00013690731 -0.00036213282 1.2643404e-05 -1.4263622e-05 -3.6538358e-06 2.714783e-05
0.0001639166 0.0009075623 -0.00016268145 -0.0004113846 0.00015152176 0.0010287262 -0.00015770487 -0.00052031316
0.00012030113 0.0007683434 -0.000121579185 -0.00036207115 0.00012404323 0.00056328764 -0.00012090558 -0.00024176494
9.295573e-05 0.00032568732 1.984437e-05 3.0223844e-05 9.9865465e-05 0.0010871583 -0.000113978705 -0.00059631665
5.5750468e-05 0.0005420361 -6.3742176e-05 -0.00031405804 0.00011280751 1.5503183e-05 -9.650028e-05 9.18171e-05
-5.7535253e-05 -0.0004356529 9.281883e-05 0.000807858 -0.000116294694 -0.0017793666 0.0006735603 0.001847692
0.00034055513 -0.00030857173 9.323626e-05 0.00048827555 -3.909624e-06 -8.846665e-06 -1.9558402e-06 1.057058e-06
0.00015775676 0.0012181806 -0.00016349695 -0.0005929895 -1.321657e-05 7.122972e-05 -1.2447209e-06 -0.00017798007

exp_avg_sq f4 [32, 4]
00000000: 7016 3139 7bad c43a a3fa 6538 072c 6e3b
00000010: 9568 463a e126 843b 11ef 1239 ed85 113c
00000020: 0000 0000 0000 0000 0000 0000 0000 0000
00000030: 7878 e439 376c 4d3b 070a ea38 2e0e ee3b
00000040: 14d3 a739 3775 1c3b e734 b138 6cfb b83b
00000050: 53bf 3e3a 019f 873b ff67 1d39 cc2e 163c
00000060: 9670 3f39 6cf0 ac3a ee53 4138 cdfa 4d3b
00000070: 4743 df39 f95f 693b 9763 0439 981d 0b3c
00000080: 0f18 0a3a ad0b 183b 0144 a838 667d a03b
00000090: dd68 a23a 9dab 493b faae fe38 e003 9c3b
000000a0: 4413 083a 930e 9839 491c e135 5b2e 8d36
000000b0: 0000 0000 0000 0000 0000 0000 0000 0000
000000c0: 98ce a639 33a3 a43a ce6d b738 0c2e 1f3b
000000d0: fbba a838 56db a13a 057d 2f38 2645 513b
000000e0: 6aa3 7937 48ff f639 ffa6 9637 457a a43a
000000f0: 15e4 2339 0261 e13a cdfe 7b38 ba72 8c3b
00000100: 2dd7 8a39 a013 1f3b 1105 b538 fb7f c13b
00000110: fcf7 8338 0110 013a 9ab5 f737 4d25 953a
00000120: 3132 113a 1bd1 523b bc35 ee38 aff1 eb3b
00000130: a668 393a 7a4e 853b 33ce 1739 e859 143c
00000140: cd60 7139 ef6a 2a3b af07 c938 a467 d23b
00000150: 5ff1 7339 da42 183b 4306 b938 32c0 bd3b
00000160: bd3f 2439 548f 563a ac75 f037 d2ed f33a
00000170: 33fb 5d3a 8a91 653b fb01 0039 a5f6 e83b
00000180: 4e9a 7a39 3aed 933a 3abb 3838 3b23 263b
00000190: f147 0238 61b1 a33a 4eb9 3c38 f532 5e3b
000001a0: 62bc 3939 75fb 963a edaa cb38 9959 2a3b
000001b0: 3e45 703b c28a a43b ad8b 3839 5637 793b
000001c0: 17be cc39 7452 fb39 2f25 8937 b471 e539
000001d0: 99d9 1538 1ae3 0d3a 0453 9f37 99ea bc3a
000001e0: 81af 3b3a aaf8 793b 23a9 0839 44e6 073c
000001f0: 0310 1f3a d9f5 893a 9ece 5038 6aa5 9c3a
0.00016888394 0.0015005314 5.483128e-05 0.003634216 0.00075686845 0.004032955 0.00014012704 0.008882028
0.0 0.0 0.0 0.0 0.00043577305 0.0031345019 0.00011159857 0.007264874
0.00032009988 0.0023873576 8.4498715e-05 0.005645206 0.00072764343 0.004138828 0.00015011428 0.009166431
0.00018257121 0.001319421 4.609295e-05 0.0031430006 0.00042584 0.0035610183 0.00012625601 0.008490942
0.0005267867 0.0023200319 8.023531e-05 0.004897761 0.0012390871 0.0030772456 0.00012144256 0.004761204
0.0005190859 0.00029002558 1.6772038e-06 4.207524e-06 0.0 0.0 0.0 0.0
0.00031815912 0.0012560844 8.746573e-05 0.002428892 8.045692e-05 0.0012348692 4.1839685e-05 0.0031932085
1.4879604e-05 0.00047110976 1.7959157e-05 0.0012548646 0.00015629859 0.0017195048 6.0080365e-05 0.0042861374
0.0002648173 0.0024273172 8.631696e-05 0.005905149 6.2927575e-05 0.0004923344 2.952926e-05 0.0011378914
0.000553879 0.0032168094 0.00011358733 0.007200442 0.0007072784 0.004068193 0.00014477297 0.009054638
0.00023019612 0.0026003679 9.585858e-05 0.0064210463 0.00023264204 0.0023233206 8.822654e-05 0.0057907337
0.00015664003 0.00081848097 2.8665025e-05 0.0018610305 0.00084679126 0.0035029375 0.00012207769 0.0071094804
0.00023899341 0.0011285909 4.4043387e-05 0.002535059 3.1061416e-05 0.0012488776 4.499527e-05 0.0033904884
0.00017713153 0.0011519032 9.711632e-05 0.0025993346 0.0036662365 0.005021424 0.0001759964 0.0038027368
0.0003905154 0.00047935883 1.6348988e-05 0.00043763 3.5727022e-05 0.0005412564 1.8992934e-05 0.0014413177
0.0007159636 0.00381426 0.00013032979 0.008294646 0.00060677546 0.0010525539 4.978349e-05 0.0011951153

exp_avg f4 [32]
00000000: 6f18 9f39 6df1 103a 0000 0000 1cef b339
00000010: 3c24 c939 5abd 8239 7af1 4d39 4ad9 1e3a
00000020: 9d79 99b8 ed99 153a 86da 3235 0000 0000
00000030: d606 443a 4457 ea39 2a70 8439 d37a 143a
00000040: bf1d bb39 1959 9fb8 fb80 d639 93d5 b939
00000050: 76c7 a339 ff27 9839 9d5a 023a cb11 8939
00000060: ed4f e438 0d30 7839 825d 8d3a 7b62 7b3a
00000070: edcd 803a 2916 40b7 f4ba e839 3b8c 11b9
0.00030345048 0.00055291393 0.0 0.0003431969 0.00038364704 0.0002493661 0.0001964028 0.00060596
-7.318261e-05 0.00057068357 6.662816e-07 0.0 0.0007477825 0.00044696976 0.0002526057 0.0005664054
0.00035689582 -7.5983065e-05 0.0004091336 0.00035445075 0.00031238393 0.000290215 0.0004972609 0.00026143933
0.000108867745 0.00023669023 0.0010785314 0.0009589565 0.0009826996 -1.1449251e-05 0.0004438978 -0.00013880518

exp_avg_sq f4 [32]
00000000: 03bf d73a b53a 993b 0000 0000 823d 803b
00000010: 8623 373b 1491 a53b 5812 bb3a e24b 923b
00000020: 3cc5 233b 0de1 df3b c09e 1439 0000 0000
00000030: 1fa0 063b aaa0 8a3a 7ede ba39 75df 053b
00000040: bad0 423b 53c4 1f3a 32c3 703b 548b a63b
00000050: 615c 4c3b aa0f 403b 0f76 a13a 3a11 743b
00000060: a4f1 0d3b 24ca 973a 591a 123b 6465 903b
00000070: 0342 cf39 405b 473a a0b1 863b 850c d13a
0.0016460124 0.004676188 0.0 0.0039135823 0.0027944758 0.005052695 0.0014272435 0.0044646123
0.0024989387 0.006832248 0.00014173519 0.0 0.0020542217 0.0010576446 0.00035642454 0.002042738
0.0029726462 0.0006094623 0.003673744 0.005082527 0.0031182992 0.0029306212 0.0012318509 0.0037241713
0.0021658922 0.0011580628 0.0022293536 0.004406618 0.000395313 0.0007604845 0.00411053 0.0015949166

exp_avg f4 [32, 32]
00000000: a671 df38 9007 8739 0000 0000 307f 8838
00000010: 9332 0b39 ba93 cc38 c908 b038 8945 3a39
00000020: 4846 2b38 cc60 9238 c11b acaf 0000 0000
00000030: fef5 abb7 6202 c4b7 5726 4bb8 f6b6 2739
00000040: af10 7038 5302 c634 c6b8 3239 533e 6439
00000050: fe5f 1238 b2ca 0239 18b5 1b39 a443 6339
00000060: 4b9d 2a39 8f1e 5638 0609 92b8 f469 2fb9
00000070: 3f63 93b8 2228 4839 df8e da38 7378 a0b6
00000080: 338c ccb9 5ca7 92b9 0000 0000 ad5a 67b9
00000090: bc3e 8bb9 ce46 81b9 94e1 5fb9 527a 8eb9
000000a0: 102b c2b9 d3d9 8cb9 c04c b7af 0000 0000
000000b0: 318f e0b7 2d6f 4db9 62e8 5637 7c6e 3cb9
000000c0: b266 57b9 b923 2035 1923 88b9 d0a4 adb9
000000d0: b5b5 65b9 595a 07ba d9fc 8c38 2690 a0b9
000000e0: ad00 2ab9 ecec 6eb9 d392 e837 b5da a8b8
000000f0: 134b 27b8 bbe2 1ab8 cfb7 6bb8 f0e7 fbb8
00000100: f6be 0f38 3d8b 2a39 0000 0000 7f16 c037
00000110: b300 9538 fcd3 3a38 bb3e 2c38 19a7 de38
00000120: 3e79 82b7 5122 b737 7f47 9aaf 0000 0000
00000130: 1ee8 9eb7 6320 22b8 818e 08b8 dd60 d838
00000140: 96ff ae37 ccc9 fa34 d4d4 cb38 a3f2 0039
00000150: 2439 eb35 dc74 0738 51f7 fc38 17c0 0339
00000160: 373a d738 65aa 4137 ddb7 3eb8 93b4 0ab9
00000170: ff83 6eb8 12bd 1039 b294 9d38 17ba 8bb7
00000180: 7900 0000 c300 0000 0000 0000 2a00 0000
00000190: af00 0000 7d00 0000 8200 0000 9d00 0000
000001a0: 7200 0000 3600 0000 0000 0000 0000 0000
000001b0: 0400 0000 1a00 0000 0400 0000 5400 0000
000001c0: 4000 0000 0400 0000 5400 0000 4400 0000
000001d0: 7200 0000 8b00 0000 0f00 0000 c000 0000
000001e0: 0700 0000 0f00 0000 0400 0000 0400 0000
000001f0: 0a00 0000 0d00 0000 8700 0000 0000 0000
00000200: 0e00 0000 1e00 0000 0000 0000 0400 0000
00000210: 1900 0000 1400 0000 0f00 0000 1400 0000
00000220: 1100 0000 0c00 0000 0000 0000 0000 0000
00000230: 0400 0000 0400 0000 0400 0080 0900 0000
00000240: 0800 0000 0400 0080 0c00 0000 0a00 0000
00000250: 0e00 0000 1000 0000 0b00 0000 2600 0000
00000260: 0400 0000 0400 0000 0400 0080 0400 0080
00000270: 0400 0080 0b00 0000 1d00 0000 0000 0000
00000280: 0900 0000 3100 0000 0000 0000 0400 0000
00000290: 2200 0000 2000 0000 1000 0000 1500 0000
000002a0: 1d00 0000 1c00 0000 0000 0000 0000 0000
000002b0: 0400 0000 0000 0000 0000 0000 0800 0000
000002c0: 0600 0000 0000 0000 1000 0000 0f00 0000
000002d0: 1100 0000 0700 0000 1800 0000 4e00 0000
000002e0: 0b00 0000 0000 0000 0000 0000 0000 0000
000002f0: 0000 0000 1800 0000 3d00 0000 0000 0000
00000300: 1500 0000 2300 0000 0000 0000 0700 0000
00000310: 1f00 0000 1600 0000 1600 0000 1b00 0000
00000320: 1500 0000 0b00 0000 0000 0000 0000 0000
00000330: 0400 0000 0700 0000 0400 0000 0f00 0000
00000340: 0b00 0000 0400 0000 0d00 0000 0c00 0000
00000350: 1400 0000 1900 0000 0500 0000 2400 0000
00000360: 0400 0000 0400 0000 0400 0000 0400 0000
00000370: 0400 0000 0600 0000 1a00 0000 0000 0000
00000380: 2606 4c38 c6a4 3f39 0000 0000 ca58 0338
00000390: 18a6 af38 4ee1 6738 87ea 5038 c611 fe38
000003a0: c7be a0b6 957f 0338 c95a 9faf 0000 0000
000003b0: dc17 a3b7 666e 17b8 52eb 16b8 57bf f138
000003c0: effa eb37 6584 f334 fdc2 eb38 8991 1539
000003d0: 9569 0937 e80d 5438 9a7c 0539 cea8 1739
000003e0: 97ed f138 1d12 a237 cd65 54b8 fd48 13b9
000003f0: e8ef 7bb8 0604 1d39 7d0c ab38 cec8 73b7
0.00010654637 0.0002575484 0.0 6.508676e-05 0.00013274913 9.754994e-05 8.39397e-05 0.00017764246
4.083503e-05 6.979852e-05 -3.1306338e-10 0.0 -2.0499338e-05 -2.336613e-05 -4.843468e-05 0.0001599452
5.7235997e-05 3.6882065e-07 0.00017044236 0.00021766992 3.4898512e-05 0.00012473276 0.00014849415 0.00021673605
0.0001627106 5.1050036e-05 -6.963503e-05 -0.00016728771 -7.027992e-05 0.00019088437 0.00010421662 -4.7823937e-06
-0.0003901437 -0.00027971982 0.0 -0.00022063656 -0.00026558887 -0.0002465755 -0.00021350972 -0.00027175486
-0.00037034648 -0.00026865173 -3.334204e-10 0.0 -2.676956e-05 -0.0001959174 1.28095e-05 -0.00017970236
-0.00020542255 5.965663e-07 -0.0002596609 -0.00033119926 -0.00021906833 -0.0005163304 6.722817e-05 -0.00030624977
-0.00016212715 -0.00022785709 2.7724926e-05 -8.0516016e-05 -3.988582e-05 -3.692762e-05 -5.619955e-05 -0.000120118144
3.4271703e-05 0.00016264334 0.0 2.289866e-05 7.105004e-05 4.454328e-05 4.1066418e-05 0.00010616909
-1.5553665e-05 2.183128e-05 -2.8063238e-10 0.0 -1.8943156e-05 -3.8653972e-05 -3.2557644e-05 0.00010317725
2.0861433e-05 4.6712955e-07 9.719437e-05 0.0001229742 1.7525495e-06 3.2295342e-05 0.00012062363 0.00012564693
0.00010262842 1.15433695e-05 -4.5470766e-05 -0.00013227975 -5.6866553e-05 0.00013803344 7.51404e-05 -1.6656746e-05
1.7e-43 2.73e-43 0.0 5.9e-44 2.45e-43 1.75e-43 1.82e-43 2.2e-43
1.6e-43 7.6e-44 0.0 0.0 6e-45 3.6e-44 6e-45 1.18e-43
9e-44 6e-45 1.18e-43 9.5e-44 1.6e-43 1.95e-43 2.1e-44 2.69e-43
1e-44 2.1e-44 6e-45 6e-45 1.4e-44 1.8e-44 1.89e-43 0.0
2e-44 4.2e-44 0.0 6e-45 3.5e-44 2.8e-44 2.1e-44 2.8e-44
2.4e-44 1.7e-44 0.0 0.0 6e-45 6e-45 -6e-45 1.3e-44
1.1e-44 -6e-45 1.7e-44 1.4e-44 2e-44 2.2e-44 1.5e-44 5.3e-44
6e-45 6e-45 -6e-45 -6e-45 -6e-45 1.5e-44 4e-44 0.0
1.3e-44 6.9e-44 0.0 6e-45 4.8e-44 4.5e-44 2.2e-44 3e-44
4e-44 3.9e-44 0.0 0.0 6e-45 0.0 0.0 1.1e-44
8e-45 0.0 2.2e-44 2.1e-44 2.4e-44 1e-44 3.4e-44 1.1e-43
1.5e-44 0.0 0.0 0.0 0.0 3.4e-44 8.5e-44 0.0
3e-44 4.9e-44 0.0 1e-44 4.3e-44 3.1e-44 3.1e-44 3.8e-44
3e-44 1.5e-44 0.0 0.0 6e-45 1e-44 6e-45 2.1e-44
1.5e-44 6e-45 1.8e-44 1.7e-44 2.8e-44 3.5e-44 7e-45 5e-44
6e-45 6e-45 6e-45 6e-45 6e-45 8e-45 3.6e-44 0.0
4.8643116e-05 0.00018276562 0.0 3.1315525e-05 8.375588e-05 5.5284523e-05 4.9809485e-05 0.000121149744
-4.790581e-06 3.1351654e-05 -2.8986438e-10 0.0 -1.9442225e-05 -3.6104022e-05 -3.5981946e-05 0.00011527415
2.8131033e-05 4.5358607e-07 0.000112419926 0.00014263963 8.190419e-06 5.055769e-05 0.00012730286 0.00014463367
0.0001153603 1.932034e-05 -5.0639548e-05 -0.00014046203 -6.0066493e-05 0.00014974186 8.1562415e-05 -1.4530682e-05

exp_avg_sq f4 [32, 32]
00000000: e615 153a a518 e439 0000 0000 9d7d 1c39
00000010: e718 e339 5480 9839 51d6 c039 7a5e 2b3a
00000020: 0354 4f39 1a8a 4739 cdec 0037 0000 0000
00000030: bb31 2639 0364 1d3a a5f3 9d39 34c5 de39
00000040: 7146 8539 88d8 db37 33d6 6039 e75d 3a39
00000050: 6a2c 8839 6b0f 6f3a 6e47 bb39 8c6a bc39
00000060: 6b6d 4939 af7a 9a39 eb95 8238 a747 0339
00000070: 699b 8039 1ad3 d039 3486 8139 7f6d 0837
00000080: 6f23 3338 07aa 6238 0000 0000 3b95 b837
00000090: d0db 6738 31b2 4238 86d5 d837 a6e4 2c38
000000a0: cdfb 2738 d21b 4238 6293 7a36 0000 0000
000000b0: 6df7 bd37 523c 5737 f046 9633 2880 f537
000000c0: 7f76 9537 3d40 ad36 6d16 4038 b664 0738
000000d0: e2fd 0638 a70c 5e38 2cb8 b437 1096 7f38
000000e0: 196a ef37 995d b037 8ee7 7a35 4df7 9437
000000f0: e819 eb36 0bd3 1238 00da 2138 80dc 3036
00000100: fd36 c539 863c 8a39 0000 0000 bd90 cc38
00000110: fa46 8f39 b074 3d39 9605 7d39 5635 de39
00000120: 4778 0539 bcf0 e938 13ae ab36 0000 0000
00000130: 784b a838 ffde d639 c3d7 5a39 34e1 9239
00000140: 42a0 3139 5ef6 9a37 a297 0a39 2163 ec38
00000150: 1d12 3239 f475 1e3a ea42 4039 fa67 5c39
00000160: 353f da38 2642 5139 50e3 2e38 2f9f a738
00000170: baaf 2f39 232c 5939 29ca 1739 c628 aa36
00000180: 943a 0036 752b 9036 0000 0000 1db8 7134
00000190: 5f19 7436 d7f6 eb35 7f36 0e36 7d11 5636
000001a0: edb8 c135 452c 8634 0000 0000 0000 0000
000001b0: 6b89 3729 a1e8 7634 b1bb 1b32 6c8e 8635
000001c0: e03b 1635 3268 8c30 ec0f 5035 03de 1635
000001d0: 8f3e dd35 cef2 3736 f55a 3833 cd9f 7636
000001e0: 2fdd 1832 2f71 a033 a689 822e d2af 7a30
000001f0: a932 6633 5af9 2433 038b 0136 0000 0000
00000200: 1cca b932 b4b7 c633 0000 0000 1e7a 4e31
00000210: 660e 8533 6d3f 3633 41b8 e332 deb2 3533
00000220: 687d 0933 e391 8632 0000 0000 0000 0000
00000230: e16c 592e c8dc 3c31 f5e3 e32f 1843 2f32
00000240: 9500 ef31 fd56 b82d c5f2 7232 04ad 2832
00000250: 6bb9 c432 d38e f132 cd62 3c32 e162 2434
00000260: 8638 fb30 19a9 5430 e8eb 422d f62c 812e
00000270: ec98 dc30 dd19 3d32 bba6 c133 0000 0000
00000280: 3b52 8a32 17ac f434 0000 0000 cc66 c431
00000290: 84a1 7734 f093 7234 c0f5 5333 13ff c133
000002a0: 34e6 3734 f380 2134 0000 0000 0000 0000
000002b0: ff72 0930 0000 0000 0000 0000 d08c 5c32
000002c0: f01d 1e32 0000 0000 af18 5933 feb1 5533
000002d0: 91c8 7533 d156 6032 7a4d fd33 d259 a235
000002e0: 5d88 cf32 0000 0000 0000 0000 0000 0000
000002f0: 0000 0000 5246 0634 bb6c 4335 0000 0000
00000300: d1ca b933 3706 7434 0000 0000 9ffc 3132
00000310: 6c3e 4234 dfaf d433 6959 d433 ace3 1a34
00000320: cef1 b633 f5e2 ad32 0000 0000 0000 0000
00000330: e2c3 2e2e 4fd4 6832 2cc0 2930 d6c6 4a33
00000340: cf11 d432 5fa4 ae2e e568 2333 e450 fe32
00000350: ceac ae33 c0b0 0934 96e1 1732 8acf 8234
00000360: a03e 0c31 94f8 9531 49cc 2b2d 9dfe d52e
00000370: 2133 7931 0498 2b32 a20b 0934 0000 0000
00000380: b18e e239 58bd a339 0000 0000 d4f3 e938
00000390: 6220 a639 dae1 5e39 ae78 9139 8732 003a
000003a0: 795b 1939 211d 0c39 98a9 b336 0000 0000
000003b0: 875c d538 27ef f539 0aa6 7a39 e512 a839
000003c0: 3948 4b39 4f57 ab37 c75b 2039 e239 0739
000003d0: cdc3 4c39 3768 363a 55ea 8139 3c04 8639
000003e0: 8968 0d39 da55 6e39 0cad 4138 6f59 ba38
000003f0: a749 4839 83b2 9039 1b9c 3839 b3d4 b636
0.0005687162 0.0004350591 0.0 0.00014924114 0.00043315368 0.0002908731 0.00036780772 0.00065372104
0.00019772355 0.00019029566 7.684529e-06 0.0 0.0001584952 0.00060039776 0.00030126903 0.00042490067
0.0002542022 2.6207665e-05 0.000214421 0.00017773324 0.00025973032 0.0009119424 0.0003572064 0.00035937538
0.00019209615 0.00029464575 6.2268075e-05 0.00012519826 0.00024529852 0.00039830134 0.00024704786 8.131726e-06
4.2709926e-05 5.404095e-05 0.0 2.2004e-05 5.5279408e-05 4.6419158e-05 2.5848636e-05 4.122094e-05
4.005041e-05 4.6279114e-05 3.733869e-06 0.0 2.2645772e-05 1.2829043e-05 6.997823e-08 2.9265953e-05
1.7817363e-05 5.16328e-06 4.5797253e-05 3.2280303e-05 3.2184536e-05 5.2940708e-05 2.1543434e-05 6.0936494e-05
2.8540426e-05 2.102442e-05 9.3469214e-07 1.7758133e-05 7.0065616e-06 3.500566e-05 3.858842e-05 2.6354392e-06
0.00037615738 0.00026366505 0.0 9.7544376e-05 0.00027327967 0.00018067914 0.00024130041 0.00042382878
0.00012728675 0.00011155146 5.116462e-06 0.0 8.0249214e-05 0.00040983406 0.00020870478 0.0002801508
0.00016939736 1.8472954e-05 0.00013217193 0.00011271821 0.0001698215 0.0006044798 0.00018335474 0.00021019569
0.00010406823 0.00019956435 4.1696534e-05 7.992831e-05 0.00016754764 0.00020711175 0.00014475793 5.0711415e-06
1.9107583e-06 4.2965935e-06 0.0 2.2511854e-07 3.6373601e-06 1.7580704e-06 2.119137e-06 3.1898664e-06
1.4433441e-06 2.4991655e-07 0.0 0.0 4.0753354e-14 2.2995165e-07 9.0648635e-09 1.0025228e-06
5.5966484e-07 1.0215955e-09 7.750921e-07 5.6202424e-07 1.648399e-06 2.7410456e-06 4.2923563e-08 3.6749873e-06
8.897856e-09 7.4711686e-08 5.936167e-11 9.1199326e-10 5.3597123e-08 3.841101e-08 1.9303413e-06 0.0
2.1628743e-08 9.253509e-08 0.0 3.004636e-09 6.195914e-08 4.2432863e-08 2.6510067e-08 4.2305025e-08
3.2011855e-08 1.5665995e-08 0.0 0.0 4.943679e-11 2.74831e-09 4.1453033e-10 1.0201596e-08
6.9558816e-09 2.0957009e-11 1.4141453e-08 9.818226e-09 2.2901721e-08 2.8121041e-08 1.0965505e-08 1.5309662e-07
1.8278719e-09 7.7365453e-10 1.1080005e-11 5.8742275e-11 1.605057e-09 1.10071285e-08 9.017591e-08 0.0
1.6102708e-08 4.5573753e-07 0.0 5.7160374e-09 2.3062427e-07 2.2591826e-07 4.9350774e-08 9.0336606e-08
1.712695e-07 1.5041205e-07 0.0 0.0 5.000373e-10 0.0 0.0 1.28377025e-08
9.203617e-09 0.0 5.05467e-08 4.975481e-08 5.7225922e-08 1.3058256e-08 1.17953235e-07 1.2096082e-06
2.4159982e-08 0.0 0.0 0.0 0.0 1.2505305e-07 7.2801384e-07 0.0
8.651626e-08 2.2726532e-07 0.0 1.0360195e-08 1.8090367e-07 9.90401e-08 9.888283e-08 1.4425194e-07
8.5190194e-08 2.0243059e-08 0.0 0.0 3.9737e-11 1.3552451e-08 6.1754934e-10 4.721263e-08
2.4688147e-08 7.941802e-11 3.8046796e-08 2.9606277e-08 8.1339394e-08 1.282342e-07 8.840649e-09 2.4365391e-07
2.040828e-09 4.364731e-09 9.765585e-12 9.731347e-11 3.6263332e-09 9.988074e-09 1.2763351e-07 0.0
0.00043212392 0.00031230855 0.0 0.00011155722 0.00031686114 0.00021255706 0.0002774647 0.00048903417
0.00014625293 0.00013362292 5.354359e-06 0.0 0.00010173866 0.00046908224 0.00023903712 0.00032057535
0.00019386494 2.0425445e-05 0.00015292979 0.00012896166 0.00019527898 0.0006958278 0.00024779388 0.00025561627
0.0001348575 0.00022729431 4.617595e-05 8.8858294e-05 0.00019100924 0.00027598822 0.00017605761 5.448784e-06

exp_avg f4 [32]
00000000: f26a 7739 93c1 e3b9 34f6 0539 9401 0000
00000010: 4300 0000 6e00 0000 4900 0000 2a5e 1d39
00000020: b5ac dc38 ba5a a1b9 0000 0000 0000 0000
00000030: 2000 0000 5801 0000 4e20 9c39 e7ca 33b6
00000040: 0000 0000 efa6 b138 ccb9 8a38 4400 0000
00000050: af23 1e39 0000 0000 418f 1639 8b00 0000
00000060: c3ac cb38 7fd4 7a0f 7f25 5a39 c301 0000
00000070: b01c 7939 9d00 0000 591a 2739 6e6d f238
0.00023595596 -0.00043441038 0.00012775586 5.66e-43 9.4e-44 1.54e-43 1.02e-43 0.00015007766
0.00010522587 -0.0003077591 0.0 0.0 4.5e-44 4.82e-43 0.00029778708 -2.6791183e-06
0.0 8.4711115e-05 6.61496e-05 9.5e-44 0.00015081347 0.0 0.00014358481 1.95e-43
9.711974e-05 1.2366877e-29 0.00020804068 6.32e-43 0.00023757177 2.2e-43 0.00015936176 0.00011559842

exp_avg_sq f4 [32]
00000000: 3faa 933a 091b f438 12b3 2d3a 126a 9737
00000010: e448 ed34 de8c 1f36 6f61 8535 dd52 523a
00000020: 8992 4e3a d1d5 9238 0000 0000 0000 0000
00000030: e6e9 0735 0e76 3137 649c 803a 1eb2 9b3a
00000040: 0000 0000 8f4b cc38 b8e0 853a ff5f 8035
00000050: 4160 0e39 0000 0000 f383 6139 363c 6636
00000060: 6bfa b039 34c8 1e35 cf5a 273a c0a8 bf37
00000070: 291e b239 ce9c b936 33da 7b3a c173 903a
0.0011265947 0.00011639862 0.000662611 1.8049996e-05 4.4197725e-07 2.3774842e-06 9.937629e-07 0.0008023212
0.0007880112 7.001649e-05 0.0 0.0 5.0631786e-07 1.0577509e-05 0.0009812233 0.0011878645
0.0 9.741552e-05 0.0010214066 9.564682e-07 0.00013578033 0.0 0.00021506827 3.4307718e-06
0.00033755912 5.915092e-07 0.0006384076 2.2847555e-05 0.00033973277 5.531684e-06 0.00096074044 0.0011020825

exp_avg f4 [1, 32]
00000000: c30d bf3a c256 643a d825 a63a e101 0080
00000010: af01 0080 3000 0080 db01 0080 0d8f b23a
00000020: bab5 ca3a 4be0 3439 0000 0000 0000 0000
00000030: 0a00 0080 e901 0080 e40a ca3a 4c3c cf3a
00000040: 0000 0000 bbe1 92b8 5b1f bf3a 5d00 0080
00000050: 7f3c a13a 0000 0000 fa09 983a 7200 0080
00000060: e357 d43a e756 068f 7489 d13a 0901 0080
00000070: c10e 97b8 3a00 0080 4930 da3a 1503 d33a
0.0014576245 0.00087104377 0.0012676073 -6.74e-43 -6.04e-43 -6.7e-44 -6.66e-43 0.0013622955
0.0015465536 0.00017249693 0.0 0.0 -1.4e-44 -6.85e-43 0.0015414623 0.0015810817
0.0 -7.003868e-05 0.0014581488 -1.3e-43 0.0012301354 0.0 0.0011599653 -1.6e-43
0.0016200509 -6.623447e-30 0.0015986399 -3.71e-43 -7.202989e-05 -8.1e-44 0.001664647 0.0016098941

exp_avg_sq f4 [1, 32]
00000000: 3eb9 1d3d 15de 213a 16a5 363d 4c08 e837
00000010: aa66 d137 ad34 2735 fd8d eb37 e79e 2b3d
00000020: ea68 483d 1fef c039 0000 0000 0000 0000
00000030: 9aab 5c33 66ef 0238 7941 433d 0545 0d3d
00000040: 0000 0000 1838 a23a afd7 2f3d 2ebb 1836
00000050: 1bb9 1c3c 0000 0000 2c8e 5f3c a736 6236
00000060: 6fc5 703d 13f8 0032 7e2a 433d e955 4237
00000070: 8971 8e3b 021a a235 de75 4b3d a9f2 083d
0.03850674 0.00061747554 0.044591032 2.7660419e-05 2.4962548e-05 6.2289e-07 2.8080301e-05 0.041899588
0.04892818 0.00036799253 0.0 0.0 5.1378812e-08 3.1217372e-05 0.04766986 0.03448965
0.0 0.0012376336 0.0429303 2.2758718e-06 0.009565617 0.0 0.013644736 3.3708436e-06
0.058782037 7.506986e-09 0.047647946 1.1583304e-05 0.0043470305 1.207751e-06 0.049672954 0.033434544

exp_avg f4 [2, 32]
00000000: 54c2 b3ba cceb e7b9 87fa caba 0600 0000
00000010: 0b00 0080 0400 0080 0d00 0080 fac2 abba
00000020: b446 cdba 9ca7 28b9 0000 0000 0000 0000
00000030: 0400 0080 0400 0080 f974 cfba 0540 b5ba
00000040: 0000 0000 e27b 1938 c9f0 c0ba 0700 0000
00000050: e59f 79ba 0000 0000 8d45 66ba 0400 0000
00000060: 7b27 caba e756 860e 4bfc d3ba 0400 0080
00000070: fa7c 6bb9 0400 0000 a2bd d8ba 3490 aaba
00000080: 54c2 b33a cceb e739 87fa ca3a 0600 0080
00000090: 0b00 0000 0400 0000 0d00 0000 fac2 ab3a
000000a0: b446 cd3a 9ca7 2839 0000 0000 0000 0000
000000b0: 0400 0000 0400 0000 f974 cf3a 0540 b53a
000000c0: 0000 0000 e27b 19b8 c9f0 c03a 0700 0080
000000d0: e59f 793a 0000 0000 8d45 663a 0400 0080
000000e0: 7b27 ca3a e756 868e 4bfc d33a 0400 0000
000000f0: fa7c 6b39 0400 0080 a2bd d83a 3490 aa3a
-0.001371453 -0.00044235436 -0.001548604 8e-45 -1.5e-44 -6e-45 -1.8e-44 -0.0013104372
-0.001566133 -0.00016084168 0.0 0.0 -6e-45 -6e-45 -0.0015827707 -0.0013828283
0.0 3.6593417e-05 -0.0014720197 1e-44 -0.00095224223 0.0 -0.00087841676 6e-45
-0.0015423143 3.3117234e-30 -0.0016173212 -6e-45 -0.00022457904 6e-45 -0.0016536007 -0.0013012947
0.001371453 0.00044235436 0.001548604 -8e-45 1.5e-44 6e-45 1.8e-44 0.0013104372
0.001566133 0.00016084168 0.0 0.0 6e-45 6e-45 0.0015827707 0.0013828283
0.0 -3.6593417e-05 0.0014720197 -1e-44 0.00095224223 0.0 0.00087841676 -6e-45
0.0015423143 -3.3117234e-30 0.0016173212 6e-45 0.00022457904 -6e-45 0.0016536007 0.0013012947

exp_avg_sq f4 [2, 32]
00000000: 61ae 8a3b e674 2d39 f316 a63b 7e1f 0333
00000010: 6b57 e532 ad85 ec30 4d60 1133 3df4 9f3b
00000020: c45b c03b 8d81 cf38 0000 0000 0000 0000
00000030: 0167 c02e a9e3 c232 3689 b53b 8da3 873b
00000040: 0000 0000 7a5c ad39 df63 9e3b 051c 2232
00000050: 74ea c83a 0000 0000 cbb8 053b 4640 f831
00000060: 605d d13b 442c 152e 0b0f b13b d205 5432
00000070: 36fd 4b3a f43a 5031 5350 b73b 03f8 8d3b
00000080: 61ae 8a3b e674 2d39 f316 a63b 7d1f 0333
00000090: 6b57 e532 af85 ec30 4e60 1133 3df4 9f3b
000000a0: c45b c03b 8d81 cf38 0000 0000 0000 0000
000000b0: 0167 c02e a9e3 c232 3689 b53b 8da3 873b
000000c0: 0000 0000 7a5c ad39 df63 9e3b 071c 2232
000000d0: 74ea c83a 0000 0000 cbb8 053b 4640 f831
000000e0: 605d d13b 442c 152e 0b0f b13b d605 5432
000000f0: 36fd 4b3a f63a 5031 5350 b73b 03f8 8d3b
0.0042322134 0.00016542114 0.0050686537 3.0529456e-08 2.6698862e-08 1.7209253e-09 3.384803e-08 0.0048814104
0.0058703143 9.89466e-05 0.0 0.0 8.749446e-11 2.26881e-08 0.0055400385 0.00413937
0.0 0.00033066032 0.004833683 9.436012e-09 0.0015328662 0.0 0.0020404335 7.225057e-09
0.006389305 3.3917993e-11 0.0054034046 1.23413475e-08 0.0007781567 3.0301495e-09 0.005594292 0.004332544
0.0042322134 0.00016542114 0.0050686537 3.0529453e-08 2.6698862e-08 1.7209255e-09 3.3848032e-08 0.0048814104
0.0058703143 9.89466e-05 0.0 0.0 8.749446e-11 2.26881e-08 0.0055400385 0.00413937
0.0 0.00033066032 0.004833683 9.436014e-09 0.0015328662 0.0 0.0020404335 7.225057e-09
0.006389305 3.3917993e-11 0.0054034046 1.2341351e-08 0.0007781567 3.03015e-09 0.005594292 0.004332544

exp_avg f4 [2]
00000000: f190 14ba f190 143a
-0.000566735 0.000566735

exp_avg_sq f4 [2]
00000000: b567 503a b567 503a
0.0007950024 0.0007950024
