_models/CartPole-v1_duelingDQN.pt (torch, 25810 bytes, 21 tensors)

mlp.0.weight f4 [32, 4]
000000 f6 bd 04 3f 15 0f 52 be 49 57 47 bf 42 95 ca bd
       0.5185236 -0.20513566 -0.7786756 -0.0989175
000010 07 b3 4a bf 7b 46 2b 3d 2c 72 ba be 08 57 10 3d
       -0.79179424 0.041815262 -0.3641523 0.03523925
000020 78 5a 8e 3d 00 c4 7a bd 40 02 0e 3e 20 10 ca 3c
       0.06950849 -0.061222076 0.13868046 0.024665892
000030 a9 bb df 3e 9c f9 07 be a1 78 73 bf d1 67 c9 be
       0.4369786 -0.13278812 -0.9510594 -0.39337018
000040 65 3b 36 be 8b 22 1a be 37 39 94 3e 5d bb 10 be
       -0.17796095 -0.1505224 0.289499 -0.14133973
000050 0b 7c a5 bf cc 1a 9b bf c9 88 04 c0 ad 9a 5d bf
       -1.292848 -1.2117553 -2.0708487 -0.8656414
000060 21 8f 16 bf dd 6b 8d be 33 41 04 3f dd 36 14 3e
       -0.5881215 -0.27621356 0.51661986 0.14474054
000070 48 a9 90 bf 87 a2 14 be 77 97 aa 3e 18 e2 9b 3e
       -1.130166 -0.14515124 0.33318684 0.30445933
000080 2f bf 61 bf f5 84 b8 bf e7 d3 18 c0 1b 2d 68 bf
       -0.8818235 -1.4415575 -2.3879335 -0.90693825
000090 48 ef 48 3f 96 6a 25 3c 0d 8b 6a bf c7 7b 1f bf
       0.78490114 0.010096213 -0.91618425 -0.62298244
0000a0 eb 36 62 40 e3 51 c5 3f 1f 14 0c 40 97 af 71 3f
       3.534602 1.5415615 2.188728 0.94408554
0000b0 96 c2 20 be 74 7d b9 3e 7c 11 bb be e6 7d 81 3e
       -0.15699229 0.36228526 -0.36536777 0.25291365
0000c0 b7 53 e8 bf 72 a0 e7 bf 42 f7 ac c0 fb 34 bf bf
       -1.8150548 -1.8095839 -5.405183 -1.4938043
0000d0 d1 a2 d6 3d 0f f2 2e 3f fe d8 95 40 6e 84 91 3f
       0.104802735 0.683381 4.6827383 1.1368539
0000e0 d9 ac 61 bf 71 3b 23 3e b6 6d 6a 40 dc 9e 5d 3f
       -0.8815437 0.15940644 3.6629462 0.86570525
0000f0 1a b5 6e bf 7f 6a e2 bc c7 cf 54 3f 72 aa b5 3e
       -0.9324509 -0.027638672 0.83129543 0.35481602
000100 44 65 38 bf 1c 31 04 bf 6c ea d0 be 7a 0f cf bd
       -0.7202952 -0.51637435 -0.4080385 -0.10110374
000110 20 17 06 c0 17 24 12 c0 e9 68 b3 c0 6e 6c d4 bf
       -2.0951614 -2.2834527 -5.6065564 -1.659559
000120 bf a5 7d 3e 6b 4f 47 bd 84 ea e7 be 90 a3 81 be
       0.24770258 -0.048659723 -0.4529611 -0.253201
000130 cc 80 00 bc c4 f6 37 3d 2c 77 36 bf 78 73 89 3d
       -0.007843208 0.04491307 -0.7127559 0.06711477
000140 22 4a 1d bf d9 c2 2c bf 32 0a 14 bf 69 24 b0 be
       -0.6144124 -0.67484814 -0.57828057 -0.3440278
000150 88 3b 14 3f e3 da 10 be 04 c5 7e bf f6 66 d3 bb
       0.5790334 -0.14145999 -0.9951937 -0.006451483
000160 c6 32 26 c0 f9 bd 0c c0 fa 14 c7 c0 30 f5 e3 bf
       -2.596849 -2.199095 -6.2213106 -1.78092
000170 2e b7 d4 3c 2d b8 6a bd 87 b4 b0 bf 50 60 04 bf
       0.025966253 -0.05730455 -1.3805093 -0.5170946
000180 70 ce 98 bf 92 59 87 bf 9a 53 0e c0 47 76 39 bf
       -1.1938 -1.057421 -2.2238526 -0.724461
000190 5c 0a 87 3d 8e 60 aa be 5d 2e bf 3e 2a 86 02 3d
       0.06593773 -0.3327679 0.3734006 0.03186623
0001a0 5a 4b df bf a6 7d ad be 5b 8e 12 40 d4 ed f0 3e
       -1.744487 -0.33884925 2.2899387 0.47056448
0001b0 8d 89 e7 3f 85 93 06 40 f3 79 ad 40 70 86 de 3f
       1.8088852 2.1027539 5.4211364 1.7384777
0001c0 2d 09 c3 bd 1a 86 32 3f 6e db 82 40 20 de c1 3f
       -0.095232345 0.6973587 4.089286 1.5145912
0001d0 00 29 35 40 84 4b 6f 3f fa 5b e8 bf 53 b9 d8 bb
       2.8306274 0.934746 -1.8153069 -0.0066138892
0001e0 02 0d 4e bf b2 bb d3 be f7 e4 51 be 10 f8 06 bf
       -0.804886 -0.41354138 -0.204975 -0.52722263
0001f0 aa 10 10 3e 36 d2 2a bf 7e 85 17 c0 c1 08 83 be
       0.14068857 -0.66727006 -2.3675227 -0.25592616

mlp.0.bias f4 [32]
000000 98 c3 db 3f 4d 42 e3 3f 66 fc 9e be 35 00 b3 3f
       1.7169065 1.7754608 -0.3105194 1.3984438
000010 e7 9c dc 3f 54 cd 85 3f 70 c0 da 3f 71 2f db 3f
       1.7235383 1.0453286 1.7089977 1.7123853
000020 96 40 53 3f 85 ce bd 3f 9a 04 ab bd 88 b5 06 bf
       0.82520425 1.482865 -0.08350487 -0.52620745
000030 29 c0 b7 be e7 16 30 3f 6a 26 19 3f 38 d1 d9 3f
       -0.35888794 0.68784946 0.5982424 1.7016973
000040 b9 90 b9 3f 0a d9 c3 bd e3 83 cc 3f c8 01 c2 3f
       1.4497291 -0.09562881 1.5977749 1.5156794
000050 cd d4 be 3f 66 6c e6 3f 23 5c 38 3e d0 03 c8 3f
       1.4908692 1.800183 0.18003897 1.5626163
000060 40 68 57 3f 3c 60 ca 3f d9 02 9a be fe d0 51 bc
       0.8414345 1.5810618 -0.30080298 -0.012806175
000070 b0 ab 88 bf 47 59 39 bd 3e e0 bd 3f 0d f7 cd 3e
       -1.0677395 -0.045251157 1.4834058 0.40227547

mlp.2.weight f4 [32, 32]
000000 49 a7 35 3f 76 23 7b 3f d8 d3 67 3d 96 65 86 3f
       0.7095838 0.98100984 0.056598514 1.0499752
000010 fb 63 53 3f ac 20 8a 3f 12 8b 5c 3f d0 87 61 3f
       0.82574433 1.0791221 0.86149704 0.8809786
000020 52 16 71 3f aa 40 3d 3f f2 f2 84 c0 50 bc c8 bc
       0.94174683 0.73926795 -4.1546564 -0.024503857
000030 a3 f1 8b c0 e9 fb 4f bf 19 5c 1c bf 25 99 8d 3f
       -4.3732467 -0.8124376 -0.6107803 1.1062361
000040 c7 41 8a 3f 28 c5 75 c0 7b 55 4e 3f 6a 4f 8d 3f
       1.0801324 -3.8401585 0.8059918 1.103986
000050 74 4c 60 3f 63 d5 46 3f 63 03 2f c0 a4 6c 53 3f
       0.8761666 0.7766935 -2.7345817 0.8258765
000060 e6 da 5b 3f af b9 78 3f 60 59 d9 bf 32 12 88 c0
       0.8588089 0.9715833 -1.69804 -4.252221
000070 47 1a c9 bf 54 3e f5 bf e5 84 82 3f f4 58 04 3f
       -1.5711144 -1.9159646 1.0196806 0.5169823
000080 34 e2 8c 3f e4 bc 8f bd 1f 0a 03 3e d5 cc 3b 3f
       1.1006532 -0.0701845 0.1279683 0.73359424
000090 7f b9 93 3f 91 08 aa bf 03 8a 1d 3f bb a1 01 bf
       1.1540984 -1.3283864 0.61538714 -0.50637406
0000a0 1e b3 38 bf c2 bd 96 3f 5f b9 3f 40 e5 6f 8c bd
       -0.7214831 1.177666 2.9956892 -0.0685728
0000b0 7e e1 33 3d 03 d9 cc 3f 34 67 00 c0 7b 5e bb 3e
       0.043916218 1.6003727 -2.006299 0.3659552
0000c0 93 27 10 c0 78 fb 83 3e e5 1c a0 3f 36 ab 95 3f
       -2.2524154 0.25777793 1.2508818 1.1692874
0000d0 ca 42 3a c0 c6 a4 ad 3f 15 e7 3c 3e 8b 6f 4b 3e
       -2.9103265 1.356591 0.18447526 0.19866769
0000e0 64 1e 8b bf 7c 39 8a 3f ce 5b e3 be da 75 29 40
       -1.086865 1.0798793 -0.4440598 2.647818
0000f0 b8 55 d0 bf 7b 65 2a 40 9b 59 08 c0 a9 a2 44 c0
       -1.6276159 2.6624439 -2.130469 -3.072428
000100 22 b4 7b 3f f4 ea 49 3f f8 e2 25 bd e8 3a 8d 3f
       0.98321736 0.78874135 -0.040499657 1.1033602
000110 61 e8 83 3f 32 8f a7 3f d1 0c 5d 3f 74 2d 41 3f
       1.0305291 1.3090575 0.8634768 0.7545998
000120 08 16 b4 3f d2 a1 4b 3f 65 c1 8f c0 5b b9 6b bd
       1.4069223 0.79543793 -4.4923577 -0.057549816
000130 b7 26 89 c0 ff a7 9b bf 61 af 77 bf 97 4b 38 3f
       -4.285976 -1.2160643 -0.9675198 0.7199034
000140 1d fd 54 3f b0 39 45 c0 ef b1 82 3f f8 52 7c 3f
       0.8319872 -3.081646 1.0210551 0.985641
000150 1e 7d 5f 3f b1 81 5c 3f 22 7b e8 bf 3e 01 43 3f
       0.8730029 0.86135393 -1.8162577 0.7617377
000160 ad 81 78 3f 84 5e 72 3f 4c c8 77 bf 8c b8 98 c0
       0.9707287 0.9467547 -0.96790004 -4.7725277
000170 b1 7a f1 bf be 1f df bf 4f 00 71 3f c5 79 83 3f
       -1.8865567 -1.7431562 0.94141096 1.0271536
000180 3e ae b7 3c 65 c0 00 3d 70 db 27 bc c5 7f d3 bd
       0.022421952 0.03143348 -0.010245189 -0.103271045
000190 49 ef aa 3d 65 fa 9c 3d aa 5a 36 be fc 4a c0 3d
       0.08346421 0.076649465 -0.17808023 0.09389302
0001a0 b7 39 0d bd 1b 9a 45 be 3a 2f c6 3d f9 24 07 be
       -0.03447887 -0.19297068 0.096769765 -0.13197698
0001b0 f1 92 02 3e 09 7b 43 be 27 7b d8 bc d4 41 c8 bc
       0.12751366 -0.19089903 -0.026425911 -0.024445452
0001c0 19 2f 1e bd a9 74 9e 3d 37 97 1b be b6 15 1d be
       -0.038619135 0.07737095 -0.15194403 -0.15340313
0001d0 7a e0 6c be 11 f8 b1 bd 5d 6e 0e be f2 fe 8c bd
       -0.23132506 -0.08689893 -0.13909288 -0.068845645
0001e0 3d 41 b1 bd 12 b4 99 bc 8b ed ba 3d 61 6b 1e bc
       -0.08655021 -0.018762622 0.09127339 -0.009669156
0001f0 12 93 04 be 2c 53 10 be 8d 4c 6a be 3e 9b c9 3d
       -0.12946728 -0.14094228 -0.22880764 0.09844063
000200 fc a9 6a 3f 75 26 89 3f 80 46 d6 3b 25 d5 66 3f
       0.91665626 1.0714861 0.006539166 0.9016898
000210 e9 ce 93 3f 8b 56 99 3f 48 bc 89 3f db a6 79 3f
       1.1547519 1.1979536 1.0760584 0.97520226
000220 0c 43 8a 3f 1e 5e 6d 3f f4 64 84 c0 b6 45 4a be
       1.0801711 0.92721736 -4.1373234 -0.19753155
000230 99 ef 96 c0 76 89 55 bf 4b 08 30 bf b7 dc 81 3f
       -4.7167478 -0.83412874 -0.68762654 1.0145482
000240 09 f3 86 3f 7d 9b 83 c0 b0 a8 55 3f b7 b9 98 3f
       1.0542918 -4.1127305 0.8346052 1.1931676
000250 80 c7 88 3f 46 ee 86 3f 00 df 48 c0 ad 2c 71 3f
       1.0685883 1.0541465 -3.1386108 0.94208795
000260 8b a2 5a 3f e0 de 55 3f ee fc b8 bf c9 26 8d c0
       0.8540427 0.83543205 -1.4452188 -4.4109845
000270 dd 4e e3 bf 8b 52 00 c0 f9 3b 97 3f a0 5f 49 3f
       -1.7758442 -2.005038 1.1815177 0.7866154
000280 03 3a a7 bd 3a 93 7c bd dc 81 09 bd 91 a3 e6 bd
       -0.08165362 -0.061663844 -0.03357111 -0.112616666
000290 9b c3 ce 3c 81 63 dd bd e8 8d 17 be d0 91 0e bc
       0.025239756 -0.108099945 -0.14800227 -0.008701757
0002a0 f9 2d 33 be e3 31 af bd b6 01 b9 3d f4 4d 87 3d
       -0.17498006 -0.08554437 0.090335295 0.06606665
0002b0 aa ab e4 3d 6a ed f6 bd 00 75 c9 3a 78 0a ca bd
       0.11165555 -0.12057002 0.0015369952 -0.09865278
0002c0 90 90 16 be 87 aa cb bd c7 84 92 bb 87 3b ea bc
       -0.14703584 -0.09944635 -0.0044713947 -0.028592838
0002d0 8a fe 0d be 81 18 2d be 10 5a 46 be bd c3 00 3e
       -0.1386663 -0.16903879 -0.19370294 0.12574668
0002e0 44 46 9b bd a4 6e 27 bd cd 20 85 bd 51 14 b5 bd
       -0.075817615 -0.040877 -0.06500397 -0.08841766
0002f0 5c 8b 25 be e4 28 1a be fc 8d 77 3d 44 b3 1e 3d
       -0.16166443 -0.15054661 0.06043814 0.03874518
000300 1c 0d ff bd 6c eb 06 be 7a 46 e7 3d 25 a8 7d 3d
       -0.12453672 -0.13175744 0.11292739 0.061927933
000310 d5 f0 d8 3d e0 db 62 bc 0d ba bc 3c 7a 22 9f bd
       0.1059281 -0.013846368 0.023037935 -0.07770248
000320 5f b9 2b be 02 12 75 be 02 84 dc 3d 18 7c d2 bc
       -0.16769932 -0.2393265 0.10767366 -0.025693938
000330 51 b8 a5 3c 78 d0 3a bd 16 05 58 be 45 21 17 be
       0.02022949 -0.045608968 -0.2109569 -0.14758785
000340 22 41 6c bc 9c 1c a5 bd 1e 96 72 be e1 3d bb ba
       -0.014419826 -0.080620974 -0.23690078 -0.0014285409
000350 1c 00 6b bd 93 59 f1 bd 35 de 15 3c 1c d0 e0 bc
       -0.05737315 -0.11784663 0.009147217 -0.027442984
000360 8f cb fe bd 25 14 d8 3d 23 79 53 3d c8 a3 81 bc
       -0.124411695 0.10550717 0.051629197 -0.015825167
000370 8d 6d a4 bd d9 a9 58 be b8 43 93 3d 6f bc a5 bd
       -0.08028708 -0.21158542 0.07190651 -0.080925815
000380 77 10 60 3f a1 cd 94 3f 12 94 80 3d 7d e7 8c 3f
       0.87525123 1.1625253 0.06278242 1.1008145
000390 ab 27 81 3f b7 35 88 3f 0c 61 93 3f 18 23 a1 3f
       1.0090231 1.0641392 1.1513991 1.2588835
0003a0 87 54 96 3f 84 13 4c 3f 12 25 64 c0 c6 0f c2 bd
       1.1744546 0.7971728 -3.5647626 -0.09475665
0003b0 ad 26 7f c0 46 a4 09 bf 6b 2c ad be c7 fa 9e 3f
       -3.9867356 -0.53766286 -0.3382295 1.2420281
0003c0 00 ef 87 3f b3 05 5f c0 d6 da 82 3f 86 e9 73 3f
       1.0619812 -3.4847229 1.0223033 0.95278203
0003d0 74 d5 85 3f 33 fe 47 3f 29 e5 27 c0 7b e9 4f 3f
       1.0455766 0.7812225 -2.6233618 0.8121564
0003e0 97 4a 96 3f f9 4a 74 3f b2 0d 88 bf f5 49 6e c0
       1.1741513 0.954269 -1.062918 -3.723264
0003f0 51 b0 b7 bf 55 e5 f6 bf a9 2a 90 3f 28 a3 57 3f
       -1.4350682 -1.9288737 1.1263019 0.8423333

mlp.2.bias f4 [32]
000000 48 cb 35 3f 85 35 8d 3f d4 a6 47 3f 0d 1e 0d 3c
       0.7101331 1.1031958 0.77988935 0.008613122
000010 52 c3 7a 3f 96 7c bb bc a8 b7 b2 3d ad bb 64 3f
       0.97954285 -0.022886556 0.08726436 0.8934887
000020 7c b9 2e 3f 0b 00 e1 be 80 ff 3f 3c 29 9f 46 3f
       0.68251777 -0.43945345 0.011718631 0.7758661
000030 98 91 89 3d f4 46 13 be 9c f8 4a 3f c7 2a 55 3f
       0.06717223 -0.14382535 0.792856 0.832684
000040 c6 68 88 3d b0 74 b1 3d 28 05 c3 3f 9d da 54 3b
       0.06660609 0.086648345 1.5235949 0.0032478936
000050 ec e4 d8 bc 29 1f 2a be b6 33 75 3f 1a ab 1e bd
       -0.026476346 -0.16613449 0.9578203 -0.038737394
000060 78 e6 b2 3f 8b f5 1f bf eb 71 5e 3f 64 03 7b bc
       1.3976583 -0.62484044 0.86892575 -0.015320633
000070 f5 fc 59 be 52 e7 17 bd 3d 1d 49 3f 30 2c 48 3f
       -0.21287902 -0.03708584 0.7856024 0.78192425

V.weight f4 [1, 32]
000000 f5 76 45 40 87 93 59 40 86 32 31 40 3c 90 9e bd
       3.0853856 3.3996294 2.7687087 -0.07742354
000010 b2 3b 4a 40 71 d9 8f bd 4f 3d eb 3c c7 8d 34 40
       3.1598935 -0.070238955 0.028715758 2.8211534
000020 82 39 2b 40 a3 ae 6d c0 60 8c 33 bd c7 cc 04 3e
       2.675385 -3.713784 -0.043835044 0.12968741
000030 e9 0a f2 bc 46 23 12 bd 8b 00 33 40 ee 43 30 40
       -0.029546218 -0.03567817 2.7969081 2.754146
000040 b3 1e 17 3e 5a c4 c9 bc 76 95 2b 40 20 00 cd bb
       0.14757805 -0.02462976 2.6809974 -0.0062561184
000050 9c ef 26 3d 40 f2 42 bd 72 e1 32 40 9b af ef bc
       0.040755853 -0.04759431 2.79501 -0.02925854
000060 12 34 19 40 0b d2 4f c0 41 9d 3c 40 e5 69 aa bd
       2.3938031 -3.247195 2.947098 -0.08320979
000070 59 a0 6f bc b9 3d a9 bd 56 a8 31 40 f2 be 44 40
       -0.014625632 -0.08263726 2.7758994 3.0741544

A.weight f4 [2, 32]
000000 25 39 6f be dd d2 62 be 41 a9 a3 3e 3e fe ac 3d
       -0.23361643 -0.2215075 0.31965068 0.0844693
000010 15 ca b9 be 3d 52 11 3d c1 db 40 3d bb 5a 98 be
       -0.3628699 0.03547882 0.047084574 -0.29756722
000020 a0 80 98 3d bc 65 d7 3f f0 70 45 3d 8d e1 02 c0
       0.07446408 1.6827922 0.04820341 -2.0450165
000030 1d c0 c7 bc 13 40 06 be eb 11 e5 bd dc 5a 21 3f
       -0.024383599 -0.1311038 -0.11185058 0.63029265
000040 d0 cd 64 bc c1 83 dc 3d 74 aa 0e 3f ac 92 28 bd
       -0.013965085 0.107673176 0.5572884 -0.041155502
000050 7d 99 c7 3b bc 35 39 bd ca 5a 83 3c 64 f4 1e 3e
       0.0060912953 -0.04521726 0.016034503 0.15522915
000060 0a bf aa 3e 9b 27 b4 be ad 62 16 be 75 12 39 be
       0.33348876 -0.35186467 -0.1468608 -0.18073447
000070 5f 35 c9 bd 47 01 e5 3d 42 9f ad 3d be 44 02 3e
       -0.09824633 0.11181884 0.08477642 0.12721536
000080 4d 33 0c 3e 6b e6 d1 3e 45 95 8e be 28 16 04 3e
       0.13691445 0.40996107 -0.2784826 0.12899077
000090 64 d4 80 3e c1 2c 2f 3e 24 2c d4 3d cd 39 82 3e
       0.2516204 0.17106916 0.10359982 0.25434723
0000a0 71 c4 6b bd 16 d1 b7 bf 70 93 da 3c ff 18 0e 40
       -0.057560388 -1.4360683 0.026681632 2.2202756
0000b0 fe a9 05 3c 9d fc 70 3d b9 d1 1b 3e 32 eb 1e bf
       0.008158205 0.05883466 0.15216722 -0.6207763
0000c0 98 77 90 3c d5 b8 57 3e 0a 59 00 bf fb ce ab bd
       0.017635152 0.21066602 -0.5013586 -0.08389088
0000d0 36 dc 9a bb 8c 8b 6e 3d e7 d9 42 3d 15 92 ad 3a
       -0.004725958 0.05823855 0.04757109 0.0013242388
0000e0 12 68 2a be 52 d3 33 3e a9 f8 08 3e 6a 2d 6c ba
       -0.16641262 0.17561081 0.13376106 -0.0009009453
0000f0 9d 9c 72 3d 40 06 4e bd 28 67 b0 be 29 f3 e5 bd
       0.05923139 -0.05029893 -0.34453702 -0.1122802

A.bias f4 [2]
000000 67 a1 0c 3e 2b 21 56 bd
       0.13733445 -0.052277725

exp_avg f4 [32, 4]
000000 95 11 ac ba b9 ca d9 bb 1c a6 5d ba 68 70 75 3a
       -0.0013127798 -0.006646481 -0.0008455233 0.0009362758
000010 47 fe 13 3b 9c 55 7b bb 25 73 57 ba f8 13 3f 39
       0.002258198 -0.0038350588 -0.0008218757 0.00018222618
000020 00 00 00 00 00 00 00 00 00 00 00 00 00 00 00 00
       0.0 0.0 0.0 0.0
000030 c2 f7 6a bb cd 32 09 bc 90 2a 75 ba 11 81 b2 3a
       -0.0035853242 -0.008373928 -0.00093523506 0.0013618787
000040 cd 46 fc 3a dc 59 91 bb d2 7e 59 ba 14 c0 9b 39
       0.0019247174 -0.004435761 -0.0008296791 0.00029707013
000050 ed 9b e8 3a 99 c6 27 bb 2e 4f 45 ba 90 79 77 39
       0.0017746665 -0.002560055 -0.00075267523 0.00023601041
000060 71 e9 63 3b ae 8e 4b bb 6b 57 4c ba 7c eb dc 38
       0.0034776593 -0.0031060386 -0.0007795009 0.0001053428
000070 ea 80 56 3b 0d 47 45 bb 0f a1 54 ba 17 1a 7c 37
       0.0032730647 -0.0030102164 -0.0008111158 1.5026445e-05
000080 87 17 d5 3a f0 10 1b bb ed d6 7a ba bf 32 b0 b9
       0.0016257622 -0.0023661219 -0.00095687696 -0.00033607145
000090 26 8b b6 bb 5e 0a 19 bc 5b 5c 64 ba d2 92 d2 3a
       -0.005570787 -0.009340851 -0.0008711272 0.0016065484
0000a0 25 11 6c bc ea 1c a8 ba 32 5c 9d ba 7b 4d 7a ba
       -0.014408384 -0.0012826 -0.0012005626 -0.00095482887
0000b0 04 00 00 80 04 00 00 80 04 00 00 00 04 00 00 80
       -6e-45 -6e-45 6e-45 -6e-45
0000c0 e1 34 aa 3c 51 7e 32 3c 1f 23 24 3b 1f 97 92 38
       0.020777168 0.010894374 0.0025045348 6.989971e-05
0000d0 cd da 8e b8 b5 5c 45 3b 4e e7 88 39 90 f4 3d ba
       -6.8118425e-05 0.0030115072 0.00026112277 -0.00072462205
0000e0 ad 43 fc bb 56 53 12 3a 4c 32 0a ba cd ad af bb
       -0.0076984973 0.0005581876 -0.0005271777 -0.005361295
0000f0 6d c2 98 3b 20 91 14 bb 84 20 4b ba f5 62 7c b8
       0.0046618492 -0.002266951 -0.00077486807 -6.0173643e-05
000100 e2 91 bb 3a 9a df 6c bb bb 2c 5d ba e7 b1 73 38
       0.0014310444 -0.003614402 -0.00084371463 5.81014e-05
000110 2c 5a 72 3c cc dc af 3b 7d fd 21 3b 80 78 9d 3b
       0.014792006 0.005366897 0.0024717741 0.0048056245
000120 2e 6e 82 ba c8 01 d5 bb 0c cc 66 ba 0e 4e 40 3a
       -0.0009951049 -0.0065004565 -0.0008804209 0.000733585
000130 7b 00 21 3a a5 d6 c6 bb 86 8d 77 ba 16 a2 2a 3a
       0.0006141734 -0.006068068 -0.0009443391 0.0006509138
000140 bb 7e f3 39 36 10 79 bb cc 39 57 ba 6f ff 89 39
       0.00046442993 -0.0038004047 -0.00082102115 0.0002632099
000150 f0 29 de ba 77 73 e7 bb 20 76 65 ba 7c 12 7b 3a
       -0.0016949754 -0.007063325 -0.0008753259 0.00095776445
000160 fe cd b0 3b b3 9b c8 3b 3d f4 00 3b 80 89 05 3b
       0.00539565 0.0061220764 0.0019676827 0.0020376146
000170 09 2b 5f bb b8 2c ec bb 64 b0 55 ba a7 7a 85 3a
       -0.003405275 -0.0072074793 -0.00081515894 0.0010183648
000180 92 dd 72 3a b2 ce 3d bb ef 6b 30 ba f8 40 3f 3a
       0.0009264584 -0.0028962311 -0.00067299505 0.0007295753
000190 c5 ce e8 3a 75 a9 8a bb c8 4d 51 ba ea f5 a1 39
       0.0017761817 -0.0042316266 -0.00079843076 0.00030891533
0001a0 ad 37 12 3b 3f 24 9d 3b b0 8c 81 3a d5 07 19 bb
       0.0022311017 0.0047955806 0.0009883847 -0.0023350616
0001b0 54 1a ae bc 9f 5c 43 3c 01 5d d6 39 4f 2d 0e bc
       -0.021252789 0.011923938 0.00040886554 -0.008677795
0001c0 8a f2 30 3c 51 e9 2b 3c 3a 93 d9 38 e2 5b d5 bb
       0.010800013 0.010492639 0.000103747894 -0.0065111974
0001d0 0e 77 8d bb 4d f9 08 bb 83 33 3c b9 26 58 a2 3a
       -0.004317171 -0.0020900548 -0.00017948267 0.001238589
0001e0 15 61 53 3a 50 5e 68 bb 78 1a 4e ba 04 85 b1 38
       0.00080634776 -0.0035456605 -0.00078622205 8.464794e-05
0001f0 f6 76 02 ba 49 8e 37 bb 19 4c 1e ba 57 ab 7b b9
       -0.0004976833 -0.0028008393 -0.0006038561 -0.00024001054

exp_avg_sq f4 [32, 4]
000000 73 cc 2b 3b 68 b7 db 3a a6 bb 4a 38 41 06 d1 3a
       0.002621439 0.0016763033 4.8335314e-05 0.0015947298
000010 75 f6 03 3b f3 ed c1 3a b0 20 44 38 a2 81 cc 3a
       0.0020135914 0.0014795646 4.6760484e-05 0.0015602598
000020 00 00 00 00 00 00 00 00 00 00 00 00 00 00 00 00
       0.0 0.0 0.0 0.0
000030 db 89 74 3b c6 c1 19 3b dc 6c 98 38 41 38 13 3b
       0.0037313614 0.0023461445 7.2682014e-05 0.002246395
000040 5d 20 ff 3a 0f 8e b7 3a 39 c3 23 38 df 19 b6 3a
       0.0019464601 0.0014004129 3.9044044e-05 0.0013893208
000050 95 8e 34 3b 8d f9 19 3b d2 52 ce 38 1c 2e 40 3b
       0.0027550806 0.002349469 9.838272e-05 0.0029324358
000060 08 8e e5 3a c9 21 a5 3a 88 ad 11 38 a9 b6 9f 3a
       0.0017513642 0.001259857 3.4732308e-05 0.0012185174
000070 3f b2 02 3b ca 36 bc 3a 3e 27 2d 38 aa 8f bc 3a
       0.0019942669 0.001435959 4.128296e-05 0.0014386077
000080 2a 40 3c 3b 50 6f 0e 3b 37 34 c2 38 bc 53 36 3b
       0.0028724768 0.0021733828 9.260367e-05 0.0027820906
000090 f3 a5 87 3b 2e 0b 19 3b 2c 96 8a 38 55 83 fa 3a
       0.0041396557 0.002335261 6.6083245e-05 0.0019112626
0000a0 5c 9a fd 3b 90 53 9c 3b 2e c7 c6 38 f9 c4 31 3b
       0.0077393483 0.0047707036 9.478476e-05 0.0027125461
0000b0 4c fe 81 2c 05 fa b7 28 5f 5e 3b 26 7f 08 a8 29
       3.694633e-12 2.042551e-14 6.5006555e-16 7.4621726e-14
0000c0 13 8c 5a 3c 3c 9d dc 3b 9f f9 40 39 9a d6 bd 3b
       0.01333906 0.006732611 0.00018403538 0.0057934048
0000d0 2a c1 e5 3a 49 5c 96 3a 7b e3 0f 38 bf 62 88 3a
       0.0017528881 0.0011471595 3.4305715e-05 0.0010405405
0000e0 26 43 fa 3a 96 1b b8 3a 76 7c 81 38 e5 82 d9 3a
       0.0019093498 0.0014046307 6.174382e-05 0.0016594796
0000f0 48 d8 f4 3a 27 ff ae 3a 22 56 18 38 cd 9c a3 3a
       0.001868018 0.0013351188 3.631984e-05 0.0012482643
000100 ae 47 11 3b 13 4d d1 3a 11 29 5e 38 03 2e e3 3a
       0.0022167969 0.0015968404 5.296717e-05 0.0017332438
000110 f0 8f fa 3b 6b b7 8a 3b 5a d1 d2 38 2d e6 6e 3b
       0.007646553 0.004233291 0.00010052575 0.0036453113
000120 cb 76 22 3b cd 96 d7 3a 78 79 49 38 8c 48 d4 3a
       0.0024790044 0.001644814 4.803526e-05 0.0016195937
000130 e4 a3 33 3b 76 b9 fc 3a 1c a4 70 38 de 71 01 3b
       0.002741092 0.0019281346 5.7373298e-05 0.0019751708
000140 a6 ab 18 3b cf cf d8 3a 95 26 7a 38 9d f5 f0 3a
       0.002329567 0.0016541424 5.9640577e-05 0.0018383745
000150 fa 08 3b 3b 8a e3 ec 3a 46 9e 5b 38 60 d5 df 3a
       0.0028539286 0.0018073183 5.2361072e-05 0.001707714
000160 41 a6 25 3b c1 7b d5 3a 05 d7 07 38 25 a0 bc 3a
       0.0025276097 0.0016287492 3.238676e-05 0.0014390989
000170 bb ee 3c 3b 0b 86 e7 3a 62 c2 74 38 52 1a e1 3a
       0.0028828818 0.0017663849 5.8355166e-05 0.0017173982
000180 95 28 09 3b be fe ec 3a 60 23 a3 38 fe 0b 12 3b
       0.002092873 0.001808129 7.779035e-05 0.002228498
000190 27 ff e0 3a 2c 09 9f 3a 0a 8d 0c 38 ea 14 9a 3a
       0.0017165885 0.0012133471 3.3509954e-05 0.00117555
0001a0 db 03 8c 3a 0b af 76 3a 37 ed 7d 38 ba 42 cf 3a
       0.0010682301 0.00094102387 6.0540824e-05 0.0015812733
0001b0 97 5e 64 3c 39 5b 33 3c 2c 30 cb 39 0d 68 30 3c
       0.013938568 0.010947042 0.00038755068 0.010766995
0001c0 3c 5d 5d 3b a2 6d 24 3b 22 3d 18 39 7e 2a 5b 3b
       0.0033777496 0.002508976 0.00014518623 0.0033442075
0001d0 82 b7 6d 3b 14 4f ec 3a 69 f5 40 38 32 4e 91 3a
       0.003627271 0.0018028938 4.6004923e-05 0.0011085926
0001e0 af a8 01 3b 05 9c b7 3a d7 98 47 38 94 b7 c7 3a
       0.001978438 0.001400829 4.758764e-05 0.0015237206
0001f0 60 6c ba 3a 76 94 5d 3a ea 82 fd 37 9a a4 9e 3a
       0.0014222972 0.00084526034 3.0220912e-05 0.0012103498

exp_avg f4 [32]
000000 24 13 b6 3c 06 7a ca 3c 00 00 00 00 02 89 bf 3c
       0.022225924 0.024716388 0.0 0.02338076
000010 00 30 ca 3c 51 4e fe 3c 7d e9 c8 3c 84 d9 ce 3c
       0.024681091 0.031043204 0.024525398 0.025250204
000020 2e 5e f7 3c af 54 9d 3c d8 ae c7 bc 04 00 00 00
       0.030196276 0.01920542 -0.024375364 6e-45
000030 d8 1a 87 bd 91 74 83 bc 66 d7 92 bc 5c cb d0 3c
       -0.06596917 -0.016046794 -0.017924976 0.025487594
000040 49 74 c9 3c af 9c 5c bd 88 ee bd 3c 8c 10 da 3c
       0.024591582 -0.053860363 0.02318503 0.026619218
000050 66 15 c0 3c ed 9f b6 3c 7c 0e 49 bd 0b 92 a3 3c
       0.023447704 0.022293055 -0.04908608 0.0199671
000060 cc cc de 3c 57 f3 bb 3c 7c fa 3e bc 53 75 42 39
       0.027197264 0.022943182 -0.0116564 0.00018544988
000070 ee 0c c3 3b bb 5f 5f bc ec 52 bc 3c f5 e1 b3 3c
       0.005952469 -0.013633664 0.022988759 0.02195833

exp_avg_sq f4 [32]
000000 0f b5 47 3c c0 9a 45 3c 00 00 00 00 ab df 78 3c
       0.012189164 0.012060821 0.0 0.015190045
000010 90 5f 45 3c 76 d3 86 3c db 3a 32 3c d8 7e 48 3c
       0.01204671 0.016458254 0.01087829 0.012237273
000020 bc 33 7d 3c 31 70 50 3c 7a a3 d4 3c e6 5d 88 2b
       0.015454229 0.012722061 0.025956858 9.689443e-13
000030 a6 7f 2f 3d 22 59 f2 3b 88 28 1a 3c 6b 70 39 3c
       0.042846344 0.0073958794 0.009409077 0.011318306
000040 e8 d8 50 3c 23 37 2a 3d 4e 5e 51 3c 5f f4 7f 3c
       0.012747027 0.04155649 0.012778832 0.015622227
000050 37 2f 47 3c 8f 6a 51 3c f6 4d 9d 3c f4 83 32 3c
       0.012157253 0.012781753 0.019202214 0.010895718
000060 18 63 54 3c 81 d6 2c 3c c5 5a 86 3b 8b 37 59 3d
       0.012963079 0.010549189 0.004100176 0.053031486
000070 85 86 97 3b fe f6 e0 3b 0d 42 33 3c 00 60 f6 3b
       0.0046241903 0.0068653813 0.010941041 0.0075187683

exp_avg f4 [32, 32]
000000 5d d8 71 3b c9 fe 7f 3b 00 00 00 00 9c 81 44 3b
       0.0036902644 0.0039061776 0.0 0.002998448
000010 19 de 73 3b 3f 41 44 3b 65 4b 79 3b e4 64 7d 3b
       0.0037211238 0.0029946116 0.0038039323 0.0038664872
000020 ad 1b 27 3b d8 db 47 3b 6f 81 91 3a 04 00 00 00
       0.0025498674 0.0030496027 0.0011101196 6e-45
000030 22 8f a0 3a 2e 80 72 3a 34 b9 95 3a eb ca 74 3b
       0.0012249688 0.00092506676 0.0011422993 0.0037352394
000040 fb 31 60 3b 7c 09 0a 3b 44 44 5e 3b f4 6b 55 3b
       0.0034209478 0.0021062782 0.0033915201 0.0032565566
000050 e3 c1 68 3b f0 5e 7c 3b 40 12 48 3b 9f 19 5f 3b
       0.0035515956 0.0038508736 0.0030528456 0.003404237
000060 67 24 24 3b fa 76 62 3b 4f a3 ee 39 e5 1b 34 3a
       0.0025046112 0.003455578 0.00045516572 0.00068706117
000070 88 35 9e 38 19 66 46 3a 9b cc 60 3b a3 ae a0 3a
       7.543998e-05 0.00075683143 0.0034301642 0.0012259077
000080 ff 35 35 ba 40 16 24 39 00 00 00 00 ed 67 2b ba
       -0.0006912648 0.00015648548 0.0 -0.00065386185
000090 70 bb 5f b9 66 48 05 39 33 f6 99 39 4d fa 98 39
       -0.00021336763 0.00012710839 0.00029365867 0.00029178188
0000a0 cf 12 23 39 bb 5f 95 ba 9d a7 8f bb 00 00 00 00
       0.00015551898 -0.0011396328 -0.0043839947 0.0
0000b0 0c 53 67 37 df bd 56 ba da e7 a2 b7 62 02 97 39
       1.3788009e-05 -0.0008191745 -1.941987e-05 0.0002880274
0000c0 7c fd d9 39 f2 17 92 38 ba 77 22 ba 8e 80 d6 b9
       0.00041578326 6.966283e-05 -0.000619765 -0.0004091304
0000d0 bb f2 0b 3a 2a a7 52 ba ba a3 a2 39 47 07 eb b9
       0.0005338599 -0.00080357736 0.00031021034 -0.00044828115
0000e0 0f aa 2c 38 4a 37 2e b9 37 90 17 38 c5 77 4f bb
       4.1166375e-05 -0.0001661453 3.6135516e-05 -0.0031657082
0000f0 93 80 60 3a d6 07 61 bb ff 9b 06 3a 2d 0f ad 39
       0.0008564081 -0.0034336946 0.00051349396 0.00033008438
000100 4e 10 59 3b c9 8a 59 3b 00 00 00 00 31 68 32 3b
       0.003312129 0.0033194295 0.0 0.0027222747
000110 e2 95 54 3b 8b 73 19 3b d2 88 52 3b 90 da 50 3b
       0.003243797 0.0023414816 0.0032125008 0.0031868555
000120 dd 14 03 3b b2 75 3b 3b ed b0 a3 3a 04 00 00 00
       0.002000145 0.0028604087 0.0012488641 6e-45
000130 29 71 8e 3a 0d be 5e 3a 83 2b 58 3a 8d 35 4c 3b
       0.0010867465 0.00084969477 0.000824623 0.0031159848
000140 96 00 3a 3b eb 3d d3 3a 44 4a 47 3b 30 f5 3b 3b
       0.0028381697 0.0016116475 0.0030409256 0.0028680079
000150 ab 70 42 3b 2b 01 63 3b 36 5f 12 3b ed cd 46 3b
       0.0029669206 0.0034638147 0.0022334582 0.0030335144
000160 e2 e8 fd 3a 4b 42 45 3b 07 ba be 39 2f b4 4e 3a
       0.0019371773 0.0030099328 0.00036378225 0.0007885126
000170 8c ab c2 38 30 01 7d 3a 56 d7 3c 3b 47 e4 86 3a
       9.282594e-05 0.0009651361 0.0028814874 0.0010291421
000180 04 00 00 00 04 00 00 00 00 00 00 00 04 00 00 00
       6e-45 6e-45 0.0 6e-45
000190 04 00 00 00 04 00 00 00 04 00 00 00 04 00 00 00
       6e-45 6e-45 6e-45 6e-45
0001a0 04 00 00 00 04 00 00 00 00 00 00 00 00 00 00 00
       6e-45 6e-45 0.0 0.0
0001b0 04 00 00 00 04 00 00 00 04 00 00 00 04 00 00 00
       6e-45 6e-45 6e-45 6e-45
0001c0 04 00 00 00 04 00 00 00 04 00 00 00 04 00 00 00
       6e-45 6e-45 6e-45 6e-45
0001d0 04 00 00 00 04 00 00 00 04 00 00 00 04 00 00 00
       6e-45 6e-45 6e-45 6e-45
0001e0 04 00 00 00 04 00 00 00 04 00 00 00 04 00 00 00
       6e-45 6e-45 6e-45 6e-45
0001f0 04 00 00 00 04 00 00 00 04 00 00 00 04 00 00 00
       6e-45 6e-45 6e-45 6e-45
000200 d6 e2 76 3b e2 21 83 3b 00 00 00 00 07 8a 47 3b
       0.0037671826 0.004001842 0.0 0.003044726
000210 ad 74 79 3b 15 68 4b 3b 1e 61 80 3b 8e bd 82 3b
       0.003806393 0.003103738 0.0039178273 0.003989882
000220 37 24 2d 3b 71 64 49 3b c2 ed 8c 3a 04 00 00 00
       0.002641929 0.0030730034 0.001075201 6e-45
000230 5f 66 9f 3a f5 41 7b 3a 6c 03 9f 3a 56 3a 7c 3b
       0.0012161246 0.00095847185 0.0012131757 0.003848692
000240 2e 5f 67 3b 36 44 0e 3b e7 2d 62 3b b7 fb 59 3b
       0.0035304534 0.0021708137 0.0034512223 0.0033261606
000250 b2 e0 6f 3b 9e ca 80 3b d4 ce 50 3b 15 7b 62 3b
       0.0036602435 0.003930404 0.003186156 0.0034558226
000260 24 57 2a 3b a1 99 68 3b bc c7 e6 39 26 cd 2e 3a
       0.0025991881 0.003549196 0.00044017832 0.0006668143
000270 b3 b8 94 38 a7 f8 32 3a a3 7b 66 3b c8 d9 a6 3a
       7.091593e-05 0.0006827213 0.0035168908 0.0012729699
000280 04 00 00 00 04 00 00 00 00 00 00 00 04 00 00 00
       6e-45 6e-45 0.0 6e-45
000290 04 00 00 00 04 00 00 00 04 00 00 00 04 00 00 00
       6e-45 6e-45 6e-45 6e-45
0002a0 04 00 00 00 04 00 00 00 00 00 00 00 00 00 00 00
       6e-45 6e-45 0.0 0.0
0002b0 04 00 00 00 00 00 00 00 00 00 00 00 04 00 00 00
       6e-45 0.0 0.0 6e-45
0002c0 04 00 00 00 00 00 00 00 04 00 00 00 04 00 00 00
       6e-45 0.0 6e-45 6e-45
0002d0 04 00 00 00 04 00 00 00 04 00 00 00 04 00 00 00
       6e-45 6e-45 6e-45 6e-45
0002e0 04 00 00 00 00 00 00 00 00 00 00 00 00 00 00 00
       6e-45 0.0 0.0 0.0
0002f0 00 00 00 00 04 00 00 00 04 00 00 00 00 00 00 00
       0.0 6e-45 6e-45 0.0
000300 04 00 00 00 04 00 00 00 00 00 00 00 04 00 00 00
       6e-45 6e-45 0.0 6e-45
000310 04 00 00 00 04 00 00 00 04 00 00 00 04 00 00 00
       6e-45 6e-45 6e-45 6e-45
000320 04 00 00 00 04 00 00 00 00 00 00 00 00 00 00 00
       6e-45 6e-45 0.0 0.0
000330 04 00 00 00 04 00 00 00 04 00 00 00 04 00 00 00
       6e-45 6e-45 6e-45 6e-45
000340 04 00 00 00 04 00 00 00 04 00 00 00 04 00 00 00
       6e-45 6e-45 6e-45 6e-45
000350 04 00 00 00 04 00 00 00 04 00 00 00 04 00 00 00
       6e-45 6e-45 6e-45 6e-45
000360 04 00 00 00 04 00 00 00 04 00 00 00 04 00 00 00
       6e-45 6e-45 6e-45 6e-45
000370 04 00 00 00 04 00 00 00 04 00 00 00 04 00 00 00
       6e-45 6e-45 6e-45 6e-45
000380 87 3e 44 3b cc 26 45 3b 00 00 00 00 1e 90 1f 3b
       0.0029944496 0.003008294 0.0 0.0024347375
000390 c7 26 40 3b 79 12 16 3b 2d 14 42 3b e4 3d 41 3b
       0.0029319988 0.0022899194 0.0029614076 0.0029486353
0003a0 81 6b 01 3b 7e e5 23 3b e0 ba 2c 3a 04 00 00 00
       0.0019747915 0.0025008614 0.0006589126 6e-45
0003b0 5c bf 2c 3a 09 7b 2b 3a d5 c5 47 3a 84 fb 3a 3b
       0.0006589794 0.0006541466 0.0007620727 0.0028531263
0003c0 e1 e2 2e 3b ef 71 b5 3a 09 04 32 3b 03 27 29 3b
       0.0026685523 0.0013843159 0.002716305 0.0025810606
0003d0 18 0c 37 3b 73 e0 4c 3b 5e 77 0d 3b ab a9 31 3b
       0.0027930792 0.0031261712 0.002158604 0.0027109187
0003e0 f0 8a f8 3a 2d d8 34 3b 4f 45 42 38 8e 71 b3 39
       0.0018962305 0.002759467 4.6317753e-05 0.00034226145
0003f0 7e 49 7d 38 90 64 d5 39 73 12 2e 3b 82 6f 89 3a
       6.0388345e-05 0.0004070145 0.002656129 0.0010485502

exp_avg_sq f4 [32, 32]
000000 fe dc 5d 39 47 79 8c 39 00 00 00 00 56 c5 0a 39
       0.00021158528 0.0002679324 0.0 0.00013234219
000010 9c 81 79 39 55 91 26 39 b5 ba 80 39 ac 6a 8d 39
       0.00023794774 0.00015885134 0.0002455317 0.00026973092
000020 41 ae e5 38 54 ee 0f 39 0a 60 41 38 1b 51 44 26
       0.00010952028 0.00013726327 4.610423e-05 6.811108e-16
000030 c0 7e a4 37 ce 84 d0 38 88 f1 9f 38 89 98 85 39
       1.9609346e-05 9.94295e-05 7.6266995e-05 0.00025481384
000040 5f 4f 3e 39 e5 ce 51 38 14 e1 3f 39 18 6b 31 39
       0.0001814938 5.002217e-05 0.00018299028 0.00016919931
000050 64 93 4e 39 bc 6d 78 39 2a 3f c3 38 b6 d0 3e 39
       0.00019700598 0.00023692002 9.31009e-05 0.00018197563
000060 21 fe d2 38 b6 61 49 39 be 7c 43 37 ed c0 83 38
       0.000100609155 0.00019205254 1.16519495e-05 6.282502e-05
000070 b1 b6 4c 37 cb e0 3b 38 a1 cb 49 39 3b f7 4f 37
       1.2201884e-05 4.479363e-05 0.00019244711 1.2395724e-05
000080 50 dd 0e 39 6d d5 ea 37 00 00 00 00 f2 b1 aa 38
       0.0001362462 2.7994358e-05 0.0 8.1393766e-05
000090 75 8b 89 38 3a b3 f4 35 2d db fa 37 7b 0e a1 37
       6.558645e-05 1.8231578e-06 2.9904384e-05 1.9199439e-05
0000a0 42 3f 88 35 54 88 24 39 02 ea e7 3a 00 00 00 00
       1.01512e-06 0.00015691045 0.0017693641 0.0
0000b0 f5 5d 55 2f 0d 30 2e 39 49 60 d7 35 76 c9 dd 37
       1.9405617e-10 0.00016611833 1.6046771e-06 2.6439066e-05
0000c0 ca 49 42 37 59 2a d1 30 f0 91 cb 38 71 82 8f 38
       1.1580481e-05 1.5218787e-09 9.706977e-05 6.843068e-05
0000d0 0c 44 4c 37 ef ad 2f 39 79 14 62 33 2d c4 4d 38
       1.2175191e-05 0.00016754096 5.2638345e-08 4.905851e-05
0000e0 b4 9c 89 35 44 9b 90 38 01 ee 5d 33 8a 4b 9e 3a
       1.0252902e-06 6.8953756e-05 5.1672036e-08 0.0012076956
0000f0 d9 33 f4 36 e6 cc 51 3a 05 8b 4c 37 e0 7e 22 35
       7.2778025e-06 0.00080032495 1.21917155e-05 6.053433e-07
000100 ad b6 2f 39 e3 e4 6a 39 00 00 00 00 86 7e e5 38
       0.00016757353 0.00022401246 0.0 0.00010943138
000110 5d 05 48 39 28 9e 1b 39 14 31 4f 39 e3 82 66 39
       0.00019075484 0.0001484087 0.00019759341 0.00021983268
000120 fd 84 d3 38 a7 f4 ee 38 6f 60 08 38 76 f0 6c 26
       0.00010086035 0.000113942944 3.2514738e-05 8.2204833e-16
000130 7f d0 e9 37 2d 3a 88 38 22 af 73 38 78 b6 56 39
       2.7872853e-05 6.4958214e-05 5.809882e-05 0.00020476605
000140 93 a8 20 39 e6 be 81 38 3a 57 1b 39 b0 f9 0d 39
       0.00015321588 6.186757e-05 0.00014814446 0.00013539824
000150 31 b6 30 39 af 31 43 39 94 6b e7 38 b2 e6 23 39
       0.0001685254 0.00018615158 0.00011034976 0.00015630832
000160 f7 f7 cb 38 98 df 1c 39 d1 d7 5d 37 19 7e 1e 38
       9.725981e-05 0.00014960614 1.3222875e-05 3.7787573e-05
000170 27 cd fa 36 58 25 22 38 ca 60 31 39 44 c0 28 37
       7.4744635e-06 3.865859e-05 0.00016916092 1.0058346e-05
000180 3f 86 1e 34 65 b0 6a 34 00 00 00 00 53 00 b5 32
       1.4763735e-07 2.185712e-07 0.0 2.107132e-08
000190 d7 9b 5b 34 47 e8 e2 33 28 f9 0c 34 da ce 4c 34
       2.0452659e-07 1.0566196e-07 1.3129159e-07 1.9074233e-07
0001a0 6b 87 dc 33 7b e8 60 32 00 00 00 00 00 00 00 00
       1.0269181e-07 1.3091376e-08 0.0 0.0
0001b0 64 76 b5 2a 24 3e ed 32 3c 13 23 31 65 96 7b 33
       3.223421e-13 2.761869e-08 2.3730555e-09 5.8577275e-08
0001c0 4c 89 38 33 91 c6 9d 2f ec 5f 43 33 56 b2 fd 32
       4.296571e-08 2.8699224e-10 4.5489216e-08 2.9534174e-08
0001d0 01 9e fa 33 fd f7 6a 34 57 18 bc 30 bc 05 33 34
       1.1670273e-07 2.1883166e-07 1.3685718e-09 1.667276e-07
0001e0 75 42 c0 2f 75 6d 0c 32 76 48 f7 2e 26 87 34 2f
       3.4971817e-10 8.17396e-09 1.1245131e-10 1.6418919e-10
0001f0 a8 90 15 32 8b d1 d1 30 eb 70 af 33 2b ee e3 2c
       8.7058325e-09 1.5266307e-09 8.169612e-08 6.47817e-12
000200 2a 83 63 39 c0 a6 8e 39 00 00 00 00 b4 26 0e 39
       0.0002169727 0.0002720859 0.0 0.00013556593
000210 43 45 7f 39 ea 9d 24 39 ec b9 84 39 c8 fb 90 39
       0.00024344497 0.00015699086 0.00025315525 0.00027653412
000220 98 02 e4 38 34 b3 12 39 ff 53 52 38 db df 07 26
       0.0001087237 0.00013990403 5.014613e-05 4.7140915e-16
000230 19 5e 98 37 d0 fb d6 38 13 db a3 38 01 6c 8a 39
       1.816363e-05 0.00010251219 7.8132514e-05 0.0002640188
000240 65 e5 42 39 95 a3 4c 38 ff 5b 45 39 6d ae 37 39
       0.00018586738 4.8789738e-05 0.00018821655 0.00017517219
000250 eb 3d 51 39 58 d2 7d 39 50 de bc 38 d0 6b 3f 39
       0.0001995486 0.0002420632 9.0059475e-05 0.00018255343
000260 b3 65 d6 38 d0 13 52 39 97 cb 48 37 16 38 89 38
       0.00010223258 0.00020034541 1.1968331e-05 6.543116e-05
000270 41 83 2f 37 e2 85 36 38 28 af 4b 39 f2 b4 58 37
       1.0461373e-05 4.351687e-05 0.0001942484 1.2916733e-05
000280 62 03 d2 2f ef 9d 8b 32 00 00 00 00 99 00 a0 2f
       3.820118e-10 1.625355e-08 0.0 2.9104255e-10
000290 08 33 07 32 69 30 5b 32 6e 56 74 30 8a d9 b1 30
       7.869637e-09 1.2758485e-08 8.8889507e-10 1.2940273e-09
0002a0 0e 73 31 32 96 18 24 32 00 00 00 00 00 00 00 00
       1.0328916e-08 9.551647e-09 0.0 0.0
0002b0 4c bb e9 2e 00 00 00 00 00 00 00 00 b9 1c e6 2e
       1.0628884e-10 0.0 0.0 1.0464291e-10
0002c0 eb e1 6d 2f 00 00 00 00 9c da d8 30 9e 0d b5 30
       2.1635287e-10 0.0 1.5778201e-09 1.3173354e-09
0002d0 7a fa 2c 31 e7 ff 9c 2f 12 d5 2e 32 24 c2 89 33
       2.5171674e-09 2.8558064e-10 1.017658e-08 6.4148736e-08
0002e0 c6 74 12 31 00 00 00 00 00 00 00 00 00 00 00 00
       2.1312174e-09 0.0 0.0 0.0
0002f0 00 00 00 00 57 1f 49 32 ea 29 29 33 00 00 00 00
       0.0 1.1706866e-08 3.93865e-08 0.0
000300 d6 24 84 31 77 c3 73 32 00 00 00 00 ee 76 27 30
       3.8458934e-09 1.4188905e-08 0.0 6.0923255e-10
000310 65 43 2f 32 e9 2b 0f 32 3e 69 94 31 1e ce cd 31
       1.0201664e-08 8.3336795e-09 4.3193316e-09 5.989718e-09
000320 f4 e2 e8 31 9a d2 66 31 00 00 00 00 00 00 00 00
       6.7778902e-09 3.3589118e-09 0.0 0.0
000330 b3 b2 02 2e a3 79 28 30 1a d0 2c 2e dc 6f ea 30
       2.9717295e-11 6.12909e-10 3.9293103e-11 1.7057533e-09
000340 60 6e 9e 30 57 86 18 2d f8 3c 17 31 82 4e ba 30
       1.1527383e-09 8.670029e-12 2.2008049e-09 1.3555594e-09
000350 e9 80 9e 31 a6 ad b8 31 62 be 41 31 4e 48 dd 32
       4.6130606e-09 5.3748463e-09 2.8193416e-09 2.5760666e-08
000360 10 fc 08 30 46 bd 48 2f f4 18 43 2c 86 8d 91 2c
       4.9834714e-10 1.8257137e-10 2.7725018e-12 4.13686e-12
000370 1d 78 4a 2f 00 52 5a 31 af d0 81 32 10 b8 eb 27
       1.8414466e-10 3.1769787e-09 1.5112475e-08 6.5425164e-15
000380 54 df 3e 39 dc 9b 75 39 00 00 00 00 ba bb ed 38
       0.00018203008 0.00023423083 0.0 0.000113360074
000390 7d ac 58 39 22 6d 15 39 de 7f 62 39 df 10 7a 39
       0.00020663622 0.00014250402 0.00021600674 0.00023848143
0003a0 80 f2 cc 38 bb 1d f4 38 8e 39 46 38 83 f0 f5 25
       9.772647e-05 0.000116403644 4.726048e-05 4.2663702e-16
0003b0 88 e3 b2 37 da 73 b6 38 3a 58 90 38 47 b7 6c 39
       2.1325206e-05 8.700015e-05 6.8828886e-05 0.0002257499
0003c0 e4 a5 27 39 8e 54 5a 38 d8 88 25 39 b7 7a 1a 39
       0.0001598816 5.2053998e-05 0.00015786604 0.000147323
0003d0 a1 a8 34 39 0e 57 55 39 d6 ef c5 38 6e b9 23 39
       0.00017228957 0.00020345693 9.438365e-05 0.0001561397
0003e0 7f 90 c1 38 e7 88 30 39 64 29 5d 37 3a df 7d 38
       9.229872e-05 0.00016835668 1.31822635e-05 6.0527796e-05
0003f0 bd 44 24 37 c1 87 2a 38 38 76 30 39 7c 5d 38 37
       9.791166e-06 4.065759e-05 0.00016828708 1.0989021e-05

exp_avg f4 [32]
000000 dd 61 0a 3b ac a9 9b b9 ac d6 f3 3a 04 00 00 00
       0.002111546 -0.0002969032 0.0018603406 6e-45
000010 b1 53 0d 3b 04 00 00 00 04 00 00 00 40 97 da 3a
       0.0021564777 6e-45 6e-45 0.0016677156
000020 52 ac e0 3a 76 70 04 3b 00 00 00 00 b3 14 30 ba
       0.0017141199 0.0020208634 0.0 -0.00067169516
000030 04 00 00 00 04 00 00 00 aa f2 c0 3a a0 3b d0 3a
       6e-45 6e-45 0.0014720757 0.001588691
000040 00 00 00 00 04 00 00 00 14 38 c3 3a 04 00 00 00
       0.0 6e-45 0.0014894032 6e-45
000050 04 00 00 00 00 00 00 00 d9 95 cf 3a 04 00 00 00
       6e-45 0.0 0.0015837505 6e-45
000060 f9 07 ca 3a cb 5f 9b 39 7e d5 fa 3a 04 00 00 00
       0.0015413753 0.00029635275 0.0019137112 6e-45
000070 f6 27 17 0f 04 00 00 00 9e ac dc 3a ac 6c 08 3b
       7.452571e-30 6e-45 0.0016836112 0.0020816727

exp_avg_sq f4 [32]
000000 78 66 ef 38 e7 cb 17 38 52 b8 ba 38 7b 47 84 35
       0.000114154944 3.6191104e-05 8.9035035e-05 9.85557e-07
000010 17 cb d7 38 0b 0a e2 33 e9 d4 9d 33 10 63 c6 38
       0.00010289827 1.0525772e-07 7.34961e-08 9.4598276e-05
000020 79 ac a8 38 0b 8d 15 39 00 00 00 00 3c 08 b9 38
       8.04299e-05 0.0001426229 0.0 8.823021e-05
000030 fa cd 88 32 eb d1 1c 35 55 dc ce 38 f3 1b ec 38
       1.5926151e-08 5.842e-07 9.8638855e-05 0.00011258563
000040 00 00 00 00 f5 76 44 35 b3 5b f2 38 03 20 38 33
       0.0 7.3188795e-07 0.000115565395 4.2869953e-08
000050 1f 21 c6 33 00 00 00 00 fb ed ac 38 06 14 22 34
       9.226118e-08 0.0 8.2459264e-05 1.509471e-07
000060 91 98 9e 38 cc c1 a9 38 d8 1a c7 38 5f 8b c2 35
       7.562445e-05 8.0946455e-05 9.4940595e-05 1.4494689e-06
000070 1a ed 81 30 db df 3a 34 e8 a9 c6 38 e8 77 dd 38
       9.453374e-10 1.7404038e-07 9.473023e-05 0.000105604355

exp_avg f4 [1, 32]
000000 67 1f 13 3c 4b 16 f8 bb dc 53 2b 3c 04 00 00 80
       0.008979655 -0.007571017 0.010457005 -6e-45
000010 51 04 2d 3c 04 00 00 80 04 00 00 80 8b 71 4c 3c
       0.010560111 -6e-45 -6e-45 0.012478243
000020 d0 09 39 3c 5c de cb 3a 00 00 00 00 39 f5 f3 3b
       0.011293843 0.0015553939 0.0 0.0074450043
000030 04 00 00 80 04 00 00 80 b6 c7 6f 3c e1 dd 3b 3c
       -6e-45 -6e-45 0.014635017 0.011466474
000040 00 00 00 00 04 00 00 80 c7 90 a9 3c 04 00 00 80
       0.0 -6e-45 0.020698918 -6e-45
000050 04 00 00 00 00 00 00 00 0a f6 79 3c 04 00 00 80
       6e-45 0.0 0.015256414 -6e-45
000060 4e 50 d4 3c 98 0f 62 3a 0a 9c 2f 3c 04 00 00 80
       0.025917199 0.00086235395 0.010718355 -6e-45
000070 21 9e 00 8e 04 00 00 80 d4 a0 39 3c 77 d1 1b 3c
       -1.5853354e-30 -6e-45 0.011329848 0.0095103895

exp_avg_sq f4 [1, 32]
000000 ed ea a7 3b 22 45 33 3c ae 45 bb 3b 82 63 a3 35
       0.005124441 0.0109417755 0.0057150936 1.2173407e-06
000010 a2 78 bb 3b 01 f0 b6 32 b1 9e ad 35 45 da bd 3b
       0.0057211677 2.129673e-08 1.293569e-06 0.005793842
000020 f7 f2 bd 3b 94 4c 16 3b 00 00 00 00 3d df d3 3b
       0.005796786 0.0022933828 0.0 0.006465821
000030 4c f9 0e 31 6d 92 c0 35 e6 e7 d5 3b fa 89 c8 3b
       2.0805428e-09 1.434773e-06 0.0065278886 0.0061199637
000040 00 00 00 00 02 96 27 36 43 11 73 3c 0c d7 17 34
       0.0 2.4972255e-06 0.0148356585 1.4141204e-07
000050 ab fd 91 36 00 00 00 00 28 f2 e5 3b cd 9e 2f 34
       4.3508676e-06 0.0 0.0070173927 1.6355916e-07
000060 be fb 90 3c 71 44 3c 3b fa a6 bc 3b e1 4f 87 35
       0.017698165 0.0028727318 0.00575721 1.0081532e-06
000070 fe af 51 31 32 8e 44 33 f1 e0 bb 3b 97 77 a1 3b
       3.0513543e-09 4.5764132e-08 0.005733602 0.0049275863

exp_avg f4 [2, 32]
000000 1a 54 34 bb 82 0c ef 3c 62 55 47 bb 04 00 00 00
       -0.0027515949 0.029180769 -0.0030415882 6e-45
000010 1d 20 46 bb 04 00 00 00 04 00 00 00 43 c6 59 bb
       -0.0030231543 6e-45 6e-45 -0.0033229745
000020 98 e3 4b bb 5b 04 44 39 00 00 00 00 80 c8 96 b9
       -0.0031110998 0.00018693639 0.0 -0.00028759614
000030 04 00 00 00 04 00 00 00 c6 0e 3c bb 87 17 00 bb
       6e-45 6e-45 -0.002869533 -0.0019545273
000040 00 00 00 00 04 00 00 00 0b 5a 30 3c 04 00 00 80
       0.0 6e-45 0.010763655 -6e-45
000050 04 00 00 00 00 00 00 00 16 7e 80 bb 04 00 00 80
       6e-45 0.0 -0.0039212806 -6e-45
000060 26 f6 2a 3b 63 47 35 3a e6 47 48 bb 04 00 00 00
       0.0026086657 0.00069152395 -0.0030560433 6e-45
000070 21 9e 80 8d 04 00 00 00 3c e4 48 bb 50 bd 3e bb
       -7.926677e-31 6e-45 -0.0030653616 -0.0029104538
000080 1a 54 34 3b 82 0c ef bc 62 55 47 3b 04 00 00 80
       0.0027515949 -0.029180769 0.0030415882 -6e-45
000090 1d 20 46 3b 04 00 00 80 04 00 00 80 43 c6 59 3b
       0.0030231543 -6e-45 -6e-45 0.0033229745
0000a0 98 e3 4b 3b 5b 04 44 b9 00 00 00 00 80 c8 96 39
       0.0031110998 -0.00018693639 0.0 0.00028759614
0000b0 04 00 00 80 04 00 00 80 c6 0e 3c 3b 87 17 00 3b
       -6e-45 -6e-45 0.002869533 0.0019545273
0000c0 00 00 00 00 04 00 00 80 0b 5a 30 bc 04 00 00 00
       0.0 -6e-45 -0.010763655 6e-45
0000d0 04 00 00 80 00 00 00 00 16 7e 80 3b 04 00 00 00
       -6e-45 0.0 0.0039212806 6e-45
0000e0 26 f6 2a bb 63 47 35 ba e6 47 48 3b 04 00 00 80
       -0.0026086657 -0.00069152395 0.0030560433 -6e-45
0000f0 21 9e 80 0d 04 00 00 80 3c e4 48 3b 50 bd 3e 3b
       7.926677e-31 -6e-45 0.0030653616 0.0029104538

exp_avg_sq f4 [2, 32]
000000 87 bd 83 3a f0 7b 08 3b fa 05 8e 3a 1e 49 6d 30
       0.001005099 0.0020825826 0.0010835521 8.6324004e-10
000010 48 19 96 3a 0a fa dc 2f f2 3d 0d 32 c7 93 99 3a
       0.0011451626 4.019543e-10 8.221365e-09 0.0011717015
000020 80 29 93 3a cb 87 1f 3a 00 00 00 00 86 65 c8 3a
       0.0011227578 0.00060856034 0.0 0.0015289045
000030 87 81 22 2d 0c 66 5c 31 46 67 ab 3a 20 e1 91 3a
       9.237395e-12 3.207222e-09 0.0013077043 0.0011129715
000040 00 00 00 00 90 3d 6d 31 c1 f0 3c 3b 0f 61 1d 2f
       0.0 3.4523033e-09 0.0028830024 1.4313549e-10
000050 7f b5 fd 31 00 00 00 00 7c b7 b7 3a 8d 35 22 2e
       7.383903e-09 0.0 0.0014016475 3.6882098e-11
000060 1d 37 61 3b 06 82 49 3a 4d f5 93 3a d9 98 9e 31
       0.0034365125 0.00076869165 0.0011288315 4.615782e-09
000070 dc 7c c3 2d ff 8f a5 2d 95 26 8f 3a 4d f6 79 3a
       2.2224382e-11 1.8822275e-11 0.0010921533 0.0009535298
000080 87 bd 83 3a f0 7b 08 3b fa 05 8e 3a 1e 49 6d 30
       0.001005099 0.0020825826 0.0010835521 8.6324004e-10
000090 48 19 96 3a 0a fa dc 2f f2 3d 0d 32 c7 93 99 3a
       0.0011451626 4.019543e-10 8.221365e-09 0.0011717015
0000a0 80 29 93 3a cb 87 1f 3a 00 00 00 00 86 65 c8 3a
       0.0011227578 0.00060856034 0.0 0.0015289045
0000b0 87 81 22 2d 0c 66 5c 31 46 67 ab 3a 20 e1 91 3a
       9.237395e-12 3.207222e-09 0.0013077043 0.0011129715
0000c0 00 00 00 00 90 3d 6d 31 c1 f0 3c 3b 0f 61 1d 2f
       0.0 3.4523033e-09 0.0028830024 1.4313549e-10
0000d0 7f b5 fd 31 00 00 00 00 7c b7 b7 3a 8d 35 22 2e
       7.383903e-09 0.0 0.0014016475 3.6882098e-11
0000e0 1d 37 61 3b 06 82 49 3a 4d f5 93 3a d9 98 9e 31
       0.0034365125 0.00076869165 0.0011288315 4.615782e-09
0000f0 dc 7c c3 2d ff 8f a5 2d 95 26 8f 3a 4d f6 79 3a
       2.2224382e-11 1.8822275e-11 0.0010921533 0.0009535298

exp_avg f4 [2]
000000 43 d2 f0 39 43 d2 f0 b9
       0.00045933024 -0.00045933024

exp_avg_sq f4 [2]
000000 10 c1 5e 37 10 c1 5e 37
       1.3277182e-05 1.3277182e-05
