_models/CartPole-v1_DDQN.pt (torch, 22986 bytes, 18 tensors)

mlp.0.weight f4 [32, 4]
0	0x3e8d2045	0.27563682
1	0xbd88cd7c	-0.06679818
2	0x3f34f695	0.70688754
3	0x3ed80d12	0.42197472
4	0xbf2ae023	-0.66748255
5	0x3eaf7996	0.3427245
6	0x3f180f4f	0.5939836
7	0x3ea8db54	0.32979834
8	0x3d8e5a78	0.06950849
9	0xbd7ac400	-0.061222076
10	0x3e0e0240	0.13868046
11	0x3cca1020	0.024665892
12	0xbcc0c6eb	-0.023532351
13	0xbe4eaffb	-0.20184319
14	0x3f14ca59	0.5812126
15	0x3d9af9d9	0.07567186
16	0x3c802b31	0.015645595
17	0x3e2de4da	0.16981831
18	0x3f984689	1.1896526
19	0x3e741b1b	0.23838465
20	0xbed0f351	-0.40810636
21	0xbed11462	-0.40835863
22	0x3f176160	0.5913296
23	0x3d05cb46	0.03266456
24	0xbe40319c	-0.18768924
25	0x3e46f159	0.19428004
26	0x3f95ed55	1.1713053
27	0x3ebbc035	0.3667008
28	0xbf3a2e05	-0.7272647
29	0x3e9a7813	0.30169734
30	0x3f55d325	0.83525306
31	0x3f17eb39	0.59343296
32	0x3e64eff1	0.22357155
33	0xbed7d9ef	-0.42158458
34	0x3e6dccdd	0.2322268
35	0xbdc5239c	-0.096259326
36	0x3e74d3bc	0.23908895
37	0xbdf37f28	-0.118894875
38	0x3f69426e	0.9111699
39	0xbdc1b118	-0.09457606
40	0x3fffcff7	1.9985341
41	0x400f4625	2.2386563
42	0x40a6a5a5	5.2077203
43	0x40052471	2.0803492
44	0xbe3de140	-0.18542957
45	0x3dcdc243	0.10046818
46	0xbc74abf9	-0.01493358
47	0x3ebfd6b8	0.37468505
48	0xbe96a59c	-0.29423225
49	0xbff87dbb	-1.941337
50	0xc0d97cc4	-6.79648
51	0xbfe2fc44	-1.7733235
52	0xbeedbcfa	-0.4643324
53	0x3fc28cce	1.519922
54	0x40e712b1	7.2210317
55	0x4005e211	2.091923
56	0xc022914a	-2.5401177
57	0xbf830155	-1.0234782
58	0x3fd410b5	1.6567599
59	0xbf57c1c5	-0.84280044
60	0xbed9e2ef	-0.4255595
61	0x3f1d57a2	0.6146184
62	0x3fa03505	1.251618
63	0x3ec54579	0.38529566
64	0xbf0a0288	-0.5391011
65	0xbe4b9cc2	-0.19884017
66	0x3f2eedaa	0.68331397
67	0x3e8c7fd4	0.27441275
68	0xbea4f8c5	-0.32221046
69	0xbffe187c	-1.9851222
70	0xc0cc5e5e	-6.3865194
71	0xbff6c2fd	-1.9278256
72	0x3e283fde	0.16430613
73	0xbe1e345d	-0.15449663
74	0x3f000cb5	0.5001939
75	0xbef5258d	-0.4788021
76	0xbddc750f	-0.10764515
77	0x3ebc117f	0.36732098
78	0x3ecac9a5	0.39606968
79	0x3e9a248a	0.30106002
80	0xbee4d718	-0.44695354
81	0xbec9018d	-0.39258996
82	0x3f3dd677	0.7415537
83	0x3dc117e5	0.09428386
84	0x3ea55631	0.3229232
85	0xbdd2aff5	-0.102874674
86	0x3ea152ca	0.31508476
87	0x3f00071c	0.5001085
88	0x3e94dabf	0.2907314
89	0xbf2cc889	-0.6749349
90	0xc09f1908	-4.9718056
91	0xbf8b6b34	-1.0892091
92	0xbdf5885c	-0.11988899
93	0x3d43e4aa	0.047825493
94	0x3f0f3caa	0.5595194
95	0x3c6d5d38	0.014487557
96	0x3f52c7d5	0.8233617
97	0xbf0f6d9c	-0.56026626
98	0xc0904a22	-4.5090494
99	0xbf1b186c	-0.6058414
100	0x3f43cc3f	0.7648353
101	0x3f2dc1d9	0.67873913
102	0x3f8100b7	1.0078343
103	0x3ed8a8ba	0.42316228
104	0xc02b3ee2	-2.675713
105	0xbf0262ee	-0.50932205
106	0x400b2167	2.1739137
107	0x3ecdde60	0.4020872
108	0xbf05c731	-0.52257067
109	0x3fe71ebb	1.8056253
110	0x40bfdd80	5.9957886
111	0x4005810b	2.0860012
112	0xbedbeaa1	-0.42952445
113	0x3f723993	0.946191
114	0x409523b4	4.6606083
115	0x3fc5adbb	1.5443643
116	0x406a60d4	3.66216
117	0x3fb18f23	1.3871807
118	0xbe53646f	-0.20643781
119	0x3f4b30f9	0.793716
120	0xbf35012e	-0.70704925
121	0xbdcfb9ec	-0.10142884
122	0x3f940e16	1.1566799
123	0xbe6f8da2	-0.23393872
124	0x3efcdbbf	0.49386403
125	0xbf23384e	-0.6375779
126	0xbe99513f	-0.29944798
127	0x3e4a2397	0.19740139

mlp.0.bias f4 [32]
0	0x400425ec	2.0648146
1	0x4008f550	2.1399727
2	0xbe9efc66	-0.3105194
3	0x3fe715fd	1.8053585
4	0x40065f00	2.0995483
5	0x4002b722	2.0424275
6	0x4002e615	2.045293
7	0x4006f07e	2.1084285
8	0x3ff79240	1.9341507
9	0x3fe13a47	1.759591
10	0xbe3887a0	-0.18020487
11	0xbf1291d5	-0.5725377
12	0xbfd9cf2c	-1.7016349
13	0x3fd12a8c	1.6341109
14	0xbf84d1a5	-1.0376478
15	0x3ff0df2c	1.8818107
16	0x3ff181c5	1.8867728
17	0xbfc66911	-1.5500814
18	0x3fb200be	1.3906476
19	0x3fdcdd81	1.7255098
20	0x3ff9f899	1.9528991
21	0x4003513f	2.0518339
22	0x3f2b8569	0.6700044
23	0x4002f82c	2.0463972
24	0x3f29867f	0.6622085
25	0x3f98f136	1.1948612
26	0xbe19b765	-0.15011366
27	0x3fb0d979	1.3816367
28	0x3f949dcb	1.1610655
29	0xbe9feaf8	-0.31233954
30	0x40030b41	2.047562
31	0x3fa08080	1.2539215

mlp.2.weight f4 [32, 32]
0	0x3f8c746c	1.0973029
1	0x3fd2f47a	1.6480858
2	0x3d67d3d8	0.056598514
3	0x3fcdb881	1.6071931
4	0x3fa90aed	1.3206459
5	0x3fca190c	1.5788894
6	0x3fa8174b	1.3132108
7	0x3fba76dc	1.4567523
8	0x3fa682f5	1.3008715
9	0x3faccd87	1.3500222
10	0xc04c4244	-3.1915445
11	0xbe58eada	-0.21183339
12	0xc0786ad3	-3.88152
13	0xc04a6666	-3.1625
14	0x3e27d845	0.16391094
15	0x3fc801a7	1.5625504
16	0x3fd09ec8	1.6298456
17	0xc045cf4c	-3.0907774
18	0x3f79c1bc	0.9756124
19	0x3fc58836	1.5432193
20	0x3fbf7660	1.4958
21	0x3f96e6c6	1.1789176
22	0xbd1b07b2	-0.037849136
23	0x3fbba95b	1.4661058
24	0xbf11540d	-0.56768876
25	0xbe56b205	-0.20966347
26	0xbd0b58c0	-0.034020185
27	0xc05e1e5b	-3.4706028
28	0xc02fe208	-2.7481709
29	0xbff5c336	-1.9200199
30	0x3fda1dd7	1.7040356
31	0x3f4421b9	0.76613957
32	0xbe1a36c8	-0.1505996
33	0xbd818774	-0.06324664
34	0x3e030a1f	0.1279683
35	0xbe49f0a2	-0.197207
36	0x3c389c56	0.011267742
37	0x3d1eaac7	0.038737085
38	0x3dd81c8b	0.10552319
39	0xbe43dbc2	-0.191268
40	0xbd045188	-0.032304317
41	0xbe5d7865	-0.21627958
42	0xbcb9dd46	-0.02268852
43	0xbd8c6fe5	-0.0685728
44	0x3d03118b	0.031999152
45	0xbd5db9c5	-0.05413224
46	0xbd7f5661	-0.062338237
47	0xbd8ff77a	-0.07029624
48	0xbd1d00a0	-0.038330674
49	0x3d16405c	0.03668247
50	0xbd325cb5	-0.043545444
51	0xbc87084a	-0.016483445
52	0xbe69e6ff	-0.22842024
53	0x3d809003	0.06277468
54	0x3d575203	0.052568447
55	0x3d8536b2	0.06504573
56	0x3d2e0092	0.042481013
57	0xbe444579	-0.19167127
58	0xbdd6f3a4	-0.104956895
59	0x3db4cd2f	0.08828198
60	0xbe40928e	-0.18805906
61	0x3d6de97d	0.058084
62	0xbe62e830	-0.22158885
63	0xbe42dc72	-0.19029406
64	0x3fa6461a	1.2990143
65	0x3fa6984e	1.301523
66	0xbd25e2f8	-0.040499657
67	0x3fc842a8	1.5645342
68	0x3fc0c555	1.5060221
69	0x3fc5f923	1.5466655
70	0x3fa6f9aa	1.3044941
71	0x3f9d6f84	1.2299657
72	0x3fc1d1a5	1.5142103
73	0x3fb4e3d0	1.4132023
74	0xc0a6f03b	-5.216825
75	0xbdd61a77	-0.104542665
76	0xc0982b32	-4.755273
77	0xbf9e8c39	-1.2386543
78	0xbebfa08f	-0.37427184
79	0x3fa1c390	1.2637806
80	0x3fa30259	1.2735091
81	0xc08de52c	-4.434225
82	0x3f9e3661	1.2360345
83	0x3fb4a816	1.4113796
84	0x3fa69d20	1.3016701
85	0x3f948769	1.1603824
86	0xbf289e51	-0.6586657
87	0x3fa4779f	1.2849005
88	0xbfc5ad3e	-1.5443494
89	0x3f12583c	0.57165885
90	0xbf411404	-0.75421166
91	0xc02d94f6	-2.7122169
92	0xbf75e221	-0.9604817
93	0xbff3ee61	-1.9057122
94	0x3fc646c4	1.5490346
95	0x3fb27519	1.3941985
96	0x3fc17e56	1.511668
97	0x3fa69c16	1.3016384
98	0xbc27db70	-0.010245189
99	0x3f8924fd	1.0714413
100	0x3fb1fe09	1.390565
101	0x3fa92cd3	1.3216804
102	0x3fa04221	1.2520181
103	0x3fb66aa2	1.4251292
104	0x3f961a4d	1.1726776
105	0x3ed8d8b2	0.42352825
106	0xc0a2e338	-5.0902367
107	0xbedbcea3	-0.4293109
108	0x3e9b4053	0.30322513
109	0xc0829823	-4.0810714
110	0xc08671d8	-4.201397
111	0x3f841fa0	1.0322151
112	0x3fa042fd	1.2520443
113	0x3e80cd57	0.25156662
114	0xc007ab5b	-2.1198337
115	0x3eb5819c	0.35450447
116	0x3f82af43	1.0209736
117	0x3fb2fc6a	1.3983281
118	0xbeec4df9	-0.46153238
119	0x3f929d14	1.1454186
120	0xbdc5d0e9	-0.09658987
121	0xc05f9062	-3.4931874
122	0x401ed439	2.481703
123	0xc0966c10	-4.700691
124	0xbf1f55fa	-0.62240565
125	0xc0162a47	-2.3463304
126	0x3f6cefa8	0.92553186
127	0x3fc6a13a	1.5517952
128	0x3f991976	1.1960895
129	0x3fb8d680	1.444046
130	0x3bd64680	0.006539166
131	0x3fa26647	1.2687463
132	0x3fbbc5fd	1.4669796
133	0x3fb7f8e8	1.4372835
134	0x3fae915d	1.3638111
135	0x3fa1fbab	1.2654928
136	0x3f9cb1d1	1.2241765
137	0x3fb35650	1.4010715
138	0xc0ae50e6	-5.4473753
139	0xbe7218c2	-0.23642257
140	0xc097b603	-4.740968
141	0xbfad986d	-1.3562142
142	0xbf0d465a	-0.5518547
143	0x3faeaf74	1.3647294
144	0x3fae5f85	1.36229
145	0xc09566fa	-4.6688204
146	0x3f864afc	1.0491633
147	0x3fc7f1fa	1.562072
148	0x3fb28495	1.3946711
149	0x3faa0893	1.3283867
150	0xbf3b4f9b	-0.73168343
151	0x3faa54bc	1.3307109
152	0xbfe03ba9	-1.7518207
153	0x3ed6be13	0.4194189
154	0xbf7cb46d	-0.9871281
155	0xc031b1bf	-2.7764738
156	0xbf78af88	-0.9714284
157	0xc007eaf4	-2.1237154
158	0x3fc8c64a	1.5685513
159	0x3fc286bb	1.5197366
160	0xbda62c86	-0.08113961
161	0xbd7fe5a4	-0.06247486
162	0xbd0981dc	-0.03357111
163	0xbde941c3	-0.11389496
164	0x3cc8fb6a	0.024533946
165	0xbdde43e1	-0.108527906
166	0xbe178660	-0.14797354
167	0xbc12b468	-0.008954145
168	0xbe33a599	-0.17543639
169	0xbdb19662	-0.08671261
170	0x3db901b6	0.090335295
171	0x3d874df4	0.06606665
172	0x3de7c78a	0.11317356
173	0xbdf6ed6a	-0.12057002
174	0x3ac97500	0.0015369952
175	0xbdccf6f7	-0.10008042
176	0xbe16354a	-0.14668766
177	0xbdcbaa87	-0.09944635
178	0xbb95e79a	-0.004574728
179	0xbcedb294	-0.029015817
180	0xbe0d8887	-0.13821612
181	0xbe2c7b20	-0.16843843
182	0xbe485bb6	-0.19566235
183	0x3dff30c6	0.12460475
184	0xbd9b6bab	-0.075888954
185	0xbd276ea4	-0.040877
186	0xbd8520cd	-0.06500397
187	0xbdb51451	-0.08841766
188	0xbe258b5c	-0.16166443
189	0xbe1b8cdf	-0.15190457
190	0x3d71e930	0.059060276
191	0x3c0f74e4	0.008755896
192	0x3fa96ae2	1.3235743
193	0x3facfd20	1.3514748
194	0x3de7467a	0.11292739
195	0x3fced26e	1.6157968
196	0x3fd11f92	1.633776
197	0x3fbbc259	1.4668685
198	0x3fbf16b3	1.4928802
199	0x3faafc94	1.3358331
200	0x3fae3d71	1.36125
201	0x3fa5e7dc	1.2961383
202	0xc0c2d591	-6.08857
203	0xbe3186b7	-0.17336546
204	0xc05556e0	-3.3334274
205	0xbff7890d	-1.93387
206	0xc04590fb	-3.086974
207	0x3fa353fe	1.2760007
208	0x3fbb1b41	1.4617692
209	0xc0509e23	-3.259652
210	0x3f36ba0c	0.71377635
211	0x3fbc79b1	1.4724637
212	0x3fb7ae86	1.4350135
213	0x3fa62b4e	1.2981966
214	0xbf267b7a	-0.6503216
215	0x3fbe4163	1.4863704
216	0xbfb7c7a3	-1.4357799
217	0x3ed37f8b	0.41308245
218	0xbf8ed3a2	-1.1158335
219	0xc0587b79	-3.3825362
220	0xbf464ed8	-0.77464056
221	0xc01c44a7	-2.4416902
222	0x3fcacce3	1.5843776
223	0x3fc2b67d	1.5211941
224	0x3f89af81	1.0756685
225	0x3fc2ab32	1.5208495
226	0x3d809412	0.06278242
227	0x3fba8557	1.4571942
228	0x3fa68f97	1.301257
229	0x3fa8304f	1.3139743
230	0x3fab155f	1.3365897
231	0x3fbd04f9	1.4767143
232	0x3fae0bf6	1.35974
233	0x3fababb8	1.3411779
234	0xc09db363	-4.928148
235	0xbe277108	-0.16351712
236	0xc08c7746	-4.3895597
237	0xbfd0dffa	-1.6318352
238	0xbe6842f2	-0.22681788
239	0x3fbb29a7	1.4622086
240	0x3fa6e01e	1.3037145
241	0xc0831539	-4.0963407
242	0x3f9221b9	1.1416541
243	0x3f9fd66e	1.2487314
244	0x3fab804c	1.3398528
245	0x3f7ab7ec	0.9793689
246	0xbede1100	-0.43372345
247	0x3fa200c5	1.2656485
248	0xbf8a9e7c	-1.0829616
249	0x3e9331bf	0.2874889
250	0xbf773baa	-0.96575415
251	0xc031a0a7	-2.7754304
252	0xbf967e01	-1.1757203
253	0xc00b09f1	-2.1724818
254	0x3fc816b7	1.5631932
255	0x3fbfb2ce	1.4976442

mlp.2.bias f4 [32]
0	0x3f9beaf1	1.2181073
1	0x3c662572	0.014047014
2	0x3f8f463d	1.119331
3	0x3faecb3f	1.3655776
4	0x3f9d0f2d	1.2270256
5	0xbcc1ff43	-0.023681289
6	0x3fb83935	1.4392458
7	0x3f94c399	1.1622192
8	0x3f922849	1.1418544
9	0xbdd847b5	-0.10560552
10	0x3c3fff80	0.011718631
11	0x3f9509ac	1.1643577
12	0x3fbf1a31	1.4929868
13	0xbe12f0d3	-0.1434968
14	0x3fb6e44e	1.4288423
15	0x3fd05266	1.6275146
16	0x3d8868c6	0.06660609
17	0x3dba54a0	0.09098172
18	0x3f916eba	1.1361916
19	0x3f8353ab	1.0259908
20	0xbd3962bc	-0.045260176
21	0xbe2a1f29	-0.16613449
22	0x3f21036c	0.62895846
23	0xbd16a931	-0.036782447
24	0x3f75e5f0	0.9605398
25	0x3f84a3a2	1.0362437
26	0x3fc67d58	1.5507002
27	0xbbc87ee2	-0.0061186412
28	0xbe81eab1	-0.25374368
29	0xbd0b39c6	-0.033990644
30	0x3f8d3304	1.1031194
31	0x3f9d561b	1.2291902

mlp.4.weight f4 [2, 32]
0	0x406ea788	3.7289753
1	0xbbe0f4b6	-0.0068651093
2	0x402a5bfb	2.661864
3	0x4026f9c3	2.6089942
4	0x401a0ead	2.4071457
5	0xbd8dec5e	-0.06929849
6	0x40120bc4	2.281968
7	0x4039436f	2.8947408
8	0x404d60b1	3.2090266
9	0xbd0f750b	-0.03502373
10	0xbd338c60	-0.043835044
11	0x3fa44282	1.2832797
12	0x3fa08545	1.2540671
13	0xbd0a5fca	-0.033782758
14	0x4053aca8	3.307413
15	0x405e2827	3.4712007
16	0x3e171eb3	0.14757805
17	0xbcf1f324	-0.029534884
18	0x403ae201	2.9200442
19	0x3f827455	1.0191752
20	0x3d16e98f	0.036843833
21	0xbd42f240	-0.04759431
22	0x3fb9f67a	1.4528344
23	0xbcec2687	-0.028826965
24	0x400dcc08	2.215578
25	0x4032e93b	2.7954853
26	0x404b7a3b	3.1793354
27	0xbdbe5efe	-0.09295462
28	0xbd8efb94	-0.069815785
29	0xbdac58a9	-0.08415348
30	0x403db382	2.9640813
31	0x406992f1	3.6495936
32	0x3fc7d7b6	1.5612705
33	0xbcdbb63c	-0.026820295
34	0x4061bfbb	3.5273273
35	0x3f4e58d5	0.80604297
36	0x405af94e	3.4214664
37	0xbdc10e7c	-0.09426591
38	0x403f6b16	2.990911
39	0x4053e61a	3.3109193
40	0x4010d41b	2.262946
41	0x3d8ea22f	0.06964528
42	0x3e03fed3	0.12890176
43	0x3f931316	1.14902
44	0x405a4ad2	3.4108167
45	0x3d84a073	0.06475916
46	0x401bc3b8	2.4338207
47	0x4016adea	2.3543649
48	0x3e34a4b9	0.17640962
49	0x3d6626d5	0.056189377
50	0x405b066b	3.4222667
51	0x405c9b27	3.4469697
52	0xbc171a1a	-0.009222532
53	0x3c44ddd0	0.012015775
54	0x3fa52519	1.2901946
55	0x3d390a36	0.045175754
56	0x405f02a7	3.484537
57	0x405fe4c2	3.4983373
58	0x400a8150	2.1641426
59	0xbcdb8600	-0.026797295
60	0x3ca5f395	0.02025775
61	0xbde51aaf	-0.1118673
62	0x403dc765	2.965295
63	0x3fcb839a	1.5899537

mlp.4.bias f4 [2]
0	0x3efce621	0.49394324
1	0x3f0d2670	0.55136776

exp_avg f4 [32, 4]
0	0xbbf8d848	-0.007594142
1	0xbb48366c	-0.0030550016
2	0xba68a1ee	-0.0008874227
3	0xbbd9fa25	-0.006652134
4	0xbc164c71	-0.0091734985
5	0xbb13910b	-0.0022516872
6	0xba705e4c	-0.0009169325
7	0xbbf84e98	-0.0075777285
8	0x00000000	0.0
9	0x00000000	0.0
10	0x00000000	0.0
11	0x00000000	0.0
12	0xbc19e3b2	-0.009392666
13	0xbb0e8d73	-0.002175179
14	0xba7363b1	-0.00092845695
15	0xbbfd03ff	-0.0077214236
16	0xbc0a3d80	-0.008437514
17	0xbb461c03	-0.0030229099
18	0xba7a0f4a	-0.00095390214
19	0xbbf052df	-0.0073340978
20	0xbc25cac3	-0.010119143
21	0xbaab3842	-0.0013063031
22	0xba68b0aa	-0.00088764227
23	0xbc0145e8	-0.007890202
24	0xbc0a480a	-0.008440027
25	0xbb48e19e	-0.0030652056
26	0xba7520ca	-0.0009350894
27	0xbbe36e4c	-0.0069406386
28	0xbc13530c	-0.008991968
29	0xbaf41eb5	-0.0018624874
30	0xba639a81	-0.00086823857
31	0xbbf6b062	-0.0075283507
32	0xbc1199e1	-0.008886785
33	0xbb1a302c	-0.0023527248
34	0xba6d6304	-0.0009055587
35	0xbbedc5bc	-0.007256238
36	0xbc0c484f	-0.008562162
37	0xbb38ebf0	-0.0028216802
38	0xba7443a6	-0.0009317942
39	0xbbe8854e	-0.0070959693
40	0x36a6868a	4.962848e-06
41	0xba0881c4	-0.0005207325
42	0xb849204a	-4.7952206e-05
43	0x3a455044	0.0007526914
44	0xb0fb9c86	-1.830714e-09
45	0x2fdfee5d	4.073283e-10
46	0xadd828d4	-2.4574488e-11
47	0xb00c09a4	-5.0945403e-10
48	0xbd2288bf	-0.039681192
49	0xbd19666f	-0.037451204
50	0x3aa3561e	0.0012461578
51	0x3bf4e927	0.007474083
52	0x3d546224	0.051851407
53	0x3d1b9a50	0.03798896
54	0x3b208441	0.0024492892
55	0x3c4a0838	0.012331061
56	0x3c804766	0.015659045
57	0xbba3e334	-0.00500145
58	0x3a3e49ad	0.00072589034
59	0x3bdf5375	0.006815369
60	0xbc054c20	-0.008135825
61	0xbb39dc2c	-0.0028359992
62	0xba6a6f37	-0.0008942964
63	0xbbde9d92	-0.006793686
64	0xbc23c374	-0.00999533
65	0xba721394	-0.0009234485
66	0xba5e71d0	-0.00084855873
67	0xbbfecce3	-0.0077758892
68	0xbcf5c5cd	-0.030001545
69	0xbcfb74e0	-0.030695379
70	0x3ae82f7b	0.0017714346
71	0x3c4e7a74	0.012602437
72	0xbba6cee5	-0.0050905817
73	0xbb3209ad	-0.0027166412
74	0xba26fb80	-0.0006369874
75	0xbb64c7bf	-0.0034909097
76	0xbc08c045	-0.008346622
77	0xbb45c507	-0.0030177252
78	0xba76ece1	-0.0009419453
79	0xbbe5cccb	-0.0070129386
80	0xbc241a7a	-0.010016078
81	0xba8b3bd0	-0.0010622684
82	0xba5e57b2	-0.00084816955
83	0xbbfbafad	-0.0076808543
84	0xbbfbeafb	-0.007687924
85	0xbb483dd8	-0.003055444
86	0xba6aafb3	-0.0008952573
87	0xbbdf20b3	-0.006809318
88	0x3b8570bb	0.0040722764
89	0x3b068971	0.0020528699
90	0x3a17814b	0.0005779459
91	0x3b0bcbb1	0.0021331126
92	0xbc0e064f	-0.008668496
93	0xbb22fd2c	-0.002487014
94	0xba6c8e37	-0.0009023877
95	0xbbedbdc0	-0.007255286
96	0xbb72e4c7	-0.0037062631
97	0xbb38a6c4	-0.0028175572
98	0x3a4767b0	0.0007606698
99	0x3be3aea1	0.0069483076
100	0x3ac090c7	0.0014691585
101	0x3b1583c5	0.0022814136
102	0x398f1ee5	0.00027298104
103	0x3af8c245	0.0018978795
104	0x3b5f9945	0.0034118455
105	0x3b3d524f	0.002888817
106	0x3a473842	0.00075996306
107	0x3b0f562b	0.0021871428
108	0x3d90bd79	0.07067389
109	0x3d53c476	0.05170103
110	0x3b3b5140	0.0028582364
111	0x3c65a6ca	0.014016816
112	0x3c6de568	0.014520027
113	0x3b2453cc	0.002507436
114	0x3a42a564	0.0007425158
115	0x3c2f3a92	0.010695117
116	0x3a81ca6b	0.0009902244
117	0x3af3c615	0.0018598462
118	0xba5673b4	-0.0008180693
119	0xbb4bd73f	-0.0031103638
120	0xbc2af1ca	-0.010433624
121	0xba8e9c9a	-0.0010880411
122	0xba6916c2	-0.0008891636
123	0xbc019746	-0.007909602
124	0xbc22c46a	-0.009934524
125	0xbacaf203	-0.0015483502
126	0xba6ae6bb	-0.0008960773
127	0xbbedbd86	-0.007255259

exp_avg_sq f4 [32, 4]
0	0x3b999dd4	0.004688004
1	0x3b592512	0.0033133668
2	0x3877a3a6	5.90418e-05
3	0x3a5e36c6	0.000847679
4	0x3bc246e3	0.0059288605
5	0x3b898326	0.0041965423
6	0x389cfe68	7.4860465e-05
7	0x3a8bcbac	0.0010665557
8	0x00000000	0.0
9	0x00000000	0.0
10	0x00000000	0.0
11	0x00000000	0.0
12	0x3bcdba3d	0.006278305
13	0x3b92e4aa	0.0044828253
14	0x38a838ea	8.021465e-05
15	0x3a94e55c	0.0011359858
16	0x3bb60872	0.005555206
17	0x3b80959b	0.0039240844
18	0x3893c36e	7.045908e-05
19	0x3a86d42f	0.0010286624
20	0x3bd594be	0.0065179756
21	0x3b98cdf9	0.0046632257
22	0x38ae818c	8.3210965e-05
23	0x3a982128	0.0011606561
24	0x3baa21a1	0.005191997
25	0x3b6fce57	0.0036591494
26	0x3887f345	6.482614e-05
27	0x3a741159	0.00093104463
28	0x3bbad02d	0.005701086
29	0x3b846b17	0.0040410864
30	0x3896f771	7.198647e-05
31	0x3a83ca1c	0.001005474
32	0x3bba7b89	0.005690996
33	0x3b85202a	0.004062672
34	0x38986059	7.265871e-05
35	0x3a8739fe	0.0010316966
36	0x3ba19038	0.0049305223
37	0x3b63b089	0.0034742674
38	0x38830012	6.24658e-05
39	0x3a7565ac	0.00093611586
40	0x3ad80c32	0.0016483127
41	0x3b021629	0.0019849634
42	0x38b15bca	8.457115e-05
43	0x3ac3ee3f	0.0014948322
44	0x32172855	8.798527e-09
45	0x2f8afcde	2.5281727e-10
46	0x2c3458f7	2.5628924e-12
47	0x2f76d6f3	2.2449935e-10
48	0x3ca9ee00	0.02074337
49	0x3c982d5a	0.018576313
50	0x39ba2056	0.00035500777
51	0x3b72d5a6	0.0037053614
52	0x3b5c924b	0.0033656533
53	0x3a803662	0.0009781832
54	0x3736f569	1.0905184e-05
55	0x3a25b2ba	0.0006320883
56	0x3c36269b	0.011117603
57	0x3c0259c1	0.007955969
58	0x391b8684	0.00014832063
59	0x3a935e0b	0.0011243237
60	0x3b928521	0.0044714366
61	0x3b4b49fe	0.0031019445
62	0x38659a5d	5.4741617e-05
63	0x3a522e57	0.00080177694
64	0x3bc5084a	0.006012951
65	0x3b8c06d4	0.004273275
66	0x389ee8b8	7.577374e-05
67	0x3a879130	0.0010342952
68	0x3c88e01b	0.016708424
69	0x3c72b4bd	0.014813599
70	0x3991ec6f	0.00027832712
71	0x3b414487	0.0029490308
72	0x3a7f0e52	0.0009729612
73	0x3a34ed17	0.0006901784
74	0x37677394	1.3795583e-05
75	0x399296c9	0.00027959634
76	0x3ba11240	0.0049155056
77	0x3b61e130	0.0034466498
78	0x3881da77	6.1918916e-05
79	0x3a758759	0.00093661767
80	0x3bc5450f	0.0060201953
81	0x3b8c8f24	0.0042895246
82	0x389f5c78	7.5989345e-05
83	0x3a88b746	0.0010430596
84	0x3ba50093	0.005035469
85	0x3b6aa328	0.0035802815
86	0x3886e133	6.4315645e-05
87	0x3a7226fd	0.0009237377
88	0x3a680bb7	0.00088518433
89	0x3a32e588	0.0006824364
90	0x372f6155	1.0453475e-05
91	0x3941c8a5	0.0001848066
92	0x3bb195ba	0.00541946
93	0x3b7b4ce2	0.0038345386
94	0x388fb932	6.853267e-05
95	0x3a80cd8e	0.0009826885
96	0x3b3d9548	0.002892809
97	0x3b2cbdc2	0.0026358222
98	0x38422c04	4.6294197e-05
99	0x3a599309	0.0008299803
100	0x38715ff7	5.754825e-05
101	0x3883bac4	6.2813546e-05
102	0x3636bdb3	2.7230533e-06
103	0x388d4887	6.736913e-05
104	0x3a6ce925	0.0009037427
105	0x3a2a699a	0.0006500721
106	0x379b4ee0	1.8514169e-05
107	0x398db8a0	0.00027031172
108	0x3be111d0	0.0068685785
109	0x3b013e0a	0.0019720816
110	0x3801dd77	3.0962252e-05
111	0x3abb27f5	0.0014278876
112	0x3a967c17	0.0011481073
113	0x39cea847	0.00039416758
114	0x36c41098	5.843187e-06
115	0x396db66b	0.00022670037
116	0x39bddfd7	0.00036215663
117	0x3a289db7	0.0006432193
118	0x37a3040e	1.9433002e-05
119	0x3a663fcf	0.0008783312
120	0x3bcd390a	0.006262903
121	0x3b91ef66	0.0044535873
122	0x38a4e02e	7.861886e-05
123	0x3a907e11	0.0011023899
124	0x3bbebcc7	0.005820844
125	0x3b880512	0.004150995
126	0x389de24e	7.528496e-05
127	0x3a88c08d	0.0010433361

exp_avg f4 [32]
0	0x3c7fc0da	0.015609944
1	0x3c928530	0.017885774
2	0x00000000	0.0
3	0x3c94e7a2	0.018176857
4	0x3c8cfea3	0.017211264
5	0x3c997038	0.018730268
6	0x3c879328	0.016549662
7	0x3c9091be	0.01764762
8	0x3c8c93d8	0.017160341
9	0x3c8994bc	0.016794555
10	0x39ee93dd	0.00045505064
11	0x312c1319	2.504015e-09
12	0x3c1a431e	0.009415416
13	0xbd6ef9a7	-0.058343556
14	0xbcd8bc77	-0.026457055
15	0x3c843699	0.016139315
16	0x3c96b4c2	0.018396739
17	0xbb3637d8	-0.0027804282
18	0x3c120930	0.008913323
19	0x3c880c0d	0.016607309
20	0x3c95c960	0.0182845
21	0x3c82899c	0.015934758
22	0xbb8356a6	-0.004008132
23	0x3c8c3e96	0.017119687
24	0xbbd9b96a	-0.0066444175
25	0xbbb17e25	-0.005416649
26	0xbb47582b	-0.0030417542
27	0xbd96c687	-0.07362085
28	0xbcbec9f7	-0.023289664
29	0x3be24fa8	0.0069064684
30	0x3c9abcb5	0.01888881
31	0x3c8f87d3	0.01752082

exp_avg_sq f4 [32]
0	0x3c768b5d	0.015047875
1	0x3c9aeabd	0.01891076
2	0x00000000	0.0
3	0x3c9f88bc	0.01947438
4	0x3c944d54	0.01810328
5	0x3ca13219	0.019677209
6	0x3c8a1d8d	0.016859794
7	0x3c91acef	0.017782656
8	0x3c907338	0.017633066
9	0x3c87a56f	0.016558377
10	0x3c9e7e57	0.019347353
11	0x321ba482	9.059592e-09
12	0x3d073723	0.033011567
13	0x3cd0c229	0.025483208
14	0x3c39f1ca	0.011349151
15	0x3c79443e	0.015214024
16	0x3c9497b7	0.01813875
17	0x3cea5183	0.028603321
18	0x3b8cca52	0.0042965794
19	0x3c899aba	0.016797412
20	0x3c946588	0.01811482
21	0x3c82d168	0.015968993
22	0x3b804941	0.0039149825
23	0x3c8e2398	0.017350957
24	0x3c82ae20	0.01595217
25	0x39ae7bfc	0.00033280242
26	0x3b78838a	0.00379202
27	0x3d5362ee	0.05160802
28	0x3c02c5a3	0.007981691
29	0x3b848360	0.0040439814
30	0x3c9e2499	0.01930456
31	0x3c92fc89	0.017942684

exp_avg f4 [32, 32]
0	0x3adce6de	0.0016853472
1	0x3b07214b	0.002061921
2	0x00000000	0.0
3	0x3ad6a6da	0.001637663
4	0x3af9c379	0.0019055448
5	0x3afa63eb	0.0019103264
6	0x3af0c071	0.0018367899
7	0x3afa7907	0.0019109555
8	0x3ae4e18e	0.001746224
9	0x3ad7b2c1	0.0016456471
10	0xb5080c5f	-5.068195e-07
11	0x2e476095	4.5333143e-11
12	0xbb0e46d3	-0.0021709695
13	0x3a044a6d	0.00050464907
14	0xb879654d	-5.946057e-05
15	0x3aecfccc	0.001808071
16	0x3ae13add	0.001718368
17	0xbb215d99	-0.002462244
18	0x3ac38e33	0.0014919698
19	0x3ad00c01	0.0015872718
20	0x3aed1dc8	0.001809054
21	0x3ad40192	0.0016174784
22	0x3a70b704	0.0009182545
23	0x3b008488	0.0019610245
24	0x3a660343	0.000877429
25	0x394d8174	0.00019598549
26	0x39477742	0.00019022546
27	0xb9909c8f	-0.00027582466
28	0x3a248bf5	0.0006276959
29	0xb80b0c6e	-3.315176e-05
30	0x3b0de354	0.002165039
31	0x3a64fab8	0.000873487
32	0x00000004	6e-45
33	0x00000004	6e-45
34	0x00000000	0.0
35	0x00000004	6e-45
36	0x00000004	6e-45
37	0x00000004	6e-45
38	0x00000004	6e-45
39	0x00000004	6e-45
40	0x00000004	6e-45
41	0x00000004	6e-45
42	0x00000004	6e-45
43	0x00000000	0.0
44	0x80000004	-6e-45
45	0x00000004	6e-45
46	0x00000004	6e-45
47	0x00000004	6e-45
48	0x00000004	6e-45
49	0x00000004	6e-45
50	0x00000004	6e-45
51	0x00000004	6e-45
52	0x00000004	6e-45
53	0x00000004	6e-45
54	0x00000004	6e-45
55	0x00000004	6e-45
56	0x00000004	6e-45
57	0x00000004	6e-45
58	0x00000004	6e-45
59	0x00000004	6e-45
60	0x00000004	6e-45
61	0x00000004	6e-45
62	0x00000004	6e-45
63	0x00000004	6e-45
64	0x3aa057a8	0.0012233155
65	0x3adc128f	0.0016790199
66	0x00000000	0.0
67	0x3aacc5c9	0.0013181503
68	0x3ab0292a	0.0013440002
69	0x3ae339be	0.0017335934
70	0x3ab2bdea	0.0013636921
71	0x3ad25c15	0.0016049171
72	0x3ab8c42e	0.0014096552
73	0x3a98fe5a	0.0011672482
74	0xb59a3940	-1.1490556e-06
75	0x2cb33766	5.0936365e-12
76	0xb9d00c86	-0.00039682182
77	0x3984d476	0.00025335298
78	0x3a24c975	0.0006286123
79	0x3aa507a1	0.0012590775
80	0x3acd20b9	0.0015650011
81	0xb9b9d1c0	-0.00035442226
82	0x3a8e4004	0.0010852818
83	0x3a934892	0.0011236838
84	0x3ad95351	0.0016580616
85	0x3a9d6b5b	0.0012010144
86	0x3a8fae86	0.0010962046
87	0x3ac4d905	0.001501829
88	0x3a555d18	0.0008139177
89	0xb9bfb03b	-0.0003656166
90	0x3a6c402e	0.0009012249
91	0xb88b629a	-6.6464025e-05
92	0x3989b1e8	0.00026263227
93	0xb869fcd2	-5.5786986e-05
94	0x3af32839	0.0018551416
95	0x3a4e3dee	0.00078675046
96	0x3a99c7fe	0.0011732576
97	0x3ab8eb8d	0.0014108286
98	0x00000000	0.0
99	0x3a932b17	0.0011228052
100	0x3aae6af2	0.0013307019
101	0x3aa8567b	0.0012843156
102	0x3aa6fb7b	0.0012739742
103	0x3aaa9837	0.0013015334
104	0x3a9ce009	0.0011968623
105	0x3a9680ec	0.0011482514
106	0xb48cb6cd	-2.6210037e-07
107	0x2e18a991	3.4711404e-11
108	0xbada0515	-0.0016633595
109	0x39bf343d	0.0003646928
110	0xb90d170b	-0.00013455392
111	0x3aa5b92d	0.0012643688
112	0x3a975801	0.0011546613
113	0xbaf8b00e	-0.0018973367
114	0x3a87ee9e	0.0010370796
115	0x3a913e02	0.0011081102
116	0x3a9f2309	0.0012141179
117	0x3a932e45	0.0011228999
118	0x3a1932a2	0.00058440317
119	0x3ab17a8f	0.0013540554
120	0x3a1a925b	0.00058964425
121	0x394ddc77	0.00019632453
122	0x37fd926f	3.0228139e-05
123	0xb95b2523	-0.00020899302
124	0x39f14d0e	0.00046024512
125	0xb7a298bb	-1.9383026e-05
126	0x3ac07ff4	0.001468657
127	0x3a1a799e	0.0005892756
128	0x3a8a4ae4	0.0010550884
129	0x3abb50a5	0.0014291002
130	0x00000000	0.0
131	0x3a927085	0.001117245
132	0x3a97b5fa	0.0011574619
133	0x3abd8621	0.0014459529
134	0x3a98f718	0.0011670319
135	0x3ab22220	0.0013590492
136	0x3a9cd77b	0.0011966074
137	0x3a8344ed	0.0010015048
138	0xb5959632	-1.1145078e-06
139	0x2c161e8f	2.1333245e-12
140	0xb9e8be6d	-0.00044392367
141	0x39659fb2	0.00021898633
142	0x39a54b56	0.00031527382
143	0x3a8ed622	0.0010897557
144	0x3aab40bf	0.001306556
145	0xb9ceb87e	-0.0003942884
146	0x3a73845c	0.00092894374
147	0x3a8058ad	0.0009792052
148	0x3ab4cbef	0.0013793687
149	0x3a881ed0	0.0010385159
150	0x3a78acf3	0.00094862207
151	0x3aa86182	0.0012846442
152	0x3a40a524	0.00073488266
153	0xb9c6bb7f	-0.00037905198
154	0x3a19ec45	0.0005871694
155	0xb8477860	-4.7557405e-05
156	0x396682f7	0.00021983297
157	0xb86089bd	-5.353404e-05
158	0x3acb4323	0.0015507679
159	0x3a2e612e	0.0006652054
160	0x00000004	6e-45
161	0x00000004	6e-45
162	0x00000000	0.0
163	0x00000004	6e-45
164	0x00000004	6e-45
165	0x00000004	6e-45
166	0x00000004	6e-45
167	0x00000004	6e-45
168	0x00000004	6e-45
169	0x00000004	6e-45
170	0x00000000	0.0
171	0x00000000	0.0
172	0x00000004	6e-45
173	0x00000000	0.0
174	0x00000000	0.0
175	0x00000004	6e-45
176	0x00000004	6e-45
177	0x00000000	0.0
178	0x00000004	6e-45
179	0x00000004	6e-45
180	0x00000004	6e-45
181	0x00000004	6e-45
182	0x00000004	6e-45
183	0x00000004	6e-45
184	0x00000004	6e-45
185	0x00000000	0.0
186	0x00000000	0.0
187	0x00000000	0.0
188	0x00000000	0.0
189	0x00000004	6e-45
190	0x00000004	6e-45
191	0x00000004	6e-45
192	0x3a857c7f	0.0010184197
193	0x3ab3e7ca	0.0013725695
194	0x00000000	0.0
195	0x3a8cdc71	0.0010746849
196	0x3a92ad5f	0.0011190585
197	0x3ab5ce0c	0.0013870611
198	0x3a93b5c2	0.0011269378
199	0x3aab384f	0.0013063046
200	0x3a96a57f	0.0011493413
201	0x3a7da291	0.00096754084
202	0xb582ce66	-9.745825e-07
203	0x2ca437f3	4.667372e-12
204	0xb9faf9d3	-0.0004786985
205	0x39644faa	0.00021773452
206	0x39afff12	0.00033568643
207	0x3a8a13ad	0.0010534428
208	0x3aa45835	0.0012538495
209	0xb9ee1d07	-0.00045416525
210	0x3a6a6904	0.000894204
211	0x3a772c08	0.00094288634
212	0x3aad854a	0.0013238576
213	0x3a831ab2	0.0010002463
214	0x3a6688e9	0.0008794205
215	0x3aa1fa04	0.0012357836
216	0x3a32e9fa	0.00068250264
217	0xb9a0f7b8	-0.00030702143
218	0x3a194104	0.0005846175
219	0xb878f752	-5.9358143e-05
220	0x396df1b8	0.00022692129
221	0xb846bf65	-4.738513e-05
222	0x3ac35ee1	0.0014905595
223	0x3a26d7d2	0.0006364557
224	0x3aaec57d	0.0013334003
225	0x3aecd0f3	0.0018067643
226	0x00000000	0.0
227	0x3ab9f360	0.0014186911
228	0x3ac1b407	0.0014778384
229	0x3af09f8e	0.0018358098
230	0x3ac2d52b	0.0014864554
231	0x3ae1058f	0.0017167794
232	0x3ac6ab9e	0.0015157347
233	0x3aa83412	0.0012832901
234	0xb590b94a	-1.0782762e-06
235	0x2d491137	1.142935e-11
236	0xba281cc2	-0.00064129767
237	0x399c8df9	0.00029860417
238	0x3a1e320b	0.00060346787
239	0x3ab6307b	0.0013899946
240	0x3ad8fd64	0.0016555008
241	0xba2946fd	-0.00064574165
242	0x3a9c413b	0.0011921296
243	0x3aa1c446	0.0012341819
244	0x3ae5cfec	0.0017533279
245	0x3aaaad9f	0.0013021714
246	0x3a93199f	0.0011222846
247	0x3ad5cb18	0.0016311137
248	0x3a5ee865	0.00085032574
249	0xb996d3f0	-0.00028768135
250	0x3a63d22c	0.0008690681
251	0xb8d36010	-0.00010079157
252	0x39aad367	0.00032582434
253	0xb86124a9	-5.3678323e-05
254	0x3b023ac1	0.0019871446
255	0x3a586827	0.0008255266

exp_avg_sq f4 [32, 32]
0	0x38ec66fe	0.00011272541
1	0x392ea43b	0.00016655114
2	0x00000000	0.0
3	0x38de1588	0.000105897954
4	0x39024681	0.00012424031
5	0x39366828	0.00017395674
6	0x3903e495	0.00012578287
7	0x3928c821	0.00016096282
8	0x38ff5362	0.00012174879
9	0x38b0009c	8.3924475e-05
10	0x35aae745	1.2733295e-06
11	0x2d82dab2	1.4876409e-11
12	0x38a1fa13	7.723658e-05
13	0x37dd2eda	2.636707e-05
14	0x3858e6e8	5.171346e-05
15	0x38d3c7f9	0.00010098512
16	0x3916591a	0.00014338308
17	0x38adab9c	8.2812476e-05
18	0x384f8e2a	4.9485046e-05
19	0x38a60861	7.9170575e-05
20	0x39270740	0.00015929062
21	0x38e85137	0.000110777495
22	0x3851cf77	5.00227e-05
23	0x390d90a4	0.0001350069
24	0x37def986	2.6580656e-05
25	0x3784ae61	1.5816828e-05
26	0x38bdbb0c	9.0470625e-05
27	0x3781ca83	1.54723e-05
28	0x3786a0d0	1.6048929e-05
29	0x36a5ff28	4.9470873e-06
30	0x393fd517	0.00018294562
31	0x3837520a	4.3707005e-05
32	0x32930d8c	1.7119213e-08
33	0x32f07a1b	2.7995204e-08
34	0x00000000	0.0
35	0x31270ee1	2.4310156e-09
36	0x32de1d6c	2.5857581e-08
37	0x32974a01	1.7612367e-08
38	0x327eab5a	1.4823707e-08
39	0x32a510b4	1.9216124e-08
40	0x328cd9fa	1.639727e-08
41	0x315365b2	3.0762348e-09
42	0x2ba87bbf	1.1971464e-12
43	0x00000000	0.0
44	0x2cf4685e	6.946484e-12
45	0x313e87af	2.7725766e-09
46	0x2f525858	1.9130775e-10
47	0x31bf9068	5.5752487e-09
48	0x319995bd	4.4699093e-09
49	0x2e46de96	4.5217684e-11
50	0x31a4d13f	4.7968167e-09
51	0x316416b2	3.3191268e-09
52	0x32823d81	1.516196e-08
53	0x32d4c49b	2.4769454e-08
54	0x308a15ba	1.0046997e-09
55	0x33043603	3.078277e-08
56	0x2f0c1c26	1.2742926e-10
57	0x30896ad6	9.998427e-10
58	0x2d3bc076	1.0672454e-11
59	0x2de2d719	2.5788748e-11
60	0x308ad0a2	1.0100119e-09
61	0x308f887e	1.0443413e-09
62	0x32831e72	1.5264252e-08
63	0x29debfa6	9.892026e-14
64	0x3926b354	0.00015897799
65	0x3964af27	0.00021809024
66	0x00000000	0.0
67	0x391065da	0.00013770853
68	0x39316c44	0.00016920367
69	0x39658260	0.0002188771
70	0x3934e121	0.00017250005
71	0x396468b0	0.00021782774
72	0x39231c37	0.00015555402
73	0x38e5b67c	0.00010953561
74	0x3689aecb	4.1032667e-06
75	0x2d4da41b	1.168934e-11
76	0x38372fbe	4.3675063e-05
77	0x38451de8	4.6996312e-05
78	0x38184db7	3.6312e-05
79	0x390fee8c	0.00013726408
80	0x39420960	0.00018504774
81	0x38469276	4.734328e-05
82	0x38832340	6.2531326e-05
83	0x38e19c60	0.00010757963
84	0x395324f7	0.00020136299
85	0x392544df	0.00015761283
86	0x382dca9e	4.1435116e-05
87	0x3936b26b	0.00017423338
88	0x37d6484c	2.5544454e-05
89	0x37beb34c	2.2733257e-05
90	0x38c13ed2	9.214658e-05
91	0x37f2aeea	2.8930099e-05
92	0x38029c45	3.1139953e-05
93	0x36b49373	5.3815834e-06
94	0x3969de5a	0.00022303444
95	0x3877dcda	5.9095073e-05
96	0x38c1c636	9.239877e-05
97	0x3910b361	0.00013799734
98	0x00000000	0.0
99	0x38c322c6	9.304802e-05
100	0x38cc8236	9.751732e-05
101	0x392a17df	0.00016221356
102	0x38d6f333	0.000102496146
103	0x390db90a	0.0001351574
104	0x38e4d2aa	0.000109111264
105	0x38882de0	6.49353e-05
106	0x35b7bad1	1.3688933e-06
107	0x2cf684e9	7.0064965e-12
108	0x3930f9f4	0.00016877783
109	0x37807328	1.5312413e-05
110	0x384010cf	4.579202e-05
111	0x3899eb4e	7.3394374e-05
112	0x3907fb8e	0.00012968315
113	0x393f9022	0.00018268873
114	0x37d3c687	2.5245607e-05
115	0x38729c30	5.7842757e-05
116	0x391b5cfa	0.00014816588
117	0x38c2400c	9.2625705e-05
118	0x382e8c2c	4.1615378e-05
119	0x38e8951e	0.00011090397
120	0x37b19db1	2.1173475e-05
121	0x37074e0a	8.064797e-06
122	0x3954573a	0.0002025039
123	0x370b2d5d	8.295608e-06
124	0x376469ac	1.3614463e-05
125	0x35abb1a2	1.2792191e-06
126	0x392b5169	0.00016338158
127	0x3831a0df	4.234991e-05
128	0x3913d7ac	0.00014099356
129	0x394a582f	0.00019297072
130	0x00000000	0.0
131	0x390023f1	0.0001222042
132	0x391cec4d	0.00014965348
133	0x394b206a	0.00019371664
134	0x39205c47	0.00015293165
135	0x394a7d16	0.0001931082
136	0x39108274	0.00013781508
137	0x38cb21df	9.686103e-05
138	0x36690ecd	3.472832e-06
139	0x2d310b45	1.00637875e-11
140	0x381a8b97	3.6846464e-05
141	0x382e0498	4.148911e-05
142	0x37eaef58	2.8006427e-05
143	0x38fec65e	0.000121486126
144	0x392c10e2	0.00016409488
145	0x38273f5c	3.987491e-05
146	0x3864001c	5.4359538e-05
147	0x38c7c011	9.5248346e-05
148	0x393b04fc	0.00017835567
149	0x3912a2df	0.00013984319
150	0x381385b8	3.5172066e-05
151	0x392187e8	0.00015404786
152	0x37b8c5f0	2.2026681e-05
153	0x37a21671	1.9322355e-05
154	0x38a86662	8.0299345e-05
155	0x37d64cb1	2.55465e-05
156	0x37e728b2	2.7556296e-05
157	0x368c81dc	4.1874428e-06
158	0x394e8e02	0.00019698593
159	0x385d78cc	5.2803007e-05
160	0x2fa82498	3.0585023e-10
161	0x317d270d	3.6838543e-09
162	0x00000000	0.0
163	0x2f0c75a1	1.2774716e-10
164	0x311ad4bd	2.2530877e-09
165	0x3135569d	2.63882e-09
166	0x30147d2c	5.4019966e-10
167	0x30462511	7.2084655e-10
168	0x31188d4f	2.2199236e-09
169	0x30b5e8d3	1.3235656e-09
170	0x00000000	0.0
171	0x00000000	0.0
172	0x2d0e8c0a	8.10286e-12
173	0x00000000	0.0
174	0x00000000	0.0
175	0x2eabe122	7.816171e-11
176	0x2f1dd126	1.4353371e-10
177	0x00000000	0.0
178	0x2fdd838c	4.0293135e-10
179	0x2fa2fed6	2.96487e-10
180	0x3082ead6	9.525489e-10
181	0x2f9a489b	2.8064026e-10
182	0x303bf44b	6.8377365e-10
183	0x3233317e	1.04304245e-08
184	0x2f1c1252	1.4194626e-10
185	0x00000000	0.0
186	0x00000000	0.0
187	0x00000000	0.0
188	0x00000000	0.0
189	0x3039e588	6.762879e-10
190	0x31ded261	6.4849677e-09
191	0x27591b25	3.0129515e-15
192	0x392e71c7	0.00016636318
193	0x39728c95	0.0002313129
194	0x00000000	0.0
195	0x392004c7	0.00015260569
196	0x39358ed8	0.00017314719
197	0x39845592	0.00025240757
198	0x393d67f2	0.00018063167
199	0x397410cb	0.00023275909
200	0x3936e1f1	0.00017441042
201	0x38ea3122	0.00011167141
202	0x36b25f04	5.3158747e-06
203	0x2d16772e	8.552976e-12
204	0x391f497c	0.00015190797
205	0x382c16a4	4.102908e-05
206	0x3853bc9e	5.0481984e-05
207	0x390c9eca	0.00013410594
208	0x395bb699	0.0002095349
209	0x392ad84b	0.00016293039
210	0x3857c7c9	5.144606e-05
211	0x38ddc3a4	0.00010574542
212	0x3973c0be	0.00023246088
213	0x392eb35e	0.00016660753
214	0x3837f2af	4.3856617e-05
215	0x39416092	0.0001844189
216	0x37daba9d	2.6074524e-05
217	0x37ae2294	2.0758518e-05
218	0x395bee76	0.00020974301
219	0x37d5859a	2.5453792e-05
220	0x37f2c068	2.8938244e-05
221	0x36c15cd1	5.7626535e-06
222	0x3983e9d8	0.00025160494
223	0x38936d8a	7.0299095e-05
224	0x39268fe4	0.00015884597
225	0x396663e1	0.00021971717
226	0x00000000	0.0
227	0x391204ba	0.00013925406
228	0x3931d672	0.00016959923
229	0x39693f6c	0.00022244238
230	0x39352cbe	0.00017278173
231	0x39651968	0.00021848606
232	0x39258dd6	0.00015788464
233	0x38e7c290	0.000110511784
234	0x367c2067	3.7569787e-06
235	0x2d5d7547	1.2588436e-11
236	0x385cd2f8	5.2648567e-05
237	0x383df196	4.5286106e-05
238	0x38263142	3.962336e-05
239	0x390ff4db	0.00013728758
240	0x39444c36	0.00018720407
241	0x386e8208	5.6864723e-05
242	0x388467a7	6.313557e-05
243	0x38e1ddd3	0.00010770154
244	0x395669f8	0.00020448107
245	0x3925007c	0.00015735807
246	0x38403385	4.582435e-05
247	0x3938a6ab	0.00017609696
248	0x37e6e743	2.7525826e-05
249	0x37bbb913	2.2378319e-05
250	0x38c79b1a	9.5179494e-05
251	0x37e8f042	2.7768434e-05
252	0x37f88b9c	2.9628914e-05
253	0x36b194b5	5.292323e-06
254	0x396e53d4	0.00022728677
255	0x387a47b2	5.9671416e-05

exp_avg f4 [32]
0	0x3a745c51	0.00093216175
1	0x00000004	6e-45
2	0x3a3c6e58	0.00071880734
3	0x3a289716	0.0006431205
4	0x3a21ad6b	0.0006167504
5	0x00000004	6e-45
6	0x3a1b51c2	0.00059249636
7	0x3a4c38c4	0.0007790441
8	0x3a594009	0.0008287435
9	0x00000004	6e-45
10	0x00000000	0.0
11	0xb94c74c9	-0.00019498462
12	0x39d0024c	0.00039674563
13	0x00000004	6e-45
14	0x3a5f6aaa	0.0008522669
15	0x3a69c6e5	0.0008917882
16	0x00000000	0.0
17	0x00000004	6e-45
18	0x3a4ed3f9	0.0007889863
19	0x39927ffe	0.00027942652
20	0x00000004	6e-45
21	0x00000000	0.0
22	0xb90e52de	-0.00013573046
23	0x00000004	6e-45
24	0x3a197781	0.0005854294
25	0x3a541f5a	0.000809183
26	0x3a55a0fb	0.0008149293
27	0x00000004	6e-45
28	0x00000004	6e-45
29	0x00000004	6e-45
30	0x3a4e4d35	0.0007869781
31	0x3a6fa20d	0.0009141274

exp_avg_sq f4 [32]
0	0x382936d2	4.0343795e-05
1	0x3414d843	1.386225e-07
2	0x3866e57b	5.5049994e-05
3	0x37fa51de	2.9840445e-05
4	0x38461838	4.7229434e-05
5	0x32ba48c5	2.1686342e-08
6	0x38602108	5.3436524e-05
7	0x3866f18d	5.5061235e-05
8	0x382a7ae6	4.0645617e-05
9	0x2bcf15ac	1.471425e-12
10	0x00000000	0.0
11	0x35fb8df6	1.8742273e-06
12	0x3880e0ee	6.145412e-05
13	0x33972b13	7.0393206e-08
14	0x388e3414	6.780788e-05
15	0x389abce6	7.378477e-05
16	0x00000000	0.0
17	0x33c9fee8	9.406159e-08
18	0x38771322	5.8907208e-05
19	0x3807f28f	3.241241e-05
20	0x33d531b7	9.9276285e-08
21	0x00000000	0.0
22	0x36541f24	3.1608588e-06
23	0x32f72f15	2.8775995e-08
24	0x3839127b	4.412465e-05
25	0x389529c8	7.112656e-05
26	0x385db0bb	5.28551e-05
27	0x349ce72f	2.9225473e-07
28	0x30a643d7	1.2097371e-09
29	0x33d8350f	1.0067935e-07
30	0x3854b997	5.0717583e-05
31	0x38260fb7	3.959212e-05

exp_avg f4 [2, 32]
0	0x3c87e200	0.016587257
1	0x80000004	-6e-45
2	0x3c986618	0.01860337
3	0x3bea79ab	0.0071556172
4	0x3c9a2ef3	0.018821215
5	0x80000004	-6e-45
6	0x3c8cd6b9	0.017192231
7	0x3c9175d5	0.017756382
8	0x3c9039b3	0.017605638
9	0x80000004	-6e-45
10	0x00000000	0.0
11	0xbb0e4edb	-0.0021714482
12	0x3c334942	0.010942759
13	0x80000004	-6e-45
14	0x3c8a6cc8	0.016897574
15	0x3c8ae868	0.016956523
16	0x00000000	0.0
17	0x80000004	-6e-45
18	0x3c94bf16	0.018157523
19	0x3c882537	0.016619308
20	0x80000004	-6e-45
21	0x00000000	0.0
22	0xbab71aba	-0.0013969757
23	0x80000004	-6e-45
24	0x3ca01049	0.019539015
25	0x3c86a8f3	0.016437983
26	0x3c90d522	0.017679755
27	0x80000004	-6e-45
28	0x80000004	-6e-45
29	0x80000004	-6e-45
30	0x3c907ff1	0.017639132
31	0x3c8a63dc	0.01689332
32	0xbae45680	-0.0017420799
33	0x80000004	-6e-45
34	0xbb8549b8	-0.004067626
35	0x3b01efec	0.0019826842
36	0xbb8bebd7	-0.0042700577
37	0x80000004	-6e-45
38	0xbb5e7c6a	-0.0033948668
39	0xbb67799f	-0.0035320295
40	0xbb2a557f	-0.00259909
41	0x80000004	-6e-45
42	0x00000000	0.0
43	0x395a79a3	0.00020835413
44	0xbab083df	-0.0013467035
45	0x80000004	-6e-45
46	0xbb0fe6e2	-0.0021957685
47	0xbaf65257	-0.001879285
48	0x00000000	0.0
49	0x00000004	6e-45
50	0xbb70962a	-0.0036710599
51	0xbbabecb3	-0.0052467226
52	0x80000004	-6e-45
53	0x00000000	0.0
54	0xb9073126	-0.00012892912
55	0x80000004	-6e-45
56	0xbb982c70	-0.0046439692
57	0xbb64ec4a	-0.0034930878
58	0xbb275b52	-0.002553661
59	0x80000004	-6e-45
60	0x80000004	-6e-45
61	0x80000004	-6e-45
62	0xbb538a4b	-0.0032278474
63	0xbaf6350b	-0.0018784119

exp_avg_sq f4 [2, 32]
0	0x3af304b5	0.0018540832
1	0x340ed9d3	1.3304025e-07
2	0x3af767cb	0.0018875537
3	0x3bbde9c5	0.0057956898
4	0x3af822ba	0.0018931248
5	0x306d9723	8.6434876e-10
6	0x3b9ae910	0.0047274902
7	0x3aeb16f1	0.0017935914
8	0x3b02807d	0.001991301
9	0x260e9fe2	4.948283e-16
10	0x00000000	0.0
11	0x39f3bbc7	0.00046488477
12	0x3bcf8867	0.006333399
13	0x3471a43d	2.2504624e-07
14	0x3bc37ac2	0.0059655616
15	0x3bd822eb	0.0065959594
16	0x00000000	0.0
17	0x34e5bdbc	4.2792624e-07
18	0x3af288de	0.0018503924
19	0x3ab17c14	0.0013541006
20	0x355805dc	8.0474797e-07
21	0x00000000	0.0
22	0x3a6fef55	0.000915279
23	0x33323e01	4.1500247e-08
24	0x3b019465	0.0019772288
25	0x3b18672b	0.0023254852
26	0x3b907513	0.0044084876
27	0x33867d27	6.262626e-08
28	0x32c441e5	2.2847368e-08
29	0x3215ad04	8.712281e-09
30	0x3af39fbb	0.0018587032
31	0x3afac01e	0.0019130742
32	0x3af0b7b6	0.0018365297
33	0x33bee50a	8.8892264e-08
34	0x3b06cae9	0.0020567721
35	0x3ba79bbc	0.0051150005
36	0x3b076e77	0.0020665207
37	0x300c5d87	5.1064614e-10
38	0x3b91ea79	0.004453
39	0x3afa9286	0.0019117154
40	0x3b059bcf	0.0020387059
41	0x22c91154	5.4499506e-18
42	0x00000000	0.0
43	0x399bddea	0.00029729243
44	0x3bc65419	0.0060525057
45	0x33ccdabd	9.5392785e-08
46	0x3baf9566	0.005358386
47	0x3bc11f6d	0.005893639
48	0x00000000	0.0
49	0x34573d24	2.0045678e-07
50	0x3b023307	0.001986684
51	0x3aca0b66	0.0015414774
52	0x34bf4d23	3.5632647e-07
53	0x00000000	0.0
54	0x3a1150d8	0.00055433577
55	0x32912f4c	1.690173e-08
56	0x3b0f5e4d	0.0021876276
57	0x3b19749e	0.0023415457
58	0x3b852563	0.0040632947
59	0x333acf0b	4.3494804e-08
60	0x31c05aec	5.598272e-09
61	0x313ce9f8	2.7490596e-09
62	0x3b00c1fc	0.0019646874
63	0x3afa30c2	0.0019088017

exp_avg f4 [2]
0	0x39785ac6	0.00023684939
1	0x37f02e48	2.863178e-05

exp_avg_sq f4 [2]
0	0x3812a925	3.496664e-05
1	0x37deefd9	2.657615e-05
