_models/CartPole-v1_DQN.pt (torch, 22958 bytes, 18 tensors)

mlp.0.weight f4 [32, 4]
0.16267368 -0.24220748 -0.38858375 0.07997953 -0.55026263 0.28991452 -0.31710365 0.16359192
0.06950849 -0.061222076 0.13868046 0.024665892 0.112209134 -0.20249154 -0.28586125 -0.1522891
-0.026068704 -0.027790254 0.21475448 0.06741301 -0.16895787 -0.27519888 -0.25796136 -0.28624025
-0.34615225 -0.0070728054 0.10678167 0.18315591 -0.5594142 0.29211318 -0.11275702 0.3462362
0.30663773 -0.44822818 -0.6119651 -0.28500003 0.23987935 -0.18041186 0.11927065 -0.23384482
0.6411619 0.13590306 0.7686279 0.20337531 -0.26340872 0.25700742 -0.26541007 0.14705235
-0.3059285 -0.51722354 -1.2463195 -0.40918347 0.17717096 0.090066284 0.6939354 0.37697434
-0.22245596 -0.2355912 0.5545053 0.13000023 -0.26059103 0.35665023 -0.11144877 0.2772472
-0.32273242 -0.12033988 -0.1342204 0.025476662 -0.2509886 -0.34730136 -0.38415748 -0.2698272
0.15103364 -0.09414489 -0.26999074 0.026865758 -0.0035593975 0.14235584 -0.60613286 0.23427361
-0.15829688 -0.34634706 -0.04080636 -0.10187326 0.3424288 -0.25375956 -0.932389 0.13242087
-0.026523096 0.27385157 -0.13679408 -0.46171844 -0.021274213 -0.056900695 -0.39292878 -0.16107447
0.27489075 -0.010636806 -0.75141025 -0.25808 0.7604971 -0.05733904 -0.082937546 0.07906804
-0.59652364 -0.30258825 1.0199217 0.09423055 -0.18928768 0.3592399 1.3336785 0.6971616
0.29963917 -0.017375305 0.8458554 0.590738 0.7338975 0.40581247 -0.7393446 -0.44981945
-0.44108653 -0.06933892 0.43959528 -0.26584083 0.3207438 -0.6005299 -1.3382776 -0.44487128
00000000: ee93 263e 3d05 78be 73f4 c6be 4fcc a33d
00000010: 03de 0cbf ad6f 943e 695b a2be a484 273e
00000020: 785a 8e3d 00c4 7abd 4002 0e3e 2010 ca3c
00000030: e7cd e53d f159 4fbe 685c 92be adf1 1bbe
00000040: 098e d5bc 63a8 e3bc 99e8 5b3e d50f 8a3d
00000050: 4b03 2dbe dee6 8cbe 8313 84be 158e 92be
00000060: de3a b1be fec2 e7bb 59b0 da3d 398d 3b3e
00000070: c535 0fbf dc8f 953e 27ed e6bd df45 b13e
00000080: 9fff 9c3e 2a7e e5be bfa9 1cbf 86eb 91be
00000090: efa2 753e e3bd 38be 2c44 f43d 0475 6fbe
000000a0: 3023 243f 2c2a 0b3e ccc4 443f 9e41 503e
000000b0: 82dd 86be 7a96 833e d4e3 87be e494 163e
000000c0: a9a2 9cbe c368 04bf 6687 9fbf 7f80 d1be
000000d0: 4e6c 353e ac74 b83d c0a5 313f c802 c13e
000000e0: 7fcb 63be d23e 71be 0ff4 0d3f c81e 053e
000000f0: 306c 85be dc9a b63e 413f e4bd 58f3 8d3e
00000100: 2f3d a5be c174 f6bd 1371 09be 6fb4 d03c
00000110: 9481 80be 7cd1 b1be 4ab0 c4be ca26 8abe
00000120: 90a8 1a3e 09cf c0bd 3a3c 8abe 9415 dc3c
00000130: c844 69bb bbc5 113e 862b 1bbf 6ce5 6f3e
00000140: 9418 22be 6754 b1be 9224 27bd eea2 d0bd
00000150: d452 af3e c6ec 81be 0cb1 6ebf 5699 073e
00000160: f746 d9bc 4636 8c3e bf13 0cbe 5c66 ecbe
00000170: 4247 aebc b410 69bd f62d c9be b5f0 24be
00000180: 7bbe 8c3e ff45 2ebc 6c5c 40bf 1023 84be
00000190: f0af 423f 57dc 6abd 29db a9bd 6dee a13d
000001a0: c6b5 18bf d9ec 9abe cb8c 823f f2fb c03d
000001b0: a1d4 41be 4bee b73e fab5 aa3f 2f79 323f
000001c0: 4e6a 993e a856 8ebc fb89 583f 9b3a 173f
000001d0: b5e0 3b3f a7c6 cf3e b045 3dbf bc4e e6be
000001e0: 18d6 e1be 9001 8ebd a212 e13e 4a1c 88be
000001f0: 8838 a43e 54bc 19bf ae4c abbf 2bc6 e3be

mlp.0.bias f4 [32]
0.6178015 0.698917 -0.3105194 0.38945818 0.70271224 0.64014834 0.5578197 0.65855074
0.57634044 0.47469178 -0.54927534 -0.41987926 0.029177181 0.32553568 -0.51693135 0.5408663
0.47628012 0.29856312 0.39621294 0.38635743 0.5739122 0.6859686 -0.21281126 0.6080797
-0.23421189 0.29961655 -0.8332459 0.19957677 -0.33375838 -0.42689753 0.62756497 0.1844286
00000000: 3d28 1e3f 39ec 323f 66fc 9ebe 1067 c73e
00000010: f3e4 333f c3e0 233f 46cd 0e3f c896 283f
00000020: 0c8b 133f cd0a f33e 4f9d 0cbf 6afa d6be
00000030: fc04 ef3c 9dac a63e 9d55 04bf 3776 0a3f
00000040: fdda f33e 44dd 983e 6cdc ca3e a4d0 c53e
00000050: e9eb 123f a39b 2f3f 32eb 59be 1cab 1b3f
00000060: 3ed5 6fbe 5767 993e 9a4f 55bf da5d 4c3e
00000070: 61e2 aabe 5092 dabe 19a8 203f dada 3c3e

mlp.2.weight f4 [32, 32]
0.124415696 0.28769818 0.056598514 0.3841449 0.10804802 0.34534675 0.08185287 0.13481894
0.19869444 0.06897304 -0.57264197 0.07559596 -0.47844893 -0.08531241 0.00022592382 0.3554963
0.3122824 -0.1079549 0.122419 0.30318487 0.16362987 0.2378487 -0.21312945 0.23587643
-0.22051801 0.24722518 -0.4770538 -0.7166542 -0.15393059 -0.20607191 0.24082439 -0.64996725
-0.14371797 -0.06540114 0.1279683 -0.20470573 0.010600149 0.033638977 0.1094084 -0.18642189
-0.034553774 -0.22047587 0.15092315 -0.0685728 0.038630694 -0.048034586 -0.06112405 -0.06474686
-0.033263735 0.041302238 -0.0346861 -0.012055669 -0.2246031 0.06974005 0.06091396 0.06557891
0.049616456 -0.18228091 -0.10749917 0.11364751 -0.18452808 0.065919496 -0.22224899 -0.124523014
0.36527312 0.064406775 -0.040499657 0.3572622 0.36503127 0.40014103 0.1972347 0.08361967
0.437857 0.115539156 -0.56531644 0.043093532 -0.67667764 -0.016077382 -0.0911935 0.0076658535
0.11790921 -0.2039338 0.26349422 0.19269519 0.19093654 0.26883593 -0.24930644 0.07576958
-0.30788565 0.22836491 -0.21103229 -0.55866015 -0.18499617 -0.06577777 0.18661134 -0.9282799
0.01836922 -0.058218382 -0.010245189 -0.09442234 -0.0043645124 0.0864989 -0.2136239 0.0039685103
0.028250346 -0.26945913 0.096769765 -0.13197698 0.38899454 -0.2222642 0.16606264 -0.2491849
-0.022631794 0.24508245 -0.29617688 -0.30380842 -0.18962774 -0.07961663 -0.07788352 -0.12021741
-0.03358969 -0.13730621 0.38851413 0.6860984 -0.13392352 -0.10480697 -0.26213247 0.37839386
0.26092687 0.21686839 0.006539166 0.10785879 0.32873374 0.3201184 0.26112255 0.13292235
0.1818286 0.139324 -0.5878063 -0.09863401 -0.61150354 -0.18465918 -0.17144339 0.09550904
0.25654098 -0.28105876 0.023272248 0.35524982 0.33461878 0.43726468 -0.13599573 0.13948664
-0.39203423 0.018663729 -0.2611179 -0.6580516 -0.26739815 -0.06472428 0.25036746 -0.8151787
-0.080118194 -0.060313128 -0.03357111 -0.11378671 0.026083298 -0.106972694 -0.14721997 -0.007902556
-0.17403623 -0.08393469 0.090335295 0.06606665 0.110193305 -0.12057002 0.0015369952 -0.09669729
-0.14669473 -0.09944635 -0.0020747846 -0.026961297 -0.13786267 -0.16699287 -0.1917727 0.12731153
-0.07391487 -0.040877 -0.06500397 -0.08841766 -0.16166443 -0.14849852 0.06201689 0.03874518
0.2348179 0.110480785 0.11292739 0.34646466 0.39903033 0.27378562 0.33843833 0.21820578
0.15838774 -0.04164023 -0.37686124 -0.025693938 -0.5424024 -0.12802903 -0.38280913 0.050416898
0.3313522 -0.2580206 0.014648224 0.2588217 0.3142779 0.22368409 -0.046376705 0.2198393
-0.2969325 0.23967507 -0.30601448 -0.46635705 -0.24473491 -0.33348662 0.2811324 -0.94052434
0.16149169 0.31017435 0.06278242 0.2766038 0.1894302 0.18567646 0.25526258 0.35435557
0.29702443 0.07577438 -0.32137883 0.0037807375 -0.42293736 -0.08906836 -0.037253402 0.25441444
0.1652413 -0.053823464 0.19849195 0.055683825 0.23651873 0.10241211 -0.16514775 0.08617818
-0.04769466 0.041884854 -0.3976291 -0.4167616 -0.11347641 -0.2515975 0.23703684 -0.737684
00000000: a8cd fe3d 2d4d 933e d8d3 673d a4ae c43e
00000010: 4848 dd3d 4ad1 b03e 7aa2 a73d fa0d 0a3e
00000020: 8e76 4b3e bd41 8d3d aa98 12bf 0ed2 9a3d
00000030: 42f7 f4be 46b8 aebd f7e5 6c39 9c03 b63e
00000040: 7be3 9f3e 7517 ddbd d0b6 fa3d 0c3b 9b3e
00000050: 978e 273e 9c8e 733e 9b3e 5abe 9789 713e
00000060: 79cf 61be 9928 7d3e 6540 f4be a676 37bf
00000070: fb9f 1dbe 8404 53be ab9a 763e 4164 26bf
00000080: ce2a 13be 08f1 85bd 1f0a 033e 619e 51be
00000090: 3fac 2d3c 06c9 093d 8311 e03d 61e5 3ebe
000000a0: 4288 0dbd 6dc4 61be 998b 1a3e e56f 8cbd
000000b0: 383b 1e3d eabf 44bd 365d 7abd 009a 84bd
000000c0: 8e3f 08bd 892c 293d 0313 0ebd 2485 45bc
000000d0: 5bfe 65be dfd3 8e3d eb80 793d 3c4e 863d
000000e0: a03a 4b3d d9a7 3abe 8628 dcbd 07c0 e83d
000000f0: eef4 3cbe cd00 873d 3d95 63be ec05 ffbd
00000100: 1405 bb3e b3e7 833d f8e2 25bd 12eb b63e
00000110: 61e5 ba3e 49df cc3e e5f7 493e ca40 ab3d
00000120: cb2e e03e cb9f ec3d 94b8 10bf d882 303d
00000130: bf3a 2dbf b7b4 83bc a8c3 babd d731 fb3b
00000140: 627a f13d 06d4 50be b7e8 863e e351 453e
00000150: de84 433e dda4 893e 304a 7fbe 152d 9b3d
00000160: 30a3 9dbe 7ed8 693e d918 58be 5a04 0fbf
00000170: a36f 3dbe 7fb6 86bd 0b17 3f3e c0a3 6dbf
00000180: 0c7b 963c 6676 6ebd 70db 27bc 8060 c1bd
00000190: 2f04 8fbb 5626 b13d 39c0 5abe 470a 823b
000001a0: 456d e73c 8cf6 89be 3a2f c63d f924 07be
000001b0: 4b2a c73e 3a99 63be 530c 2a3e 542a 7fbe
000001c0: 5066 b9bc e5f6 7a3e 7fa4 97be c78c 9bbe
000001d0: c62d 42be 0b0e a3bd 6581 9fbd 8c34 f6bd
000001e0: 5895 09bd 009a 0cbe 53eb c63e 25a4 2f3f
000001f0: 3f23 09be 09a5 d6bd 3a36 86be d7bc c13e
00000200: 3598 853e bf12 5e3e 8046 d63b 12e5 dc3d
00000210: ca4f a83e 8fe6 a33e dbb1 853e cc1c 083e
00000220: 4731 3a3e f3aa 0e3e 797a 16bf a100 cabd
00000230: 7f8b 1cbf 4c17 3dbe db8e 2fbe 3e9a c33d
00000240: 5759 833e efe6 8fbe 71a5 be3c 4ee3 b53e
00000250: 2753 ab3e 28e1 df3e 7742 0bbe 96d5 0e3e
00000260: b6b8 c8be ade4 983c 3fb1 85be 1276 28bf
00000270: 69e8 88be 2a8e 84bd 2a30 803e 8daf 50bf
00000280: 0215 a4bd e60a 77bd dc81 09bd 0209 e9bd
00000290: a4ac d53c 8014 dbbd d5c0 16be b979 01bc
000002a0: 8e36 32be f3e5 abbd b601 b93d f44d 873d
000002b0: 07ad e13d 6aed f6bd 0075 c93a 3b09 c6bd
000002c0: 2537 16be 87aa cbbd 1cf9 07bb f0dd dcbc
000002d0: df2b 0dbe 2e00 2bbe 1060 44be f45d 023e
000002e0: ae60 97bd a46e 27bd cd20 85bd 5114 b5bd
000002f0: 5c8b 25be ff0f 18be 6c05 7e3d 44b3 1e3d
00000300: 1b74 703e c043 e23d 7a46 e73d d163 b13e
00000310: b44d cc3e a12d 8c3e ca47 ad3e 5671 5f3e
00000320: 6530 223e f28e 2abd f5f3 c0be 187c d2bc
00000330: e2da 0abf 0b1a 03be 8fff c3be f381 4e3d
00000340: ffa6 a93e 471b 84be 1bff 6f3c 4784 843e
00000350: 08e9 a03e 710d 653e 80f5 3dbd 8e1d 613e
00000360: 8907 98be 626d 753e eead 9cbe 5ac6 eebe
00000370: ca9b 7abe c2be aabe 96f0 8f3e 34c6 70bf
00000380: 145e 253e 2ccf 9e3e 1294 803d 039f 8d3e
00000390: fef9 413e f821 3e3e c7b1 823e 186e b53e
000003a0: 9613 983e 992f 9b3d c48b a4be 40c6 773b
000003b0: 3f8b d8be 7969 b6bd 0697 18bd 9c42 823e
000003c0: 0435 293e fe75 5cbd 7941 4b3e b914 643d
000003d0: f731 723e 71bd d13d 7e1c 29be 307e b03d
000003e0: 7a5b 43bd 748f 2b3d 0b96 cbbe c761 d5be
000003f0: 5266 e8bd 63d1 80be c9b9 723e dcd8 3cbf

mlp.2.bias f4 [32]
0.31475633 0.013425625 0.3078547 -0.06982259 0.35509014 -0.02148212 0.39948782 0.36077866
0.27485913 -0.11679356 0.011718631 0.2624022 0.37467575 -0.129932 0.24908169 0.36096403
0.06660609 0.10770904 0.33591434 0.28940704 -0.035861913 -0.16613449 -0.1233015 -0.030363513
0.11808338 0.0808752 0.4002682 -0.0052240067 -0.1869574 -0.03411949 0.35773495 0.34135675
00000000: be27 a13e 27f7 5b3c 229f 9d3e 25ff 8ebd
00000010: 60ce b53e 45fb afbc ab89 cc3e fbb7 b83e
00000020: 56ba 8c3e 7631 efbd 80ff 3f3c 9559 863e
00000030: 80d5 bf3e e50c 05be 450f 7f3e 47d0 b83e
00000040: c668 883d 8f96 dc3d f7fc ab3e 292d 943e
00000050: f1e3 12bd 291f 2abe 7f85 fcbd e7bc f8bc
00000060: b3d5 f13d e6a1 a53d f4ef cc3e 252e abbb
00000070: c371 3fbe e1c0 0bbd 0929 b73e 50c6 ae3e

mlp.4.weight f4 [2, 32]
0.42251125 -0.0039896136 0.3072305 -0.18815233 0.2440897 -0.07759153 0.21411039 0.3121573
0.3254113 -0.060117938 -0.043835044 -0.37075838 0.25977015 -0.042155065 0.372811 0.45677176
0.14757805 -0.039017677 0.36810488 0.16816911 0.020615969 -0.04759431 0.055280812 -0.0342539
0.22190766 0.19259046 0.37180445 -0.09150573 -0.032944895 -0.084899284 0.36492404 0.37238932
0.22966975 -0.025914283 0.39108175 0.029786672 0.35504806 -0.09500952 0.33711788 0.3359104
0.14994726 0.076788746 0.12890176 0.0137484595 0.38524407 0.058678143 0.1521764 0.2739825
0.17640962 0.04979274 0.42364806 0.4040704 -0.023799405 0.012015775 0.021695986 0.04208328
0.2881754 0.3916217 0.27120718 -0.024906127 -0.078510664 -0.11158066 0.34721062 0.026589235
00000000: 6553 d83e 4ebb 82bb 514d 9d3e 01ab 40be
00000010: a6f2 793e 4fe8 9ebd c13f 5b3e 15d3 9f3e
00000020: 4f9c a63e 3a3e 76bd 608c 33bd 0bd4 bdbe
00000030: 9800 853e caaa 2cbd 15e1 be3e fddd e93e
00000040: b31e 173e 00d1 1fbd 3e78 bc3e 8634 2c3e
00000050: d2e2 a83c 40f2 42bd 226e 623d d14d 0cbd
00000060: c33b 633e 6f36 453e 275d be3e 5b67 bbbd
00000070: 3af1 06bd addf adbd 53d7 ba3e d0a9 be3e
00000080: 8c2e 6b3e 314a d4bc de3b c83e 2e03 f43c
00000090: dcc8 b53e 5a94 c2bd b79a ac3e 73fc ab3e
000000a0: c68b 193e 6b43 9d3d d3fe 033e 3841 613c
000000b0: b63e c53e 7e58 703d 21d4 1b3e 6f47 8c3e
000000c0: b9a4 343e 79f3 4b3d 66e8 d83e 51e2 ce3e
000000d0: f8f6 c2bc d0dd 443c c8bb b13c 845f 2c3d
000000e0: ba8b 933e a482 c83e abdb 8a3e ef07 ccbc
000000f0: 33ca a0bd 6784 e4bd 97c5 b13e abd1 d93c

mlp.4.bias f4 [2]
0.26779714 0.18442419
00000000: b51c 893e b2d9 3c3e

exp_avg f4 [32, 4]
-0.0029463451 -0.0001354384 0.00020706699 0.00026254504 -0.0017393997 0.0001545636 0.0001695415 8.6277636e-05
0.0 0.0 0.0 0.0 -0.001764216 0.0006821712 0.0002762816 -5.2094296e-05
-0.0020809523 0.00017578457 0.00020189577 0.00012233513 -0.0034565981 -0.0002779141 9.914531e-05 -0.0005396539
-0.0030731459 -0.00061984285 0.00012329892 0.0004370946 -0.0022248484 6.793186e-05 0.00019012163 0.00013869508
-0.0022854474 0.00037176785 0.0002520181 3.8727663e-05 9.216433e-05 0.0009435421 0.00018890107 -0.00018464832
0.0047494196 -0.0003266579 8.347935e-05 0.0027346986 0.0 0.0 0.0 0.0
-0.008004612 -0.004221515 -0.00083493907 -0.0037055223 0.00376542 0.0009376943 5.5609864e-05 0.0009892205
-0.004404573 -0.002344518 -0.0002674883 -0.00075162953 -0.0008022982 0.00033594517 0.00014028311 5.829764e-05
-0.0026257462 8.0651116e-05 0.00024444444 0.00032857308 -0.00018659985 0.000221766 -0.00019778761 -0.0017368984
-0.00089624885 0.00050324417 0.00018258899 3.873555e-05 -0.0020103008 0.00019201706 0.0002091391 0.00021199604
-0.0034067861 -0.0004583874 0.00018037923 0.0004183223 -0.0030878983 9.613195e-05 0.00026876567 0.00024975618
5.1552175e-05 3.9622053e-05 6.4357255e-06 1.2181321e-05 -0.0008733165 0.0006827791 0.0002066566 -0.000109442764
9.659942e-05 0.000122007994 3.3256293e-07 -0.00011352438 -0.0022293932 -0.00073283137 -3.1995223e-05 -0.00025825255
-0.009641926 -0.0051328233 -0.0005727983 -0.0015512665 0.019650089 0.0046587638 0.00041627997 0.0064246175
0.0027638983 -0.00018841424 3.9128878e-05 0.0015833976 0.0022737111 0.00038516088 -8.706836e-06 0.00037935018
-0.0017118752 -4.1525218e-05 6.6747474e-05 -0.00029900842 0.0023341677 0.0009491894 -0.0005885961 -0.0037658047
00000000: 7817 41bb 7804 0eb9 1f20 5939 33a6 8939
00000010: 92fc e3ba 5a12 2239 f3c6 3139 f4ef b438
00000020: 0000 0000 0000 0000 0000 0000 0000 0000
00000030: 443d e7ba bcd3 323a e3d9 9039 d37f 5ab8
00000040: 9660 08bb d052 3839 fcb3 5339 1647 0039
00000050: 1888 62bb 00b5 91b9 3cec cf38 8f77 0dba
00000060: d566 49bb f37c 22ba cd49 0139 d829 e539
00000070: c3ce 11bb a476 8e38 635b 4739 ad6e 1139
00000080: 72c7 15bb d6e9 c239 4c21 8439 836f 2238
00000090: 5948 c138 0a58 773a bf13 4639 289e 41b9
000000a0: 05a1 9b3b 4843 abb9 a311 af38 a138 333b
000000b0: 0000 0000 0000 0000 0000 0000 0000 0000
000000c0: c725 03bc a254 8abb d0df 5aba 59d8 72bb
000000d0: 44c5 763b 99cf 753a a33e 6938 bba8 813a
000000e0: 3c54 90bb 7ca6 19bb ac3d 8cb9 0109 45ba
000000f0: 5251 52ba cc21 b039 f618 1339 9d84 7438
00000100: b614 2cbb 3d23 a938 c728 8039 5544 ac39
00000110: 04aa 43b9 db89 6839 3565 4fb9 a4a8 e3ba
00000120: 3ef2 6aba 25ec 033a 5c75 3f39 fb77 2238
00000130: 40bf 03bb 3058 4939 5a4c 5b39 414b 5e39
00000140: 6344 5fbb b753 f0b9 2e24 3d39 4552 db39
00000150: 565e 4abb 739a c938 1ee9 8c39 b5f1 8239
00000160: ba39 5838 db2f 2638 76f2 d736 605e 4c37
00000170: 47ef 64ba 88fc 323a f5b1 5839 a384 e5b8
00000180: 6b95 ca38 8bde ff38 1a8b b234 f013 eeb8
00000190: 031b 12bb 7b1b 40ba 9c32 06b8 1266 87b9
000001a0: 2bf9 1dbc 3e31 a8bb d827 16ba de53 cbba
000001b0: 39f9 a03c 8ba8 983b 2740 da39 9985 d23b
000001c0: 8522 353b 1091 45b9 501e 2438 028a cf3a
000001d0: 8b02 153b 6bef c939 9313 12b7 85e3 c639
000001e0: 0061 e0ba 5d2b 2eb8 c7fa 8b38 3bc4 9cb9
000001f0: d6f8 183b 06d3 783a 044c 1aba b8cb 76bb

exp_avg_sq f4 [32, 4]
0.0014296272 0.0019005922 7.039522e-05 0.002772644 0.00086377247 0.0015612096 5.535032e-05 0.002737295
0.0 0.0 0.0 0.0 0.00169453 0.0020718654 7.267406e-05 0.002912663
0.0011110632 0.0017485308 6.3313986e-05 0.002870792 0.0019683628 0.0024772931 8.6685286e-05 0.0036249843
0.0009210729 0.0016662659 6.2573046e-05 0.00291612 0.0011729016 0.0021543314 7.901245e-05 0.0037808842
0.0015750455 0.0016324486 5.6322144e-05 0.0019739391 0.00043290987 0.00064618856 2.26193e-05 0.0011146285
9.118303e-05 6.851035e-05 3.6415981e-06 2.0579817e-05 0.0 0.0 0.0 0.0
0.0077105877 0.0043073473 9.323588e-05 0.00088285335 3.704709e-05 0.00026886098 1.2383606e-05 0.0005836271
0.0006554465 0.0005157246 1.5913849e-05 0.0005019674 0.00043935937 0.0010408362 3.7065198e-05 0.0020318145
0.001332216 0.0020444389 7.460133e-05 0.0033783074 0.00062100065 0.00039825152 9.871587e-06 0.00018733875
0.000356891 0.00085958716 3.7749487e-05 0.001670457 0.0011932595 0.0020600106 7.554473e-05 0.0035384356
0.0013794942 0.001843511 6.8154586e-05 0.0028640744 0.0020505402 0.0027201977 9.965128e-05 0.0040002726
6.7476894e-06 0.00018868668 8.128644e-06 0.0005020224 0.0008281358 0.0009736168 3.395461e-05 0.0013431396
3.3463987e-06 0.00016554183 9.463928e-06 0.00043830636 2.2222099e-05 0.00041013607 1.7151935e-05 0.0010264781
0.0025115933 0.0016232701 4.0666593e-05 0.0010471306 0.0016279821 0.0032930088 0.00022694356 0.0050398894
9.1776914e-05 0.0003496655 2.5832902e-05 0.00067757507 7.267895e-05 0.0003212905 1.6538246e-05 0.00065601175
0.00067515584 0.0010603266 3.710722e-05 0.0018308009 0.010470669 0.0057843993 0.00011780298 0.0010786542
00000000: 5462 bb3a 4b1d f93a 25a1 9338 3fb5 353b
00000010: ca6e 623a 80a1 cc3a f427 6838 3164 333b
00000020: 0000 0000 0000 0000 0000 0000 0000 0000
00000030: fe1a de3a 22c8 073b 9768 9838 60e2 3e3b
00000040: 18a1 913a f52e e53a 70c7 8438 e623 3c3b
00000050: a6ff 003b 155a 223b cfca b538 2591 6d3b
00000060: 2874 713a 9b66 da3a a639 8338 601c 3f3b
00000070: 0cbc 993a af2f 0d3b 7cb3 a538 b6c8 773b
00000080: c271 ce3a e3f7 d53a 713b 6c38 345d 013b
00000090: 2ef8 e239 fb64 293a 94be bd37 ba18 923a
000000a0: 8439 bf38 37ad 8f38 2e62 7436 d2a2 ac37
000000b0: 0000 0000 0000 0000 0000 0000 0000 0000
000000c0: 19a9 fc3b a624 8d3b a287 c338 496f 673a
000000d0: 0363 1b38 e9f5 8c39 2fc3 4f37 8dfe 183a
000000e0: 45d2 2b3a b131 073a bb7e 8537 7696 033a
000000f0: d159 e639 ab6c 883a 7476 1b38 3128 053b
00000100: c09d ae3a fefb 053b 4973 9c38 9866 5d3b
00000110: a6ca 223a 6acc d039 259e 2537 5d70 4439
00000120: 191d bb39 eb55 613a 3455 1e38 3cf3 da3a
00000130: 2567 9c3a 3e01 073b c56d 9e38 19e5 673b
00000140: 25d0 b43a f7a1 f13a 37ee 8e38 32b3 3b3b
00000150: 5b62 063b 5845 323b e0fb d038 b814 833b
00000160: 366a e236 32da 4539 4360 0837 279a 033a
00000170: 4117 593a 513a 7f3a 7c6a 0e38 490c b03a
00000180: b192 6036 4c95 2d39 43c7 1e37 7ccc e539
00000190: 9869 ba37 8807 d739 80e1 8f37 e48a 863a
000001a0: 8b99 243b e8c3 d43a 6c91 2a38 df3f 893a
000001b0: 0462 d53a 85cf 573b b3f7 6d39 a825 a53b
000001c0: 5b78 c038 4f53 b739 bcb3 d837 4b9f 313a
000001d0: 376b 9838 e272 a839 9dbb 8a37 34f8 2b3a
000001e0: f1fc 303a a8fa 8a3a 93a3 1b38 7cf7 ef3a
000001f0: 2b8d 2b3c 0f8b bd3b fe0c f738 a161 8d3a

exp_avg f4 [32]
-0.0037157703 -0.0028099995 0.0 -0.0040569864 -0.0032515535 -0.005244845 -0.0028868045 -0.0032494452
-0.0039976775 -0.0021261713 0.0077108266 0.0 -0.011071758 0.000770174 0.0023790016 -0.0019522938
-0.003197903 -0.001984706 -0.0024777004 -0.0032868956 -0.003672886 -0.00448552 3.0779378e-05 -0.00282909
0.00017397109 -0.001074844 0.00539249 -0.0029972708 0.0045800866 0.00416849 -0.003060268 0.0007841329
00000000: 4884 73bb f827 38bb 0000 0000 78f0 84bb
00000010: 0418 55bb f3dc abbb 8b30 3dbb a5f4 54bb
00000020: f3fe 82bb 3c57 0bbb 1aab fc3b 0000 0000
00000030: 5266 35bc 81e5 493a 06e9 1b3b 1ce4 ffba
00000040: e993 51bb d711 02bb ea60 22bb f568 57bb
00000050: cdb4 70bb 45fb 92bb 1b19 0138 4168 39bb
00000060: 026c 3639 c8e1 8cba 7cb3 b03b dc6d 44bb
00000070: 8d14 963b d497 883b c78e 48bb 458e 4d3a

exp_avg_sq f4 [32]
0.0027579188 0.0023046338 0.0 0.0030096609 0.0025123225 0.0038279633 0.0024745946 0.0031947067
0.00236321 0.0008499129 9.448754e-05 0.0 0.0038946841 0.0004106948 0.0004200949 0.0014452497
0.002961981 0.00044873467 0.0013573291 0.0030883313 0.0027173967 0.0039986796 0.00019948918 0.0013570698
0.00022402043 0.00053540076 0.0012122742 0.006695697 0.000611778 0.00043665044 0.0013991528 0.0061755446
00000000: 33be 343b 5709 173b 0000 0000 bb3d 453b
00000010: c7a5 243b 91de 7a3b cf2c 223b 495e 513b
00000020: 16e0 1a3b b0cc 5e3a 9d27 c638 0000 0000
00000030: f53d 7f3b 8652 d739 2f40 dc39 886e bd3a
00000040: cc1d 423b 2644 eb39 68e8 b13a 9a65 4a3b
00000050: 5a16 323b 5b07 833b f82d 5139 b5df b13a
00000060: 07e7 6a39 235a 0c3a 2ce5 9e3a 9467 db3b
00000070: ba5f 203a 3bee e439 c763 b73a 395c ca3b

exp_avg f4 [32, 32]
-0.0008218167 -0.00075722137 0.0 -0.00049719884 -0.0007649309 -0.00085962756 -0.00069577317 -0.000726001
-0.0008195756 -0.0004925548 3.3538177e-05 0.0 -0.0012178104 -0.0006903437 -7.4662035e-05 -0.00047870656
-0.00066201977 -0.0005586518 -0.00045553007 -0.00042030698 -0.0008358298 -0.0009316451 -0.00010516391 -0.00069186883
-7.841532e-06 -0.0013075786 -0.00056819647 -0.00043571656 -7.505365e-05 -0.00013235249 -0.00071370153 -0.00039583712
1.54e-43 3.98e-43 0.0 1.06e-43 3.27e-43 3.52e-43 1.72e-43 1.89e-43
2.97e-43 2.48e-43 0.0 0.0 1.5e-44 5.5e-44 8e-45 9.5e-44
8.5e-44 6e-45 1e-43 9.4e-44 1.82e-43 1.78e-43 2.63e-43 5.6e-43
7.4e-44 3.5e-44 6e-45 6e-45 2.7e-44 2.83e-43 4.65e-43 0.0
-0.000738194 -0.00016871157 0.0 -0.0004812687 -0.0006411045 -0.00045801426 -0.00016153246 -8.6272375e-05
-0.0008617863 -0.0006930129 7.654142e-05 0.0 -0.00067063177 -0.00073557143 -4.3868076e-05 -0.00029138164
-0.00011362881 2.8807914e-05 -0.00051726925 -0.0003874554 -0.00035347545 -0.0010099859 -7.800521e-05 -0.00059903384
-5.758421e-06 -0.0017683834 -0.00038756194 -0.00021176701 -0.00010714123 -3.8486425e-05 -0.00016576497 -0.00023989979
0.0001689474 0.00043420703 0.0 0.00013655613 0.00021675296 0.00041692227 0.0003467386 0.00039891026
0.00018385985 7.287927e-05 0.0 0.0 0.00045261328 -2.1023008e-09 2.4077499e-05 0.00017371526
0.00036923465 0.00040000456 5.923126e-05 6.6007684e-05 0.00038395598 0.000102618455 3.6113462e-07 0.00024121457
8.78052e-27 -1.0549468e-21 0.00015577348 -4.6232498e-07 3.0514298e-25 9.322049e-25 0.00047939338 0.00016430528
-0.0006136797 -5.6136043e-05 0.0 -0.0004056308 -0.00052552583 -0.0003286088 -5.806266e-05 2.118068e-05
-0.00073672575 -0.0006172766 7.0856426e-05 0.0 -0.00048715124 -0.0006310145 -3.2646993e-05 -0.00021977669
-1.5129772e-05 0.000111480294 -0.00044788653 -0.0003239696 -0.00022815632 -0.00086815836 -6.212378e-05 -0.000494142
-4.571352e-06 -0.0015676674 -0.00030180745 -0.00014734283 -9.571922e-05 -1.9308458e-05 -5.9249065e-05 -0.00018024942
1e-44 8.1e-44 0.0 1.1e-44 5.6e-44 7.6e-44 1.8e-44 2.2e-44
6.2e-44 6.2e-44 0.0 0.0 7e-45 0.0 0.0 6e-45
1e-44 0.0 1.8e-44 1.8e-44 3.2e-44 7e-45 6.9e-44 1.6e-43
2.8e-44 0.0 0.0 0.0 0.0 6.9e-44 1.3e-43 0.0
-0.00055351265 -3.983528e-06 0.0 -0.00036911183 -0.00046968448 -0.00026801188 -1.0111579e-05 7.079702e-05
-0.00067615096 -0.00057958567 6.838653e-05 0.0 -0.000401514 -0.0005795664 -2.7403132e-05 -0.00018536729
3.006821e-05 0.00014875288 -0.0004137822 -0.00029299187 -0.00016976723 -0.00079881185 -5.4595803e-05 -0.00044371528
-4.0097098e-06 -0.0014684534 -0.00026143165 -0.0001162368 -8.9726316e-05 -1.0165983e-05 -1.0268192e-05 -0.00015222849
-0.00071142794 -0.0002730969 0.0 -0.0004563991 -0.00062802335 -0.0005090585 -0.0002556025 -0.00020533107
-0.0008033843 -0.0006141144 6.3810476e-05 0.0 -0.0007356412 -0.0006836524 -4.7206366e-05 -0.0003111066
-0.00021311804 -8.620747e-05 -0.0004753801 -0.00037147637 -0.00042612373 -0.00093604537 -7.857877e-05 -0.00058234675
-5.808586e-06 -0.0015748764 -0.0003992042 -0.00024257998 -9.416371e-05 -5.481332e-05 -0.00026232607 -0.00025589557
00000000: 2f6f 57ba 4480 46ba 0000 0000 7356 02ba
00000010: a585 48ba a158 61ba 8c64 36ba 1a51 3eba
00000020: cad8 56ba cb1e 01ba 58ab 0c38 0000 0000
00000030: f09e 9fba 2ef8 34ba e093 9cb8 e8fa fab9
00000040: 658b 2dba 7d72 12ba 36d4 eeb9 a65c dcb9
00000050: 971b 5bba a539 74ba 728b dcb8 885e 35ba
00000060: 208f 03b7 0f63 abba 05f3 14ba e370 e4b9
00000070: 1f66 9db8 1ac8 0ab9 b317 3bba 5c88 cfb9
00000080: 6e00 0000 1c01 0000 0000 0000 4c00 0000
00000090: e900 0000 fb00 0000 7b00 0000 8700 0000
000000a0: d400 0000 b100 0000 0000 0000 0000 0000
000000b0: 0b00 0000 2700 0000 0600 0000 4400 0000
000000c0: 3d00 0000 0400 0000 4700 0000 4300 0000
000000d0: 8200 0000 7f00 0000 bc00 0000 9001 0000
000000e0: 3500 0000 1900 0000 0400 0000 0400 0000
000000f0: 1300 0000 ca00 0000 4c01 0000 0000 0000
00000100: 5c83 41ba 2be8 30b9 0000 0000 cb52 fcb9
00000110: cb0f 28ba a221 f0b9 0a61 29b9 21ed b4b8
00000120: 80e9 61ba 4fab 35ba dd84 a038 0000 0000
00000130: 56cd 2fba 5dd3 40ba fdfe 37b8 95c4 98b9
00000140: 014c eeb8 86a8 f137 5a99 07ba 6223 cbb9
00000150: ac52 b9b9 8161 84ba ba96 a3b8 7b08 1dba
00000160: 7638 c1b6 1ac9 e7ba af31 cbb9 c60d 5eb9
00000170: 03b1 e0b8 7c6c 21b8 32d1 2db9 9c8d 7bb9
00000180: 7927 3139 48a6 e339 0000 0000 8230 0f39
00000190: 2e48 6339 5c96 da39 78ca b539 d424 d139
000001a0: 81ca 4039 c3d6 9838 0000 0000 0000 0000
000001b0: ba4c ed39 1178 10b1 09fa c937 5627 3639
000001c0: d695 c139 b4b7 d139 156f 7838 9b6d 8a38
000001d0: b34d c939 dd34 d738 f7e1 c134 8bee 7c39
000001e0: 87ea 2d14 476b 9f9c 2057 2339 7635 f8b4
000001f0: d6df bc16 7140 9017 1757 fb39 5d49 2c39
00000200: 59df 20ba 9e73 6bb8 0000 0000 d8aa d4b9
00000210: 71c3 09ba 2049 acb9 4e88 73b8 2aad b137
00000220: d420 41ba bbd0 21ba c198 9438 0000 0000
00000230: 5568 ffb9 ab6a 25ba 71ee 08b8 db73 66b9
00000240: e0d5 7db7 87ca e938 50d2 eab9 77da a9b9
00000250: 3f3d 6fb9 1f95 63ba 7348 82b8 4f89 01ba
00000260: 9d63 99b6 307a cdba e93b 9eb9 0a80 1ab9
00000270: ddbc c8b8 99f8 a1b7 3382 78b8 5601 3db9
00000280: 0700 0000 3a00 0000 0000 0000 0800 0000
00000290: 2800 0000 3600 0000 0d00 0000 1000 0000
000002a0: 2c00 0000 2c00 0000 0000 0000 0000 0000
000002b0: 0500 0000 0000 0000 0000 0000 0400 0000
000002c0: 0700 0000 0000 0000 0d00 0000 0d00 0000
000002d0: 1700 0000 0500 0000 3100 0000 7200 0000
000002e0: 1400 0000 0000 0000 0000 0000 0000 0000
000002f0: 0000 0000 3100 0000 5d00 0000 0000 0000
00000300: 9b19 11ba 3faa 85b6 0000 0000 5a85 c1b9
00000310: fc3f f6b9 f283 8cb9 e7a4 29b7 dc78 9438
00000320: b93f 31ba 56ef 17ba bd6a 8f38 0000 0000
00000330: 4c82 d2b9 0bee 17ba c7df e5b7 275f 42b9
00000340: fd3a fc37 8cfa 1b39 e8f0 d8b9 b49c 99b9
00000350: 8b03 32b9 5b67 51ba ccfd 64b8 75a2 e8b9
00000360: 258b 86b6 1f79 c0ba c310 89b9 28c4 f3b8
00000370: 732b bcb8 918e 2ab7 8d45 2cb7 869f 1fb9
00000380: 1f7f 3aba 722e 8fb9 0000 0000 da48 efb9
00000390: efa1 24ba 5672 05ba 6302 86b9 244e 57b9
000003a0: 359a 52ba 85fc 20ba fdd1 8538 0000 0000
000003b0: 0cd8 40ba 2337 33ba 73ff 45b8 051c a3b9
000003c0: 7078 5fb9 48ca b4b8 703c f9b9 b7c2 c2b9
000003d0: 5c69 dfb9 f160 75ba a8ca a4b8 a1a8 18ba
000003e0: 60e7 c2b6 156c ceba 484c d1b9 115d 7eb9
000003f0: c279 c5b8 5be7 65b8 cf88 89b9 b929 86b9

exp_avg_sq f4 [32, 32]
0.00012560045 0.00018769816 0.0 4.19825e-05 0.00014991972 0.00016943591 0.00015071446 0.00019922083
9.3742114e-05 6.1074665e-05 3.1729817e-07 0.0 0.00010791091 0.00014312858 5.046578e-05 9.771318e-05
0.00012228027 7.174778e-05 3.4088825e-05 3.9300292e-05 0.0001485977 0.00014687418 8.561023e-05 0.00011327541
1.50424385e-05 7.064585e-05 4.668691e-05 0.00011693664 0.0001166014 0.00011927648 0.00019929119 2.023846e-05
5.628182e-07 1.6357604e-06 0.0 9.275219e-08 1.2878899e-06 1.0587659e-06 5.788998e-07 7.65505e-07
8.3680203e-07 3.5687506e-07 0.0 0.0 3.7427133e-09 1.01622874e-07 4.185649e-09 2.3779769e-07
1.547816e-07 3.9301187e-10 2.0848994e-07 1.4296502e-07 5.8863776e-07 7.9804516e-07 3.4551752e-07 2.6669702e-06
4.452072e-08 3.8361467e-08 6.942383e-11 5.998221e-10 2.976538e-08 3.816605e-07 1.6163334e-06 0.0
0.00014908328 0.00027655068 0.0 5.7533947e-05 0.00023550028 0.00022705967 0.00018228493 0.00023362115
0.00013877022 0.00010092177 5.7036107e-07 0.0 8.2361075e-05 0.00015322842 5.8657006e-05 0.000115358926
0.00012470527 5.7201847e-05 4.1106217e-05 5.5358236e-05 0.00015855265 0.00017436649 0.00016839294 0.00020108833
2.4595438e-05 7.9699894e-05 4.792417e-05 0.00012234249 0.00012333038 0.00023748225 0.00027158353 1.5574478e-05
1.8211172e-06 6.754293e-06 0.0 1.0348351e-06 2.1363012e-06 7.694891e-06 4.9185355e-06 5.6193844e-06
2.3283412e-06 3.1325877e-07 0.0 0.0 1.052082e-05 6.765228e-08 2.171619e-07 9.385641e-07
6.1329247e-06 6.576012e-06 1.2003906e-07 2.199508e-07 6.918804e-06 1.2697454e-06 6.873681e-08 2.5704305e-06
2.1640853e-08 4.6461302e-08 3.2604166e-06 1.36808165e-08 1.6101312e-08 1.2361646e-07 8.856537e-06 1.6878984e-06
9.7390286e-05 0.00017979728 0.0 3.8391743e-05 0.00015137068 0.00014729977 0.000121395555 0.0001558758
8.919321e-05 6.6614884e-05 4.5244542e-07 0.0 5.758137e-05 9.7833705e-05 3.686068e-05 8.006384e-05
8.464227e-05 3.9865514e-05 2.858009e-05 3.792748e-05 0.00010547551 0.000113459864 0.0001126121 0.00012682533
1.7040084e-05 5.3460193e-05 3.49548e-05 8.53311e-05 7.8239296e-05 0.00016125116 0.00017856019 1.0924455e-05
6.1841656e-09 3.3073493e-07 0.0 5.7153122e-09 1.4779192e-07 2.8508686e-07 1.743508e-08 2.497155e-08
2.107526e-07 1.9073714e-07 0.0 0.0 4.6694697e-09 0.0 0.0 1.9732342e-09
5.1513553e-09 0.0 1.9692163e-08 1.8078545e-08 5.5299765e-08 4.38833e-09 2.50016e-07 1.3413104e-06
4.7248964e-08 0.0 0.0 0.0 0.0 2.604459e-07 8.8818535e-07 0.0
8.122832e-05 0.000144177 0.0 3.1034233e-05 0.00012211608 0.00011693017 0.00010050628 0.00013033177
7.059632e-05 5.3317755e-05 4.0241545e-07 0.0 4.7707843e-05 8.426765e-05 3.1489726e-05 6.842984e-05
7.046899e-05 3.302289e-05 2.4474712e-05 3.1705098e-05 8.6790475e-05 9.4977615e-05 9.14382e-05 9.85104e-05
1.4116886e-05 4.6068024e-05 3.008445e-05 7.529225e-05 6.7503715e-05 0.00013188255 0.00014200299 9.084335e-06
0.00013785517 0.00024570065 0.0 5.152317e-05 0.00021050173 0.00020260205 0.00016610484 0.00021429377
0.00012360107 8.9764624e-05 4.5035296e-07 0.0 7.609614e-05 0.00014983659 5.782006e-05 0.00010568628
0.00011450309 5.2868625e-05 3.752061e-05 4.966775e-05 0.00014506654 0.00016220141 0.00015431602 0.00017574703
2.2635573e-05 7.532179e-05 4.3257533e-05 0.00011680123 0.00012219523 0.0002172909 0.00024138624 1.4407054e-05
00000000: 9db3 0339 d7d0 4439 0000 0000 5e16 3038
00000010: c533 1d39 9baa 3139 1b09 1e39 efe5 5039
00000020: 6a97 c438 3615 8038 2159 aa34 0000 0000
00000030: 3b4e e238 c914 1639 38ab 5338 5deb cc38
00000040: 5c38 0039 4c77 9638 99fa 0e38 5ed6 2438
00000050: e4d0 1b39 3d02 1a39 a489 b338 468e ed38
00000060: c85e 7c37 b427 9438 b0d1 4338 e13b f538
00000070: e687 f438 1324 fa38 d2f8 5039 c3c5 a937
00000080: 9214 1735 4d8c db35 0000 0000 0e2f c733
00000090: 8fdb ac35 eb1a 8e35 b165 1b35 1a7d 4d35
000000a0: 99a0 6035 8998 bf34 0000 0000 0000 0000
000000b0: 4199 8031 c43b da33 5cd1 8f31 5555 7f34
000000c0: 0b32 2634 810f d82f 47dd 5f34 ed81 1934
000000d0: e102 1e35 3f39 5635 917f b934 33fa 3236
000000e0: 0d37 3f33 e1c2 2433 24aa 982e bae0 2430
000000f0: c3ae ff32 05e7 cc34 cbf0 d835 0000 0000
00000100: 3d53 1c39 01fe 9039 0000 0000 9b50 7138
00000110: a0f0 7639 de16 6e39 bd23 3f39 33f8 7439
00000120: d982 1139 f6a5 d338 ea1a 1935 0000 0000
00000130: 44b9 ac38 f1ab 2039 7b06 7638 daec f138
00000140: 51c3 0239 04ec 6f38 7769 2c38 7430 6838
00000150: 2741 2639 26d6 3639 a392 3039 3ddb 5239
00000160: 4d52 ce37 8e24 a738 3002 4938 1049 0039
00000170: 3f52 0139 a804 7939 5363 8e39 f0a5 8237
00000180: 1c6d f435 efa2 e236 0000 0000 aae4 8a35
00000190: 605d 0f36 4e19 0137 e609 a536 258e bc36
000001a0: 9940 1c36 f52d a834 0000 0000 0000 0000
000001b0: 9482 3037 3c48 9133 022d 6934 a2f1 7b35
000001c0: 6cc9 cd36 83a7 dc36 16e4 0034 9e2b 6c34
000001d0: 1328 e836 1f6c aa35 769c 9333 a97f 2c36
000001e0: bde4 b932 be8c 4733 88cd 5a36 de08 6b32
000001f0: 294f 8a32 6fbb 0434 8996 1437 bf8b e235
00000200: 033e cc38 f787 3c39 0000 0000 d206 2138
00000210: 42b9 1e39 7b74 1a39 be95 fe38 9772 2339
00000220: 3d0d bb38 98b3 8b38 a0e7 f234 0000 0000
00000230: 8683 7138 122c cd38 db9a 1a38 f2e7 a738
00000240: f981 b138 4535 2738 47bf ef37 5214 1f38
00000250: bc32 dd38 4df1 ed38 292a ec38 6afc 0439
00000260: 4df1 8e37 723a 6038 6e9c 1238 c9f3 b238
00000270: 6714 a438 8715 2939 e33b 3b39 2d48 3737
00000280: 7f7c d431 dd8f b134 0000 0000 6b60 c431
00000290: bcb0 1e34 0a0e 9934 25c4 9532 0581 d632
000002a0: 3c4b 6234 6dcd 4c34 0000 0000 0000 0000
000002b0: 1771 a031 0000 0000 0000 0000 8199 0731
000002c0: cdff b031 0000 0000 8627 a932 244b 9b32
000002d0: bc82 6d33 29c8 9631 f039 8634 1307 b435
000002e0: c9ee 4a33 0000 0000 0000 0000 0000 0000
000002f0: 0000 0000 69d3 8b34 a26b 6e35 0000 0000
00000300: 1f59 aa38 382e 1739 0000 0000 c12a 0238
00000310: 490c 0039 6838 f538 e6c6 d238 aba9 0839
00000320: 1c0d 9438 81a1 5f38 8f0b d834 0000 0000
00000330: e819 4838 dab8 b038 d613 0438 fe81 8f38
00000340: c0c8 9338 0f82 0a38 0b4f cd37 17fb 0438
00000350: 4803 b638 b82e c738 83c2 bf38 5e97 ce38
00000360: 90d7 6c37 2a39 4138 dd5d fc37 38e6 9d38
00000370: c890 8d38 f449 0a39 a3e6 1439 ec68 1837
00000380: 378d 1039 62d1 8039 0000 0000 951a 5838
00000390: 21ba 5c39 9371 5439 6e2c 2e39 0cb4 6039
000003a0: e99a 0139 0440 bc38 0ac8 f134 0000 0000
000003b0: ce95 9f38 741d 1d39 d183 7238 e4a3 dd38
000003c0: 6121 f038 41bf 5d38 735f 1d38 5752 5038
000003d0: 011d 1839 9c14 2a39 e4cf 2139 bc48 3839
000003e0: 86e1 bd37 14f6 9d38 6c6f 3538 2ff3 f438
000003f0: 8821 0039 95d8 6339 a01c 7d39 d3b5 7137

exp_avg f4 [32]
-0.0011206164 8.77e-43 -0.0010277575 0.00030752778 -0.00085790287 2.05e-43 -0.0007756078 -0.0009861804
-0.0008364663 4.5832992e-32 0.0 0.00075704936 -0.0009189527 5.191162e-32 -0.0009406356 -0.0012368035
0.0 3.76e-43 -0.0011905269 -0.00074062264 1.9274027e-31 0.0 8.5e-44 1.32e-43
-0.00074588996 -0.00077990344 -0.0010501182 8.9e-43 1.5e-44 3.11e-43 -0.0011101242 -0.000819221
00000000: a6e1 92ba 7202 0000 d2b5 86ba ae3b a139
00000010: e3e4 60ba 9200 0000 2952 4bba b942 81ba
00000020: 4e46 5bba 7ffa 6d0b 0000 0000 b974 463a
00000030: dfe5 70ba 30c5 860b fd94 76ba 3d1c a2ba
00000040: 0000 0000 0c01 0000 740b 9cba 5826 42ba
00000050: f130 7a0c 0000 0000 3d00 0000 5e00 0000
00000060: d487 43ba 6f72 4cba 1fa4 89ba 7b02 0000
00000070: 0b00 0000 de00 0000 9681 91ba fec0 56ba

exp_avg_sq f4 [32]
0.00030563548 8.226412e-06 0.0006039661 4.7493713e-06 0.00035993845 2.1069234e-06 0.00027730074 0.00053204625
0.00024168099 1.6617094e-10 0.0 0.00014008628 0.00022900286 2.0287243e-06 0.00027714137 0.0003526076
0.0 2.8831955e-06 0.00070902234 0.0003615689 4.6547775e-06 0.0 2.0091703e-07 7.486377e-07
0.00035213382 0.0002512793 0.00022403662 1.4338999e-05 2.2455671e-08 5.3737003e-06 0.0005960582 0.00019622136
00000000: b33d a039 2c04 0a37 7b53 1e3a ca5c 9f36
00000010: 1fb6 bc39 ab64 0d36 ad62 9139 0579 0b3a
00000020: bf6b 7d39 f6b4 362f 0000 0000 20e4 1239
00000030: 7d20 7039 3825 0836 494d 9139 31de b839
00000040: 0000 0000 ec7c 4136 afdd 393a f590 bd39
00000050: 3c30 9c36 0000 0000 a7bb 5734 fef5 4835
00000060: 9a9e b839 23be 8339 5feb 6a39 8891 7037
00000070: 8be4 c032 bc4f b436 ca40 1c3a c5c0 4d39

exp_avg f4 [2, 32]
-0.0028646607 -8.03e-43 -0.001967397 -0.0001697561 -0.0026648357 -2.2e-44 -0.0033839408 -0.003571105
-0.0049465927 -6e-45 0.0 -0.0042579644 -0.0018985068 -8.1131364e-33 -0.004296701 -0.0025565822
0.0 -6.5e-43 -0.0024938376 -0.0020092293 4.460069e-31 0.0 -2.1e-43 -1.32e-43
-0.0030374161 -0.0014922182 -0.0016290491 -3.84e-43 -6e-45 -6.6e-44 -0.0024814135 -0.0004003036
-0.0014160204 -8.91e-43 -0.003029358 -8.734379e-06 -0.0009660422 -4e-44 -0.001040791 0.000257296
-0.00079590623 -7.271726e-31 0.0 1.6628062e-05 -0.0011875615 5.151357e-32 -0.0003105146 -0.0013319431
0.0 -7.41e-43 -0.00094573305 -0.0013322894 -2.3477723e-31 0.0 -2.9e-43 -1.19e-43
-0.0010218507 -0.0010274063 -0.0019610077 -4.64e-43 -7e-45 -4.8e-44 -0.0014328575 -0.0019024753
00000000: 08bd 3bbb 3d02 0080 72ef 00bb 8e00 32b9
00000010: 86a4 2ebb 1000 0080 1bc5 5dbb 3309 6abb
00000020: 0717 a2bb 0400 0080 0000 0000 6586 8bbb
00000030: 51d7 f8ba d580 288a 57cb 8cbb 558c 27bb
00000040: 0000 0000 d001 0080 a76f 23bb 46ad 03bb
00000050: cebc 100d 0000 0000 9600 0080 5e00 0080
00000060: 630f 47bb 8996 c3ba d185 d5ba 1201 0080
00000070: 0400 0080 2f00 0080 369f 22bb d7df d1b9
00000080: c399 b9ba 7c02 0080 3288 46bb df89 12b7
00000090: ff3d 7dba 1d00 0080 276b 88ba afe5 8639
000000a0: 5da4 50ba 23fb 6b8d 0000 0000 7e7c 8b37
000000b0: f4a7 9bba a4bc 850b 90cc a2b9 9894 aeba
000000c0: 0000 0000 1102 0080 12eb 77ba 37a0 aeba
000000d0: 0f61 988c 0000 0000 cf00 0080 5500 0080
000000e0: 9fef 85ba 09aa 86ba 4084 00bb 4b01 0080
000000f0: 0500 0080 2200 0080 b8ce bbba 7a5c f9ba

exp_avg_sq f4 [2, 32]
0.0051070005 1.0399552e-05 0.007118435 0.00010935514 0.0078347465 5.180482e-08 0.008510725 0.0071969256
0.0098304115 1.6374612e-14 0.0 0.0023448437 0.0038897404 7.080279e-06 0.008340446 0.004822657
0.0 1.0495481e-05 0.0064484524 0.0069504757 1.7802486e-05 0.0 8.748239e-07 1.0651344e-06
0.009383535 0.004328212 0.003925972 3.982216e-06 5.3064975e-09 3.483168e-07 0.007754387 0.0019281426
0.0044445116 1.1376221e-05 0.0073971567 7.4616786e-05 0.008475761 1.2302645e-07 0.00899818 0.007111661
0.009880003 1.237838e-10 0.0 0.0025731688 0.0040905587 6.8953887e-06 0.007990792 0.0045856126
0.0 1.0885344e-05 0.006335821 0.007094823 1.6236056e-05 0.0 1.4913554e-06 7.4982535e-07
0.009664978 0.0048673074 0.0037508642 4.5121055e-06 3.4960081e-09 1.8851895e-07 0.00802739 0.0021378794
00000000: a058 a73b bc79 2e37 c341 e93b 9855 e538
00000010: 4f5d 003c 0180 5e33 9170 0b3c 30d4 eb3b
00000020: bc0f 213c 497d 9328 0000 0000 f3ab 193b
00000030: 04eb 7e3b 2293 ed36 5ea6 083c 6107 9e3b
00000040: 0000 0000 bf15 3037 8a4d d33b d1c0 e33b
00000050: 8c56 9537 0000 0000 71d5 6a35 bdf5 8e35
00000060: 66bd 193c acd3 8d3b 71a5 803b fa9e 8536
00000070: 7254 b631 4c00 bb34 8318 fe3b bbb9 fc3a
00000080: 44a3 913b 7fdc 3e37 d963 f23b 957b 9c38
00000090: ebdd 0a3c 4119 0434 1a6d 133c f008 e93b
000000a0: bcdf 213c 0b1a 082f 0000 0000 9ca2 283b
000000b0: 180a 863b f05e e736 d0eb 023c e842 963b
000000c0: 0000 0000 32a0 3637 b89c cf3b b07b e83b
000000d0: aa32 8837 0000 0000 952a c835 9b47 4935
000000e0: db59 1e3c ef7d 9f3b 0fd1 753b b166 9736
000000f0: 6d3e 7031 b26b 4a34 5085 033c aa1b 0c3b

exp_avg f4 [2]
-0.0021611059 -0.0009565896
00000000: 57a1 0dbb a4c3 7aba

exp_avg_sq f4 [2]
0.0033189845 0.0037706771
00000000: 5283 593b 771d 773b
