_models/CartPole-v1_DDQN.pt (torch, 22958 bytes, 18 tensors)

mlp.0.weight f4 [32, 4]
000000 37 9a a9 3e c8 b3 33 be 1a 8c c6 bd 4a 36 26 3e
       0.3312547 -0.1754905 -0.09694691 0.16231647
000010 f2 2e b5 be 5e 84 c2 3e d0 67 aa bd 84 73 35 3e
       -0.3538738 0.37991613 -0.08320582 0.17719847
000020 78 5a 8e 3d 00 c4 7a bd 40 02 0e 3e 20 10 ca 3c
       0.06950849 -0.061222076 0.13868046 0.024665892
000030 cf 6a 65 3e 32 a3 76 be 2b 29 cf bd 4c f7 74 bd
       0.22404025 -0.24085692 -0.10115274 -0.059806153
000040 de ea 1f 3e 8d ad 8e 3d 55 e7 fa 3e 58 a0 bf 3d
       0.15616938 0.06966696 0.49004617 0.09356755
000050 e3 3c 88 bd 87 84 a6 be ff 01 b2 bd 93 d6 69 be
       -0.06652238 -0.32522985 -0.08691787 -0.2283576
000060 7e c8 a6 bc cf a3 c5 3d 67 96 b7 3e ba f1 5f 3e
       -0.020359274 0.09650385 0.35856935 0.21869555
000070 67 fc ac be f4 08 c9 3e 35 4c 97 3e f1 75 df 3e
       -0.33786318 0.39264643 0.2955033 0.4364467
000080 c1 23 73 3e 67 ef 16 bf 32 a5 10 bf 8c 31 77 be
       0.23744108 -0.5895905 -0.5650207 -0.24139994
000090 22 f6 77 3e b4 69 2e be cd a9 79 3e 20 38 50 be
       0.24214986 -0.1703251 0.2438118 -0.2033391
0000a0 b4 d0 25 3f 78 cb a9 3d e7 b8 13 3f be 19 40 be
       0.6477158 0.08290762 0.57704014 -0.1875982
0000b0 25 60 3f be 56 d8 7f 3e 15 c2 8c be 8f 44 fd 3d
       -0.1868902 0.2498487 -0.27491823 0.12366592
0000c0 10 49 04 be 77 18 5e be 57 52 c6 bf 81 ce b4 be
       -0.12918496 -0.2168902 -1.5493878 -0.353138
0000d0 88 88 29 3f dc 9f 3a be 3c 65 3a 3e 9d ea a5 3e
       0.66223955 -0.18225044 0.1820268 0.32405558
0000e0 97 e4 1d bd 8b 87 80 be b5 bd 35 3f 53 cb aa 3e
       -0.03854808 -0.2510341 0.70992595 0.3335825
0000f0 cf 2b 57 be ae ed ed 3e b2 a6 21 3f 54 a9 d2 3e
       -0.21012805 0.46470398 0.6314498 0.41144812
000100 ad 3e 13 be b8 4c 95 bd 34 17 85 3d 80 17 8c 3d
       -0.14379378 -0.072900236 0.06498566 0.0684042
000110 b8 2c 10 be da 3c ca be 77 e0 6c bf 0b 37 d1 be
       -0.14079559 -0.3949955 -0.92530006 -0.40862307
000120 ee 6b 2d 3e 8e 90 82 3c c2 9c 07 3e cd 65 b0 3d
       0.16935703 0.01593807 0.13243392 0.08613167
000130 d1 5c a7 3d bc 82 1a 3e 92 23 fe be bc af 89 3e
       0.08172 0.15088934 -0.49636513 0.26891887
000140 75 54 ba be 8c eb c5 be ae c1 2e 3d 91 98 ec bd
       -0.3639256 -0.3865627 0.042665176 -0.11552537
000150 9f d5 e3 3e d9 dd 54 be 0d cc 14 bf 90 ee 7d 3e
       0.44498917 -0.20787753 -0.58123857 0.24798036
000160 8d e9 64 be e7 c4 9e 3e 42 82 22 3e 2c 92 e6 be
       -0.22354718 0.310096 0.15870002 -0.45033395
000170 93 64 98 3c 1c 18 8d bd 9b 54 9e be 34 08 c1 bd
       0.018602645 -0.06889364 -0.30923924 -0.09425393
000180 e7 33 50 bd 34 1e 5d 3c 29 a2 dc bd e9 2c a6 bd
       -0.050830748 0.0134959705 -0.10773117 -0.08114035
000190 6c 8f 16 3f 97 40 da 3c df 86 48 3e 3a b4 21 3e
       0.58812594 0.026642127 0.19582699 0.15791407
0001a0 89 c9 49 bf bc 21 bb be d6 67 97 3f a2 6c b8 3e
       -0.78823143 -0.36549175 1.1828563 0.3602038
0001b0 a8 d0 a6 3d 83 7e 4b 3e e2 d8 8a 3f 7e 74 31 3f
       0.08145267 0.19872479 1.0847437 0.6931838
0001c0 ae a0 10 3f c1 fb 7c be 2c fe d4 3e c5 6f 00 3f
       0.5649518 -0.24705411 0.41600168 0.50170547
0001d0 a3 33 06 3e b9 0f a7 3e 9f 85 ef be e0 1c e4 be
       0.13105635 0.32629183 -0.46781632 -0.4455328
0001e0 64 d3 9b be 62 1b 38 bd ba 2b 39 3f ba 4c 3a be
       -0.30434716 -0.04494799 0.72332346 -0.18193331
0001f0 4a 8c 55 3e 2d 32 dc be ff de 01 bf 47 de 75 3d
       0.20854297 -0.4300703 -0.5073089 0.060026433

mlp.0.bias f4 [32]
000000 10 97 35 3f 0f 8f 3b 3f 66 fc 9e be b7 7e dd 3e
       0.7093363 0.73265165 -0.3105194 0.43260738
000010 a8 75 30 3f 03 df 22 3f 37 b0 17 3f c8 76 34 3f
       0.6892953 0.6362154 0.5925326 0.70493746
000020 60 3b 05 3f 1a b8 ff 3e 08 74 ac 3d 2e da 0c bf
       0.52043724 0.49945146 0.08420569 -0.55020416
000030 91 fb ae be ca e3 97 3e 57 6b 13 3e d1 ab 1d 3f
       -0.34176305 0.29665977 0.14396416 0.61590296
000040 5b af f2 3e 3a 94 64 be fb e9 b1 3e dd 26 e2 3e
       0.4739941 -0.22322169 0.34748825 0.44170275
000050 5e b5 fb 3e 6f 72 3c 3f 55 c8 c1 3d 2f ab 20 3f
       0.4916181 0.7361211 0.094620384 0.62761205
000060 bd da 13 3e b9 5c ca 3e 5c e2 7a be b8 83 81 bd
       0.14438911 0.39523867 -0.24500412 -0.063239515
000070 78 2c 98 3e 67 6f c8 bc a1 e0 1c 3f 52 06 98 3d
       0.29721427 -0.024467183 0.61280257 0.074230805

mlp.2.weight f4 [32, 32]
000000 8e 27 48 3d 61 c6 ad 3e d8 d3 67 3d 18 38 a2 3e
       0.048865847 0.33940414 0.056598514 0.3168342
000010 ed 2a 1c 3e e1 12 99 3e 4f 1d 21 3e af 13 3d 3e
       0.1525075 0.29897216 0.15733837 0.1846454
000020 bf fe ad 3d b6 00 c2 3c 8b f0 c2 3d 20 49 7a 3c
       0.084958546 0.02368198 0.09518536 0.015276223
000030 04 29 fe be 87 1a 9b bd 3d fb 41 3d 8d 1b b6 3e
       -0.49640667 -0.07573419 0.04735874 0.35567895
000040 e0 d4 ad 3e 88 06 4f be 50 70 62 3d 39 f5 a3 3e
       0.33951473 -0.20217335 0.05528289 0.32023028
000050 cd cb 3b 3e e7 a9 e5 3d 27 c0 37 be 1d 3b 4b 3e
       0.18339463 0.11214047 -0.17944394 0.19846769
000060 7f f0 f7 bd 4c dd 49 3e 96 ed dd be 6b 1d 0e bf
       -0.12106418 0.19713324 -0.43345326 -0.5551364
000070 f3 dd 20 be 6f 30 46 be c4 35 93 3e 14 1f b5 bd
       -0.15709667 -0.19354413 0.28751957 -0.08843818
000080 d7 a4 2e be dc 5f 45 bd 1f 0a 03 3e fd 6f f6 bd
       -0.17055069 -0.04818712 0.1279683 -0.12033079
000090 6c 7b d8 3b 40 2a 06 3e 0f 91 91 3d ee ec 7e be
       0.00660651 0.13102055 0.07107746 -0.24895069
0000a0 11 d8 78 3d 25 69 f0 bd ee 4b 03 3d 03 86 1f be
       0.060752932 -0.11738805 0.032054834 -0.15578465
0000b0 75 b7 f3 3e e9 e9 6b be 4f a1 5d be ba a4 47 be
       0.47600904 -0.23038448 -0.21643566 -0.19496432
0000c0 3d 31 dc bc dc 70 c6 3e dd 9a af bd ea f4 b9 bd
       -0.026878947 0.3875798 -0.0857446 -0.09079917
0000d0 82 a3 6a be 37 63 16 3d 77 7f a6 3e f0 04 e9 3d
       -0.22913936 0.036715712 0.32519123 0.11377895
0000e0 eb 59 84 3e d8 8f dd be 7d bc 98 be be a3 4c be
       0.25849852 -0.43273807 -0.29831305 -0.19984338
0000f0 78 1e a8 be 73 88 89 3e bf c2 21 be fa 80 35 be
       -0.32835746 0.26861915 -0.15796946 -0.17724982
000100 31 50 c7 3e 45 71 cb 3d f8 e2 25 bd 1d 58 ac 3e
       0.3892837 0.09933714 -0.040499657 0.33660975
000110 23 c3 cd 3e 79 ab bb 3e cb 6b 84 3e 3c 8a 4e 3e
       0.4018794 0.3665426 0.2586349 0.2016992
000120 9e 7e b3 3e 23 8f e8 3d 22 fa 61 3d c1 02 4e 3c
       0.3505754 0.11355426 0.055170186 0.012573899
000130 50 8c 34 bf 33 05 9f 3d c8 dc eb 3c 12 a3 44 3e
       -0.705266 0.077646635 0.0287918 0.19202831
000140 cd be fe 3d e8 1e c8 be af e5 91 3e d4 f4 51 3e
       0.12438736 -0.3908608 0.28495547 0.20503551
000150 9c 00 1a 3e 02 48 7a 3e c6 62 20 be 03 76 8f 3d
       0.15039295 0.24441531 -0.15662679 0.07004931
000160 fd 92 a6 bd 75 a7 85 3e e1 19 88 be 26 34 e9 be
       -0.081335045 0.26104322 -0.26582244 -0.455476
000170 65 37 9a bd ca 2f de 3c 9f c5 70 3e e9 4c 55 3d
       -0.07530097 0.027122397 0.23512886 0.0520753
000180 70 58 2c 3d 91 47 58 3d 70 db 27 bc 13 82 a3 bd
       0.042076528 0.052802626 -0.010245189 -0.07983794
000190 02 66 d3 3d 46 a2 c8 3d 95 4b 22 be 17 e5 e9 3d
       0.10322191 0.09796576 -0.15849145 0.114206485
0001a0 2a c1 45 bc 8f 78 2e be 00 df 03 3e f9 24 07 be
       -0.01206998 -0.17038177 0.12878036 -0.13197698
0001b0 d2 9b 0e 3e cb 33 34 be 06 b3 cc bb 87 2a d3 bb
       0.13926628 -0.17597882 -0.006246927 -0.0064442786
0001c0 65 c8 8d bc f1 77 cc 3d 44 7c 05 be d0 31 07 be
       -0.01730747 0.099838145 -0.13035685 -0.13202596
0001d0 4c 44 57 be 43 11 88 bd 6b d4 ff bd 8c 29 3f bd
       -0.21022147 -0.066439174 -0.124916874 -0.04667048
0001e0 98 e7 ad bd ce 80 ab bb fa 39 d2 3d ee fb ff ba
       -0.084914386 -0.0052338606 0.102649644 -0.0019530037
0001f0 1f f3 eb bd 45 fc 09 be 1b 81 53 be a3 cc 0c 3e
       -0.11520981 -0.1347514 -0.20654719 0.13749938
000200 7f fa 99 3e e3 1b 83 3e 80 46 d6 3b f8 c9 c0 3d
       0.30073926 0.25607213 0.006539166 0.094135225
000210 fc 1a bc 3e f9 9c 93 3e 92 da a3 3e d7 42 89 3e
       0.36739337 0.28830698 0.32002693 0.26808807
000220 2e ec bf 3d b1 06 1c 3e 4e 59 d4 3b 0b 52 f9 bd
       0.093712196 0.15236928 0.0064803725 -0.121738516
000230 f1 f8 23 bf d8 38 9e bd e9 46 f3 bc f1 37 a3 3e
       -0.6405173 -0.07725686 -0.029696899 0.31878617
000240 ea 0f 82 3e 62 73 fd be da c7 6d 3d 47 ee bb 3e
       0.25402766 -0.49502093 0.05805192 0.3670523
000250 55 52 8e 3e 26 74 d9 3e ef 76 94 bc ef 1d 11 3e
       0.2779719 0.42471427 -0.018123118 0.14171575
000260 46 c6 04 be 12 d1 74 3d cc f8 aa be f9 2f 13 bf
       -0.1296626 0.059769697 -0.33392942 -0.57495075
000270 4e 37 07 be 38 4a 75 3d 29 1a 9e 3e 09 23 53 3e
       -0.13204691 0.059885234 0.30879334 0.20618834
000280 28 39 a6 bd db 1a 7e bd dc 81 09 bd bb 79 ea bd
       -0.081163704 -0.06203733 -0.03357111 -0.114489995
000290 b2 26 cd 3c 0b 88 dd bd 48 8c 17 be 5b ad 0f bc
       0.025042865 -0.10816964 -0.14799607 -0.0087693585
0002a0 3e 63 33 be 5c 9e b0 bd b6 01 b9 3d f4 4d 87 3d
       -0.17518327 -0.08623955 0.090335295 0.06606665
0002b0 73 25 e5 3d 6a ed f6 bd 00 75 c9 3a d1 7c cc bd
       0.111887835 -0.12057002 0.0015369952 -0.09984744
0002c0 6c 42 16 be 87 aa cb bd b9 ee 83 bb 10 c1 eb bc
       -0.14673775 -0.09944635 -0.0040262607 -0.028778583
0002d0 da 87 0d be 04 ea 2c be db d2 47 be c8 55 00 3e
       -0.13821355 -0.16886145 -0.19514029 0.12532723
0002e0 14 9a 9b bd a4 6e 27 bd cd 20 85 bd 51 14 b5 bd
       -0.075977474 -0.040877 -0.06500397 -0.08841766
0002f0 5c 8b 25 be ae 48 1b be bb 74 75 3d 44 b3 1e 3d
       -0.16166443 -0.15164444 0.059925776 0.03874518
000300 7b 64 8c 3e 75 c3 20 3e 7a 46 e7 3d f5 be aa 3e
       0.2742041 0.15699561 0.11292739 0.33348814
000310 37 b1 e2 3e b9 36 77 3e 3c e4 cc 3e 8c 9e b7 3e
       0.4427583 0.24141969 0.4001788 0.3586315
000320 62 d1 85 3d 02 8f bd bc 94 a7 5f 3e 8c dc 46 bd
       0.06534077 -0.02313948 0.2184127 -0.048550174
000330 55 90 0c bf 42 c2 eb bc b5 b0 7e be 88 86 8e 3e
       -0.54907733 -0.028779153 -0.24872096 0.27837014
000340 3b bf a7 3e 51 c6 f9 be 8b a5 58 3d 8e 7d 8d 3e
       0.32763085 -0.48784116 0.05289225 0.27634853
000350 d5 bf 81 3e f3 08 56 3e 5e 7b a4 3d da 76 67 3e
       0.2534167 0.20901851 0.08031343 0.22603932
000360 cb 31 f4 bc 05 2c 8e 3e 09 3f c3 be 74 d3 d2 be
       -0.0298089 0.2776796 -0.3813403 -0.4117695
000370 27 c4 ea bd ce d5 4d be bc 5a b1 3e b7 3e c2 3d
       -0.11463194 -0.20101091 0.34639537 0.09484618
000380 4a 6f 34 3e 29 1b b1 3e 12 94 80 3d 3c 7f 81 3e
       0.17620578 0.34591034 0.06278242 0.25292385
000390 6e 5a 69 3e 23 9e 1b 3e 27 f8 a2 3e bc a5 ed 3e
       0.22788402 0.15197043 0.3182995 0.46415508
0003a0 4d 8c 55 3e 2c 54 91 3d b2 df a3 3e 89 b7 03 bd
       0.20854302 0.07096133 0.32006603 -0.032157455
0003b0 7f bb e1 be 78 8c d8 bb 39 1a 8e 3d 4e 93 d5 3e
       -0.4408836 -0.006608542 0.06938595 0.41713947
0003c0 52 e8 32 3e 55 95 68 be 54 8f 57 3e 42 76 88 3d
       0.17471436 -0.22713216 0.21050769 0.06663181
0003d0 a2 42 4f 3e c5 59 8b 3d c8 3c 9f bd 55 40 9f 3d
       0.20240262 0.068042316 -0.07775265 0.07775942
0003e0 4e cd 1f 3e 69 33 8b 3d 8b f4 e0 be df a2 a1 be
       0.15605661 0.06796915 -0.4393657 -0.31569573
0003f0 52 11 a7 bc 53 a7 2b be c9 59 92 3e 31 88 4a 3e
       -0.020394001 -0.16763048 0.28584126 0.19778515

mlp.2.bias f4 [32]
000000 d4 d2 99 3e 8e 0c 0f 3d 39 98 a8 3e 5a 4a f4 3c
       0.30043662 0.034924082 0.32928637 0.02982061
000010 23 d8 c3 3e f4 16 be bc a4 17 dc 3e 89 7f c2 3e
       0.38250837 -0.023204304 0.42986786 0.37987927
000020 61 3e 91 3e 1d d0 f1 bd 80 ff 3f 3c 9b d7 c8 3e
       0.28367904 -0.118072726 0.011718631 0.39226994
000030 4a 6b 8a 3d 68 68 9d bd b2 ad 82 3e d9 2a bb 3e
       0.06758745 -0.076859295 0.25523144 0.36556128
000040 c6 68 88 3d f4 19 d1 3d a3 23 b6 3e 06 ca a5 3e
       0.06660609 0.10210028 0.35574064 0.32380694
000050 fe 97 15 bd 29 1f 2a be f0 37 e5 bd db 43 0c bd
       -0.036521904 -0.16613449 -0.1119231 -0.0342444
000060 ed c3 14 3e fc c5 40 be e7 bc bb 3e 9c 10 93 bb
       0.14527865 -0.18825525 0.3666756 -0.004488064
000070 0e c2 13 be 71 a0 0b bd 88 65 bf 3e b0 0d ca 3e
       -0.14429495 -0.034088556 0.3738215 0.39463568

mlp.4.weight f4 [2, 32]
000000 27 23 b3 3e 59 ea 03 3e 62 3b 95 3e f9 4e af bd
       0.34987757 0.12882365 0.29146868 -0.08559985
000010 aa 20 62 3e fd 68 92 bd 87 fd 51 3e 1b 31 9a 3e
       0.22082773 -0.07148931 0.2050687 0.3011559
000020 e5 68 a1 3e 5b cc 2b be 60 8c 33 bd 85 b5 04 bf
       0.3152534 -0.16777174 -0.043835044 -0.51839477
000030 f8 88 98 bc 44 19 82 3e a3 73 b1 3e 8b fd c1 3e
       -0.01862 0.254099 0.34658536 0.3788875
000040 b3 1e 17 3e 8e be 15 bd 7a 79 a6 3e 2a c1 20 3e
       0.14757805 -0.03655868 0.32514554 0.15698686
000050 2b ab b3 3c 40 f2 42 bd 26 14 62 3d 60 a1 fe bc
       0.021932205 -0.04759431 0.055194996 -0.031082809
000060 a1 c5 57 3e e3 74 8b bd ee 79 8c 3e 08 c1 b8 bd
       0.21071483 -0.06809404 0.27436775 -0.09021193
000070 c3 78 ce be 8e 0a ad bd 0c eb a7 3e 1b 71 bd 3e
       -0.4032651 -0.08449279 0.32796514 0.37000355
000080 65 24 3a 3e 99 8b 6c be 87 64 bf 3e 58 39 e6 3d
       0.18177946 -0.23100127 0.37381384 0.11241406
000090 24 e3 ab 3e 96 e5 c0 bd 22 84 a2 3e 1e c3 b6 3e
       0.33571732 -0.0941879 0.31741434 0.35695738
0000a0 ab 1d 25 3e cf 9e 96 bd d3 fe 03 3e 5d 55 66 be
       0.16124599 -0.07354509 0.12890176 -0.22493501
0000b0 8b ce d1 3d d9 97 53 be 84 2d 21 3e 10 a4 2b 3e
       0.10244473 -0.20663394 0.15740019 0.16761804
0000c0 b9 a4 34 3e b2 02 4b 3d 1d fc d0 3e d7 4c c5 3e
       0.17640962 0.049563117 0.40817347 0.38535187
0000d0 fa 9a c8 bc d0 dd 44 3c 49 a8 0a 3c 4e 13 2c 3d
       -0.024487961 0.012015775 0.008462974 0.042010598
0000e0 42 08 9e 3e fb 0c 1b 3e 72 b0 4c 3e 72 e5 04 bd
       0.30865675 0.1514167 0.19989184 -0.03244538
0000f0 e7 69 11 bf d7 fd e5 bd e6 a9 b2 3e 3e 62 cd 3d
       -0.5680222 -0.11230057 0.34895247 0.10028504

mlp.4.bias f4 [2]
000000 b1 ab 7f 3e d5 a3 63 3e
       0.24967839 0.22230466

exp_avg f4 [32, 4]
000000 79 a2 89 3a 0e 50 f7 37 38 e7 f4 37 a0 b9 88 b9
       0.0010500691 2.9481973e-05 2.9194736e-05 -0.00026078243
000010 bc 44 8f 3a ee 2d 1f 39 d7 d7 07 38 bd 30 a8 b9
       0.0010930519 0.00015180532 3.2387525e-05 -0.0003207977
000020 00 00 00 00 00 00 00 00 00 00 00 00 00 00 00 00
       0.0 0.0 0.0 0.0
000030 ec 7d ad 3a 21 ae 05 3a 95 e3 53 38 c4 3d 1c ba
       0.001323638 0.00050994946 5.0518272e-05 -0.00059601315
000040 95 96 9b 3a dc 33 95 39 dd aa 26 38 d0 62 d7 b9
       0.0011870438 0.00028458133 3.9736613e-05 -0.00041081617
000050 23 a2 c8 3a 44 01 06 3a 3c 8e 5f 38 f0 0f 24 ba
       0.001530711 0.0005111883 5.329981e-05 -0.00062584784
000060 08 68 7b 3a 64 75 2a b9 d8 c2 ab 37 4e e8 de b8
       0.0009590392 -0.00016256195 2.047552e-05 -0.00010629055
000070 a9 2c ae 3a 58 41 c3 38 f1 ba 1f 38 ca 9a ac b9
       0.0013288456 9.310496e-05 3.8082657e-05 -0.00032921723
000080 f2 1b a6 3a d4 ac 1b 3a 9a bb 4a 38 85 8c 23 ba
       0.0012673123 0.0005938534 4.833527e-05 -0.00062388956
000090 7c f4 6d 3a d4 b8 ec 39 ca d9 1a 38 82 d3 f6 b9
       0.00090772635 0.00045151135 3.6919293e-05 -0.00047078362
0000a0 d4 c2 57 39 04 59 93 b9 a6 33 97 37 af 9d 6c 37
       0.00020576577 -0.00028104347 1.8024653e-05 1.410341e-05
0000b0 e2 85 2a 22 33 06 59 21 95 ef db 1f e2 ee 58 22
       2.3110173e-18 7.3530664e-19 9.314646e-20 2.9399922e-18
0000c0 a2 b6 26 ba 32 d5 d0 b8 1a 8b 3b 35 24 31 c2 b7
       -0.0006359612 -9.9579236e-05 6.986535e-07 -2.3149485e-05
0000d0 e2 db 1b b9 68 71 93 b8 c1 0d 35 b7 64 d7 22 39
       -0.00014863865 -7.03063e-05 -1.0791643e-05 0.00015529763
0000e0 e2 e6 ad ba a5 81 36 ba 59 c2 64 b6 77 aa 9f 3a
       -0.0013267661 -0.00069620676 -3.4087773e-06 0.001218154
0000f0 b9 e5 82 3a 08 a6 18 b9 32 82 bb 37 65 a0 02 b9
       0.0009986676 -0.00014557701 2.2352764e-05 -0.00012457518
000100 b1 4d 96 3a 34 b8 f3 38 0e 34 0a 38 74 df a2 b9
       0.0011467246 0.000116214535 3.2950244e-05 -0.00031065533
000110 b8 5e 0c ba df 8a c2 b8 ca 41 5d b4 06 6d ae b7
       -0.00053546904 -9.2765076e-05 -2.0606163e-07 -2.0793184e-05
000120 b6 4b f8 39 86 a2 ce 38 36 6f a8 37 ac 44 53 b9
       0.00047358655 9.853118e-05 2.0078947e-05 -0.0002014811
000130 9c 68 91 3a 14 5e bd 39 65 6b 27 38 d1 1d e9 b9
       0.0011093798 0.00036118983 3.991592e-05 -0.00044463438
000140 9a 93 a8 3a b4 5b 89 36 49 91 fb 37 77 a6 14 b9
       0.0012861372 4.093594e-06 2.9989185e-05 -0.00014176393
000150 74 25 3b 3a 92 16 10 37 39 c7 ed 37 65 a6 85 b9
       0.0007139065 8.588324e-06 2.8345372e-05 -0.0002549171
000160 a1 49 e9 b9 67 40 82 39 c7 e2 63 38 52 0d 8a 39
       -0.0004449608 0.00024843516 5.433222e-05 0.00026331336
000170 5d 04 94 3a 63 df 0c 3a a0 04 39 38 01 e0 11 ba
       0.0011292804 0.00053738634 4.4111745e-05 -0.000556469
000180 47 04 43 39 88 7f 79 39 45 68 4b 37 88 44 38 b9
       0.00018598243 0.00023794 1.212402e-05 -0.00017573137
000190 e6 c7 29 39 fb 1e c0 37 f3 0b 4a 37 96 4d c9 b8
       0.00016191564 2.290261e-05 1.204292e-05 -9.5988784e-05
0001a0 54 eb 9a ba f1 6e c9 b9 62 80 d3 37 17 a2 71 39
       -0.0011819401 -0.00038420365 2.5212943e-05 0.00023043934
0001b0 11 7e e0 3a 01 77 87 b9 c6 af fa 38 c1 bd 66 3b
       0.0017127414 -0.0002583787 0.00011953669 0.0035208317
0001c0 6b d5 15 ba f3 5d 1a ba f7 44 28 b8 61 ee 3a 3a
       -0.00057157007 -0.00058886333 -4.011855e-05 0.0007130858
0001d0 e0 e9 ca 39 7b fb 3b 39 7c 79 1f 37 18 b0 11 b8
       0.00038702693 0.00017927393 9.505424e-06 -3.4734694e-05
0001e0 f5 e1 94 3a 1d 95 78 39 8c ea 16 38 9a 09 c6 b9
       0.0011358844 0.00023706672 3.5981226e-05 -0.00037772657
0001f0 0e cb 12 3a 20 f1 e4 b8 14 26 c4 b7 cf 66 a3 b9
       0.00055997155 -0.000109168 -2.3382752e-05 -0.0003116638

exp_avg_sq f4 [32, 4]
000000 77 d0 0b 3b 12 56 ef 3a ef 1e 89 38 13 bc 45 3b
       0.0021333972 0.0018259904 6.538431e-05 0.0030171915
000010 ff c2 09 3b 3c 2d 0d 3b 2a 7e 84 38 16 2a 84 3b
       0.0021020768 0.0021541854 6.3177504e-05 0.0040333373
000020 00 00 00 00 00 00 00 00 00 00 00 00 00 00 00 00
       0.0 0.0 0.0 0.0
000030 fa 8d 31 3b 88 f1 38 3b 2c 7b ca 38 20 34 a6 3b
       0.0027092681 0.0028220136 9.655053e-05 0.0050721318
000040 70 44 e1 3a 86 2d e0 3a 54 8c 5c 38 45 5a 51 3b
       0.0017186534 0.0017103411 5.2582778e-05 0.0031944674
000050 72 14 6c 3b ac 6b 45 3b e3 c7 d2 38 3b 15 b0 3b
       0.0036022929 0.0030123992 0.00010050812 0.0053736246
000060 35 24 f4 3a 3e 8c e9 3a 50 c3 67 38 60 52 4f 3b
       0.0018626513 0.0017818285 5.525659e-05 0.0031634793
000070 86 bc 40 3b e3 f1 0f 3b 6f d8 8f 38 c1 7f 69 3b
       0.0029409244 0.0021964244 6.859085e-05 0.0035629126
000080 2a 23 2c 3b 18 a8 0f 3b e1 b5 b0 38 eb 74 82 3b
       0.0026266077 0.002192026 8.4262116e-05 0.003981223
000090 58 60 6c 3a 9a f9 ad 3a c1 bd 4e 38 dd 6d 39 3b
       0.0009017042 0.001327324 4.929095e-05 0.0028294243
0000a0 ec ab 96 38 90 0e f4 38 98 cb c4 36 d9 dd 1e 39
       7.18458e-05 0.00011637539 5.8649566e-06 0.00015150699
0000b0 29 5f 7c 35 dd 39 60 34 a2 8b 26 30 1e 64 1d 32
       9.401579e-07 2.0882676e-07 6.058888e-10 9.161367e-09
0000c0 9b ac b8 3b f7 f1 b9 3a 8e de a7 37 a3 7d b9 39
       0.0056358106 0.0014186491 2.0011586e-05 0.00035379556
0000d0 31 de 81 38 1d 51 5a 39 4d 09 2e 37 11 4c e5 39
       6.192586e-05 0.00020820317 1.0373374e-05 0.00043734958
0000e0 c8 c0 81 3a f2 31 d6 39 ce ec af 37 94 71 f2 39
       0.0009899372 0.00040854473 2.0971896e-05 0.0004624246
0000f0 b8 cb e3 3a 9b 80 7c 3a d6 a8 01 38 3c 6e 9c 3a
       0.0017379439 0.0009632201 3.0913237e-05 0.0011934708
000100 88 9f 20 3b 24 f0 05 3b 1a 2b 8b 38 9c a2 64 3b
       0.002450915 0.0020437324 6.636065e-05 0.0034886962
000110 d2 68 0c 3b 43 f0 2c 3a 2c 51 21 37 14 9e 57 39
       0.0021424782 0.0006597081 9.615247e-06 0.00020562886
000120 21 28 c7 39 16 01 81 3a 67 14 12 38 21 7b 13 3b
       0.00037986136 0.0009842243 3.4828114e-05 0.002250381
000130 93 2f e1 3a cb aa 1e 3b 17 2c af 38 6c de 9e 3b
       0.0017180316 0.0024210687 8.352863e-05 0.004848292
000140 c6 66 0c 3b 44 2d f0 3a 39 35 81 38 74 3a 67 3b
       0.0021423562 0.0018324037 6.161113e-05 0.0035282644
000150 f9 27 8a 3a 0b be b8 3a 89 96 88 38 d6 15 1e 3b
       0.0010540477 0.0014094723 6.513025e-05 0.0024121902
000160 09 01 d6 39 a0 00 ed 39 90 32 7d 37 c8 c7 88 3a
       0.00040818032 0.00045204628 1.5091748e-05 0.0010435516
000170 6e 92 ee 3a 9b 7f cd 3a b4 6a 59 38 af bc 2e 3b
       0.0018201598 0.0015678288 5.1836207e-05 0.0026662757
000180 2b 91 78 38 f8 cf a5 39 de 14 3f 37 b9 7a 61 3a
       5.9263006e-05 0.000316262 1.1389346e-05 0.0008601356
000190 93 f7 1a 38 35 be aa 39 33 90 93 37 2c ed 54 3a
       3.6947033e-05 0.00032566642 1.7590914e-05 0.00081224996
0001a0 96 f4 f8 3b 9a ce 3b 3b 59 fc 0f 39 25 07 58 3b
       0.0075975163 0.002865708 0.0001373155 0.0032963243
0001b0 c0 8c 06 3b 2e 88 45 3b fc 5f 7d 39 54 36 95 3b
       0.002053067 0.0030140984 0.00024163717 0.0045535956
0001c0 cd 59 b7 39 b4 52 ee 39 a3 33 e9 37 b5 e9 ed 39
       0.00034971387 0.00045456516 2.779981e-05 0.00045378288
0001d0 59 0c ca 37 c7 9f b4 39 70 10 4c 37 b2 5b 79 3a
       2.4086026e-05 0.0003445132 1.2163175e-05 0.000951226
0001e0 25 d2 eb 3a 9c d3 eb 3a 2f c2 64 38 4b 98 5f 3b
       0.0017991705 0.0017992142 5.4540284e-05 0.0034117873
0001f0 61 83 8e 3a 6a 35 55 3a a2 5c 15 38 eb 74 bc 3a
       0.0010872894 0.00081332645 3.561064e-05 0.0014378106

exp_avg f4 [32]
000000 9b 36 4c 3b c4 cd 3f 3b 00 00 00 00 cc 1e 5c 3b
       0.0031160477 0.0029266933 0.0 0.0033587692
000010 17 3f 48 3b e5 b1 75 3b 02 7a 3e 3b 27 ff 70 3b
       0.0030555183 0.0037490067 0.0029064422 0.0036773176
000020 41 78 3f 3b 8c 08 0f 3b 5a 62 fd 3a d5 8c 31 21
       0.0029215964 0.0021825163 0.0019331679 6.015632e-19
000030 33 92 a0 39 c0 85 81 ba e4 60 d7 ba c0 b4 45 3b
       0.00030626505 -0.000988178 -0.0016432074 0.003016755
000040 c4 a6 4c 3b b9 1a 9f 39 3a 75 dd 3a b5 8f 36 3b
       0.003122733 0.00030346753 0.0016895898 0.0027856652
000050 5c 46 4a 3b ce 42 42 3b 43 0b 00 3a 8f d9 2a 3b
       0.0030864691 0.002964187 0.00048844906 0.0026069616
000060 89 54 8f 39 23 cb 85 3a ba 14 9b 3a 60 54 31 3b
       0.0002733807 0.0010207634 0.0011831739 0.0027058348
000070 65 c2 3a bb e2 c3 4d 3a 42 c6 40 3b bf a0 64 3a
       -0.0028497216 0.0007849318 0.0029415046 0.0008721463

exp_avg_sq f4 [32]
000000 13 50 33 3b d4 c0 39 3b 00 00 00 00 b4 18 88 3b
       0.002736096 0.0028343694 0.0 0.0041533355
000010 d6 18 19 3b e3 c8 92 3b 1c b8 18 3b 8e ae 52 3b
       0.002336075 0.004479514 0.0023303097 0.00321475
000020 61 08 6a 3b 26 21 fe 3a fe d5 1e 39 23 49 40 34
       0.003571056 0.0019388541 0.00015147773 1.7908e-07
000030 20 a9 bb 3a 99 a6 e0 39 3a 69 5b 3a 4c 65 dd 3a
       0.0014317371 0.00042848734 0.0008369867 0.0016891151
000040 9a a1 3d 3b 31 ab 27 3a 1b 27 b0 3a f5 4c 69 3b
       0.0028935433 0.0006396054 0.0013439389 0.0035598848
000050 ec a4 34 3b ad 50 4c 3b b4 40 de 39 f6 79 0e 3b
       0.0027564121 0.0031176016 0.00042391347 0.0021740175
000060 84 1c 90 39 6b 73 48 3a b7 20 b4 3b a0 f2 f3 3b
       0.00027487066 0.0007646593 0.005497064 0.0074446946
000070 86 12 7d 3a 96 cf 8b 39 23 4a 1f 3b 35 9c eb 3a
       0.0009653944 0.0002666681 0.0024305664 0.001797563

exp_avg f4 [32, 32]
000000 34 c3 38 3a 9f a2 16 3a 00 00 00 00 de 95 e7 39
       0.00070481305 0.00057462783 0.0 0.00044171413
000010 50 bd 38 3a 15 76 08 3a ed 9f 06 3a 53 1a 04 3a
       0.0007047253 0.0005205584 0.0005135525 0.0005039323
000020 4f 37 f6 39 e8 c2 15 3a 2c 22 a6 39 bd 71 2a 1f
       0.00046961984 0.0005712942 0.00031687447 3.6092982e-20
000030 e0 01 b1 b5 b6 3c b4 39 1a 65 06 b9 34 aa 05 3a
       -1.3188073e-06 0.0003437751 -0.00012816899 0.00050989096
000040 2e b0 b0 39 ae 30 a3 b7 01 b4 c5 39 c5 d0 d4 39
       0.000337006 -1.9453782e-05 0.0003770888 0.00040591336
000050 4b 9e 70 39 6d 5b 40 3a ab 3f 18 38 e1 7a 18 3a
       0.00022947152 0.0007337842 3.629892e-05 0.000581665
000060 03 43 0a 39 05 a8 08 3a c5 b4 24 b9 cc cf a6 b9
       0.0001318567 0.0005213025 -0.000157076 -0.00031816808
000070 01 f4 87 39 49 0a ae 38 8f 3e f9 39 b1 3f bb 38
       0.00025931004 8.298882e-05 0.0004753959 8.928718e-05
000080 59 25 9a aa 5f fe eb aa 00 00 00 00 da 9e 84 aa
       -2.738181e-13 -4.192089e-13 0.0 -2.3558136e-13
000090 a9 ca b9 aa 99 b7 01 ab dc 56 75 aa 19 19 7e aa
       -3.3003225e-13 -4.60848e-13 -2.1790507e-13 -2.256844e-13
0000a0 61 8a c8 aa c2 37 cb aa bd 40 00 aa c4 13 db 14
       -3.5623156e-13 -3.6098734e-13 -1.1391144e-13 2.2121145e-26
0000b0 15 dd 83 a9 11 6c c8 28 c5 ea 39 a0 e7 c2 43 aa
       -5.85592e-14 2.2251327e-14 -1.5747788e-19 -1.73871e-13
0000c0 01 00 7a aa 55 55 d2 a9 21 4b 1e aa 3d 39 20 aa
       -2.2204462e-13 -9.340676e-14 -1.4059285e-13 -1.4230713e-13
0000d0 c7 ac ae aa 86 07 8e aa 01 3d d2 aa d3 fa ef aa
       -3.1028497e-13 -2.5229488e-13 -3.7345824e-13 -4.2628973e-13
0000e0 84 87 23 aa 23 9d fd a9 2f 84 86 a1 45 37 8a 21
       -1.4524325e-13 -1.1262716e-13 -9.115182e-19 9.365873e-19
0000f0 fb d8 41 23 c0 08 ba aa ef ab fa aa 3c 66 d3 a2
       1.0508498e-17 -3.304631e-13 -4.4528224e-13 -5.729991e-18
000100 84 ca 65 3a 05 0e 26 3a 00 00 00 00 ea ef 11 3a
       0.0008765834 0.00063344865 0.0 0.0005567061
000110 54 b2 4f 3a 9d 0b 33 3a 19 45 21 3a 76 70 1c 3a
       0.00079229963 0.00068300386 0.0006151959 0.0005967686
000120 5c f0 30 3a 10 c5 28 3a 03 54 4e 39 da c8 25 a1
       0.00067496835 0.0006438056 0.00019676988 -5.617e-19
000130 e1 d1 aa b5 76 9a e7 39 45 47 89 37 22 0f 10 3a
       -1.272707e-06 0.00044174836 1.636486e-05 0.0005495419
000140 8c 06 ef 39 f8 a4 b4 b7 58 f8 e0 39 e0 d2 fa 39
       0.0004559051 -2.1534492e-05 0.0004290964 0.0004784083
000150 fd 5d dd 39 76 32 74 3a a6 1d c5 b8 fe c5 33 3a
       0.00042222432 0.00093153806 -9.3992145e-05 0.0006857811
000160 5a c8 12 39 48 ae 10 3a f7 cb 47 b9 06 9a af b9
       0.00013998282 0.0005519134 -0.00019054102 -0.00033493357
000170 fa 4e db 39 75 5c 50 b7 50 5a 14 3a 31 74 51 39
       0.00041829777 -1.2419293e-05 0.00056592096 0.00019975078
000180 5b 92 2f 00 6d b8 30 00 00 00 00 00 1f b5 0e 00
       4.368771e-39 4.474263e-39 0.0 1.350671e-39
000190 07 ce 34 00 29 3d 22 00 fc 1a 2b 00 08 11 32 00
       4.849354e-39 3.144347e-39 3.958607e-39 4.597884e-39
0001a0 b6 0a 20 00 f1 ba 0a 00 40 08 00 80 00 00 00 00
       2.942578e-39 9.85417e-40 -2.96e-42 0.0
0001b0 21 08 00 00 c5 f0 1a 00 e5 ad 04 00 08 75 20 00
       2.916e-42 2.474095e-39 4.29724e-40 2.980719e-39
0001c0 59 52 16 00 95 06 01 00 d6 86 17 00 00 a6 13 00
       2.049922e-39 9.4197e-41 2.160586e-39 1.804424e-39
0001d0 31 e7 23 00 18 57 38 00 2a d6 02 00 de bc 26 00
       3.297178e-39 5.174031e-39 2.60499e-40 3.557502e-39
0001e0 91 27 02 00 cf 9f 11 00 27 af 00 00 57 ff 01 00
       1.97865e-40 1.618532e-39 6.2833e-41 1.83434e-40
0001f0 13 cf 0c 00 57 27 04 00 78 e5 19 00 6b 0f 00 80
       1.17631e-39 3.81454e-40 2.378205e-39 -5.531e-42
000200 3a 0d 40 3a 51 78 07 3a 00 00 00 00 15 8c f4 39
       0.00073261897 0.000516777 0.0 0.00046643676
000210 5a 1b 2a 3a ae 26 17 3a 31 d5 05 3a 85 8e 01 3a
       0.0006489061 0.00057659566 0.00051053154 0.00049421965
000220 e8 a7 17 3a ec 48 0a 3a 9d 83 0b 39 f6 e0 26 a1
       0.0005785213 0.00052751484 0.00013305103 -5.654072e-19
000230 3f e1 86 b5 f7 a8 c2 39 a8 3e 2e 38 0d db e9 39
       -1.0049333e-06 0.00037128452 4.1543186e-05 0.0004460443
000240 89 e2 ca 39 09 69 93 b7 ae b5 b8 39 cc 73 cf 39
       0.00038697224 -1.7572676e-05 0.00035230577 0.00039568392
000250 5e 79 c4 39 1f de 4c 3a 7e dc d2 b8 fb b5 14 3a
       0.0003747446 0.0007815081 -0.0001005465 0.0005672869
000260 ea 76 ed 38 30 c5 e9 39 83 25 26 b9 1e bd 8d b9
       0.0001132319 0.0004458814 -0.00015844968 -0.0002703452
000270 e7 2b bf 39 c5 a7 f0 b7 20 fb f5 39 2c bd 3d 39
       0.0003646307 -2.8688353e-05 0.00046917144 0.00018094917
000280 3f 86 05 00 e1 37 1e 00 00 00 00 00 8d 42 04 00
       5.07336e-40 2.77511e-39 0.0 3.91216e-40
000290 d9 c5 16 00 9a 30 16 00 df 20 0a 00 38 ed 0c 00
       2.091355e-39 2.037816e-39 9.30147e-40 1.187124e-39
0002a0 83 ac 13 00 ce b0 12 00 00 00 00 00 00 00 00 00
       1.80676e-39 1.716465e-39 0.0 0.0
0002b0 a4 de 00 00 00 00 00 00 00 00 00 00 2a 95 04 00
       7.9868e-41 0.0 0.0 4.20852e-40
0002c0 fd 1c 04 00 00 00 00 00 fd 21 0a 00 4d 99 09 00
       3.77741e-40 0.0 9.30548e-40 8.81513e-40
0002d0 48 f7 0a 00 76 5f 04 00 8a a5 0f 00 0a 1f 32 00
       1.007063e-39 4.01587e-40 1.436917e-39 4.60291e-39
0002e0 65 d0 06 00 00 00 00 00 00 00 00 00 00 00 00 00
       6.25771e-40 0.0 0.0 0.0
0002f0 00 00 00 00 35 5c 10 00 ff 1b 27 00 00 00 00 00
       0.0 1.502446e-39 3.591627e-39 0.0
000300 36 53 34 3a c5 ba fd 39 00 00 00 00 b0 ab e5 39
       0.00068788545 0.00048395075 0.0 0.000438062
000310 0c 63 1f 3a 60 0c 0e 3a ff 1f fb 39 cb 07 f3 39
       0.0006080128 0.0005418714 0.0004789829 0.00046354378
000320 48 bf 0e 3a fe 93 01 3a d3 08 00 39 de 80 1e a1
       0.0005445373 0.0004943012 0.00012210319 -5.3703037e-19
000330 16 b7 7b b5 67 f0 b6 39 41 af 2e 38 73 e5 da 39
       -9.377121e-07 0.0003489286 4.164805e-05 0.00041751153
000340 ce c3 be 39 43 00 8a b7 de 1e ad 39 b9 93 c2 39
       0.0003638551 -1.6451004e-05 0.0003302013 0.00037112625
000350 0c 83 b9 39 cb 6f 40 3a 29 41 ca b8 a7 79 0b 3a
       0.00035383587 0.0007340877 -9.6442476e-05 0.0005320557
000360 92 2f de 38 21 c8 da 39 0b d7 1b b9 8a 8d 84 b9
       0.000105946456 0.00041729308 -0.00014862062 -0.00025282457
000370 16 4b b4 39 08 35 f0 b7 59 ba e6 39 3b 8c 33 39
       0.0003438822 -2.8634924e-05 0.00044007858 0.0001712301
000380 d5 65 63 3a de 3b 26 3a 00 00 00 00 56 3f 10 3a
       0.0008674537 0.00063413184 0.0 0.0005502602
000390 00 7c 4f 3a 2a 61 30 3a c8 25 20 3a af 88 1b 3a
       0.0007914901 0.0006728346 0.00061091455 0.0005933148
0003a0 1e 00 2d 3a 6f 8d 28 3a 6a 54 5e 39 b0 45 0e a1
       0.0006599444 0.00064297667 0.00021203017 -4.82037e-19
0003b0 c2 4f ad b5 7a 7f e4 39 f7 1c 48 35 f9 88 10 3a
       -1.2912717e-06 0.00043582526 7.4547955e-07 0.00055135746
0003c0 6b e0 ea 39 be ac b4 b7 a9 77 e0 39 e0 70 f9 39
       0.00044799162 -2.1538111e-05 0.00042813763 0.0004757708
0003d0 0c cf d4 39 3d 36 71 3a 9f 4e a9 b8 b5 c8 32 3a
       0.00040590053 0.00092015025 -8.073192e-05 0.0006820069
0003e0 90 7e 13 39 7d 62 11 3a d6 17 46 b9 3f 96 b0 b9
       0.0001406616 0.0005545987 -0.00018891631 -0.00033681278
0003f0 1a 92 d4 39 79 7f 0d b6 7b 6c 13 3a 0a 11 47 39
       0.00040544645 -2.1084836e-06 0.000562377 0.00018984466

exp_avg_sq f4 [32, 32]
000000 b8 39 ed 38 99 7a 3c 39 00 00 00 00 62 1e 21 38
       0.000113117916 0.00017974748 0.0 3.8413687e-05
000010 0c 4b fc 38 02 48 11 39 be e6 cf 38 d8 f4 37 39
       0.00012030275 0.00013855103 9.913508e-05 0.00017543451
000020 6a ac a4 38 4c 30 82 38 ff 8a 8a 37 1c ab 88 31
       7.852244e-05 6.207879e-05 1.6515607e-05 3.977574e-09
000030 7a 1d a6 36 3e ad c3 38 4a 24 3b 38 92 f5 ff 38
       4.950617e-06 9.3305935e-05 4.461807e-05 0.000122050886
000040 28 92 a5 38 7b 88 3c 37 14 44 ee 37 d0 50 31 38
       7.895037e-05 1.123745e-05 2.8403512e-05 4.227535e-05
000050 d9 04 32 39 bc 5d 1a 39 67 17 a5 38 9d 02 e3 38
       0.00016977209 0.00014721503 7.872172e-05 0.0001082469
000060 d8 bd 93 37 cb 3b 91 38 81 b2 18 39 5e 4a 4d 38
       1.7612168e-05 6.925276e-05 0.00014562347 4.894507e-05
000070 05 3e ac 38 2f 81 c9 38 e6 a7 20 39 97 67 28 37
       8.213151e-05 9.608489e-05 0.00015321336 1.0037699e-05
000080 1f 50 8c 35 78 16 15 36 00 00 00 00 18 4f 98 34
       1.0454131e-06 2.2215809e-06 0.0 2.8369755e-07
000090 9d 32 ef 35 4f 1f dc 35 3b 00 79 35 e7 59 a8 35
       1.7821618e-06 1.6400389e-06 9.2760064e-07 1.254314e-06
0000a0 6a 79 bd 35 69 a1 18 35 a4 9c 89 34 4a 88 c6 29
       1.4116933e-06 5.6859295e-07 2.563221e-07 8.816609e-14
0000b0 23 21 30 34 d4 22 81 34 9f 80 fe 32 db 1e f5 34
       1.6403332e-07 2.4053463e-07 2.9627982e-08 4.5657256e-07
0000c0 ff eb fc 34 50 bc 6e 34 79 1e d1 34 81 f3 b4 34
       4.7110368e-07 2.2233985e-07 3.8951455e-07 3.3704785e-07
0000d0 12 ed c6 35 7c 9d c2 35 ea c5 27 35 33 6f 32 36
       1.4821146e-06 1.449996e-06 6.250035e-07 2.6588793e-06
0000e0 bb b8 a4 33 d9 73 97 34 12 17 07 35 6c 78 b9 31
       7.6704474e-08 2.8210232e-07 5.032499e-07 5.397899e-09
0000f0 45 9f 96 33 ed f3 72 35 01 9a e3 35 4f 06 0d 34
       7.01389e-08 9.0506984e-07 1.6957639e-06 1.3133943e-07
000100 a1 ed 3e 39 a6 f3 d0 39 00 00 00 00 44 ae b9 38
       0.00018208336 0.00039854384 0.0 8.853947e-05
000110 e4 de 8b 39 c5 a6 a4 39 2c ea 43 39 2b ef 9d 39
       0.00026678212 0.0003140477 0.00018683885 0.00030123568
000120 bc 0c 43 39 ca 67 3d 39 19 67 9c 37 10 49 5a 31
       0.00018601393 0.00018063109 1.8644658e-05 3.1764706e-09
000130 8f 1b e3 36 7c 41 0b 39 4c a4 97 38 10 b3 45 39
       6.7683354e-06 0.00013280468 7.230844e-05 0.0001885409
000140 f4 2e 11 39 f5 04 83 37 9c fe 7d 38 5f 63 b7 38
       0.00013845769 1.5618725e-05 6.0557024e-05 8.744629e-05
000150 8a 93 9a 39 db 26 6a 39 39 49 bd 39 ab cb 8f 39
       0.00029483094 0.00022330454 0.00036103444 0.0002742683
000160 9c f9 93 38 78 41 c0 38 d4 28 7b 39 58 b2 a3 38
       7.0559996e-05 9.167468e-05 0.00023952435 7.805665e-05
000170 dd 37 01 39 58 45 e3 39 c0 9f ad 39 10 bc 84 37
       0.0001232321 0.0004334848 0.00033116154 1.58232e-05
000180 a8 a9 06 35 b0 b5 31 35 00 00 00 00 7e 93 74 33
       5.016577e-07 6.620203e-07 0.0 5.694482e-08
000190 54 6b 3d 35 e0 c8 b2 34 d4 2f ec 34 72 6d 18 35
       7.056417e-07 3.330124e-07 4.3993225e-07 5.6783676e-07
0001a0 42 06 ac 34 89 9f 42 33 ce 97 82 2c 00 00 00 00
       3.204205e-07 4.531424e-08 3.711676e-12 0.0
0001b0 cc 71 24 2b c6 fb 0e 34 db c4 f6 31 67 90 64 34
       5.842243e-13 1.3316375e-07 7.181922e-09 2.1286688e-07
0001c0 87 1e f1 33 17 c7 07 30 a6 8f 1c 34 57 08 d2 33
       1.122799e-07 4.939564e-10 1.4580891e-07 9.780404e-08
0001d0 43 da ba 34 9d ac 45 35 a9 59 d1 31 5e 97 07 35
       3.4804006e-07 7.3639404e-07 6.0928937e-09 5.051169e-07
0001e0 4a 60 05 31 2a e9 60 33 04 30 43 2f f3 b5 b1 30
       1.9408781e-09 5.2366126e-08 1.7752205e-10 1.2930158e-09
0001f0 c6 41 3a 33 f1 0e 07 32 52 63 80 34 54 0f a7 2d
       4.336632e-08 7.8614315e-09 2.3914123e-07 1.8992509e-11
000200 da da f0 38 2e 9b 90 39 00 00 00 00 f5 4b 84 38
       0.00011484856 0.00027581438 0.0 6.3083986e-05
000210 b2 7f 38 39 4e 67 67 39 3a 72 02 39 fe d7 53 39
       0.00017595178 0.0002206836 0.00012440319 0.00020202991
000220 cb 40 08 39 0e 7e 0e 39 7b 56 59 37 d3 ca 0e 31
       0.00012994108 0.00013589134 1.2954343e-05 2.0779012e-09
000230 2d 63 a5 36 7a 49 b3 38 cf e2 4c 38 7c 56 07 39
       4.928929e-06 8.549071e-05 4.8848622e-05 0.00012906821
000240 7c f3 cb 38 ff 1c 40 37 35 45 34 38 4c d3 80 38
       9.725147e-05 1.1450843e-05 4.29798e-05 6.142873e-05
000250 01 90 5d 39 42 6c 12 39 99 e7 95 39 4d 06 45 39
       0.00021129848 0.00013963974 0.00028592048 0.00018789731
000260 39 83 6b 38 29 00 7e 38 3c 50 3b 39 b7 93 62 38
       5.6150577e-05 6.055847e-05 0.000178636 5.402017e-05
000270 9b c7 a9 38 02 10 b3 39 8b b9 7b 39 ba 73 44 37
       8.0957274e-05 0.00034153467 0.00024006345 1.1709455e-05
000280 80 ae 84 32 70 d5 d8 34 00 00 00 00 79 92 05 32
       1.5446176e-08 4.0388431e-07 0.0 7.774923e-09
000290 24 50 75 34 e3 7d 72 34 ff 63 42 33 c9 d1 9c 33
       2.2846558e-07 2.2583804e-07 4.526009e-08 7.302476e-08
0002a0 eb 51 44 34 9a 34 27 34 00 00 00 00 00 00 00 00
       1.8283724e-07 1.5572223e-07 0.0 0.0
0002b0 8a e9 23 30 00 00 00 00 00 00 00 00 f4 cf 27 32
       5.9630934e-10 0.0 0.0 9.767962e-09
0002c0 09 fe 05 32 00 00 00 00 60 01 44 33 99 f6 3b 33
       7.79938e-09 0.0 4.5636057e-08 4.376361e-08
0002d0 85 c3 6c 33 e2 ee 39 32 c9 60 e8 33 3f e0 9a 35
       5.5125856e-08 1.0822733e-08 1.0820947e-07 1.1539158e-06
0002e0 ee bd cc 32 00 00 00 00 00 00 00 00 00 00 00 00
       2.3835096e-08 0.0 0.0 0.0
0002f0 00 00 00 00 27 8f 04 34 d5 9c 3a 35 00 00 00 00
       0.0 1.2345537e-07 6.951862e-07 0.0
000300 35 86 c3 38 f4 b3 69 39 00 00 00 00 bc 49 54 38
       9.3233226e-05 0.0002228765 0.0 5.061341e-05
000310 9d 65 12 39 f1 29 3b 39 23 7b d4 38 a1 dd 2f 39
       0.00013961499 0.00017849334 0.00010131884 0.00016771864
000320 ec 3b da 38 6b a4 e3 38 a3 fe 3b 37 36 f4 f9 30
       0.000104062114 0.00010854829 1.1205356e-05 1.8186543e-09
000330 6a 82 90 36 d8 fd 94 38 40 5f 2d 38 24 73 e4 38
       4.3067166e-06 7.104472e-05 4.1335123e-05 0.00010893334
000340 58 6a aa 38 fe fa 27 37 d5 e6 11 38 f4 e2 50 38
       8.12604e-05 1.0012414e-05 3.4785673e-05 4.980243e-05
000350 11 77 3b 39 a4 95 ee 38 35 b9 70 39 e7 16 1c 39
       0.00017878065 0.00011376597 0.00022957179 0.00014885851
000360 1f b6 3d 38 4b ea 54 38 61 89 23 39 86 50 42 38
       4.5230725e-05 5.076294e-05 0.00015596069 4.6328198e-05
000370 9c 81 8e 38 97 fb 8f 39 c4 41 4e 39 6b cc 2b 37
       6.795229e-05 0.00027462534 0.0001967019 1.0239989e-05
000380 69 d1 2e 39 a7 be b8 39 00 00 00 00 de bc a1 38
       0.00016671944 0.00035237262 0.0 7.7122575e-05
000390 24 cf 76 39 2d 11 91 39 49 16 30 39 8f 10 90 39
       0.00023537554 0.00027669352 0.0001679297 0.00027478157
0003a0 7c 5d 2a 39 e7 99 20 39 a6 2a 95 37 ff a1 66 31
       0.00016247289 0.00015316122 1.7782044e-05 3.356149e-09
0003b0 11 a4 d3 36 45 a5 02 39 1c af 8c 38 01 a6 35 39
       6.30739e-06 0.00012459334 6.708337e-05 0.00017323346
0003c0 9d d2 03 39 e7 04 76 37 c5 1f 5e 38 09 69 a1 38
       0.00012571593 1.4663884e-05 5.2958512e-05 7.6966426e-05
0003d0 a6 3a 8d 39 64 5a 58 39 1c 23 9d 39 bf 6b 7a 39
       0.00026937312 0.00020633038 0.00029971532 0.00023881996
0003e0 77 67 77 38 0c f7 b3 38 b0 6b 68 39 30 e8 94 38
       5.898575e-05 8.581401e-05 0.00022165361 7.100438e-05
0003f0 e4 b2 f0 38 1e 38 bd 39 29 51 99 39 a3 20 73 37
       0.00011477413 0.000360907 0.00029242903 1.44915275e-05

exp_avg f4 [32]
000000 0c c7 6f 3a fb 52 2a ab 3c 73 8c 3a 8b 10 6a 00
       0.0009146787 -6.051129e-13 0.0010715495 9.740497e-39
000010 21 11 68 3a bc b2 46 00 49 a0 59 3a ef c2 8b 3a
       0.000885265 6.492603e-39 0.00083017774 0.0010662953
000020 a1 16 57 3a 90 86 02 ba 00 00 00 00 37 38 ac ba
       0.0008204971 -0.0004979158 0.0 -0.0013139312
000030 16 2d 2f 0d b7 70 6c 39 75 33 65 3a cb e8 78 3a
       5.398031e-31 0.00022548703 0.00087433244 0.0009495138
000040 00 00 00 00 98 eb 9d 00 6d 09 9b 3a 14 a4 5a 3a
       0.0 1.4502688e-38 0.0011828371 0.00083404896
000050 ad a4 02 01 00 00 00 00 28 3e 35 05 87 ea 3b 00
       2.3995378e-38 0.0 8.5219954e-36 5.502427e-39
000060 f5 35 59 3a 5e ac 07 00 f3 0c 51 3a d6 06 16 01
       0.0008285933 7.04682e-40 0.0007974647 2.7555553e-38
000070 c8 9f a9 2c d0 c2 68 00 0d f1 90 3a ba f4 5b 3a
       4.821008e-12 9.620777e-39 0.0011058167 0.0008390654

exp_avg_sq f4 [32]
000000 b2 e2 a2 39 60 61 1c 37 ed 8b 3a 3a 8a df 4e 36
       0.0003106795 9.3209965e-06 0.00071161875 3.082651e-06
000010 91 5d df 39 45 59 17 36 9b 7f ac 39 ec 64 26 3a
       0.00042603587 2.2552715e-06 0.0003290147 0.0006347436
000020 3d fd a7 39 5e 25 a0 38 00 00 00 00 fb 6e ae 39
       0.000320414 7.636355e-05 0.0 0.00033270553
000030 9f 63 e5 32 29 6b 67 37 70 59 b6 39 bc 7a b1 39
       2.6704411e-08 1.3793623e-05 0.0003478038 0.00033851515
000040 00 00 00 00 2d ee 95 36 01 a8 51 3a e5 5c e3 39
       0.0 4.4682733e-06 0.0007997752 0.00043366026
000050 e9 69 ab 36 00 00 00 00 3b 33 07 34 71 52 a9 35
       5.1085267e-06 0.0 1.2591492e-07 1.2615475e-06
000060 52 7b df 39 ac 44 9a 33 44 40 66 39 57 62 91 37
       0.00042625755 7.183675e-08 0.0002195845 1.733114e-05
000070 8d 5e 37 39 b7 e5 cb 36 55 10 35 3a 6a c2 b7 39
       0.00017487463 6.0766138e-06 0.0006907036 0.0003504933

exp_avg f4 [2, 32]
000000 d4 74 92 3b bb 2a 8c aa 2d 61 b2 3b 37 05 c6 80
       0.0044694934 -2.4898646e-13 0.005443713 -1.8185299e-38
000010 68 48 ba 3b 39 7e 0e 80 1d e0 c7 3b 4d 3d a7 3b
       0.005684901 -1.330977e-39 0.0060997144 0.005103743
000020 27 46 b1 3b 9d f8 08 ba 00 00 00 00 1c 6a 0c 3b
       0.005409974 -0.00052250345 0.0 0.002142555
000030 48 ff 53 8b a6 31 02 3b 42 42 af 3b bd 9f a4 3b
       -4.0829174e-32 0.0019866019 0.0053484747 0.005023925
000040 00 00 00 00 26 8f 0a 81 fa dd af 3b 6e e6 ac 3b
       0.0 -2.54493e-38 0.005367038 0.005276493
000050 28 25 54 81 00 00 00 00 31 f3 3f 80 5b aa 38 80
       -3.896491e-38 0.0 -5.872877e-39 -5.2039e-39
000060 d1 00 c2 3b bb f2 05 80 e1 fa 8a 3b c7 b0 82 80
       0.0059205075 -5.46253e-40 0.004241333 -1.200203e-38
000070 f2 35 ca a2 11 e4 18 80 27 68 c8 3b 5d d8 a9 3b
       -5.4809327e-18 -2.285867e-39 0.0061159316 0.005183263
000080 9e 58 6e 3b 1a 32 9b a8 67 48 9a 3b 70 08 a1 80
       0.0036368738 -1.7230185e-14 0.004708338 -1.4788542e-38
000090 c8 e4 99 3b 93 df 0c 80 ce 54 94 3b e1 81 86 3b
       0.0046964623 -1.182229e-39 0.004526711 0.0041048382
0000a0 e6 e3 8b 3b e8 13 6b b9 00 00 00 00 cd b0 46 3b
       0.004269111 -0.00022418762 0.0 0.0030317784
0000b0 29 11 06 80 fe 9e d6 3a f6 71 85 3b c1 4b 6d 3b
       -5.57169e-40 0.0016374288 0.004072423 0.0036208483
0000c0 00 00 00 00 f0 f8 dc 80 de 2e 8f 3b 1c 58 9e 3b
       0.0 -2.0293111e-38 0.0043696007 0.004832281
0000d0 7c 04 2f 81 00 00 00 00 eb 8c a8 06 b0 27 26 80
       -3.214564e-38 0.0 6.3401637e-35 -3.503986e-39
0000e0 f1 9e 9a 3b 96 fc 04 80 de 52 6a 3b df 10 5f 80
       0.0047186543 -4.57953e-40 0.003575496 -8.730424e-39
0000f0 54 2e 60 ab fa f1 0f 80 39 4a 90 3b 94 e4 42 3b
       -7.964508e-13 -1.464337e-39 0.0044033793 0.0029738294

exp_avg_sq f4 [2, 32]
000000 18 80 f0 3b 29 ce 5e 37 78 ee 5b 3c cf 88 31 37
       0.0073394887 1.32802315e-05 0.013423555 1.0581875e-05
000010 f9 80 7f 3c 56 0f 19 34 0a 4f 84 3c 8a bf 50 3c
       0.015594714 1.4254815e-07 0.01615097 0.012740979
000020 d2 18 77 3c 13 f6 35 3a 00 00 00 00 72 b2 50 3b
       0.015081601 0.000694127 0.0 0.0031844643
000030 41 70 f6 32 c5 21 a3 38 ba 7f 54 3c a4 70 16 3c
       2.8689216e-08 7.778736e-05 0.0129699055 0.009182129
000040 00 00 00 00 78 08 97 37 06 16 52 3c e6 22 73 3c
       0.0 1.8004546e-05 0.012822634 0.014839863
000050 33 19 f3 37 00 00 00 00 91 4f 50 35 bd 67 d5 35
       2.8979592e-05 0.0 7.760182e-07 1.5899928e-06
000060 9b b5 8e 3c 32 44 92 32 ce d0 d7 3b 3a 55 94 36
       0.01742058 1.7027649e-08 0.0065861708 4.4206654e-06
000070 ab 07 9b 3a c9 db fd 34 82 cf 66 3c 04 28 0a 3c
       0.0011827847 4.7284837e-07 0.01408756 0.008432392
000080 29 80 f7 3b c2 d3 b3 37 b6 fa 82 3c c7 b9 c8 36
       0.0075531197 2.143707e-05 0.015988689 5.982092e-06
000090 0a 0b a2 3c 9a c6 ea 33 4e b9 a0 3c dd c6 76 3c
       0.019780654 1.09325995e-07 0.01961961 0.015062061
0000a0 31 1e 9f 3c 3e 51 81 3a 00 00 00 00 ff 00 91 3b
       0.019423576 0.0009866131 0.0 0.0044251676
0000b0 08 21 5b 32 48 3d 9c 38 e4 bb 80 3c 4d fe 32 3c
       1.2754988e-08 7.450074e-05 0.015714593 0.010924888
0000c0 00 00 00 00 4a 15 23 37 5c 9e 6d 3c b0 b1 8a 3c
       0.0 9.720514e-06 0.014503088 0.016930431
0000d0 22 25 8c 37 00 00 00 00 42 d1 0d 35 af db 4c 35
       1.6706592e-05 0.0 5.2831103e-07 7.6315604e-07
0000e0 75 2f ae 3c 9d 06 08 32 89 c7 f0 3b 2f 86 37 36
       0.021262864 7.917746e-09 0.007348005 2.734723e-06
0000f0 05 80 cb 3a 1f 35 61 34 9f 67 86 3c 2e e3 3b 3c
       0.0015525824 2.0974083e-07 0.016406832 0.011467738

exp_avg f4 [2]
000000 20 11 f7 3a fa 53 b6 3a
       0.0018849708 0.0013910525

exp_avg_sq f4 [2]
000000 84 ee 8f 3b 22 ee 8a 3b
       0.004392447 0.0042398134
