_models/dagger_ant.pt (torch, 28837 bytes, 7 tensors)

logstd f4 [8]
0	0xc0554141	-3.3321078
1	0xc0556f67	-3.3349245
2	0xc0561584	-3.3450632
3	0xc055317f	-3.331146
4	0xc055b547	-3.3391893
5	0xc05507a7	-3.328592
6	0xc0550adb	-3.3287876
7	0xc0545146	-3.3174605

mean_net.0.weight f4 [64, 27]
0	0x3faebccc	1.3651366
1	0xbe46176c	-0.19344872
2	0x3e236605	0.15956886
3	0xbf10f1f7	-0.5661921
4	0xbec9fd6a	-0.39451152
5	0x3eaa0507	0.3320696
6	0x3dec0102	0.1152363
7	0xbe16202f	-0.14660715
8	0x3c69a151	0.014259652
9	0xbe925e6e	-0.2858767
10	0x3e465dd8	0.19371736
11	0xbca869fd	-0.020558352
12	0xbdd76bad	-0.105185844
13	0xbce4d023	-0.027931279
14	0xbc839c57	-0.01606576
15	0xbe001ebc	-0.12511724
16	0xbe3e134a	-0.18562046
17	0xbdb5c884	-0.08876136
18	0x3d2d8e90	0.042372286
19	0xbb922955	-0.0044604936
20	0xbdca8282	-0.09888174
21	0x3d351a37	0.044214454
22	0xbcbbd93c	-0.022930734
23	0xbd7c0076	-0.061523877
24	0x3b56c8ae	0.0032773423
25	0xbd7c558b	-0.061605018
26	0xbd2cf745	-0.042228002
27	0x3f3a5aea	0.72794974
28	0xbecc1362	-0.39858538
29	0xbf12fe36	-0.57419145
30	0xbf0c1d59	-0.5473228
31	0xbc9f5768	-0.019450858
32	0x3e9be8e0	0.30451107
33	0xbd40ada0	-0.04704058
34	0x3cfa5e6d	0.030562604
35	0x3d44ee90	0.048079073
36	0x3ecf4f55	0.40490213
37	0x3d88b59f	0.066752665
38	0x3d401102	0.04689122
39	0x3e8038d6	0.25043362
40	0x3e262512	0.16225079
41	0x3e49f814	0.1972354
42	0x3e8b935a	0.27260858
43	0x3e04fddb	0.12987463
44	0x3d68003e	0.056640856
45	0x3d1dcea6	0.038527153
46	0x3c869e44	0.016432889
47	0x3e0b20de	0.13586757
48	0xbad6ec6e	-0.0016397366
49	0xbc3e7867	-0.011625386
50	0xbd8079ef	-0.06273257
51	0x3a00924a	0.0004904611
52	0xbcbaad97	-0.022787852
53	0x3c219b3f	0.009863674
54	0x3ead2b00	0.3382187
55	0xbd962a28	-0.073322594
56	0xbda26234	-0.07928887
57	0x3dbe4726	0.09290914
58	0x3d266516	0.040623747
59	0x3da3c8c4	0.079972774
60	0x3c601108	0.013675936
61	0x3d854e55	0.06509081
62	0x3e778874	0.24173146
63	0x3e3c7665	0.18404539
64	0xbdb14864	-0.086563855
65	0xbd803d11	-0.062616475
66	0x3e251730	0.16122127
67	0xbb0503c7	-0.002029644
68	0xbe934784	-0.287655
69	0x3e701b9f	0.23448037
70	0x3e8c6105	0.2741777
71	0xbe35b344	-0.17744166
72	0x3e10d121	0.14142276
73	0x3d004809	0.031318698
74	0x3b8b6e6f	0.004255108
75	0xbd28e41b	-0.041233163
76	0xbcbad14c	-0.022804879
77	0x3d376be9	0.044780646
78	0xbe8371ce	-0.25672764
79	0x3d939a0d	0.07207117
80	0xbcab0ce1	-0.020880165
81	0xbf8b45f4	-1.0880723
82	0x3c9c81a2	0.019104782
83	0xbcc32c16	-0.023824733
84	0x3e5db86b	0.21652381
85	0xbc7f5b40	-0.015585721
86	0xbdb5b614	-0.08872619
87	0x3eb36ce0	0.35044003
88	0x3e7bfa2f	0.24607156
89	0x3e190441	0.14943029
90	0x3cf5d405	0.030008325
91	0xbe9fbe2d	-0.3119978
92	0x3daa6393	0.083197735
93	0xbe3b8a37	-0.18314444
94	0xbd96f2c8	-0.073705256
95	0x3e814a9f	0.25252244
96	0xbda6b6e4	-0.08140352
97	0xbda1bb80	-0.07897091
98	0xbc8cc9e9	-0.017186122
99	0x3c73d642	0.014882626
100	0x3da934db	0.082620345
101	0x3d901e4a	0.07037027
102	0x3d15cfac	0.036575004
103	0x3d54b804	0.051933303
104	0xbdb447e9	-0.08802778
105	0xbdda779c	-0.10667345
106	0xbb1c7c6c	-0.0023877872
107	0x3daad9d2	0.08342327
108	0x3f09679f	0.5367374
109	0x3dfd1d68	0.123591244
110	0x3f022925	0.5084403
111	0xbf89f0c0	-1.0776596
112	0xbf6fd228	-0.9368005
113	0x3de2d35d	0.110754706
114	0x3c7630e2	0.015026303
115	0x3e6369e8	0.22208369
116	0x3e3e61ba	0.18591967
117	0x3da5de3b	0.08099028
118	0xbd0037c0	-0.031303167
119	0xbe9f6167	-0.31129
120	0xbc90c78b	-0.017673275
121	0xbb3bd119	-0.0028658567
122	0x3e82cd84	0.2554742
123	0xbe6f7124	-0.23383003
124	0xbdd3fe58	-0.103512466
125	0xbdea6732	-0.11445464
126	0xbd9b3bf1	-0.07579792
127	0xbc4bc7ff	-0.0124378195
128	0x3d0aea16	0.033914648
129	0x3ddbbcbe	0.10729359
130	0xbd9f8148	-0.0778833
131	0x3c8c8716	0.017154258
132	0x3c0cc9f3	0.00859307
133	0x3da186fe	0.07887076
134	0x3d36d03e	0.04463219
135	0x3fa41526	1.2818954
136	0xbc2acb71	-0.010424481
137	0xbe530578	-0.20607555
138	0xbe618f70	-0.22027373
139	0x3e84b534	0.25919497
140	0xbcd79585	-0.026316414
141	0xbdf91af0	-0.12163341
142	0x3e45fb1c	0.19334072
143	0x3de8430a	0.11340912
144	0x3c552a8f	0.013010635
145	0x3d8b27f7	0.06794732
146	0x3d4d936d	0.050189424
147	0x3e1c1b42	0.15244773
148	0x3c0ed098	0.008716725
149	0xbd0c9e7b	-0.034330826
150	0x3ecf7945	0.4052221
151	0x3e72725f	0.23676442
152	0xbdcaa49f	-0.0989468
153	0x3cb8bd24	0.022551127
154	0xbd295c99	-0.041348074
155	0xbe2c70d5	-0.16839917
156	0x3bb924b2	0.0056501264
157	0xbe522721	-0.20522739
158	0x3e588b49	0.21146883
159	0xbe10a08d	-0.14123745
160	0xbd47078b	-0.048591178
161	0x3ce96a6f	0.028493134
162	0x3f59b3b1	0.8503981
163	0xbe9d37de	-0.30706686
164	0xbe168eae	-0.14702865
165	0x3e7b190c	0.24521273
166	0x3ea3ef5e	0.3201856
167	0x3d30f9a1	0.043206815
168	0xbede5f3c	-0.43432033
169	0xbeac54cd	-0.33658448
170	0x3d729057	0.059219684
171	0x3c989cdb	0.018629482
172	0x3e2e60ed	0.17029162
173	0x3e4042b9	0.18775453
174	0x3f142473	0.5786812
175	0x3bc243de	0.0059285006
176	0x3e24824c	0.1606533
177	0x3b07052c	0.0020602448
178	0xbe30ccad	-0.17265578
179	0xbe860b70	-0.261806
180	0xbdc7380e	-0.097274885
181	0xbce82ed4	-0.028342642
182	0xbcc1ccbf	-0.0236572
183	0x3d257e86	0.040403865
184	0xbe63b78b	-0.22237985
185	0x3db6cb16	0.08925454
186	0xbe1edaa6	-0.15513095
187	0xbe21662f	-0.15761636
188	0xbc6c6854	-0.014429171
189	0xbf5207fb	-0.8204343
190	0x3ea33bc1	0.31881526
191	0xbf7a3d6f	-0.9774999
192	0xbed2ddd4	-0.41184866
193	0x3e4ba722	0.19887975
194	0x3ef5318c	0.47889364
195	0xbce6091c	-0.028080516
196	0x3ec80697	0.39067528
197	0x3dc318b8	0.09526199
198	0x3e82edd9	0.25572088
199	0xbec0a98f	-0.37629363
200	0xbd4013da	-0.046893932
201	0xbe97d39a	-0.29653627
202	0x3e3c7e1b	0.1840748
203	0x3e1a3c52	0.15062073
204	0x3e9b2ded	0.30308476
205	0x3e9a55a3	0.3014346
206	0xbdbfa23c	-0.093571156
207	0xbdd98343	-0.10620739
208	0x3c316c7c	0.010829087
209	0xbd0e956a	-0.03481046
210	0xbc2d90b5	-0.010593583
211	0xbcc365ce	-0.023852255
212	0xbd8fd531	-0.07023085
213	0x3d8913ef	0.06693255
214	0x3c8c1ef9	0.017104613
215	0x3c4bdce8	0.012442805
216	0x3f44e21a	0.76907504
217	0xbea5a5ec	-0.3235315
218	0xbb96133c	-0.0045799296
219	0xbe6e994c	-0.23300666
220	0x3efda398	0.49538875
221	0x3ed2714c	0.41102064
222	0x3e206521	0.15663578
223	0x3f1e8ce9	0.6193376
224	0x3dc81bb2	0.097709075
225	0xbea535b3	-0.32267532
226	0x3c98c22f	0.018647281
227	0x3e4e978a	0.20174995
228	0xbc53c8b9	-0.012926274
229	0x3d91ab4e	0.07112752
230	0xbcee8517	-0.029116197
231	0xbe0d3d0b	-0.13792817
232	0x3da4b359	0.0804202
233	0xbd3fae10	-0.04679686
234	0xbbc3afb0	-0.0059718713
235	0x3e1f1237	0.15534292
236	0xbb4bb1c9	-0.003108131
237	0x3c83b938	0.01607953
238	0x3c375ce0	0.011191577
239	0xbdfda2ab	-0.12384542
240	0x3da11299	0.07864875
241	0x3cafe0c6	0.021469485
242	0x3d8a219a	0.0674469
243	0xbd8e8343	-0.0695863
244	0xbe185441	-0.1487589
245	0xbf6d48ea	-0.92689383
246	0x3f12748c	0.57209086
247	0x3ec70a3b	0.38874993
248	0x3e8e46c8	0.27788377
249	0x3f2b1ea9	0.6684366
250	0x3eac13cf	0.33608863
251	0x3ca8f0eb	0.020622691
252	0x3dfad82b	0.12248262
253	0x3deb2555	0.1148173
254	0x3dbc634d	0.091986276
255	0xbe80b938	-0.2514131

mean_net.0.bias f4 [64]
0	0xbd98761a	-0.07444401
1	0xbee8ac44	-0.45443928
2	0xbe9596ae	-0.29216522
3	0x3e915a99	0.28389433
4	0xbdc9e909	-0.09858901
5	0xbde00232	-0.10937919
6	0xbe1e466c	-0.15456551
7	0x3e64b16a	0.22333303
8	0x3da52a6a	0.080647305
9	0xbea5587e	-0.32294077
10	0x3e7e2dc9	0.24822153
11	0xbe046988	-0.12930882
12	0xbddcf6ed	-0.10789285
13	0xbe933450	-0.2875085
14	0xbee2633f	-0.44216344
15	0x3e75527c	0.23957247
16	0xbe94fa5d	-0.29097262
17	0x3df3908e	0.11892806
18	0x3e684777	0.22683512
19	0x3e95de76	0.29271287
20	0xbdaa14e2	-0.08304764
21	0x3eac70bb	0.33679757
22	0xbe56200a	-0.2091066
23	0xbda0f2ba	-0.078587964
24	0x3ebff523	0.37491712
25	0xbe5a8ca4	-0.21342713
26	0xbdbf3de4	-0.093379766
27	0xbd2c8465	-0.04211845
28	0xbee1d739	-0.44109514
29	0x3e2b0478	0.16700923
30	0x3c511a95	0.012762685
31	0x3e9816f0	0.29705
32	0x3eb37e1e	0.35057157
33	0xbead147f	-0.338047
34	0xbf0e251b	-0.5552537
35	0x3d432408	0.047641784
36	0xbe417b55	-0.18894704
37	0xbd33ec0c	-0.043926284
38	0xbea84cc0	-0.32871056
39	0x3e53971a	0.2066311
40	0xbe067cbb	-0.13133518
41	0xbd9deb04	-0.07710841
42	0x3ece15f4	0.40251124
43	0xbd5821ce	-0.052766614
44	0xbe994f89	-0.29943493
45	0x3ea00988	0.31257272
46	0xbec2770b	-0.37981448
47	0xbd988bea	-0.074485615
48	0x3ea20bd8	0.3164966
49	0xbeb73d05	-0.35788742
50	0xbdbaa175	-0.09112827
51	0x3e976db3	0.2957588
52	0x3d8364d9	0.064157195
53	0x3e5c49c8	0.2151252
54	0xbe8d3b9b	-0.27584538
55	0x3ea60777	0.3242757
56	0x3e9e6437	0.30935833
57	0xbc582749	-0.01319296
58	0xbea2a209	-0.31764248
59	0xbe9d98e8	-0.3078072
60	0x3eb04e74	0.34434855
61	0xbe423daa	-0.18968835
62	0xbdd7cf3e	-0.10537575
63	0x3e47fb5a	0.19529477

mean_net.2.weight f4 [64, 64]
0	0xbd08733e	-0.03331303
1	0x3dc4fefc	0.09618947
2	0x3bfa23e6	0.007633674
3	0x3cfe688b	0.03105571
4	0x3d79078c	0.060798213
5	0x3cd921b8	0.026505336
6	0x3de9edd9	0.11422319
7	0x3ce5651d	0.028002316
8	0x3df0932a	0.11746819
9	0x3d8212c5	0.06351236
10	0xbe07dc1a	-0.13267556
11	0x3ddf15e2	0.10892846
12	0xbe272c7b	-0.16325562
13	0x3d48a336	0.048983775
14	0xbd5142c1	-0.051089052
15	0x3dea975a	0.11454649
16	0xbe00bf04	-0.12572867
17	0x3db5cd80	0.08877087
18	0xbb539b1b	-0.0032288495
19	0x3cde3587	0.027125133
20	0x3dbbe184	0.09173873
21	0xbdc57af9	-0.09642596
22	0x3e1b694c	0.15176886
23	0xbd267579	-0.040639374
24	0x3de2cb6e	0.110739574
25	0x3d15670b	0.036475223
26	0x3dbcc085	0.09216408
27	0x3bd164b3	0.006390178
28	0xbc8d064c	-0.017214917
29	0xbd988f4c	-0.07449207
30	0xbda1f9a6	-0.07908945
31	0x3d95d8cb	0.073167406
32	0xbdb9823c	-0.09058043
33	0x3daa478a	0.08314426
34	0xbdaab0e0	-0.083345175
35	0xbcc93ce7	-0.024565173
36	0xbd17adae	-0.03703087
37	0xbde4413b	-0.11145254
38	0x3d505bdb	0.05086885
39	0xbcdc22f5	-0.026872138
40	0x3b68666a	0.0035461434
41	0x3df3306b	0.11874469
42	0xbe1ee7bb	-0.15518086
43	0xbd688a42	-0.056772478
44	0x3d932dfa	0.07186504
45	0x3c3b6fea	0.011440257
46	0x3ced6f75	0.02898381
47	0xbe1b1570	-0.15144897
48	0x3d3495c6	0.044088148
49	0xbcf1b930	-0.02950725
50	0x3dbaf3d4	0.09128538
51	0x3c93d4f2	0.018045876
52	0xbd1e2146	-0.03860595
53	0x3db86210	0.09003079
54	0xbcac4937	-0.021031005
55	0x3b11ccbf	0.0022247282
56	0xbdd6a79c	-0.10481188
57	0x3dbe243a	0.092842534
58	0xbc971fa3	-0.018447703
59	0xbd2d2842	-0.04227472
60	0x3d9a6a03	0.075397514
61	0x3daa9491	0.08329118
62	0xbe0949cf	-0.13407062
63	0xbd916009	-0.070983954
64	0xbbf90e49	-0.00760058
65	0x3c12e23b	0.00896507
66	0x3d38219e	0.044953935
67	0xba382788	-0.00070249336
68	0x3b93ad3e	0.004506736
69	0x3d8ee00d	0.06976328
70	0xbe36e60d	-0.17861195
71	0xbdfb65d3	-0.12275281
72	0xbb7af191	-0.0038290957
73	0xbd51269b	-0.051062208
74	0xbd46b1b2	-0.048509307
75	0xbde2bb94	-0.11070934
76	0x3db7a16b	0.08966335
77	0xbda82059	-0.08209295
78	0xbdb30a93	-0.08742251
79	0xbe35db36	-0.17759404
80	0xbde269a9	-0.11055309
81	0xbcfdda4c	-0.030987881
82	0x3d05282f	0.032509025
83	0x3cbecc49	0.02329077
84	0x3e0102ad	0.12598677
85	0x3c9d403f	0.019195674
86	0x3d614273	0.05499501
87	0xbdf791f4	-0.12088385
88	0x3d51cf0c	0.051222846
89	0xbc929bec	-0.017896615
90	0xbdaabe32	-0.08337058
91	0xbcd238e2	-0.02566189
92	0xbe21b816	-0.1579288
93	0x3d4a152f	0.04933661
94	0xbd92845e	-0.07154153
95	0xbd8a909c	-0.06765863
96	0xbdc74c34	-0.097313315
97	0xbd19924c	-0.037493035
98	0xbd44425b	-0.047914844
99	0xbd780308	-0.060549766
100	0xbcdf7616	-0.027277987
101	0x3d98dd4a	0.074640825
102	0x3c939e97	0.018019957
103	0x3c885e26	0.016646456
104	0xbd31c782	-0.043403156
105	0xbd84000f	-0.06445324
106	0xbd646b1d	-0.055766214
107	0x3dbad309	0.09122283
108	0x3d514f00	0.05110073
109	0xbc65df2d	-0.01403026
110	0xbdd7eb56	-0.10542934
111	0x3d58da9f	0.05294287
112	0xbd8fac1c	-0.07015249
113	0x3c93f688	0.018061891
114	0xbe188ccd	-0.14897461
115	0x3dbb18b2	0.0913557
116	0x3bae5880	0.0053206086
117	0x3d2e5c12	0.042568274
118	0xbdb6ea70	-0.08931434
119	0x3e1f68fe	0.15567395
120	0x3e1df7db	0.1542658
121	0x3e011e54	0.12609226
122	0xbd6e6e45	-0.05821063
123	0x3ca4ddd8	0.020125315
124	0xbe0fb6fc	-0.14034647
125	0xbd2c66a2	-0.042090066
126	0x3d6fca6e	0.05854266
127	0xbdac286a	-0.08406146
128	0xbcd089e9	-0.025456386
129	0xbe4fb721	-0.20284702
130	0xbcd44ebd	-0.025916452
131	0xbc71811d	-0.014740256
132	0xbd6db3af	-0.058032688
133	0xbdf518b9	-0.11967606
134	0xbe011744	-0.12606531
135	0x3b9355d5	0.004496316
136	0xbd556288	-0.05209592
137	0xbca72daa	-0.020407517
138	0xbe274189	-0.16333593
139	0x3d803a9e	0.0626118
140	0xbd2f475d	-0.042792667
141	0x3e230b85	0.15922363
142	0x3d1e9191	0.03871304
143	0x3d78e173	0.06076188
144	0x3ca907aa	0.020633537
145	0x3c97f942	0.018551473
146	0xbd7993a7	-0.060931828
147	0xbe02a9fc	-0.12760156
148	0xbc92f528	-0.017939165
149	0xbd0600d7	-0.032715645
150	0xbdc5142b	-0.09622987
151	0x3d5a7c82	0.053341396
152	0xbe2dd4c7	-0.169757
153	0x3d5a1d11	0.053250376
154	0x3dcec094	0.10095325
155	0xbe0cff3e	-0.13769242
156	0x3d9378e7	0.07200795
157	0xbe0c05a4	-0.13674027
158	0xbdec53c9	-0.11539418
159	0xbc45ede7	-0.012080646
160	0xbdd21ea3	-0.1025975
161	0x3de988fb	0.1140308
162	0xbd94303d	-0.07235763
163	0xbbee76a1	-0.0072773253
164	0xbd1e5cd6	-0.038662754
165	0x3dba273b	0.09089514
166	0x3da6313b	0.08114859
167	0x3ded041d	0.1157305
168	0x3ca76f6f	0.020438878
169	0x3d968ca6	0.07351045
170	0xbdeff1cb	-0.1171604
171	0xbde18707	-0.110120825
172	0x3dd126ef	0.10212504
173	0xbd811aaa	-0.06303914
174	0x3de3cf4b	0.11123522
175	0x3d4c35db	0.049856048
176	0x3d840588	0.064463675
177	0xbd588b83	-0.052867424
178	0xbd48517e	-0.048905842
179	0xbcad30b0	-0.02114138
180	0x3d76e54f	0.06027728
181	0x3d6db766	0.05803623
182	0xbd5712bd	-0.052508105
183	0x3deb0a27	0.11476546
184	0x3cd9f87c	0.026607744
185	0x3ddef558	0.10886639
186	0xbc8831f6	-0.016625386
187	0x3d0407eb	0.032234114
188	0xbdcbdeac	-0.09954581
189	0x3d409fbc	0.047027335
190	0xbcd706ba	-0.026248325
191	0xbe2ebe85	-0.17064865
192	0xbe675e5d	-0.2259459
193	0xbe94c95d	-0.29059878
194	0xbd99ca53	-0.075092934
195	0x3e136b81	0.14396478
196	0x3b7704f2	0.0037692157
197	0x3d90a613	0.07062926
198	0xbde0d53a	-0.1097817
199	0x3e31669a	0.17324296
200	0x3e03a0f7	0.12854372
201	0xbdabbb60	-0.08385348
202	0x3b8e9742	0.0043515274
203	0x3d07f9a9	0.03319708
204	0xbd6b3b5b	-0.057429653
205	0xbdb1a2aa	-0.08673604
206	0xbdd83eb9	-0.105588384
207	0x3d9b9d20	0.075983286
208	0xbd789e2b	-0.060697716
209	0x3c213d86	0.0098413285
210	0x3eeaf142	0.4588719
211	0x3e45a1a3	0.19299941
212	0xbd63cfc3	-0.05561806
213	0x3e9bf122	0.30457407
214	0xbd8dc95e	-0.06923173
215	0xbd1caf09	-0.038252864
216	0xbdafa8df	-0.085771315
217	0xbdc56e87	-0.09640222
218	0x3d8a1faa	0.06744321
219	0x3d0af566	0.033925436
220	0x3d24a8c4	0.04020001
221	0x3d3b7e91	0.045775
222	0x3c67d12c	0.014148992
223	0x3d039fde	0.032134883
224	0x3da1e672	0.07905282
225	0xbeb78433	-0.35843047
226	0xbde1d2fa	-0.11026569
227	0xbdd83eb0	-0.10558832
228	0x3ddf16cc	0.1089302
229	0xbccacea1	-0.024756731
230	0xbdf673c8	-0.12033802
231	0x3e36d9f9	0.17856587
232	0xbe0e50f9	-0.13898076
233	0xbdcb1bcd	-0.09917412
234	0x3e1e7113	0.15472822
235	0xbb32fc35	-0.0027310972
236	0xbec3746c	-0.3817476
237	0x3e2d0ca1	0.16899349
238	0xbe727b3e	-0.23679826
239	0x3de6cb74	0.11269274
240	0x3e8d1530	0.27555227
241	0xbf0dc019	-0.5537124
242	0xbc56d92a	-0.013113299
243	0x3da1ce9f	0.07900738
244	0x3e05fc92	0.13084629
245	0x3e907f70	0.28222227
246	0x3d24c7cf	0.040229615
247	0x3da102de	0.07861875
248	0x3c9363ce	0.017991927
249	0x3d8c4930	0.06849897
250	0xbe7e2df4	-0.24822217
251	0xbe28906f	-0.16461347
252	0x3d962704	0.073316604
253	0xbe1060c0	-0.14099407
254	0xbde256b7	-0.11051696
255	0xbd97b538	-0.074076116

mean_net.2.bias f4 [64]
0	0x3d4c01d4	0.04980643
1	0x3e2dc334	0.16968995
2	0xbc347e62	-0.01101646
3	0x3d4b436a	0.049624838
4	0x3e0f8048	0.14013779
5	0xbe2e1291	-0.1699927
6	0xbcf309e4	-0.029667802
7	0xbd3975b9	-0.045278285
8	0xbc88b81d	-0.016689355
9	0xbc1c22b8	-0.009529762
10	0x3e44a073	0.19201832
11	0xbdc9448a	-0.09827526
12	0x3d8dba5d	0.069203116
13	0xbe062363	-0.13099436
14	0xbb251882	-0.002519161
15	0xbd6328c3	-0.055458795
16	0xbdc342d6	-0.09534232
17	0xbdc0ccd3	-0.09414067
18	0x3e1fabb9	0.1559285
19	0xbd5c3774	-0.05376382
20	0x3dbe5b91	0.09294809
21	0x3e8a9d78	0.27073264
22	0xbd7bdfa9	-0.061492596
23	0x3e1133c0	0.14179897
24	0x3dd05bb4	0.10173741
25	0xbe1c45fe	-0.15261075
26	0xbe2995f1	-0.16561104
27	0x3d7cb9fa	0.0617008
28	0xbdbe8456	-0.09302585
29	0x3c5863d8	0.013207398
30	0xbe5fbc73	-0.21849231
31	0xbd0c45d3	-0.034246277
32	0xbdf2a2ed	-0.11847482
33	0x3cf33211	0.02968696
34	0xbe42704a	-0.18988147
35	0xbdd7ad36	-0.10531084
36	0xbe0fbb8c	-0.14036387
37	0x3dcf5321	0.101232775
38	0xbd9e850a	-0.07740219
39	0xbe667ed9	-0.22509326
40	0x3d9a6e60	0.075405836
41	0x3ddb1a26	0.10698347
42	0x3e0f6c6d	0.14006205
43	0xbdb3a5dd	-0.0877187
44	0xbed58acc	-0.41707456
45	0xbd9ae026	-0.07562284
46	0x3e7a9d2d	0.2447402
47	0xbdc509a9	-0.09620983
48	0x3db99ea3	0.09063461
49	0x3d1d220c	0.038362548
50	0x3a37c403	0.0007010104
51	0xbd5a6388	-0.053317577
52	0x3e4adf6f	0.19811796
53	0xbdfd1890	-0.123582006
54	0xbd8b1676	-0.067913935
55	0xbce241ca	-0.027619261
56	0xbd5c890d	-0.05384164
57	0xbde3f9ff	-0.11131667
58	0xbe475705	-0.19466789
59	0x3dfc35f8	0.12314981
60	0x3dc9ca7e	0.098530754
61	0xbd55b9b6	-0.05217906
62	0xbdf7aa5a	-0.12093039
63	0x3d622bac	0.05521743

mean_net.4.weight f4 [8, 64]
0	0x3c840b1b	0.016118577
1	0x3ba6123a	0.0050680907
2	0x3d0240be	0.031800024
3	0x3c108a16	0.008821985
4	0x3d394565	0.045232195
5	0xbcb52b34	-0.022115327
6	0x3d0b9682	0.034079082
7	0x3b473e5a	0.0030402155
8	0x3b099bf7	0.0020997503
9	0x3bdf1d62	0.0068089226
10	0x3bc43054	0.0059872065
11	0xbae0d18a	-0.0017152291
12	0x3c6a4fdb	0.014301266
13	0xbde876da	-0.11350794
14	0x3d808f82	0.06277372
15	0x3aaf930e	0.0013395266
16	0x3c5d7764	0.0135172345
17	0xbdbccb00	-0.09218407
18	0xbd4d5bea	-0.050136484
19	0x3b6d23a9	0.0036184585
20	0x3ca9ea56	0.020741623
21	0xbca06022	-0.01957709
22	0x3d2208e7	0.03955927
23	0xbcefdb42	-0.029279355
24	0xbb8ffeed	-0.004394403
25	0xbb9fced0	-0.004876949
26	0xbce8a04a	-0.028396744
27	0xbcfce3dc	-0.03087037
28	0xbb495245	-0.0030719202
29	0xbda71062	-0.08157422
30	0xbcb3aa21	-0.02193171
31	0x3c0f6c03	0.008753779
32	0x3ab06fda	0.0013461069
33	0x3c01d915	0.007925292
34	0xbdd4eb19	-0.10396404
35	0x3da214d6	0.079141304
36	0x3d60512c	0.05476491
37	0xbd88841e	-0.06665824
38	0xbdb267b6	-0.087111875
39	0x3cd94ae8	0.026524976
40	0x3c9211b1	0.017830702
41	0xbc32d7ec	-0.010915738
42	0x3c85a4c5	0.01631392
43	0xbc3706ab	-0.011171023
44	0xbd989669	-0.074505635
45	0x3d58245e	0.052769057
46	0xbe248d99	-0.1606964
47	0xbd046939	-0.03232691
48	0xbd227391	-0.039660994
49	0x3d5da1e6	0.054109477
50	0x3d01059b	0.031499486
51	0x3d3e5f26	0.04647746
52	0xbbbcd3f2	-0.0057625705
53	0x3bc54a14	0.0060207937
54	0xbc4c0c1b	-0.012454058
55	0x3c0bd558	0.008534752
56	0x3dc90ef7	0.098173074
57	0x3b999d20	0.00468792
58	0xbae214a7	-0.0017248587
59	0x3a27f7ee	0.0006407489
60	0xbbce76d2	-0.0063007856
61	0xbc993ba5	-0.018705199
62	0x3c111a6e	0.008856399
63	0x3d4a928a	0.049456157
64	0x3af44bda	0.0018638328
65	0x3b0cc6b4	0.002148074
66	0x3a5f75d8	0.0008524335
67	0x3db53c9f	0.08849453
68	0x3cf3b815	0.029750863
69	0x3ccc9872	0.024975035
70	0xbc892529	-0.016741352
71	0xbafc2254	-0.0019236305
72	0xbc83bc1a	-0.016080905
73	0x3b94ab85	0.0045370483
74	0xbc922f70	-0.017844886
75	0xbce89b68	-0.028394416
76	0xbb769b65	-0.0037629243
77	0xbdfecf0c	-0.12441835
78	0x3dd9306e	0.1060494
79	0x3c42348f	0.011853351
80	0x3c247085	0.010036592
81	0xbd21a50d	-0.039464045
82	0xbc97078c	-0.018436216
83	0xbd0601f0	-0.03271669
84	0xbcb87e13	-0.022521054
85	0x3d6bfe4a	0.057615556
86	0x3cc2170c	0.02369263
87	0xbd38af88	-0.045089275
88	0x3a3367d7	0.00068437814
89	0x3d0f9d6d	0.035062242
90	0xbafb0c10	-0.0019153375
91	0x3d1037a6	0.03520932
92	0x3c7a9dee	0.015296442
93	0xbe2e2672	-0.17006853
94	0xbc07d1a5	-0.008289729
95	0x3d1721f9	0.036897633
96	0x3bffc340	0.007805258
97	0xbb4484f5	-0.0029986475
98	0x3ca458f5	0.02006195
99	0x3d8359ab	0.06413587
100	0xbc9e1893	-0.019298827
101	0xbc61741c	-0.013760593
102	0xbce39612	-0.02778152
103	0x3cc32b6a	0.023824412
104	0x3c65bfd7	0.014022789
105	0x3bd54973	0.006509
106	0xbb87ca29	-0.0041439724
107	0xbc85d06a	-0.016334731
108	0x3d6c1f8f	0.057647284
109	0xbdc0f727	-0.094221406
110	0x3d57b469	0.052662287
111	0x3d574cb3	0.05256338
112	0xbd06e38a	-0.032931842
113	0xbd994403	-0.07483675
114	0xbc987f35	-0.018615345
115	0x3d4e552b	0.05037419
116	0xbd9707ee	-0.07374559
117	0xbc90bda7	-0.017668558
118	0xbd2e4791	-0.04254872
119	0x3d1f4220	0.03888142
120	0xbac1654f	-0.0014754924
121	0x3c867b76	0.016416293
122	0xbb96efed	-0.004606238
123	0xbdaf816f	-0.085696094
124	0x3d6aa335	0.057284553
125	0x3ed8c4a8	0.42337537
126	0x3c4c4200	0.0124669075
127	0x39cd0800	0.00039106607
128	0xba92303f	-0.0011153294
129	0x3ba1a6e5	0.0049332255
130	0x3c41e1e3	0.011833641
131	0x3d313855	0.043266613
132	0x3dabf14f	0.08395635
133	0x3c49a653	0.012307721
134	0xbc8234aa	-0.015894253
135	0x3b09a517	0.0021002942
136	0x3a7bfa8c	0.00096122245
137	0x3bd46aba	0.0064824494
138	0x3c5443f1	0.012955652
139	0xbcac5c39	-0.021040069
140	0x3bc1b8ce	0.005911923
141	0x3e065e87	0.13121997
142	0xbd4c5757	-0.04988798
143	0xbba1a27e	-0.0049327007
144	0xbc15f7ce	-0.0091533195
145	0xbca7f38e	-0.020501878
146	0xbda0a169	-0.078432865
147	0xbce23ba0	-0.027616322
148	0x3c8b2404	0.016984947
149	0x3d84f194	0.0649139
150	0x3d0ee21b	0.0348836
151	0xbd94fe32	-0.072750464
152	0xbb5721b7	-0.0032826492
153	0x3c60a693	0.013711589
154	0xbcd3579c	-0.025798611
155	0x3cc9ead6	0.024648111
156	0xbb5dc45e	-0.0033838968
157	0xbd0580a2	-0.032593377
158	0xbdd2bac6	-0.102895305
159	0x3cf17077	0.029472573
160	0xbb30ae43	-0.0026959337
161	0xba6540bb	-0.00087453023
162	0x3d9a6fe1	0.075408705
163	0xbd825099	-0.06363029
164	0xbd4ea159	-0.050446842
165	0x3deda341	0.11603404
166	0x3cee63af	0.029100267
167	0xbcc6b108	-0.024254337
168	0x3b04b9ba	0.0020252303
169	0x3c34d58c	0.011037242
170	0x3c3ce6f1	0.01152967
171	0xbb95519d	-0.004556848
172	0xbd3eec9b	-0.046612363
173	0xbe329a3f	-0.17441653
174	0x3e625f68	0.22106707
175	0xbbcdb8ce	-0.006278134
176	0x3d8eb867	0.06968766
177	0xbcc0fb5d	-0.02355736
178	0xbd347d02	-0.04406453
179	0xbbf009d5	-0.007325391
180	0x3e3a0196	0.18164667
181	0xbc53fbbe	-0.012938438
182	0xbd33200b	-0.04373173
183	0x3c8a122e	0.016854372
184	0xbb6a37e8	-0.003573889
185	0xbd4273bb	-0.04747365
186	0xbd4c8116	-0.049927793
187	0x3d0c5d34	0.034268573
188	0x3d0d924c	0.034563348
189	0xbea1bc37	-0.3158891
190	0x3c29133b	0.010319526
191	0x3c746975	0.014917721
192	0xbba553e4	-0.005045401
193	0x3d041515	0.032246668
194	0xbc93eb6d	-0.018056596
195	0x3e4d04f9	0.20021428
196	0xbd561cf0	-0.05227369
197	0xbbdb9ff8	-0.0067024194
198	0xbc1ca28b	-0.009560238
199	0x3b11aee3	0.0022229485
200	0xbb5867a9	-0.003302077
201	0x3b6d7802	0.003623486
202	0xb8c88a10	-9.562459e-05
203	0xbbf3c266	-0.0074389456
204	0x3b55cb5e	0.0032622437
205	0xbe0e61a4	-0.13904434
206	0x3d0a295c	0.03373085
207	0xbb8a96bc	-0.0042293947
208	0xbc5cee52	-0.013484554
209	0xbd92529c	-0.07144663
210	0x3d01b765	0.03166904
211	0xbd306304	-0.04306318
212	0xbc58030c	-0.01318432
213	0x3dbf4d98	0.09340972
214	0x3bcfe07b	0.006343899
215	0x3e1792f9	0.1480216
216	0xba844359	-0.0010090872
217	0x3c50c882	0.012743117
218	0xbb86847b	-0.0041051484
219	0x3c1655df	0.009175747
220	0xbb77c75a	-0.0037808032
221	0x3d1bada1	0.038007382
222	0xbd3d7005	-0.04624941
223	0xbb8df2b5	-0.0043319114
224	0xbbb38f65	-0.0054797404
225	0x3af86751	0.0018951689
226	0xbd1d8408	-0.038455993
227	0xbca4bf4a	-0.020110745
228	0xbd2a2ad7	-0.04154476
229	0x3da1865f	0.078869574
230	0xbdbaa8ee	-0.09114252
231	0xbd058beb	-0.03260414
232	0xbb3f3a34	-0.002917898
233	0xbb6ae00c	-0.0035839109
234	0x3cb7e307	0.022447122
235	0xbab5673e	-0.0013839973
236	0xbde129ac	-0.109942764
237	0xba0bcd7b	-0.0005333048
238	0x3d829e68	0.0637787
239	0xbdab3c63	-0.08361127
240	0x3d2fe57d	0.042943466
241	0x3c0c303b	0.008556421
242	0xbd2ce733	-0.042212676
243	0xbe1e4a40	-0.15458012
244	0xbddedd4b	-0.10882052
245	0xbcf5b011	-0.029991182
246	0xbcd959e0	-0.026532114
247	0x3c1064a8	0.008813061
248	0x3d9c2775	0.07624713
249	0xbcf1f306	-0.029534828
250	0x3c818781	0.015811684
251	0xbd5bc903	-0.053658497
252	0x3cd16242	0.025559548
253	0x3e48db64	0.19614941
254	0xbc9aed9b	-0.018912127
255	0xbb8a478e	-0.0042199558

mean_net.4.bias f4 [8]
0	0x3c3013f6	0.010746947
1	0xbde5b72a	-0.112165764
2	0x3dfa0b5c	0.12209198
3	0xbbb10c32	-0.005403065
4	0xbafbd2d9	-0.0019212618
5	0x3e00d9a8	0.1258303
6	0xbd40fa06	-0.04711344
7	0x3e2ca150	0.16858411
