_models/FrozenLake-v1_DQN.pt (torch, 9646 bytes, 12 tensors)

mlp.0.weight f4 [16, 16]
0	0xbe78869e	-0.24270102
1	0x3e3ac93b	0.18240826
2	0xbdd39bdc	-0.10332462
3	0x3e5517e7	0.208099
4	0xbb8d21c0	-0.004307002
5	0xbe4dfb7e	-0.20115468
6	0x3d15d8a8	0.036583573
7	0xbe6b4978	-0.22977245
8	0x3cb193a0	0.021676838
9	0xbdf0c918	-0.117571056
10	0xbe1008ae	-0.14065811
11	0xbdc2032c	-0.09473261
12	0x3e0a0604	0.13478857
13	0x3e4d70bc	0.20062536
14	0x3e5b2b6c	0.21403283
15	0xbe5c2b4e	-0.21500894
16	0x3e2135ac	0.1574313
17	0xbea7d613	-0.32780513
18	0x3e383e20	0.17992449
19	0x3ceb5954	0.028729118
20	0xbd677bc2	-0.05651451
21	0x3d945f28	0.07244712
22	0xbe8c6255	-0.2741877
23	0x3dbcd35c	0.09220001
24	0x3d64939d	0.055804837
25	0x3e91ae59	0.2845333
26	0x3cf6871d	0.030093724
27	0x3c885490	0.016641885
28	0xbde20390	-0.11035836
29	0x3dc12f46	0.09432845
30	0x3ef8324a	0.48475868
31	0xbe506a26	-0.20352992
32	0xbca788b3	-0.020450925
33	0x3e885103	0.26624307
34	0xbd8a37a0	-0.06748891
35	0x3f03db77	0.5150675
36	0x3d6d34ec	0.0579118
37	0x3e09a0c4	0.13440233
38	0xbe91758c	-0.28409994
39	0xbc6cc280	-0.014450669
40	0x3f07f7d2	0.5311252
41	0xbe55f984	-0.20895964
42	0x3e10c3cf	0.14137195
43	0xbd0f31b8	-0.034959525
44	0x3d93fbc8	0.07225758
45	0xbe920d6c	-0.28525865
46	0xbda81efa	-0.08209033
47	0x3e764d4a	0.24052921
48	0x3e69a818	0.22818029
49	0xbd8a21a0	-0.06744695
50	0x3e7270f0	0.23675895
51	0xbdcd0be8	-0.100120366
52	0x3de4d2f4	0.111730486
53	0x3dadbee0	0.08483672
54	0xbe06d2f2	-0.13166407
55	0x3e1392ba	0.1441144
56	0xbd2f2f40	-0.04276967
57	0x3ed731e5	0.42030254
58	0xbe39c23c	-0.18140501
59	0xbe547d3c	-0.20750898
60	0xbe609044	-0.21930033
61	0xbd625018	-0.055252165
62	0x3edf000e	0.4355473
63	0xbe03493a	-0.12820902
64	0xbd3ff3ff	-0.046863552
65	0x3e8d0180	0.27540207
66	0x3e828ce9	0.2549813
67	0x3d9bf25a	0.07614584
68	0x3c6aaec6	0.014323896
69	0x3c9352a0	0.017983735
70	0xb91864a8	-0.00014533347
71	0x3e43d88e	0.19125578
72	0x3e741238	0.23835075
73	0xbe4aa0d2	-0.1978791
74	0x3e3fdad9	0.18735828
75	0xbd140bf0	-0.036144197
76	0x3c8e1dd0	0.0173482
77	0x3e8bb1e0	0.27284145
78	0x3ebf5038	0.3736589
79	0x3d526b28	0.051371723
80	0xbcd227fe	-0.025653835
81	0x3e145178	0.14484203
82	0xbd8c0e54	-0.068386704
83	0x3de97e2a	0.11401017
84	0xbdc3f82c	-0.095688194
85	0x3e2415d0	0.16023946
86	0xbd888a9a	-0.06667061
87	0x3c5ba6c0	0.0134064555
88	0x3e2a4954	0.16629535
89	0x3f1bac73	0.6081001
90	0xbdccf504	-0.100076705
91	0x3dd49064	0.10379103
92	0x3d6614b8	0.056172103
93	0xbd8a46c0	-0.06751776
94	0x3e885934	0.26630557
95	0x3e6a876e	0.22903225
96	0xbe793654	-0.24337131
97	0xbe13dede	-0.14440486
98	0xbe384f66	-0.17999038
99	0xbe1e4303	-0.1545525
100	0xbe4fd5ba	-0.20296374
101	0xbe29dc86	-0.1658803
102	0x3f152ede	0.5827464
103	0x3de17f4c	0.11010608
104	0xbe201b76	-0.15635476
105	0xbe7a12ec	-0.2442128
106	0x3e583734	0.21114808
107	0x3bddf7c0	0.006773919
108	0x3d7001b0	0.05859536
109	0x3ebce9e0	0.36897182
110	0x3d462649	0.048376355
111	0x3e08aed8	0.13347948
112	0x3dd62991	0.10457147
113	0xbdd3fd24	-0.10351017
114	0xbe3fbaaa	-0.1872355
115	0xbe111926	-0.1416975
116	0xbe5081e8	-0.20362055
117	0xbdbd7d70	-0.09252441
118	0xbdc8b9c9	-0.09801061
119	0xbe11e5da	-0.14247838
120	0x3ba1d2c1	0.004938454
121	0xbe07be60	-0.13256216
122	0xbdf77218	-0.120823085
123	0xbe72a624	-0.2369619
124	0x3e76cafc	0.2410087
125	0xbe6608b4	-0.22464257
126	0x3ea58fca	0.32336265
127	0xbe21b454	-0.15791446
128	0x3d9547f2	0.07289113
129	0xbe7fd95a	-0.24985257
130	0xbcbbf81e	-0.02294546
131	0xbd9f9775	-0.0779256
132	0xbde76b64	-0.1129978
133	0xbd4c5218	-0.04988298
134	0xbe56e6be	-0.20986459
135	0xbe40315c	-0.18768829
136	0x3defefa2	0.11715628
137	0x3e406ae4	0.18790776
138	0xbdb9912f	-0.09060895
139	0xbe67b0d2	-0.22626045
140	0xbdb96e84	-0.09054282
141	0x3f10b10b	0.56520146
142	0x3be4f000	0.006986618
143	0x3e5bd66c	0.21468514
144	0xbe697c72	-0.22801378
145	0x3d048b30	0.032359302
146	0xbdfc1bec	-0.12310013
147	0xbce331ca	-0.027733702
148	0x3ee72ebe	0.4515285
149	0x3d7b80c8	0.061402112
150	0xbd8e773c	-0.06956336
151	0xbdde5830	-0.10856664
152	0x3d597c67	0.053097155
153	0x3d089ead	0.03335445
154	0xbd3cd110	-0.046097815
155	0x3db6bf40	0.08923197
156	0x3e434ccc	0.19072264
157	0x3c8e61c8	0.01738061
158	0xbe656264	-0.22400814
159	0xbda40f70	-0.08010757
160	0xbe049ba0	-0.12949991
161	0x3e9a796d	0.30170766
162	0xbd83b184	-0.06430343
163	0x3e8e8ed2	0.27843338
164	0x3e0416d7	0.12899338
165	0xbe78c762	-0.24294809
166	0x3c621205	0.0137982415
167	0xbe783b06	-0.24241266
168	0x3eba710d	0.36414376
169	0xbe6e87c6	-0.23293981
170	0x3d1ee3f2	0.038791604
171	0x3e35e336	0.17762455
172	0x3e2d12f8	0.16901767
173	0xbe52420c	-0.20533007
174	0x3c230063	0.009948823
175	0x3e67e950	0.22647595
176	0xbe5c0f68	-0.21490252
177	0x3d9af904	0.07567027
178	0xba99bd00	-0.00117293
179	0xbe5335ba	-0.20625964
180	0xbdf8a1cc	-0.12140235
181	0xbe726a90	-0.23673463
182	0xbe7af55c	-0.2450766
183	0x3ddf925c	0.10916588
184	0x3cdca0e0	0.02693218
185	0x3e533152	0.20624283
186	0x3debf8c0	0.11522055
187	0x3e3fedd2	0.18743065
188	0xbe262bc8	-0.16227639
189	0x3dc95988	0.0983153
190	0x3e520de4	0.20513111
191	0xbd4a7a18	-0.049432844
192	0xbc30fd14	-0.010802526
193	0x3eb5ebd7	0.35531494
194	0x3e9eea0a	0.31037933
195	0x3e81d0f8	0.25354743
196	0xbe1d7dc7	-0.15380011
197	0xbe37f158	-0.17963159
198	0xbdf91b2a	-0.12163384
199	0x3db58248	0.0886274
200	0x3dc02ba4	0.09383324
201	0x3e4ef31c	0.20209926
202	0xbe083599	-0.13301696
203	0x3d3c1878	0.045921773
204	0x3e7b08e0	0.24515104
205	0x3e8f4344	0.27981007
206	0x3e8c5701	0.2741013
207	0xbdb6207c	-0.08892915
208	0x3e21d914	0.15805465
209	0xbe5e108c	-0.21686
210	0x3ec7ca5c	0.39021575
211	0xbd33f05d	-0.0439304
212	0x3ec2706c	0.37976396
213	0x3e21c330	0.15797114
214	0xbe6a81a2	-0.22901013
215	0xbe0cbf36	-0.13744816
216	0xbe0e594b	-0.1390125
217	0x3e6ad385	0.22932251
218	0x3f08376d	0.53209573
219	0x3e0d5120	0.13800478
220	0x3e7faebe	0.24969003
221	0xbd938778	-0.07203573
222	0xbbf2e9f0	-0.0074131414
223	0x3dc35070	0.095368266
224	0xbce19a7b	-0.027539482
225	0xbe0bd029	-0.13653626
226	0xbe2fe662	-0.17177728
227	0xbdfd3ed6	-0.12365501
228	0x3e5347fb	0.20632927
229	0xbde56018	-0.11199969
230	0x3e45b0e9	0.19305767
231	0xbd90dcb8	-0.07073349
232	0xbe353b94	-0.17698509
233	0xbd0080e0	-0.031372905
234	0x3ece4acd	0.40291443
235	0xbd86f4a8	-0.06589633
236	0x3e6ff00c	0.23431414
237	0xbd5958e9	-0.053063307
238	0x3da813a1	0.08206869
239	0xbe16e9a6	-0.14737567
240	0x3e31ab1f	0.17350434
241	0x3e05e43b	0.13075344
242	0xbbdf37a9	-0.006812055
243	0x3d29f53d	0.041493643
244	0xbe086c12	-0.13322476
245	0x3d478fb0	0.048721015
246	0xbea55116	-0.32288426
247	0xbd3bb478	-0.045826405
248	0x3d50d59b	0.05098496
249	0xbe74d9ef	-0.2391126
250	0xbda7b16d	-0.08188138
251	0xbdda90f0	-0.10672176
252	0x3e6036d4	0.21895915
253	0x3e1cb188	0.15302098
254	0x3d2172f1	0.039416257
255	0x3e127412	0.1430209

mlp.0.bias f4 [16]
0	0xbe63f217	-0.22260319
1	0x3ebd64d5	0.3699099
2	0x3e9000a8	0.281255
3	0x3c847a83	0.0161717
4	0x3e5bedd2	0.2147744
5	0x3d889c66	0.06670456
6	0x3e13a3fa	0.14418021
7	0x3d911f30	0.07086027
8	0x3de2fefa	0.11083789
9	0xbd4751c6	-0.04866197
10	0x3d7bae7b	0.061445694
11	0xbe7a0270	-0.24414992
12	0x3e07ed44	0.13274103
13	0x3dfdf257	0.12399738
14	0x3de362d3	0.111028336
15	0x3e99b10a	0.30017883

mlp.2.weight f4 [4, 16]
0	0x3d343d2e	0.044003658
1	0x3e8c3191	0.27381566
2	0x3ec88a8b	0.391682
3	0x3e572a00	0.21012115
4	0x3e8fb11b	0.28064808
5	0x3eb9044d	0.36136094
6	0xbe28e457	-0.16493355
7	0x3c750bef	0.0149564585
8	0xbe7cc1dd	-0.24683328
9	0x3d307cf0	0.0430879
10	0xbd7afefc	-0.06127833
11	0xbddf9938	-0.10917896
12	0x3d05cfc7	0.032668855
13	0x3e9e53bf	0.30923268
14	0x3e6c9dd9	0.23107089
15	0x3e3a85d7	0.18215118
16	0x3d2d6049	0.042328153
17	0x3e8b0862	0.27154833
18	0xbea5501a	-0.32287675
19	0x3efe559c	0.4967469
20	0x3df6aac7	0.12044292
21	0xbadf3c99	-0.0017031609
22	0x3f171001	0.59008795
23	0xbca92019	-0.020645188
24	0x3ceb290b	0.028706094
25	0x3e51fd8e	0.2050688
26	0xbeb5cf61	-0.3550978
27	0x3e76e670	0.24111342
28	0xbc6a0c9d	-0.014285234
29	0x3edee8b2	0.43536907
30	0x3ea9ebf0	0.3318782
31	0xbd07fbf7	-0.033199277
32	0xbe5ad682	-0.2137089
33	0x3e2a736a	0.1664559
34	0xbc1f66d2	-0.009729104
35	0x3e94c394	0.29055464
36	0x3e927beb	0.28610167
37	0x3ec23e1e	0.37938017
38	0xbe143acc	-0.14475554
39	0x3e84146d	0.25796834
40	0x3f08be67	0.5341553
41	0xbe8116c4	-0.2521268
42	0xbd2ab3ab	-0.04167525
43	0xbe6547d2	-0.22390679
44	0x3ebd6e64	0.36998284
45	0xbe88532b	-0.26625952
46	0xbe994da4	-0.29942048
47	0x3ea4eb03	0.3221055
48	0x3deadab1	0.11467493
49	0x3df62747	0.1201921
50	0x3e85cfc6	0.2613508
51	0xbc009f28	-0.007850446
52	0x3eeb0bea	0.45907527
53	0xbebc8a27	-0.36824152
54	0x3f082bf7	0.53192085
55	0x3eaa5b9d	0.3327302
56	0xbe558e64	-0.20855099
57	0x3e88816b	0.26661238
58	0xbe108e39	-0.14116754
59	0xbe0a0074	-0.13476735
60	0x3e13fc4d	0.14451714
61	0x3cef8484	0.029237993
62	0x3d3a4c2d	0.045482803
63	0x3ea7ac8f	0.3274884

mlp.2.bias f4 [4]
0	0x3c853751	0.016261728
1	0x3e83141d	0.25601283
2	0x3e03c1fe	0.12866971
3	0x3e10c763	0.1413856

exp_avg f4 [16, 16]
0	0x00000000	0.0
1	0x00000004	6e-45
2	0x00000000	0.0
3	0x00000004	6e-45
4	0x00000000	0.0
5	0x00000000	0.0
6	0x00000000	0.0
7	0x00000000	0.0
8	0x00000000	0.0
9	0x00000000	0.0
10	0x00000000	0.0
11	0x00000000	0.0
12	0x00000000	0.0
13	0x00000004	6e-45
14	0x0008724c	7.75686e-40
15	0x00000000	0.0
16	0xb63833bb	-2.7448248e-06
17	0x33b7db46	8.561487e-08
18	0xb6258db3	-2.4669396e-06
19	0x323b5fec	1.0906643e-08
20	0x35678ba7	8.6257427e-07
21	0x00000000	0.0
22	0xb54cd7ff	-7.631024e-07
23	0x00000000	0.0
24	0x35b809fd	1.3711975e-06
25	0x3557a549	8.0334263e-07
26	0x369ea77b	4.7282642e-06
27	0x00000000	0.0
28	0x00000000	0.0
29	0xb5b9ebf0	-1.3852241e-06
30	0x34e11288	4.1923e-07
31	0x00000000	0.0
32	0x358c5491	1.0455425e-06
33	0x351605e5	5.588793e-07
34	0x35a7d6c4	1.2504975e-06
35	0x3285b95d	1.5567531e-08
36	0x35ba710b	1.389098e-06
37	0x00000000	0.0
38	0x278c6ee2	3.8978025e-15
39	0x00000000	0.0
40	0xb5a59b86	-1.2338721e-06
41	0xb5c47400	-1.4636898e-06
42	0xb66fbdae	-3.5724183e-06
43	0x00000000	0.0
44	0x00000000	0.0
45	0x2b49b333	7.1658234e-13
46	0x35bc647c	1.4036336e-06
47	0x00000000	0.0
48	0xb6884707	-4.0613845e-06
49	0x00000000	0.0
50	0xb4ee8f1a	-4.4435075e-07
51	0x00000000	0.0
52	0x34e252c9	4.2156015e-07
53	0x00000000	0.0
54	0x00000000	0.0
55	0x00000000	0.0
56	0x00000000	0.0
57	0x35ac60e1	1.2843194e-06
58	0x00000000	0.0
59	0x00000000	0.0
60	0x00000000	0.0
61	0x00000000	0.0
62	0xb519f19b	-5.7348524e-07
63	0x00000000	0.0
64	0xb5a743df	-1.2462223e-06
65	0x35821706	9.692455e-07
66	0xb7517e1f	-1.2486736e-05
67	0x32400431	1.1176824e-08
68	0x35a3ddb7	1.2208974e-06
69	0x00000000	0.0
70	0xb620dfa6	-2.3972038e-06
71	0x00000000	0.0
72	0x358deb53	1.0573807e-06
73	0xb486572b	-2.5022868e-07
74	0x36904ea8	4.300691e-06
75	0x00000000	0.0
76	0x00000000	0.0
77	0xb5e06644	-1.6719064e-06
78	0x368e3d6b	4.2390798e-06
79	0x00000000	0.0
80	0xb586c9c1	-1.0042496e-06
81	0x35817a89	9.646911e-07
82	0x333f4ad5	4.4538712e-08
83	0x3275db32	1.4310716e-08
84	0x00000000	0.0
85	0x00000000	0.0
86	0x345a29bf	2.0318019e-07
87	0x00000000	0.0
88	0x355ae103	8.1538764e-07
89	0xb61f8451	-2.3769865e-06
90	0x00000000	0.0
91	0x00000000	0.0
92	0x00000000	0.0
93	0x00000000	0.0
94	0xb69a7f19	-4.6043538e-06
95	0x00000000	0.0
96	0x00000000	0.0
97	0x32d6b96a	2.4997195e-08
98	0x00000000	0.0
99	0x1bccc070	3.387333e-22
100	0x00000000	0.0
101	0x00000000	0.0
102	0xb64d6971	-3.0608755e-06
103	0x00000000	0.0
104	0x1227f9a7	5.300363e-28
105	0x00000000	0.0
106	0x3714650d	8.845015e-06
107	0x00000000	0.0
108	0x00000000	0.0
109	0xb484df8e	-2.4749573e-07
110	0x36c19d1e	5.770139e-06
111	0x00000000	0.0
112	0x353f0b35	7.1169353e-07
113	0x0d14f103	4.589613e-31
114	0x00000000	0.0
115	0x00000000	0.0
116	0x00000000	0.0
117	0x00000000	0.0
118	0x0cd04b2b	3.2092714e-31
119	0x00000000	0.0
120	0x34fd571e	4.7188308e-07
121	0x00000000	0.0
122	0x109d8d08	6.2142874e-29
123	0x00000000	0.0
124	0x00000000	0.0
125	0x00000000	0.0
126	0x36838a4e	3.920205e-06
127	0x00000000	0.0
128	0x35c395aa	1.457219e-06
129	0x00000000	0.0
130	0x372aa70b	1.0171682e-05
131	0xb2281475	-9.783538e-09
132	0x00000000	0.0
133	0x00000000	0.0
134	0x00000000	0.0
135	0x00000000	0.0
136	0x35a9033c	1.2592423e-06
137	0xb63a89ee	-2.7796445e-06
138	0x36148295	2.2129727e-06
139	0x00000000	0.0
140	0x00000000	0.0
141	0xb6462875	-2.9527848e-06
142	0xb4cf2f5d	-3.8591216e-07
143	0x00000000	0.0
144	0x00000000	0.0
145	0x106ff92f	4.7326403e-29
146	0x00000000	0.0
147	0x00000004	6e-45
148	0x357c2681	9.3933346e-07
149	0x00000000	0.0
150	0x00000000	0.0
151	0x00000000	0.0
152	0x346c747a	2.2021587e-07
153	0x0fce33ef	2.0333172e-29
154	0x00000000	0.0
155	0x00000000	0.0
156	0x00000000	0.0
157	0x0ed7e036	5.32175e-30
158	0x00000000	0.0
159	0x00000000	0.0
160	0x00000000	0.0
161	0x34da6768	4.0680902e-07
162	0x2e97aa11	6.896895e-11
163	0xb126e2ea	-2.4285165e-09
164	0xb5036e25	-4.8961584e-07
165	0x00000000	0.0
166	0x357ac0ee	9.3413007e-07
167	0x00000000	0.0
168	0xb5bdfb5e	-1.4154755e-06
169	0x00000000	0.0
170	0xb6b395e3	-5.352065e-06
171	0x00000000	0.0
172	0x00000000	0.0
173	0x00000000	0.0
174	0xb5a08f7c	-1.1962688e-06
175	0x00000000	0.0
176	0x00000000	0.0
177	0x00000000	0.0
178	0x00000000	0.0
179	0x00000000	0.0
180	0x00000000	0.0
181	0x00000000	0.0
182	0x00000000	0.0
183	0x00000000	0.0
184	0x00000000	0.0
185	0x00000000	0.0
186	0x00000000	0.0
187	0x00000000	0.0
188	0x00000000	0.0
189	0x00000000	0.0
190	0x00000000	0.0
191	0x00000000	0.0
192	0x35303a17	6.564964e-07
193	0x35b9773a	1.3818274e-06
194	0xb53b09be	-6.9677105e-07
195	0x30b94c58	1.348222e-09
196	0x12101c83	4.547353e-28
197	0x00000000	0.0
198	0xb53cd91a	-7.035138e-07
199	0x00000000	0.0
200	0x35464ffe	7.387715e-07
201	0xb5effa75	-1.787978e-06
202	0x34dcb297	4.1108134e-07
203	0x00000000	0.0
204	0x00000000	0.0
205	0xb601325f	-1.9251818e-06
206	0x36088ab7	2.0346322e-06
207	0x00000000	0.0
208	0xb6a2a979	-4.8477054e-06
209	0x00000000	0.0
210	0xb6c439e7	-5.847996e-06
211	0x32542908	1.23493535e-08
212	0x35bc3432	1.4022282e-06
213	0x00000000	0.0
214	0x00000000	0.0
215	0x00000000	0.0
216	0x12f6e70e	1.5581742e-27
217	0x367f088e	3.800294e-06
218	0x369bfc08	4.6487003e-06
219	0x00000000	0.0
220	0x00000000	0.0
221	0x35210464	5.9983563e-07
222	0xb5c69a7e	-1.4797113e-06
223	0x00000000	0.0
224	0xb6800b6b	-3.8160265e-06
225	0x13102981	1.8195818e-27
226	0x00000000	0.0
227	0x14679854	1.1692561e-26
228	0x35a25355	1.2094193e-06
229	0x00000000	0.0
230	0xb4ec7f34	-4.4050978e-07
231	0x00000000	0.0
232	0x00000000	0.0
233	0x366525a0	3.414556e-06
234	0x36555a94	3.1792197e-06
235	0x00000000	0.0
236	0x00000000	0.0
237	0x35834729	9.780971e-07
238	0xb5891c41	-1.0215518e-06
239	0x00000000	0.0
240	0x348ad351	2.5858256e-07
241	0x35b03aba	1.3130114e-06
242	0xb6c5f6cb	-5.899788e-06
243	0x31f9578b	7.2568063e-09
244	0x35297615	6.312924e-07
245	0x00000000	0.0
246	0x12292d63	5.338294e-28
247	0x00000000	0.0
248	0x3516c066	5.615933e-07
249	0xb5c15c8c	-1.4406555e-06
250	0x3607c6bc	2.0232246e-06
251	0x00000000	0.0
252	0x00000000	0.0
253	0xb5d641db	-1.5963409e-06
254	0x366014aa	3.339063e-06
255	0x00000000	0.0

exp_avg_sq f4 [16, 16]
0	0x00000000	0.0
1	0x2fed63ef	4.3181056e-10
2	0x00000000	0.0
3	0x2f127eb3	1.3323635e-10
4	0x00000000	0.0
5	0x00000000	0.0
6	0x00000000	0.0
7	0x00000000	0.0
8	0x00000000	0.0
9	0x00000000	0.0
10	0x00000000	0.0
11	0x00000000	0.0
12	0x00000000	0.0
13	0x2da61d86	1.8885126e-11
14	0x32011f42	7.5158955e-09
15	0x00000000	0.0
16	0x31965e77	4.376314e-09
17	0x30e82d95	1.6893177e-09
18	0x318bc373	4.0676524e-09
19	0x316e77d4	3.4701673e-09
20	0x314073df	2.8005542e-09
21	0x00000000	0.0
22	0x32113db8	8.454144e-09
23	0x00000000	0.0
24	0x31b99b9d	5.4019e-09
25	0x325c08de	1.2807702e-08
26	0x32925931	1.7037197e-08
27	0x00000000	0.0
28	0x00000000	0.0
29	0x32ee554a	2.7745632e-08
30	0x325741f2	1.2529641e-08
31	0x00000000	0.0
32	0x31922761	4.253636e-09
33	0x318deb84	4.130415e-09
34	0x320eabf1	8.304583e-09
35	0x31a7a2f5	4.8788658e-09
36	0x31bbd7d9	5.4669553e-09
37	0x00000000	0.0
38	0x3185b72c	3.8916337e-09
39	0x00000000	0.0
40	0x32012964	7.518199e-09
41	0x32825e67	1.5176921e-08
42	0x32e3b954	2.6510556e-08
43	0x00000000	0.0
44	0x00000000	0.0
45	0x323e775a	1.1086593e-08
46	0x3218b6b1	8.889104e-09
47	0x00000000	0.0
48	0x32246b2f	9.570427e-09
49	0x00000000	0.0
50	0x31a7a913	4.879561e-09
51	0x00000000	0.0
52	0x31cc4d3d	5.9459624e-09
53	0x00000000	0.0
54	0x00000000	0.0
55	0x00000000	0.0
56	0x00000000	0.0
57	0x32c5c5f7	2.3023842e-08
58	0x00000000	0.0
59	0x00000000	0.0
60	0x00000000	0.0
61	0x00000000	0.0
62	0x3379af3a	5.8134198e-08
63	0x00000000	0.0
64	0x311a2ae7	2.2434337e-09
65	0x31b23a6e	5.1871245e-09
66	0x32677644	1.347286e-08
67	0x3169de8d	3.4032468e-09
68	0x31f923e8	7.250936e-09
69	0x00000000	0.0
70	0x325aa7fa	1.27274635e-08
71	0x00000000	0.0
72	0x319cc32f	4.5623874e-09
73	0x32dfeb24	2.6067546e-08
74	0x32a4f604	1.9203988e-08
75	0x00000000	0.0
76	0x00000000	0.0
77	0x333e067a	4.4243713e-08
78	0x33128b14	3.4119765e-08
79	0x00000000	0.0
80	0x305bd463	7.9973556e-10
81	0x31168e59	2.1908788e-09
82	0x2fccfd75	3.7287476e-10
83	0x30ad5c23	1.2613594e-09
84	0x00000000	0.0
85	0x00000000	0.0
86	0x31e1a581	6.5671775e-09
87	0x00000000	0.0
88	0x31309807	2.5697788e-09
89	0x33058099	3.1083434e-08
90	0x00000000	0.0
91	0x00000000	0.0
92	0x00000000	0.0
93	0x00000000	0.0
94	0x3331b709	4.1377493e-08
95	0x00000000	0.0
96	0x00000000	0.0
97	0x31ba4496	5.42111e-09
98	0x00000000	0.0
99	0x32103197	8.393179e-09
100	0x00000000	0.0
101	0x00000000	0.0
102	0x331939ab	3.5675537e-08
103	0x00000000	0.0
104	0x3051dee0	7.635048e-10
105	0x00000000	0.0
106	0x3344b595	4.5799954e-08
107	0x00000000	0.0
108	0x00000000	0.0
109	0x330825c7	3.1699326e-08
110	0x32a851b5	1.959493e-08
111	0x00000000	0.0
112	0x302b1cc1	6.22503e-10
113	0x2e75755a	5.581078e-11
114	0x00000000	0.0
115	0x00000000	0.0
116	0x00000000	0.0
117	0x00000000	0.0
118	0x300f3977	5.210476e-10
119	0x00000000	0.0
120	0x30e55bce	1.6688035e-09
121	0x00000000	0.0
122	0x2fbb2b86	3.4046027e-10
123	0x00000000	0.0
124	0x00000000	0.0
125	0x00000000	0.0
126	0x33043fa0	3.079151e-08
127	0x00000000	0.0
128	0x30380310	6.694316e-10
129	0x00000000	0.0
130	0x315303ca	3.0706695e-09
131	0x304ac6b1	7.376953e-10
132	0x00000000	0.0
133	0x00000000	0.0
134	0x00000000	0.0
135	0x00000000	0.0
136	0x318b12e7	4.0475814e-09
137	0x32fca331	2.9410872e-08
138	0x2eae7d3f	7.934852e-11
139	0x00000000	0.0
140	0x00000000	0.0
141	0x336e6451	5.550493e-08
142	0x32920632	1.6999454e-08
143	0x00000000	0.0
144	0x00000000	0.0
145	0x3122c8d6	2.3688265e-09
146	0x00000000	0.0
147	0x2da5a26e	1.8830461e-11
148	0x3143da71	2.8500404e-09
149	0x00000000	0.0
150	0x00000000	0.0
151	0x00000000	0.0
152	0x31284c4e	2.4490592e-09
153	0x310df031	2.0654733e-09
154	0x00000000	0.0
155	0x00000000	0.0
156	0x00000000	0.0
157	0x31c6153b	5.764972e-09
158	0x00000000	0.0
159	0x00000000	0.0
160	0x00000000	0.0
161	0x318ae9d7	4.042913e-09
162	0x30c57193	1.4365916e-09
163	0x314289f8	2.8309142e-09
164	0x31a41b6c	4.7761457e-09
165	0x00000000	0.0
166	0x31552164	3.101456e-09
167	0x00000000	0.0
168	0x31b6aa55	5.3162617e-09
169	0x00000000	0.0
170	0x31b9af8a	5.404165e-09
171	0x00000000	0.0
172	0x00000000	0.0
173	0x00000000	0.0
174	0x323ac4ee	1.0871402e-08
175	0x00000000	0.0
176	0x00000000	0.0
177	0x00000000	0.0
178	0x00000000	0.0
179	0x00000000	0.0
180	0x00000000	0.0
181	0x00000000	0.0
182	0x00000000	0.0
183	0x00000000	0.0
184	0x00000000	0.0
185	0x00000000	0.0
186	0x00000000	0.0
187	0x00000000	0.0
188	0x00000000	0.0
189	0x00000000	0.0
190	0x00000000	0.0
191	0x00000000	0.0
192	0x308d8b67	1.0298721e-09
193	0x31777130	3.600757e-09
194	0x30d48e03	1.5465392e-09
195	0x306dc9d9	8.650694e-10
196	0x31082cee	1.9816144e-09
197	0x00000000	0.0
198	0x320856f2	7.936011e-09
199	0x00000000	0.0
200	0x31031a80	1.9078072e-09
201	0x32742208	1.4210407e-08
202	0x31acaf19	5.025765e-09
203	0x00000000	0.0
204	0x00000000	0.0
205	0x32d741c4	2.5059201e-08
206	0x33148905	3.4583554e-08
207	0x00000000	0.0
208	0x31ca1284	5.8810787e-09
209	0x00000000	0.0
210	0x31a2c7cb	4.7375344e-09
211	0x31c3bf10	5.6969682e-09
212	0x31d20f62	6.113553e-09
213	0x00000000	0.0
214	0x00000000	0.0
215	0x00000000	0.0
216	0x31018942	1.8849993e-09
217	0x3245146f	1.1471555e-08
218	0x32e5e714	2.676419e-08
219	0x00000000	0.0
220	0x00000000	0.0
221	0x331518d4	3.4714347e-08
222	0x32988042	1.7753454e-08
223	0x00000000	0.0
224	0x310e5ee1	2.0717652e-09
225	0x3159a0b6	3.166901e-09
226	0x00000000	0.0
227	0x3100ccba	1.8742825e-09
228	0x315eadd3	3.240406e-09
229	0x00000000	0.0
230	0x324bb6fc	1.1857761e-08
231	0x00000000	0.0
232	0x00000000	0.0
233	0x32037cc2	7.65357e-09
234	0x32766baa	1.4343565e-08
235	0x00000000	0.0
236	0x00000000	0.0
237	0x326d4d06	1.3812729e-08
238	0x3206a6ed	7.837781e-09
239	0x00000000	0.0
240	0x312d54f3	2.5223101e-09
241	0x3173f345	3.5499437e-09
242	0x31df722d	6.5031345e-09
243	0x30e46592	1.6618051e-09
244	0x31802719	3.729735e-09
245	0x00000000	0.0
246	0x312dc743	2.528808e-09
247	0x00000000	0.0
248	0x315002ba	3.0269534e-09
249	0x32a9271b	1.9691972e-08
250	0x32522e91	1.2234197e-08
251	0x00000000	0.0
252	0x00000000	0.0
253	0x32fb45a7	2.925192e-08
254	0x32b4bada	2.1039728e-08
255	0x00000000	0.0

exp_avg f4 [16]
0	0x0008724c	7.75686e-40
1	0x35773d64	9.2104005e-07
2	0xb522e03f	-6.0676024e-07
3	0xb662618f	-3.373341e-06
4	0xb6d1d7f5	-6.253826e-06
5	0xb6c76e1e	-5.9434815e-06
6	0x373e1d9f	1.1331779e-05
7	0x36ab4126	5.1037814e-06
8	0x37168ab5	8.972992e-06
9	0x359ba1cf	1.1595492e-06
10	0xb6eebc0c	-7.1148443e-06
11	0x00000000	0.0
12	0x33edc092	1.1071201e-07
13	0xb5e5c814	-1.712006e-06
14	0x366b1893	3.5032033e-06
15	0xb5577d22	-8.0275834e-07

exp_avg_sq f4 [16]
0	0x3215f57e	8.72876e-09
1	0x341d4a97	1.46489e-07
2	0x33e06255	1.0448699e-07
3	0x33c35fc1	9.0978126e-08
4	0x346f038a	2.2259897e-07
5	0x338c47b3	6.5323e-08
6	0x340275f8	1.215011e-07
7	0x33031993	3.0524074e-08
8	0x33e02cef	1.0438986e-07
9	0x32828fee	1.5199443e-08
10	0x334cce0c	4.768485e-08
11	0x00000000	0.0
12	0x33c1956e	9.014444e-08
13	0x3404f58e	1.238279e-07
14	0x338ecf04	6.650046e-08
15	0x340157f7	1.2046063e-07

exp_avg f4 [4, 16]
0	0x80000004	-6e-45
1	0x36b37973	5.3487543e-06
2	0x363c39f0	2.8047907e-06
3	0x36145ac5	2.2106553e-06
4	0x36c65b97	5.9115223e-06
5	0xb5c8f037	-1.4971073e-06
6	0xb54837b6	-7.4586876e-07
7	0xb610bf65	-2.1569078e-06
8	0x34e49891	4.2579316e-07
9	0x35962940	1.1187876e-06
10	0x341c149c	1.453613e-07
11	0x00000000	0.0
12	0x36bef400	5.6908466e-06
13	0x37164292	8.956196e-06
14	0xb45b573e	-2.0427703e-07
15	0x36211534	2.4003211e-06
16	0x00000004	6e-45
17	0xb66593a8	-3.4209606e-06
18	0x363ab675	2.7822364e-06
19	0xb6700dcc	-3.5770818e-06
20	0xb678ede9	-3.7093362e-06
21	0x3680c293	3.8373487e-06
22	0x365ab05f	3.2587193e-06
23	0xb59ec804	-1.183013e-06
24	0xb5b1e82a	-1.3255096e-06
25	0x34411318	1.7981472e-07
26	0x36195abb	2.2851589e-06
27	0x00000000	0.0
28	0xb6ef3fa4	-7.130164e-06
29	0x34d7c710	4.0191708e-07
30	0x36d88cdf	6.453701e-06
31	0xb6b43188	-5.370184e-06
32	0x800011b9	-6.358e-42
33	0x36bb205b	5.576801e-06
34	0x3707fb9e	8.105211e-06
35	0x35f36ce8	1.8136607e-06
36	0x370d4203	8.4196245e-06
37	0xb5cf9e6f	-1.5468812e-06
38	0xb549bbc6	-7.515158e-07
39	0x3595c7cf	1.1159517e-06
40	0xb6486ea6	-2.9866728e-06
41	0xb5006d7b	-4.784303e-07
42	0x36293e7a	2.5219329e-06
43	0x00000000	0.0
44	0x36954e2b	4.449646e-06
45	0x36ee89ce	7.1089953e-06
46	0x35e851ec	1.7309189e-06
47	0x36ac7fdd	5.1408847e-06
48	0x80000004	-6e-45
49	0xb73d05c6	-1.1266622e-05
50	0xb690e2b6	-4.317927e-06
51	0xb6a2634f	-4.8395373e-06
52	0xb74b2613	-1.2108608e-05
53	0x3695f7d3	4.4693966e-06
54	0xb502d918	-4.8744687e-07
55	0x368fb10e	4.282344e-06
56	0xb5f38170	-1.8142582e-06
57	0x352e31a6	6.48923e-07
58	0x35a1335d	1.2010383e-06
59	0x00000000	0.0
60	0xb75d47ef	-1.3189375e-05
61	0xb78b8a0e	-1.6634378e-05
62	0x3636d973	2.7246685e-06
63	0xb6e55d3f	-6.835587e-06

exp_avg_sq f4 [4, 16]
0	0x2e1c9ade	3.5607843e-11
1	0x34115efa	1.353873e-07
2	0x3399117e	7.1277995e-08
3	0x323731c2	1.0663316e-08
4	0x33ed45a3	1.1048839e-07
5	0x326f4ae2	1.3928657e-08
6	0x33aa64ef	7.9346016e-08
7	0x313ae1c6	2.71949e-09
8	0x33b49b58	8.41016e-08
9	0x323d1360	1.1005653e-08
10	0x331fa865	3.7173226e-08
11	0x00000000	0.0
12	0x33951606	6.942359e-08
13	0x33913fe8	6.763713e-08
14	0x3310756d	3.363441e-08
15	0x33aa1deb	7.921684e-08
16	0x2d5afd45	1.24481024e-11
17	0x34100502	1.3412867e-07
18	0x33ad6faa	8.076252e-08
19	0x329511fa	1.7354058e-08
20	0x33c0cd7d	8.978075e-08
21	0x327a3940	1.4564932e-08
22	0x338c162a	6.5232896e-08
23	0x3294218a	1.724472e-08
24	0x32bc73a3	2.1938666e-08
25	0x316ab4bd	3.415422e-09
26	0x32ab44b2	1.9938259e-08
27	0x00000000	0.0
28	0x332ab83c	3.974877e-08
29	0x333f0d17	4.4482558e-08
30	0x32c01b2e	2.2364102e-08
31	0x334273cb	4.5274458e-08
32	0x2f920cb6	2.6566277e-10
33	0x34a81e81	3.1314633e-07
34	0x330fa8a1	3.344815e-08
35	0x33439384	4.553614e-08
36	0x3440d47d	1.7958696e-07
37	0x330bb752	3.253019e-08
38	0x33139e20	3.436992e-08
39	0x33888be7	6.3584416e-08
40	0x336530e1	5.3362673e-08
41	0x318972a3	4.0002575e-09
42	0x33033a59	3.055388e-08
43	0x00000000	0.0
44	0x33de8b40	1.036301e-07
45	0x329fc4f9	1.8599609e-08
46	0x324b4563	1.1831932e-08
47	0x3398f7cf	7.123128e-08
48	0x2aa1f686	2.8770405e-13
49	0x33ae62a7	8.120451e-08
50	0x323c88ae	1.0974118e-08
51	0x32dd2fc0	2.57495e-08
52	0x32c1f080	2.2577524e-08
53	0x33206694	3.7346197e-08
54	0x3244ee9b	1.1462954e-08
55	0x3108e8a0	1.9922837e-09
56	0x323d9447	1.1034962e-08
57	0x30150f5e	5.422772e-10
58	0x30c945b8	1.464449e-09
59	0x00000000	0.0
60	0x32e10a5f	2.6198164e-08
61	0x330dc050	3.3004028e-08
62	0x31e430cc	6.641221e-09
63	0x3245afba	1.1506865e-08

exp_avg f4 [4]
0	0x375222d2	1.2525083e-05
1	0xb6ac8c3c	-5.142325e-06
2	0x376822b6	1.3836359e-05
3	0xb7f098b9	-2.8681347e-05

exp_avg_sq f4 [4]
0	0x35c4c35a	1.4659993e-06
1	0x354b8b56	7.5826154e-07
2	0x35a53285	1.2308161e-06
3	0x348e2d23	2.6482402e-07
