_models/HalfCheetah-v5_policy_gradient.pt (torch, 77538 bytes, 21 tensors)

logstd f4 [6]
00000000: 22da d8bf c81f 8dbf afa5 91bf cf84 72bf
00000010: 7acb cfbf 8eed a1bf
-1.6941569 -1.1025324 -1.1378688 -0.947339 -1.6233971 -1.2650621

mlp.0.weight f4 [64, 17]
00000000: 3009 40be fc91 253e d5d7 253e bacb 0b3f
00000010: 1b94 0dbf a067 67bf 2ce3 ae3e f080 d43d
00000020: e71b 243e 7013 453c 04b5 52bf 57bd c73e
00000030: a4c7 423e c362 a13d 704f 95be 9828 e43e
00000040: def6 193e bac9 423f 0660 573f 0529 94bf
00000050: 5b8d 99be 1161 8d3e c6ec 4a3f eaaa 1f3e
00000060: c30d a63e 48d2 29bd 76c8 b3be 6557 31be
00000070: c46c cabd 595a 1bbd 4d41 8b3d a585 7bbc
00000080: 160c 19be 192d b63e 9223 dbbc f87a 183f
00000090: 0764 0a3e 330a d73d 0b05 393d 6b6f eabe
000000a0: 0f5f 2d3f a5dc 673e f6d3 d93d f5f6 74bc
000000b0: fcb6 8b3e 345e 313e 5b96 3d3c 4db7 863d
000000c0: 1555 453e 2015 9f3e 25e2 003e 6abd 82be
000000d0: cecf 71be b75e e0bb f713 03bd 0ad0 1c3e
000000e0: 00df 9a3e 0a81 8cbe ab77 483e 3810 40be
000000f0: 5abe 3cbe 3356 41be 5356 a43c 8701 c4bd
00000100: e154 6dbd d577 31be d0c1 eebd 560b 213e
00000110: 25c2 623e 7461 d0be fde9 3bbe 9180 4fbd
00000120: 9bff 67be a50c bd3e d464 21bf b23d 8bbe
00000130: 82c0 693e f016 15bf 7109 f5be 4b9a 5d3e
00000140: 7b91 833d 889c 8fb9 c8ed 03bb 36f1 17be
00000150: c4be 30be b8a0 6b3f f095 a63e 4767 4dbf
00000160: fdfb a6be 31b4 e73d 8216 c53e 8511 21be
00000170: f6f9 3a3f 846b 8fbd 2aef 1abe 3199 cabe
00000180: 28ed 35be dfa6 10be 748a 6cbd 94b1 2f3d
00000190: 267d e1bd ee74 6d3e 554f a4be d2d7 b2bf
000001a0: 2a6a 233f e795 5b3f 81d9 cdbb 70da adbe
000001b0: 2011 babf ec65 b3bf 43ff f13e 0e68 60bf
000001c0: 31f4 813e 5856 8ebe f358 ddba 0e9c 6cbe
000001d0: 8069 453e 3437 aa3e 508c 39be 647e a23e
000001e0: e7c0 4b3e 43ab a7bd b6c7 9cbe 8596 47bd
000001f0: 3055 cabe 863e b4bb f7aa 013e 8ef5 85be
00000200: e799 c83d 00f5 ee3e 4416 36be ea64 f13d
00000210: 4a0b eb3b 6348 083e 009f 92be 231f 2fbd
00000220: a5d3 653f afbd 463d 58fc abbe 5738 ae3e
00000230: b856 2f3f 28df 82be 3eea a1be f3da b1bc
00000240: 850a 2fbf 0cda df3e b28e 78be 62ae 2abc
00000250: b8e2 a43d 2b5f 7a3e f63e 53be f76f 29be
00000260: 6ea0 89bd 570c 9e3d 5a42 8a3e de0a cbbb
00000270: 0a73 64be 502d 413e f9ad f8be 012d 1c3f
00000280: 2ad9 e33e 668a e33c 5e0f f13e 3574 d63e
00000290: baa6 db3d 78ea babd 0c36 9d3d a213 083e
000002a0: 8bc4 1e3e 3030 803e 583b 263f 16f0 3d3e
000002b0: 7b4b b8be f9b6 29bd a899 123f d52a b93c
000002c0: 1786 9cbe 99d8 403e 8302 c4be 708c 743e
000002d0: 5304 c2be c430 03bc 6cd9 653e 3705 5c3e
000002e0: df3c 14bd b090 9cbe 43ec 863e 31ea b83e
000002f0: b763 e43d d17f f9bd 054b 983e 90a9 d2be
00000300: 2d4a b9be 1438 593d eeb1 383e 7543 08bf
00000310: 4257 b43e 4677 203e 8ae7 803e e370 153e
00000320: 8a71 153e 4ffe a4be 690b 1b3e 52b7 a0bd
00000330: 164a 9e3c 3a14 3bbe bc92 adbd 96db d7be
00000340: d168 89be 176a 8a3e 9dba 213e 5930 b1be
00000350: 13e2 36be 1baf c43d f257 9bbe c064 c3bd
00000360: 312d 57be ce40 74bd e262 f4bd 362e 7cbe
00000370: c02a b5bb 04f1 683e 4e1f 003f 2aa5 22bf
00000380: e10f 923e 5fef 9fbd c14e 3c3f 35cc 49be
00000390: fa53 e33e ec99 3bbe d25d 193c da99 05bf
000003a0: 8cb1 833e 2932 fd3e 0014 093e bc9b 123d
000003b0: 3654 88be 580d 4cb8 7acb 8a3e 60a9 01be
000003c0: e20c c63d 96f2 38be bbff 513e 8dcf 06be
000003d0: ca19 dc3e 3310 22bd a431 53be e1da 8b3e
000003e0: 5c5b 723e c786 a73d dfc2 8c3c 37bb 2bbe
000003f0: 4cb3 13be e4d1 0e3e 52fd 7e3c e1ec 9dbe
-0.18753505 0.1616897 0.16195615 0.5460774 -0.55304116 -0.90392494 0.34157693 0.103761554
0.16026269 0.01202856 -0.8230746 0.39011642 0.1902147 0.078801654 -0.29162169 0.4456222
0.15035579 0.7608906 0.84130895 -1.1575018 -0.29990658 0.27613118 0.7926754 0.15592542
0.32432374 -0.041460305 -0.35113877 -0.17318495 -0.09884027 -0.03792796 0.067995645 -0.015351688
-0.14946017 0.35581282 -0.02675036 0.59562635 0.1351472 0.10499992 0.045170825 -0.4578813
0.6772317 0.22642763 0.106361315 -0.014951457 0.27288043 0.17321092 0.011571492 0.065779306
0.19270737 0.31070805 0.12586267 -0.25535136 -0.23614427 -0.0068472284 -0.03200146 0.15313736
0.3024826 -0.274422 0.195769 -0.18756187 -0.18431988 -0.18880539 0.020060694 -0.09570604
-0.057942275 -0.17330869 -0.116580606 0.1572698 0.22144373 -0.4069935 -0.18350978 -0.05065972
-0.226561 0.3692371 -0.63044477 -0.27195507 0.22827342 -0.58238125 -0.47858766 0.2164089
0.064242326 -0.0002739171 -0.0020130742 -0.14838108 -0.17260271 0.9204211 0.32536268 -0.80235714
-0.32614127 0.11313666 0.38493735 -0.1572934 0.7303766 -0.07002929 -0.15130296 -0.3957
-0.17766249 -0.14126156 -0.057749227 0.04289396 -0.11010198 0.23189136 -0.32091776 -1.3972113
0.6383387 0.8577561 -0.006282032 -0.33955717 -1.4536476 -1.4015479 0.47265062 -0.87658775
0.25381616 -0.2780025 -0.0016887471 -0.23106405 0.19278526 0.33245242 -0.18119931 0.31737053
0.19897805 -0.081869625 -0.30621117 -0.04872753 -0.39518118 -0.0055006174 0.12662874 -0.26163906
0.097949795 0.46671295 -0.17781931 0.11786826 0.0071729766 0.13308863 -0.28636932 -0.042754304
0.8977607 0.04852074 -0.3359096 0.3402736 0.684917 -0.2556088 -0.31624025 -0.021710848
-0.68375427 0.43721044 -0.24273184 -0.010417553 0.08051056 0.24450366 -0.20629486 -0.16546617
-0.06720053 0.077171974 0.27003747 -0.006196364 -0.22309509 0.18864942 -0.4857023 0.6100617
0.4450162 0.027775954 0.47082037 0.41885534 0.1072516 -0.091267526 0.07676324 0.1328874
0.15504663 0.25036764 0.649343 0.18548617 -0.35995087 -0.041434262 0.5726571 0.022603432
-0.30571052 0.18832625 -0.38283166 0.23881698 -0.37893924 -0.008007232 0.22446221 0.21486364
-0.036190864 -0.30579138 0.26352128 0.36116174 0.111518316 -0.12182582 0.29744735 -0.4114499
-0.36189404 0.053031996 0.18036625 -0.5322793 0.35222822 0.15670499 0.2517665 0.14593844
0.14594093 -0.32225272 0.15141071 -0.078474656 0.019322436 -0.18269435 -0.08475253 -0.42159718
-0.2683778 0.27034065 0.15793844 -0.346072 -0.17859678 0.09603711 -0.30340534 -0.09540701
-0.21013333 -0.059632115 -0.11932923 -0.24627003 -0.005528778 0.2274819 0.5004777 -0.6353327
0.2852774 -0.07809328 0.7355767 -0.19706805 0.44400007 -0.18320435 0.009360747 -0.52187884
0.25721395 0.49452332 0.13386536 0.03579305 -0.26626748 -4.8649817e-05 0.27108365 -0.12662268
0.09670426 -0.18061289 0.2050771 -0.13165112 0.42988425 -0.03956623 -0.20624405 0.2731543
0.23667663 0.081800036 0.017182766 -0.16770636 -0.14423865 0.13947254 0.015563326 -0.30844787

mlp.0.bias f4 [64]
00000000: 4f98 6dbe e9d5 a03e b8a6 8abd b0b7 1dbe
00000010: 9cc5 5b3e 6c35 7fbc 5ff8 80bd 04e2 babe
00000020: eea2 65be aceb aebd 393d c3bd 55f7 d6be
00000030: 2882 a8be 4350 8ebd 7447 e0be b983 dabd
00000040: 1170 13bf abe5 a7be 45bd 46be a08b f4bd
00000050: a800 44bd 35d2 a5be fb0f a7be 5b05 d3be
00000060: a1ea 51be 07c9 3abe f4ac b2be f67d 81bc
00000070: d0e2 0abf 9331 e4be af7c 54be 6b97 d2be
00000080: d80a b3be 771f 323e b535 e0be 8fbc 8ebe
00000090: 2048 dbbe d99a d5be bd05 813e ef6f fcbd
000000a0: ee56 b73e e933 1cbf 4cba 3abf 6bd4 b0be
000000b0: 0a41 71be 1d6d b9be 407c 8dbe 0a69 c7be
000000c0: 4c7c 57be 230d a2be 0558 c2bd 3994 09bf
000000d0: c04e 74be 4468 5abf cc06 13bf 82b6 2a3e
000000e0: 94ab 1bbe 2a42 1cbc d9f8 aebe a769 dbbd
000000f0: c8fc 013e 985a 83be 7acc 18bf 5840 11bf
-0.23202632 0.314132 -0.0677008 -0.15402102 0.214621 -0.015576702 -0.06297373 -0.3650056
-0.22425434 -0.085410446 -0.09533162 -0.41985574 -0.329118 -0.069489025 -0.43804514 -0.10669655
-0.57592875 -0.3279241 -0.19408138 -0.11940694 -0.04785219 -0.32386938 -0.3262938 -0.41215023
-0.2049966 -0.18240748 -0.34897578 -0.015807133 -0.5425234 -0.44569072 -0.20750688 -0.41131148
-0.3496921 0.17394815 -0.43790975 -0.27878234 -0.42828465 -0.41719702 0.2519969 -0.12326037
0.3580851 -0.6101671 -0.72940516 -0.34537062 -0.23559967 -0.3621606 -0.27633858 -0.38947326
-0.21043509 -0.31650648 -0.09489445 -0.53741795 -0.23858166 -0.85315347 -0.57432246 0.16671184
-0.1520217 -0.009537259 -0.3417423 -0.10713511 0.12694085 -0.25655055 -0.59687006 -0.56738806

mlp.2.weight f4 [64, 64]
00000000: 77de a83d 05e2 00be 901d 90bd 109f 223d
00000010: dec0 c5bc 69d4 06be 5782 bbbc ed29 34bd
00000020: 6387 723d 2754 abbd e01e 49be 6e29 b0bd
00000030: 528c 4dbd c9bd 44be 8005 a3bd c210 82bd
00000040: 0ddc f63c f7fe b9bd 5c41 b1bb 7038 b3bd
00000050: 4ba8 233d d0b9 a5bd 4497 b63c 78f3 2bbe
00000060: 81f0 a83d 444e 64bd a864 47bb 5014 a43a
00000070: 7935 c23d c71b 133e 554b 933d e8cf b13d
00000080: 4a90 90bd 77e0 27be 2d5f 12bd f448 b6bd
00000090: 1aba 54be 4c60 57be 6419 9cbd 9f94 adbc
000000a0: 0268 63bc 2775 f5bc edae 1fbd 844d 59be
000000b0: 5201 fdbc eaf0 63bc a2b2 2fbe b60a 1abe
000000c0: 2dd1 e5bd 0631 8f3d c8b6 6e3d ecbe c1bd
000000d0: 2d71 ad3c 4869 d93d 8f34 3d3d 2aaf 0fbe
000000e0: a75f d0bb 942a 3c3d c04e c3bd bf01 98bd
000000f0: 6236 65b9 beab 10be 4a46 a53c 1711 813d
00000100: 4487 c9bd 2a3c f4bd 46b3 06bd 307d fdbc
00000110: e34e 083e 7ecb 70bd 7f52 653e a570 e2bd
00000120: 657d 7fbc ad8a eebd 9ff5 45be 123d b9bd
00000130: 2e75 1ebe a806 24be da7c 0d3d 5bca d5bd
00000140: 28a5 8abd 90e9 3bbe 76d7 9fbe 8921 61be
00000150: 90dc 803c cbcd 0bbe 4c63 c3be 1db5 d9bd
00000160: 2b39 80bc 915c debd 8dc2 6f3d 513b fbbd
00000170: 575f 21be f331 22be 22c4 5c3d 3cef 30bd
00000180: bb3c 053e 3728 3cbe 5d99 d5bc b5f3 4abe
00000190: 6d96 d1bd 317f 12be 7596 59bd be64 55be
000001a0: 6286 f0bd 7241 543b fecc 20be 0f91 4dbe
000001b0: adbf 4dbe 9a3f cabd dcc1 af3c 0660 43bc
000001c0: 1b58 5bbd a805 f03d a39d 41bd 00cd 3cbd
000001d0: d36b 52bd 7455 bcbd 4c44 eebd 49b4 7ebd
000001e0: 61d2 c53d 2688 3cbe 2d1d bfbc 8aa2 d5bc
000001f0: db83 d1bd ac6f 3abe 374b e03c 2dd2 e2bc
00000200: 5b4c 20be 5801 3cbe 05d2 16be e318 2abe
00000210: e846 38be f5ce 2c3d f691 a2bd 2973 c7bd
00000220: cf40 3dbd 06c8 7fbe 5369 39bc 5540 a2bd
00000230: 4dfa 103c 5a70 a0bd 451f 873d 4746 34bc
00000240: 8506 ccbd ed12 e63d ab39 21bc afa7 16ba
00000250: ada8 0ebe 9779 eebd adf0 67be 2421 dbbd
00000260: 7a57 8abd 626e bdbd a2a7 60be adba 2ebd
00000270: b6bd 11bc e981 29be f07d 1cbe 325e 3f3d
00000280: 918d 2dbe 30d1 dbbc c326 f9bc 5a84 503d
00000290: d9d1 f0bd 48b4 91bd 1174 f4bd 05ae 2ebc
000002a0: 7475 15bd 3e71 d73c 27f2 22be a44f 0cbc
000002b0: b10d 28be dcff d9bd 48ed cebc 50d7 273d
000002c0: 765d 17bc cce6 20be 59f1 36bd 5095 a3bd
000002d0: db6f 543d 9cc7 383d 18c7 4fbe 23a5 0a3d
000002e0: 7f9f 21be d444 efbc b1a9 633d 45ca a9bc
000002f0: 2463 e6ba ffd5 73bc 008c 163e 03be 9fbd
00000300: e888 9cbd 3678 f4bd 8fd5 b3bc 53d3 dabd
00000310: 03f5 903c b045 8bbc 02d6 943d d533 e63c
00000320: ddac 2ebe d6c9 e2bd 5e20 e1bd a463 1bbe
00000330: 9718 11be a003 b6bd 0cbe 6dbb fe90 1ebe
00000340: c0bd e5bd 7557 21be 328e 1bbc e77c 273d
00000350: 3780 c0bd f8ec a1bd c9a8 043c 38f3 cfb8
00000360: 6372 9cbd a776 1bbe d788 12be ae48 1dbe
00000370: f5fe d13c 6991 4bbe 040a 01bd f314 02bd
00000380: ae0d 6dbe 9483 8b3c 27db eebd 667f 0e3d
00000390: 52c3 ea3c c985 253d 35d6 adbd b709 afbd
000003a0: c355 5e3d 4dfe a13c f0c8 5e3c bbec 0bbe
000003b0: 7680 febd e857 77bd 1939 99bd f193 8cbd
000003c0: 91b5 2fbe 063f 41be 244e 30be bdf1 09be
000003d0: 7d76 813c 3d16 763d 5c01 2cbd fd5b d2bc
000003e0: 4ad9 58bd 6198 3abe 605c 3abe 5cbf d3bc
000003f0: 1dc0 d0bc 96e5 0a3d b2b0 51bd 087f 01be
0.08245557 -0.1258622 -0.070368886 0.039702475 -0.024139818 -0.13166966 -0.0228893 -0.043985296
0.059211146 -0.0836566 -0.19640684 -0.08601652 -0.050182648 -0.19213022 -0.079600334 -0.063508525
0.030134225 -0.09081834 -0.005409403 -0.08750999 0.03995542 -0.080920815 0.022288926 -0.16792095
0.082489975 -0.055738702 -0.0030424986 0.0012518261 0.09482855 0.14366065 0.07192103 0.08682233
-0.07058771 -0.1639422 -0.035735298 -0.089006335 -0.20774117 -0.21032828 -0.076220304 -0.021189032
-0.013879778 -0.02996309 -0.03898518 -0.21220976 -0.030884419 -0.013912419 -0.17157987 -0.15043148
-0.11221538 0.06991772 0.058279783 -0.094602436 0.02117213 0.10615784 0.046192702 -0.14031664
-0.006359059 0.045939043 -0.09536505 -0.07422208 -0.00021859401 -0.14128014 0.020175118 0.06302088
-0.09840253 -0.11925538 -0.032885812 -0.030943483 0.13311343 -0.058787815 0.22394751 -0.110566415
-0.015593861 -0.11647544 -0.19331978 -0.09044851 -0.15474388 -0.16018164 0.034542896 -0.10438987
-0.06769782 -0.18350816 -0.3121907 -0.21985449 0.015730172 -0.13652723 -0.38161695 -0.10630248
-0.01565226 -0.108574994 0.058535147 -0.12267173 -0.15759026 -0.15839367 0.053897984 -0.0431969
0.13011448 -0.18374716 -0.026074106 -0.1981953 -0.102337696 -0.14306332 -0.053122003 -0.20839211
-0.117443815 0.0032387641 -0.15703198 -0.20074867 -0.2009265 -0.09875412 0.021454744 -0.011924749
-0.05355082 0.11719829 -0.047269475 -0.04609394 -0.05137236 -0.091959864 -0.1163412 -0.062183652
0.09659267 -0.18411312 -0.023329342 -0.026078481 -0.102302276 -0.18206662 0.027379615 -0.02768811
-0.15654127 -0.18359888 -0.14728554 -0.16611056 -0.17995799 0.042189557 -0.07937996 -0.09738762
-0.046204384 -0.24978647 -0.011316615 -0.079224266 0.008848739 -0.07833929 0.06597761 -0.011003084
-0.09962181 0.112340786 -0.009840409 -0.00057470327 -0.13931532 -0.11644285 -0.22650404 -0.106996804
-0.06754966 -0.092495695 -0.21938947 -0.042658497 -0.008895328 -0.16553463 -0.15282416 0.04672069
-0.16948535 -0.026833147 -0.03041399 0.05090747 -0.11758775 -0.07114464 -0.119362004 -0.010661607
-0.036488965 0.026299115 -0.15912686 -0.00856391 -0.16411473 -0.106445044 -0.025259629 0.040976822
-0.009238591 -0.15713042 -0.04466376 -0.079874635 0.051864486 0.045112237 -0.20290792 0.033848893
-0.15783499 -0.029207624 0.055581752 -0.020726332 -0.0017577154 -0.014882564 0.14701843 -0.07799914
-0.076433 -0.11936991 -0.021952419 -0.10684838 0.017694956 -0.017001003 0.07267381 0.028100887
-0.1705813 -0.110736534 -0.10992502 -0.15174729 -0.14169537 -0.0888741 -0.0036276607 -0.15484998
-0.112178326 -0.15756018 -0.009494351 0.0408906 -0.09399455 -0.07906526 0.008096882 -9.915832e-05
-0.07639005 -0.15181981 -0.14310013 -0.15359756 0.025634268 -0.19879688 -0.031503692 -0.03175826
-0.2314975 0.017030515 -0.11662894 0.034789465 0.02865759 0.04041079 -0.084881224 -0.08546775
0.054281007 0.01977458 0.013597712 -0.13664524 -0.12426846 -0.06038657 -0.07481594 -0.06864155
-0.17159106 -0.18871698 -0.17217308 -0.13471122 0.01580357 0.0600798 -0.041993484 -0.025678629
-0.052941598 -0.1822219 -0.18199301 -0.025848083 -0.025482232 0.033910356 -0.0511939 -0.12646115

mlp.2.bias f4 [64]
00000000: 9e98 d2bd 6227 24bc 76f4 78be 5593 85bd
00000010: fe7a 2a3d 0121 3b3d 2ac6 d33d 28db 32bd
00000020: 5a66 1d3c cfc0 91be 46d8 9abe a4da 4ebe
00000030: e902 16be 18cc 60bd cbe0 9e3c d2ba 44bc
00000040: 73da 11be c88c 89bc 8fdd dfbc 1525 44be
00000050: 8d37 91bd 8f94 d4bc 0ce5 593d 3c46 81bd
00000060: 1b09 0bbe bbcc 0bbc 2831 713c 9f61 043f
00000070: 9cd9 60bc f567 893d 484e 50be 12ce 68bc
00000080: b237 63be b8c7 3dbe 2d75 15be 677e 2bbe
00000090: 4dbf dc3d 1473 e03c bb38 06be 8979 29bd
000000a0: 9bed 45be e3d8 5fbe c4ec 993d 439c a53c
000000b0: 7874 143c 4866 08be 9787 06bd 0ca5 05be
000000c0: 939b 57be 3cc7 7dbe 9382 31be b9b7 00be
000000d0: 9c3e 3fbe 14b3 d2bd 2b2d a4bd 8302 73bd
000000e0: c8ab 09be 6186 28be 1b91 28be 2c6a bb3d
000000f0: fdc4 963d aede 12be 7856 593d 4ef0 d9bc
-0.10283016 -0.010019155 -0.24312004 -0.06522242 0.0416212 0.04568577 0.10340531 -0.043666035
0.009606922 -0.28467414 -0.3024313 -0.20200592 -0.14649548 -0.05488214 0.019394299 -0.012007432
-0.14243488 -0.016790763 -0.027327327 -0.1915477 -0.070906736 -0.025949745 0.05319695 -0.06312224
-0.13577692 -0.008532698 0.014721192 0.5171146 -0.013723757 0.06709281 -0.20342362 -0.014209287
-0.22189215 -0.18533218 -0.1459548 -0.16747437 0.10778675 0.027398624 -0.13107578 -0.04137567
-0.1932892 -0.2186008 0.075158626 0.020216113 0.009060971 -0.13320267 -0.032844152 -0.13051242
-0.2105544 -0.24783033 -0.17334966 -0.12570085 -0.18676227 -0.10288063 -0.080164276 -0.059328567
-0.13444436 -0.16457511 -0.16461603 0.0915111 0.07361791 -0.14342758 0.05306098 -0.026603844

mlp.4.weight f4 [6, 64]
00000000: 3c06 b9bb dc55 5cbd 66df b93c b79e 00bd
00000010: 165f a3bc 099d babd be36 ecbb 1441 323d
00000020: 117a d63d 8839 203e f2f9 263e 2132 b2bc
00000030: 4980 b93c f94e 7cbd 446f e3bc dbfa d5bc
00000040: a6de 03bd 47a8 22bd 70b5 71bb a511 49bd
00000050: 959a 2abe 316d 823d 239c b43d e767 55bd
00000060: f076 9fbc 0546 29bd 6870 163d a071 aabc
00000070: 0043 47bd 839a 8a3d 0d29 71bd 3a8c 1bbd
00000080: 2958 36bd 1d45 adbc 48bc ae3c 5ac2 b3bc
00000090: 64cb 873e e449 333b 83ab feba 6f5d 80bd
000000a0: 827e ad3c da91 0c3e 842b 06be f5e4 a63d
000000b0: b920 13bd 7921 c83d 66a7 08be 1350 46bc
000000c0: 6d37 4bbd 4583 14be 56e7 67bc 1093 41bc
000000d0: 62b6 e4bb ce04 36be a96c 113d 47b9 943d
000000e0: c4f5 493c e097 a6bc dfab 74bd e6c6 d93d
000000f0: fbed 81bd 55ec dd3b 6a80 533d e623 803d
00000100: 3e50 babd 961f f7bd 57cf e93c 283c 3f3c
00000110: 277c 823d f8b8 35bd cc99 4fbe 2f89 2f3d
00000120: e6a0 c5bd 8471 00be 41b6 9e3d 7748 d3bd
00000130: 4428 333d 0dd9 0cbd 0e46 68bd 4a6f ba3c
00000140: 944a 7c3d 00c7 8bbd 8622 89bc 7aa3 fdbb
00000150: 11f5 87bd f279 46be bee0 f9bc 5024 0fbd
00000160: f5c6 ddbd f429 523d 1d57 be3d 3784 a73c
00000170: 7f45 5dbb b876 db3d 793d e1bc 74d5 443d
00000180: acea 503d d458 d2bc 5770 15bc c7e7 b0bd
00000190: b7cd 193f aae9 3c3c 9b39 98bb db5b 153d
000001a0: 09e8 88bd 3c21 c03c f806 2b3d b5f2 d7bd
000001b0: bdd7 153d b6a3 adbc 40fa 9e3c d24f 44bd
000001c0: 0c32 84bd 61ce 1ebe 2f2a 403d 2655 023e
000001d0: 1362 7ebc 3de6 623e 86cc cb3d 5067 8e3d
000001e0: 45b0 36bd 81e4 19bd 9a66 b73d 790f 15be
000001f0: f1fd fa3d 00f9 b7bd 34d8 6ebd e7fc a73c
00000200: 87e3 623d f9fa 7bbd 8c3a a0bd 459c da3b
00000210: dd11 0ebc fd57 b8bd 32b3 5f3e 3950 743b
00000220: f055 d9bc 1fc0 d93d 98f2 903d bb31 d839
00000230: 7d53 0dbd 127b 853c 16b0 253c c34a 0fbd
00000240: a944 34bd 0355 113e ae39 4b3d 97c4 40bd
00000250: 59ac 653d 6c6c 7b3c 608e 0abe 104a f3bc
00000260: 4269 69bb c1b0 45bd 99e4 e0bd 8d57 e8bc
00000270: 6a49 c6bd 37a2 c6bc f6f4 dc3d 828a 083e
00000280: 595a 86bb 90e8 d5bd d98b e4ba 9578 303c
00000290: 520c a83d d6b8 b83d 915f dcbc e2e1 c1bd
000002a0: 3a03 943d 5d7a cfbd e958 15be 8ddd d53d
000002b0: 9433 24bc 1f89 25bd 143f 1e3e 794f 853d
000002c0: cdfa 43bd 2405 25be aa6e e3bc 4de3 dbbb
000002d0: 279f 2d3d de1b a6bd d7bd 873c 316e 713d
000002e0: 37ae 07bc 64ca 503d 9ff2 aa3c 408f 0f3d
000002f0: 3b40 c0bd 7e98 7dbd 858c c4bd d48a 44bd
00000300: 940a b53d 76ef bd3d 1bdc e1bd 93c9 36bd
00000310: 6158 0e3e 6e65 ae3d 118b bf3e 3271 4fbc
00000320: 31b9 42bc 04f4 75bd 801a 1e3e fa62 46bd
00000330: dbb5 d2bb b67a dbbb c5ea 3bbd d648 56bd
00000340: ba64 c3bd 5f82 8bbd 7604 63bd b714 ac3c
00000350: c60b 12be cf2a 963c c9f4 823d b91d a43d
00000360: 212c 1b3d 33b2 8ebc c566 883d b7b3 c9be
00000370: 8939 04bc 7fd9 54bd 735b 32bd 0788 bb3c
00000380: 29cf 61bd 67fe 2fbd f7a8 b0bd 061e ac3d
00000390: 6d39 543e 3bfd a13d c44e 66bc 4a7a 8fba
000003a0: c6b6 cc3c a1d7 b4be 8e4e c33d c045 3fbd
000003b0: d515 52bd a914 81bc b250 1e3e 3e6e a7bd
000003c0: 561b 20bd 5118 81be e5c8 613d 0e8b 91bc
000003d0: 982e 3339 c441 40bd 21b0 a33c 17a7 89bc
000003e0: c0e8 6ebd e7c1 82bc b426 b83a 1837 873e
000003f0: 497f 05be 1e97 06bd 892c 65bd f48d 1dbd
-0.005646495 -0.05379282 0.022689532 -0.031401362 -0.019942801 -0.09111983 -0.007208674 0.043519095
0.10472501 0.15646946 0.16306284 -0.021752419 0.022644179 -0.06159875 -0.027763017 -0.026120594
-0.032194756 -0.039711263 -0.0036881827 -0.049089093 -0.16660531 0.06368483 0.08818843 -0.052101042
-0.019465894 -0.04132654 0.036728293 -0.020806134 -0.04864788 0.06767752 -0.05887704 -0.037975527
-0.04451767 -0.02115112 0.021330014 -0.02194326 0.26522362 0.0027357275 -0.0019429777 -0.06267821
0.021178488 0.13727513 -0.13102537 0.08149139 -0.03591988 0.097720094 -0.13345107 -0.012104052
-0.049613405 -0.145032 -0.014154276 -0.011814848 -0.0069797495 -0.1777527 0.035504017 0.07261901
0.0123266615 -0.020336092 -0.05973422 0.1063364 -0.06344219 0.0067725577 0.051636137 0.06256847
-0.09097336 -0.120665714 0.02854125 0.011672057 0.063713364 -0.044365853 -0.20273513 0.042855438
-0.096498296 -0.12543303 0.07749606 -0.10316556 0.043739572 -0.034386683 -0.056707434 0.022758145
0.06159456 -0.068250656 -0.016740095 -0.007740435 -0.066385396 -0.19382456 -0.030502673 -0.03494674
-0.10828964 0.05130954 0.09293959 0.020448787 -0.0033763347 0.10716003 -0.027495133 0.048055127
0.05100505 -0.025677122 -0.009121022 -0.08637958 0.6007952 0.011530319 -0.004645539 0.036464553
-0.06684882 0.023453347 0.041754693 -0.105443396 0.036582697 -0.021196228 0.019406438 -0.047927685
-0.06454858 -0.15508415 0.04691523 0.12727794 -0.015526312 0.22158141 0.09951119 0.06953299
-0.044601697 -0.037571434 0.089551166 -0.14556684 0.12255467 -0.0898304 -0.058311656 0.020506335
0.05539277 -0.061518643 -0.07823667 0.006671461 -0.008671251 -0.090011574 0.21845701 0.0037279262
-0.026530236 0.10632347 0.07077521 0.00041235783 -0.03450345 0.016294036 0.010112783 -0.034983408
-0.044010792 0.14192586 0.049615555 -0.047062483 0.056072567 0.015345674 -0.13530874 -0.029698402
-0.0035615717 -0.04826427 -0.109811015 -0.02836206 -0.09681971 -0.024247272 0.1078891 0.13334087
-0.0041001257 -0.104447484 -0.0017436697 0.0107709365 0.08205475 0.0901963 -0.026901038 -0.09466912
0.07227178 -0.10130761 -0.14584698 0.10442648 -0.010022063 -0.040413972 0.1545375 0.06509299
-0.047846604 -0.16115242 -0.02776273 -0.006710446 0.042388108 -0.08110784 0.016570015 0.058942977
-0.008281282 0.050974265 0.020867644 0.035048723 -0.09387251 -0.061913006 -0.095971145 -0.04798396
0.08839908 0.09274189 -0.1102831 -0.04462583 0.13900901 0.0851544 0.37410787 -0.012661265
-0.011884973 -0.060047165 0.15439796 -0.048434235 -0.0064303703 -0.006697978 -0.04587819 -0.052315556
-0.095406964 -0.06811976 -0.055424176 0.021005971 -0.14262304 0.01833096 0.06394345 0.08013482
0.03788388 -0.017418956 0.06660227 -0.39394924 -0.008070358 -0.051965233 -0.043544244 0.022892011
-0.055129204 -0.042967226 -0.086259775 0.08404164 0.20725031 0.07909628 -0.014056865 -0.0010946479
0.024989497 -0.35320762 0.095364675 -0.04669738 -0.051290352 -0.015756922 0.1546047 -0.08175324
-0.03908857 -0.25213864 0.05512323 -0.017766502 0.00017088128 -0.04693772 0.019981446 -0.016803307
-0.058327436 -0.0159616 0.001404962 0.2640922 -0.13036837 -0.03285896 -0.055950675 -0.038465455

mlp.4.bias f4 [6]
00000000: 974a 1a3e 5696 793d b172 513d 2338 92be
00000010: 484f babe ecdf 8cbe
0.15067516 0.060934387 0.05113477 -0.28558454 -0.36388612 -0.2751459

exp_avg f4 [6]
00000000: 867d e340 9036 66c1 5dba 5841 e8e8 4e40
00000010: 5eba 6341 367a ac40
7.1090727 -14.388321 13.545499 3.2329655 14.233 5.3899183

exp_avg_sq f4 [6]
00000000: 5b8d 6b44 8f92 5d44 e498 4044 a328 7644
00000010: 9e4f 5644 0a1b 4b44
942.2087 886.29 770.3889 984.63495 857.244 812.4225

exp_avg f4 [64, 17]
00000000: 7f14 6e3d 1065 2a3e cb68 743d e923 03be
00000010: 17b2 f63d 94d9 813e a3b9 73be 376d d0bd
00000020: 861e dbbd 69ab 503f ac0b 52bf b1db 7940
00000030: a548 8ec0 e325 3e40 4b92 b640 eb44 0c3e
00000040: 0b9a 6bc0 3d97 8bbd b3b2 803e d378 923d
00000050: 7643 5a3d d4e6 5239 6988 2ebf 83ff dd3e
00000060: dd4d 853d cf39 413e 2ea8 a2bf 274f ed3e
00000070: 6577 babe 370d 4e40 1931 d7bf 2968 c5bf
00000080: 8fa0 d7bf 76f2 debf 6f37 c6bd 9134 b6be
00000090: 9000 1b3e 52ce c33e 7173 ae3c c20c 2d3e
000000a0: 0c60 a3be a060 bbbe 90f7 4ebe 09ed e53d
000000b0: 883f 76bf bf1b f3bf 9d0e 2a40 fb95 87be
000000c0: dcb8 65bf dc3a 81bf 8972 4cbe 8169 833c
000000d0: 285f aebc 2d7f 273d 275f f83d 51a5 6a3d
000000e0: 8977 583e ee6b 91bd 32e3 db3d c8a9 ae3e
000000f0: 874f 4c3e 8dcc 4cbe 1348 563e 494f 3840
00000100: 0234 a940 3450 0f41 66d9 35c0 f922 863f
00000110: 1b25 a83d b218 c13d 4953 53be df78 9dbd
00000120: 1263 05be 643e 60bc 368e 273f af3d 013f
00000130: 7ff7 70bf a7de b23e bfeb ab3f 3dde bbc0
00000140: fea4 1340 2936 adbf 401d edc0 d117 e73f
00000150: abdd c140 f41d aebd 348a a43e cd5c 0a3e
00000160: e9cb c03d b319 843d 9952 82bd 4e8c aa3d
00000170: 6206 62be 298e 6cbe a5c6 233f 41f4 a3be
00000180: ad4a c1bd 4754 5e3f 1d57 a13e bad5 e3c0
00000190: 2696 6640 fc81 cabf ec33 ea3f 1591 07bf
000001a0: 39dc f6bf db98 14bf 69c7 2dbf 9575 16bf
000001b0: 88db 8b40 b7ae 8f40 cf91 2fc0 9707 40c0
000001c0: 44fe 0c40 cf90 d8bf af27 a540 5c14 af41
000001d0: 409f 1cc1 d7d3 abbf 61e6 9941 b556 7fbe
000001e0: ec23 fc3e 7128 633e fa65 f53d 7e1b 4a3d
000001f0: 405d 06bf 106f 22bf 0cbf 18bf e379 cf3e
00000200: 8438 80bf bd25 d7be c637 2640 ae88 633f
00000210: 19a0 7dc0 7bb3 c340 7d0a 41c0 f7e6 5cc0
00000220: 8f01 80bc 4a1a 82bd b460 153e 11e4 66bd
00000230: 553a 90bb d4ee 1f3e 6fb0 4cbe bb78 07be
00000240: 8528 e63e e70b a43d d62c 9f3e 24db fbbf
00000250: bf36 8c40 9ac5 24c0 e364 1abf 7603 083e
00000260: d116 1fc0 5a5c b13d 706c de3e b232 1abe
00000270: f717 94bc a099 ce3c 3105 20be 9870 9e39
00000280: 095a dc3d 71df 68bf 4aa2 c8be bd56 4abf
00000290: ef22 3dc0 3e35 5740 e0f3 82be 6f1f 9f3f
000002a0: 9de4 99c0 21ed 23c0 6c3e 323e 0d29 acbe
000002b0: 618e e7bc cbb3 813d ee68 943c d807 e83d
000002c0: ed4b 423e 7824 8b3c 813f 493e dc2e a33d
000002d0: dd0a 6fbe 2349 0440 19ed d0bf 3530 363e
000002e0: c0e4 c73e 4e32 c03f 4748 c9bf e699 a63b
000002f0: 7c98 f43d 88c2 a239 af6a bb3d d782 a63d
00000300: 8ab2 a23e 4480 79be be9a 50be beff 133e
00000310: 6c7b 113f 85cb 03bf cc9e e93f 62cc c5bf
00000320: 2ce5 1f40 3d9e 2f40 e9e7 233f 0a8d 4c3f
00000330: ffd4 e33b d50e 8cbe 0792 d2bb c0dc bebd
00000340: b68b bb3c d5e5 2b3d 9faf 91bd 1cda f2bc
00000350: a193 233d 882b a4bc c5e9 063f ab89 a03d
00000360: 26a5 973f dca1 4740 3f73 4940 1e85 b3bf
00000370: f15b 263f 9fab e9be 1031 dc3d e8c1 593e
00000380: 7f7a f73e 9198 af3c 167b ffbd 2281 63bf
00000390: 48e5 99bf 41dd b53e fff5 3e3c 67e6 0bc0
000003a0: 0678 e83f 3c0b d4bf 0609 1340 1376 f740
000003b0: 2dd3 833f 3112 53bf 19a9 163d 8fa2 8cbe
000003c0: a811 a3bd 7f35 9abd b611 a1bd 8d50 ff3c
000003d0: 9fea 903d 4928 5b3d 1345 debd 8b74 a3be
000003e0: 8c46 02bf cd6d e23e 23e1 223f c50a 1740
000003f0: 47c6 7b3f ea4a febe 004c 01bf 33c9 50be
0.058125015 0.16640115 0.05967025 -0.12806667 0.12045687 0.2536131 -0.23801284 -0.10177081
-0.10699181 0.8151155 -0.8204906 3.904034 -4.4463677 2.9710624 5.705358 0.13698165
-3.681277 -0.06815956 0.25136337 0.07151952 0.053286992 0.00020113151 -0.68176895 0.43359002
0.06508992 0.18869708 -1.2707574 0.4634945 -0.36419216 3.2195566 -1.6811858 -1.5422412
-1.6845874 -1.7417743 -0.09678542 -0.3558698 0.15136933 0.38243347 0.021295281 0.16899398
-0.31909215 -0.36597157 -0.20211625 0.112268515 -0.9619069 -1.8992842 2.657142 -0.26481614
-0.897352 -1.0096087 -0.19965567 0.01604152 -0.021285608 0.04089277 0.12127524 0.057286564
0.21139349 -0.07100664 0.107366934 0.34113908 0.19952212 -0.19999905 0.20925932 2.8798392
5.2875986 8.957081 -2.841394 1.0479423 0.08210202 0.094285384 -0.2063724 -0.0768907
-0.13026074 -0.01368675 0.6545137 0.50484747 -0.9412765 0.34935495 1.3431319 -5.8708787
2.3069453 -1.3532153 -7.4098206 1.8054143 6.058309 -0.08501807 0.3213669 0.13511963
0.09413893 0.06450214 -0.063634105 0.08327542 -0.22072747 -0.23101105 0.6397498 -0.32022288
-0.094380714 0.8684735 0.31511775 -7.1198397 3.6029143 -1.5820918 1.8297095 -0.5295575
-1.9285957 -0.5804574 -0.678824 -0.58773166 4.3705482 4.4900775 -2.7432745 -3.0004632
2.2030191 -1.6919192 5.161094 21.884941 -9.788879 -1.3424023 19.23749 -0.2493542
0.49246156 0.22183396 0.11982341 0.049342625 -0.5248604 -0.6345072 -0.59666514 0.4052268
-1.0017247 -0.4202098 2.5971541 0.8888043 -3.9628966 6.115659 -3.0162652 -3.451597
-0.015625743 -0.063526705 0.1458767 -0.056369845 -0.004401485 0.1561845 -0.19989179 -0.13229649
0.4495279 0.08010083 0.31088895 -1.9676251 4.381683 -2.5745606 -0.6031019 0.1328257
-2.4857676 0.08660193 0.43442106 -0.15058401 -0.018077834 0.025219738 -0.1562698 0.00030219997
0.1075936 -0.90965945 -0.39186317 -0.790386 -2.9552572 3.3626246 -0.25576687 1.2431468
-4.809157 -2.5613482 0.17406625 -0.3362507 -0.028266134 0.06333121 0.01811644 0.11329621
0.18974276 0.016985163 0.19653131 0.07967922 -0.23343988 2.066964 -1.6322356 0.17791827
0.3904171 1.5015352 -1.5725182 0.005084264 0.119431466 0.00031043985 0.09151208 0.081304245
0.3177684 -0.24365336 -0.2037153 0.14453027 0.5682895 -0.5148242 1.8251586 -1.5452998
2.4983625 2.744033 0.6402574 0.7990271 0.0069528813 -0.27355066 -0.006426099 -0.093194485
0.022893768 0.04196723 -0.07113575 -0.029645018 0.03993571 -0.020040289 0.52700454 0.07838758
1.1847274 3.119254 3.147659 -1.4024999 0.6498404 -0.4563875 0.107515454 0.21265376
0.48335645 0.021435054 -0.12474649 -0.88868916 -1.2023096 0.35520366 0.01165533 -2.1859376
1.8161628 -1.6565928 2.2974257 7.7331634 1.0298821 -0.8244963 0.036782358 -0.27467772
-0.07962352 -0.07529735 -0.07864706 0.03116634 0.070760004 0.053505216 -0.108530186 -0.31924853
-0.50888896 0.44224396 0.6362478 2.3600323 0.9834942 -0.4966653 -0.5050659 -0.20389251

exp_avg_sq f4 [64, 17]
00000000: ba9d 823e a698 fe40 3f11 6d3e 2d02 6c3e
00000010: df3c 773e 67a5 143f d98a d03e 98aa 9f3e
00000020: ea8b db3f 32c0 d73f f86f af40 c71a 4f42
00000030: 7f8b 8b42 4795 0a43 0259 1743 f4a1 ae42
00000040: 71e0 c742 93f4 bb3e ca4e 6e41 7857 903e
00000050: 4e39 a63e c4fa cd3e b540 a33f a7e1 1e3f
00000060: 7585 043f 0c67 2c40 0500 8640 a7cb 3841
00000070: 31e0 a642 c06d 1a43 5caa 8443 42b2 ab43
00000080: f29d 1f43 f61c 2a43 f5a3 553e 9019 ac40
00000090: ee1f 313e a175 353e 0ff3 423e 5dc5 4e3f
000000a0: 93fd db3e f2b4 8f3e 00e5 d73f 99d7 0440
000000b0: cfbe f040 878b 5842 4f1a a742 6b0b c642
000000c0: 2595 fc42 2b21 ea42 dddc d242 ba3f 483d
000000d0: 723b c33f f784 753d dabf c63d 969e 8b3d
000000e0: c369 603e 7270 073e 7ca0 c83d 048a fc3e
000000f0: 68aa 143f 6b8a 1240 223c c041 f473 1242
00000100: a90d 5342 847a 3342 caf2 2342 e2b6 f041
00000110: a72a 923e 00f4 0241 fbbe 633e 0e3f 5e3e
00000120: 5beb 543e 30e1 863f d6fe 0e3f 6f30 903e
00000130: 0d01 0640 c640 d13f 5fb8 2541 8973 9942
00000140: 7d6c af42 16e2 2943 df98 1943 62ea 7243
00000150: 0816 eb42 866a a63e 9d46 5a41 54b2 463e
00000160: b4f1 8b3e 2763 a33e 200b 733f 0416 f13e
00000170: 35b1 c23e eb14 0e40 69e2 5140 7481 0b41
00000180: 94ee 9842 b397 0443 7477 3943 6a80 9643
00000190: 7520 2b43 ca2b 0a43 8441 503f 0fdf d040
000001a0: 9c03 933f a711 a63f 6f6b 863f 0bed 4d40
000001b0: 7e58 3b40 ba51 2340 0e89 4741 5010 4041
000001c0: ab86 1142 eb51 7143 1ff5 c543 a7b0 6044
000001d0: 1647 6344 711c 0944 f3e2 b943 6c05 683e
000001e0: 5f6f e140 e5d2 243e 3551 303e 9148 173e
000001f0: 4c5f 033f fc36 d83e 9828 623e 4781 1e40
00000200: 1b1f c83f 2c29 bd40 ba0b 4642 c23b 6742
00000210: 6553 2643 01ff 1543 e902 0e43 4d87 7642
00000220: 92b6 a93d 5bdf 6140 3e1c 8d3d 2b13 ab3d
00000230: 05aa a03d 292f 813e 5086 083e 23ca f23d
00000240: 2920 0f3f 376b 3b3f ee43 2a40 0a38 b041
00000250: 5fcd 1542 8a34 5a42 b19d 9842 abd7 3e42
00000260: a35a 1842 fd6d 073e 7d5b 5a40 083a 033e
00000270: 5205 1f3e 5057 2c3e 6b15 483f 7125 cc3e
00000280: 4978 613e b638 e83f 5a2d 0e40 0bdb fb40
00000290: 5e9b 9142 5429 8e42 1961 d642 62bb eb42
000002a0: cbbb e842 7db5 c042 32c1 2c3e a3e8 e340
000002b0: ab49 bc3d 6532 053e 4387 103e 84b9 ef3e
000002c0: 476c 5a3e a6c3 2a3e 12be 863f 45a2 b93f
000002d0: 8834 8f40 1759 0342 d355 8f42 783e bd42
000002e0: ff6d 0943 3b40 a642 ba3d 8442 4a7d 9d3d
000002f0: efc6 2140 648e 713d 4668 8f3d fc2a 783d
00000300: dd91 4b3e d373 d73d b183 cc3d 9663 f33e
00000310: 9789 153f ae8b 1240 bbef 7241 0d7e d041
00000320: d735 1142 6e6a 1a42 049b 1a42 9111 0242
00000330: 0fd3 833d fd57 0a40 0479 563d 1c12 7a3d
00000340: 9a43 7b3d 3370 623e 6ad2 c53d b4ec 733d
00000350: 6272 df3e aae5 e03e e1b0 2940 da7d 8f41
00000360: 1523 ef41 ee5d 2a42 5e47 0b42 e709 3242
00000370: 5c0e da41 06d1 c23e 11af 3541 7026 853e
00000380: 8f7a 853e 4f08 923e 3145 543f aa1d 073f
00000390: 4e2b e83e f4fb 1e40 e613 0840 b497 1941
000003a0: a72e 9442 9011 d142 a041 2e43 bcad 3743
000003b0: b125 2143 b5aa ed42 7b89 0b3d b080 a93f
000003c0: 5329 1e3d 6e4a 583d 8df1 443d 8a60 303e
000003d0: dc2f c43d 77c4 993d 5d46 e43e 627a fd3e
000003e0: b05d 1c40 2da5 8041 a39e c341 f3e5 0c42
000003f0: 6310 da41 81e8 ed41 0097 d441 8454 c03d
0.2551096 7.956134 0.2315111 0.23047705 0.24144314 0.58064884 0.40730932 0.3118484
1.7152073 1.6855528 5.482418 51.77615 69.77245 138.58311 151.34769 87.316315
99.93836 0.36710033 14.894236 0.28191733 0.32465595 0.4023038 1.2754122 0.6206307
0.5176614 2.6937895 4.1875024 11.54972 83.437874 154.42871 265.33093 343.39264
159.61697 170.11313 0.20863326 5.3781204 0.17297336 0.17720653 0.19038032 0.807699
0.429669 0.28067738 1.686676 2.075659 7.523292 54.136257 83.551384 99.0223
126.2913 117.06478 105.43137 0.0488889 1.5252516 0.05994126 0.097045615 0.06817357
0.21915345 0.13226488 0.09796235 0.49324048 0.5807252 2.2896984 24.029362 36.613235
52.76334 44.869644 40.9871 30.089298 0.28548166 8.18457 0.22240822 0.21703741
0.20792906 1.0537472 0.558576 0.28161952 2.0938141 1.6347892 10.357512 76.725655
87.71189 169.88315 153.59715 242.91556 117.54303 0.32503146 13.64224 0.19403964
0.27332842 0.31911585 0.9493885 0.4708711 0.38025823 2.2200267 3.279444 8.719105
76.46597 132.59258 185.46661 301.00323 171.12679 138.17105 0.8134997 6.527229
1.1485476 1.2974137 1.0501536 3.217593 2.9272761 2.5518632 12.470961 12.003983
36.38151 241.31999 395.915 898.7602 909.1107 548.4444 371.77304 0.22658318
7.044845 0.16096075 0.17218478 0.14773776 0.51317286 0.4222945 0.22085798 2.4766405
1.5634493 5.911276 49.51145 57.808357 166.32576 149.99611 142.01137 61.63213
0.08286776 3.5292575 0.068901524 0.083532654 0.07844929 0.25231293 0.13332486 0.11854961
0.5590845 0.7321047 2.660396 22.027363 37.450558 54.551308 76.30799 47.710613
38.088512 0.13225551 3.411834 0.12815106 0.15529373 0.16830182 0.7815768 0.39872316
0.22018541 1.8142307 2.221518 7.8704886 72.80345 71.08072 107.189644 117.86598
116.36678 96.35447 0.16870573 7.122148 0.091937385 0.13007505 0.14114098 0.46821225
0.21330367 0.16676196 1.0526755 1.4502646 4.4751625 32.837 71.667625 94.62201
137.42967 83.12545 66.12056 0.076899126 2.527767 0.058973685 0.070023105 0.060587868
0.19879861 0.105201386 0.09986056 0.47536916 0.5841307 2.2897754 15.183528 26.061548
36.302578 38.603935 38.651382 32.517155 0.064367406 2.1616204 0.052361503 0.061052427
0.061343767 0.22113113 0.09659274 0.05955191 0.43641955 0.4392522 2.6514208 17.936451
29.89213 42.59173 34.819695 44.50967 27.257011 0.38050097 11.355241 0.26005888
0.26070067 0.28521964 0.8291808 0.5277964 0.4534554 2.484128 2.1262145 9.599537
74.09112 104.5343 174.25635 183.67865 161.14723 118.83341 0.03406666 1.3242397
0.03861363 0.052805357 0.048081923 0.17224327 0.09579441 0.07508176 0.44584933 0.49507433
2.4432182 16.080652 24.45246 35.22456 27.258001 29.738527 26.57373 0.0939112

exp_avg f4 [64]
00000000: e8b7 b9bd 4af6 a03e ec2e 34be 74f2 cebe
00000010: c98a 97bf d4f5 913c 1a3e cdc0 c699 0540
00000020: 6466 153f 854d 81bf 331c c3be d4ce d8bd
00000030: 343e 07bf e9c2 593f a148 1dbf 2129 a53f
00000040: 0ab4 163f 3efe 0f3f 7cad 1f3e 6c79 803f
00000050: 7bad d43e 3906 fb3e 56dd cf3e 7581 9a3f
00000060: c1bc 51bf ca08 7e3f 2594 2e3f 7a48 083f
00000070: 37ae fe3e 5d0a 083f cad4 a4be 2344 3fbe
00000080: b69f 1f3f 5b8a 93bf 9a71 36be 2907 7e3d
00000090: 7882 15be e145 a7bf 0544 d8bd 9885 153f
000000a0: 3c92 a03f f1cb 1abf a46f 41bf b81d 2f3e
000000b0: 2aff b73e 390e cf3d de56 7e3e 3afb 2e3d
000000c0: 52f7 393f 031a 123e ed0c 2dbf 9592 88be
000000d0: 04ce 783e 0ae5 043e 6c9a 863e 4b4b fcbe
000000e0: 0616 9d3f 2d48 1fbf 4218 f63e eddd 823e
000000f0: 8649 2cbe 4989 84bf 0c22 3b3f 67be c33e
-0.090682805 0.31437904 -0.17596024 -0.40419352 -1.1839229 0.017817415 -6.4138308 2.0875106
0.5835936 -1.0101782 -0.38107452 -0.10586324 -0.5282929 0.85063034 -0.6143895 1.2903177
0.5886847 0.5624732 0.15593523 1.0037055 0.41538605 0.49028185 0.40598553 1.2070757
-0.8192864 0.9923216 0.681948 0.5323559 0.4974229 0.53140813 -0.32193595 -0.18678336
0.62353075 -1.1526598 -0.17816773 0.062018547 -0.14600551 -1.30682 -0.10559849 0.5840697
1.2544627 -0.6046744 -0.75560975 0.1710118 0.35936862 0.10110135 0.24837825 0.042720057
0.72643006 0.14267735 -0.6759785 -0.26674333 0.24297339 0.12977996 0.2628969 -0.49276194
1.2272346 -0.62219507 0.48065382 0.2555994 -0.16824922 -1.0354396 0.73098826 0.38231203

exp_avg_sq f4 [64]
00000000: 8eec 9240 e61d 0641 3ca3 7940 e45d ad3f
00000010: 5699 ac40 b1dd d940 24f8 dc41 1e39 7640
00000020: b69a e63f 7489 7c40 96e3 5440 ee9b b33f
00000030: 1f94 a23f fba6 b740 3c7c 883f 2b32 2a40
00000040: 11d6 023f 48b3 5640 4cc7 1440 7b4f 0240
00000050: b013 4b40 b5c8 7a40 4f18 4d40 5312 e63f
00000060: 12ed b53f b4ed 6740 a572 7740 44a6 ef3f
00000070: 6046 0840 a7d4 3640 3c4e ad3f bf9f 1f3f
00000080: 7b9a 9c3f 6b2a 2541 a05a b340 cd54 8040
00000090: 6260 b93f 71aa 2540 69da 5540 8b7a a340
000000a0: c446 3441 ff61 6a3f 4589 a03f 25f2 0040
000000b0: a1a5 443f c470 a13f eb55 4040 fd53 5940
000000c0: 69a2 dd3f d2c8 423f 108f 8440 d4d3 bb3f
000000d0: 1205 8a3f 3949 b13e 3a5b e13e b7e6 6540
000000e0: 4b98 1540 4633 ce3f 84bd 8c40 3680 5b40
000000f0: 85d6 0f40 3280 e63f 4e8c a53f 55f9 8d3f
4.5913763 8.382299 3.900588 1.3544278 5.393718 6.808312 27.621162 3.8472362
1.8015964 3.9458895 3.3263907 1.4031961 1.2701453 5.7391334 1.0662913 2.659312
0.5110789 3.3546925 2.324664 2.036101 3.1730766 3.9185002 3.2046087 1.7974342
1.4212973 3.6238832 3.8663723 1.8722615 2.1292953 2.8567293 1.35395 0.6235313
1.2234644 10.322856 5.6048126 4.0103517 1.4482539 2.588528 3.3414557 5.108709
11.267277 0.9155578 1.2541891 2.0147793 0.7681523 1.2612538 3.005244 3.3957512
1.7315189 0.7608768 4.1424637 1.467402 1.0782797 0.34626177 0.44014913 3.5922067
2.3374202 1.6109397 4.398134 3.4297004 2.2474682 1.8007872 1.2933443 1.1091715

exp_avg f4 [64, 64]
00000000: 2a57 1b1c 1b6b b41b f1a1 db1c 1139 ce1c
00000010: d484 451d aca9 aa1c 5f76 d31c b072 469a
00000020: cc28 b91c a90f 581c 665c 981b aea4 301c
00000030: 0489 941b 65c2 411c 1843 cf1c 16ee 061c
00000040: 4ea1 a91b a6f6 731a db6f 989a 4226 0f1c
00000050: 2449 061d f77c 9c1c c70a dc1b 27e0 031c
00000060: 9a4c ff1c b2af d19b 1b55 721c 2733 0c1d
00000070: e342 b11b 4c41 8e1b 25f9 091c 653f 281d
00000080: f591 2b1d b30a 9e9b f531 0d1d def5 b01b
00000090: d5bc 481c 50f3 c11b d061 a51c 50b1 811b
000000a0: 8429 3c1d 2c77 571b 700f 641b 92be 9e1b
000000b0: c844 2c1c 2c76 701c 511e 311c ffbc e41c
000000c0: 2a54 351b ceae 601c e562 611c 3fca 0e9b
000000d0: 6ac6 bb1c 78f4 8b1c f277 da19 332c 9b1b
000000e0: 24d0 031d 7451 3f1c ffea b21c f4f5 811b
000000f0: abf1 c11a 0493 351c 003a de1c 52c8 521c
00000100: dca1 dfbb a234 843b 9a3a 54bc c475 39b9
00000110: 599a cabd 4c1e 963b 472c 8cbe d064 1e3d
00000120: 1dfc a63b 31e2 49bb 9f93 493a 6517 d33b
00000130: 3836 aa3a a4ff 803c 9092 8224 977b b438
00000140: d85a 053b 5575 4a3c 5d59 933b f60f 9f3b
00000150: 39af 413d e132 3a3d 0f9a 283b 1d82 d03b
00000160: ac9f b53a dc9b 77bd 4a3c acba b403 4e3c
00000170: ddbc 263b e14f 4ebd 25c9 ed3c 8115 4d3b
00000180: 8824 353b 7c7a 72be c188 aa3b 6802 1f3a
00000190: 4b3b 033c 933a 5f3b d63c c6ba 76a0 d93c
000001a0: 1c73 eabc 25dc b4ba 7077 dc37 d60a 0d39
000001b0: 1d67 47ba b4d6 ad3c e948 873d 57a5 a139
000001c0: 0ca6 543c 37f7 feb8 045d 84b9 f8c4 133c
000001d0: cc7c 62ba 17e7 0c3b a8e9 d73a 74db 463b
000001e0: bada ab3a 6067 43bb 174b 3f3d 0794 cebd
000001f0: 7d56 2e3b 8154 9f3b c51f 5937 5ce3 e4bc
00000200: 697c 641c 19c2 0a1b 436f 1a1d 7cfd c798
00000210: 3861 711c d874 fc1c c9a4 1d99 50b0 db1b
00000220: 98eb ab1c e558 a11b 6610 569a f616 411c
00000230: fc9b 4f1b dc24 c619 e39a 831d 9688 9319
00000240: 2c53 d31b 6780 069b 2f18 e519 5b2e 811b
00000250: e753 1e1c 5ffd 751b 011b d91b a548 d31b
00000260: 9325 101d 945f ee1b 030f cb1b 608a 611d
00000270: 9696 d01c 2940 951b ee73 b01a db58 371b
00000280: e971 911b 4f7c d81b 188b fc1c f2f5 d21c
00000290: 37b2 6c1c f0f1 2e1d 510d 069b 1f5e ba1b
000002a0: 86e8 6c1b 7241 c599 f8c9 8b1a c243 181d
000002b0: db3a 7619 63a8 1a1d d49a 8e1b 49d7 201d
000002c0: 80bb 1d1c 4a20 3c1b 9be9 6b1c d7ac 6f1a
000002d0: a5de de1c c65e 301c 26dd af1a 3fca 0e1a
000002e0: 2b6a 9b1c 8aed ff1b d476 5e1d 7e33 ee1c
000002f0: e7f7 a61b e603 951c 654d 761d b9ad 891c
00000300: 6786 e81a 1bbc 532f 8246 64a7 6a3f 1b3a
00000310: db6a 343c e5c5 1330 400e 913c c308 491a
00000320: 4b0e 962c 3581 542e 0c61 441b 1d2d 1a19
00000330: cf5f 5f2f 43e4 152e a29a 151b e5f8 6ba6
00000340: a276 ae29 08db 1d3b 65b7 7b19 3cc0 012c
00000350: a444 d119 13e0 762f 8073 c427 cdf3 71ab
00000360: 2141 5e1a 90db 2d2f 5923 b819 c7bb 7f1a
00000370: f5e6 9929 dfc1 f9a9 99fd 81a5 ca38 e117
00000380: 2778 6029 10a8 873c 69b7 172f c702 ae29
00000390: 2040 9e2d ee12 b71a 040a 123a 573f d328
000003a0: 5b29 8138 bd54 e819 91b3 2a1b a041 021b
000003b0: e7d5 e51a e506 31ac 299f 0e2f e2c9 62a6
000003c0: b4d4 281a 8f5e ed19 d65c 8229 e82c 822f
000003d0: 7a61 d7a7 8d85 df26 ce76 961a ed0d bf28
000003e0: 0b37 e3aa aa84 8e1a fef1 771a 49fc f73b
000003f0: df4f 771a 7877 0c2f 2c10 a0a6 e1df 1c2f
5.1397855e-22 2.9847717e-22 1.4534065e-21 1.3646688e-21 2.6141403e-21 1.1293515e-21 1.3993407e-21 -4.1038084e-23
1.2252819e-21 7.1488645e-22 2.5206002e-22 5.844636e-22 2.457309e-22 6.410959e-22 1.3715454e-21 4.46446e-22
2.8062945e-22 5.0450463e-23 -6.304644e-23 4.736418e-22 1.7772565e-21 1.0355517e-21 3.6402912e-22 4.3633974e-22
1.6894286e-21 -3.468969e-22 8.018108e-22 1.855529e-21 2.9325418e-22 2.3534127e-22 4.565151e-22 2.226739e-21
2.270712e-21 -2.6145822e-22 1.8687022e-21 2.9275646e-22 6.641851e-22 3.2086409e-22 1.0944068e-21 2.1455845e-22
2.4903056e-21 1.782289e-22 1.8864706e-22 2.626206e-22 5.6998924e-22 7.956207e-22 5.860357e-22 1.5136629e-21
1.4999164e-22 7.4341313e-22 7.4574073e-22 -1.1811314e-22 1.2425911e-21 9.261442e-22 2.2589117e-23 2.5671162e-22
1.7445312e-21 6.3301874e-22 1.1839797e-21 2.1500203e-22 8.0213365e-23 6.007789e-22 1.470572e-21 6.974208e-22
-0.006824715 0.0040345946 -0.012953425 -0.00017686846 -0.09892721 0.0045812484 -0.2737753 0.03867036
0.005095972 -0.0030804987 0.0007689539 0.006441998 0.0012986129 0.015746899 5.66268e-17 8.606089e-05
0.0020348337 0.012357076 0.004496737 0.0048541976 0.047286246 0.04545868 0.0025726592 0.006363167
0.001385679 -0.060451373 -0.0013140526 0.012574125 0.002544216 -0.050369147 0.029026577 0.0031293335
0.0027640183 -0.23679537 0.0052042906 0.0006065727 0.008009742 0.0034062013 -0.0015124332 0.026565772
-0.028619342 -0.0013798518 2.6281661e-05 0.00013450845 -0.00076066126 0.021220542 0.066057034 0.000308315
0.012979042 -0.00012157711 -0.00025246304 0.009019129 -0.0008639812 0.0021500045 0.0016472833 0.0030343207
0.001311145 -0.0029816255 0.04670247 -0.10086828 0.0026601844 0.0048623686 1.2941605e-05 -0.027940445
7.559967e-22 1.1477809e-22 2.0439251e-21 -5.169625e-24 7.9865863e-22 1.6706165e-21 -8.149988e-24 3.634445e-22
1.137673e-21 2.6692662e-22 -4.426741e-23 6.388802e-22 1.717304e-22 2.0487608e-23 3.483556e-21 1.525461e-23
3.496077e-22 -1.1125709e-22 2.3687813e-23 2.1371216e-22 5.2386256e-22 2.0347794e-22 3.591709e-22 3.4953967e-22
1.9077667e-21 3.9435563e-22 3.3593234e-22 2.985004e-21 1.3803211e-21 2.4691445e-22 7.297919e-23 1.5166116e-22
2.406185e-22 3.5814535e-22 1.6711916e-21 1.396021e-21 7.8316187e-22 2.3153787e-21 -1.1088523e-22 3.0831943e-22
1.9596595e-22 -2.0395756e-23 5.781535e-23 2.0152062e-21 1.2729788e-23 2.0468784e-21 2.3591985e-22 2.1287123e-21
5.218928e-22 1.5561429e-22 7.8056906e-22 4.956366e-23 1.474828e-21 5.8356007e-22 7.273559e-23 2.9528285e-23
1.0284483e-21 4.2339717e-22 2.9442888e-21 1.5762829e-21 2.76226e-22 9.861001e-22 3.259784e-21 9.110806e-22
9.617009e-23 1.9257167e-10 -3.1679579e-15 0.000592223 0.011011804 5.3759514e-10 0.01770699 4.1572903e-23
4.2648433e-12 4.8317978e-11 1.6244098e-22 7.970724e-24 2.031577e-10 3.4081415e-11 1.2374956e-22 -8.186932e-16
7.747732e-14 0.0024086852 1.3013432e-23 1.8438714e-12 2.1637817e-23 2.2453177e-10 5.4526154e-15 -8.595874e-13
4.5961135e-23 1.5812263e-10 1.9039431e-23 5.288445e-23 6.8346296e-14 -1.10914526e-13 -2.2549777e-16 1.455462e-24
4.9842207e-14 0.01655963 1.379853e-10 7.727634e-14 1.7990998e-11 7.571761e-23 0.00055709505 2.3453175e-14
6.1589024e-05 2.4022463e-23 1.4120091e-22 1.0774553e-22 9.505776e-23 -2.515704e-12 1.297137e-10 -7.8683103e-16
3.4913406e-23 2.4543418e-23 5.789264e-14 2.367877e-10 -5.978017e-15 1.5509932e-15 6.2230485e-23 2.1211299e-14
-4.0361494e-13 5.8944154e-23 5.1273883e-23 0.0075679165 5.1142922e-23 1.277537e-10 -1.1106614e-15 1.4267655e-10

exp_avg_sq f4 [64, 64]
00000000: d5e0 a240 94f8 953e 3a37 4240 b240 c03f
00000010: b473 9c3f cafb e23f 80a3 593f 68c5 043f
00000020: c94a a53e be85 e93f 3247 0e3f 1140 be3e
00000030: 0b81 113f 4f3b 433f 4be3 7040 40e7 8a3f
00000040: 762e 7e3f 7e42 c53d d7ec ac3d aedd e53f
00000050: 8a45 5340 e4db 0340 0225 b93e 47c5 4a3f
00000060: a973 f43f 0938 e73e f388 1940 3ab7 bb40
00000070: 0e88 f73e e725 833e d8ac 3c3f d461 2140
00000080: 782a d640 b9a5 e63f 33ad b23f 718d bd3e
00000090: a075 463f 2eb9 ca3e 0690 413f 9417 713e
000000a0: e007 3e40 fae3 793e 605e c73e 6227 293f
000000b0: 21da c63e 9f92 a93f 298e ce3e 7f51 ce3f
000000c0: 8175 8e3e 96df e13f 9873 a23f 93e8 933e
000000d0: cba0 0240 49fe a440 5699 3b3f ab17 483e
000000e0: e110 3940 9ca8 9c3f 03c6 913f 124b b33f
000000f0: 79fc ac3e eb28 a33f a312 7a40 775c 5040
00000100: 74f1 c940 9114 a63f f8e0 bc40 a968 b640
00000110: 4c34 d540 7bb2 ea3f 90a3 ff40 7824 e13f
00000120: 005f 4040 f2ee 7440 b254 d63f 8ae7 bf3f
00000130: ee09 e93f 9e22 6040 e864 d540 3e1a a93f
00000140: 8cee 433f 1648 653f 4e7e f13e e1d1 0540
00000150: dfbc eb40 5b73 a540 9969 833f 61d8 ef3f
00000160: b73b 5440 5f51 1d40 15ee 4940 93c7 0541
00000170: dd54 0840 0a54 323f 9af8 8340 6adc a340
00000180: a213 1041 ec60 2e40 2ee6 8140 a139 3840
00000190: d481 343f 6c16 413f 970e 9a40 d066 963f
000001a0: 9431 8040 a5db 7b3f 7a59 d93e a007 e53f
000001b0: d373 0a3f bc00 7740 7e47 9540 0405 8840
000001c0: da68 823f abd6 2040 d62c ab40 b7e7 d23f
000001d0: 68c1 4c40 1c94 2740 1773 c83e 463a 413f
000001e0: 7da4 0741 c2ef e33f 78ba 8340 bd5a a140
000001f0: efda 0740 2a6c ff3f 041c 8f40 f1a0 c23f
00000200: 3d7b c93e 0631 983d 9b8d 1a3f 0f5b 0d3e
00000210: d8f2 ba3d bba6 d53e e28a 9d3d f449 953e
00000220: 6b5d ad3e da28 5d3d 1ecb e83e abe5 a13e
00000230: dfa3 ee3d ccee 0a3e 736c b63f 8b41 2a3d
00000240: 571a d53d 7327 3d3e fe5c 883d e9f6 2a3e
00000250: 329b 5e3e b90b 5a3e fe52 9d3d 3528 353e
00000260: ac1c 123f 4121 623d 38a4 363e 42de a63f
00000270: e1c9 293f 0d3b cd3d 09d3 ec3d 04ac ea3d
00000280: 87e3 8a3e f7f1 393e e53a 1e3f b898 2b3f
00000290: 2b9f 223e 034a 143f 48d1 f63d 705f 1c3d
000002a0: 54be 873d 4830 093e 43bd 3c3d 8588 103f
000002b0: 66ee 723d 59d0 133f 95d8 b63c 130a 073f
000002c0: b9ed 143e 137a 4d3d 5734 8f3e fde8 a03d
000002d0: 1c8b f43e 34e1 d53e 59bb 833c 69a0 973d
000002e0: 785b 023f 63f4 d13d 60c0 923f f62d db3e
000002f0: 787e b23d 115a e43e d94b b03f fd5f 9b3e
00000300: 955a 2a3e e7ea 223d c805 f43d 432b 363d
00000310: 9137 583d 9b5c 813d 4759 963d 35c5 eb3d
00000320: af82 e83d 8fbf 833d b028 e03e e533 a33c
00000330: 06df 9b3e 07d2 823d fea8 da3e 81ad fd3c
00000340: 6929 013f a992 0f3d 8bfc 313c d045 753e
00000350: 9c41 9f3d 7d71 8d3d b968 f23d a473 403c
00000360: 4d27 8d3e 2c53 ef3d 1bd5 853d 9019 913e
00000370: f4ea 1b3e 0478 1a3c acaf d23c d296 123d
00000380: 9394 313d e6f8 a63e ebb7 453c c4fe 7d3d
00000390: d2f8 0a3f 130a 993e e72a 573d 7a4c 773d
000003a0: f27c ac3c 0924 303d 81ac c13e b386 d63e
000003b0: 09a4 303e fd57 933e ab8c 533d 5062 9f3e
000003c0: 03d3 8f3d 176b 603c 9e86 d83d 12be 5c3c
000003d0: 0dfd 0d3e e095 bf3d 6e93 943d e3ee 203d
000003e0: b47a 5b3d 208d ef3d ee0b 273e 080f 403e
000003f0: ee12 bd3d 1821 ea3e 8750 e53e 0430 7e3e
5.0899453 0.29291213 3.0346208 1.5019743 1.222281 1.773309 0.85015106 0.5186372
0.3228362 1.824394 0.55577385 0.37158254 0.5683753 0.7626237 3.7638729 1.0851822
0.99289644 0.09631823 0.08443611 1.7958276 3.3011193 2.060296 0.36161047 0.7920727
1.9097797 0.4515994 2.3989837 5.8661165 0.4834599 0.25614855 0.7370124 2.521596
6.692684 1.8019325 1.3959106 0.37021974 0.7752323 0.39594406 0.7561039 0.2354415
2.9692307 0.24403372 0.3893919 0.6607572 0.38838294 1.324787 0.40342835 1.6118621
0.27824023 1.7646358 1.2691526 0.28888378 2.041064 5.1560407 0.7328085 0.19540279
2.8916552 1.2238955 1.1388553 1.4007285 0.3378637 1.2746862 3.9073875 3.2556436
6.3107243 1.2975026 5.902462 5.700276 6.662634 1.8335718 7.988716 1.7589254
3.0057983 3.827084 1.6744597 1.4992535 1.8206155 3.5021129 6.6685677 1.3211133
0.7653587 0.8956312 0.47166675 2.090935 7.3668056 5.1703315 1.0266601 1.8737909
3.3161447 2.4580915 3.1551564 8.361224 2.1301796 0.69659483 4.124097 5.120656
9.004793 2.7246656 4.059348 2.8785174 0.705106 0.7542484 4.814281 1.1750126
4.006052 0.98382026 0.42451078 1.7892952 0.54082984 3.8594198 4.664977 4.2506123
1.0188248 2.5131023 5.349223 1.6476964 3.1993046 2.6184149 0.39150307 0.75479543
8.477658 1.7807543 4.1165123 5.0423265 2.1227376 1.9954884 4.47217 1.5205365
0.39351836 0.074312255 0.6037232 0.13804267 0.0912835 0.41728768 0.076925054 0.29157984
0.33860335 0.053994037 0.45467466 0.31620535 0.1165235 0.13567656 1.4251846 0.041566413
0.104054146 0.1847208 0.06658362 0.16695751 0.2173889 0.21293534 0.07681845 0.17691119
0.57075 0.055207495 0.17836082 1.3036578 0.6632367 0.10021029 0.11563689 0.114585906
0.27126715 0.18158709 0.61808616 0.67029905 0.1588103 0.5792543 0.12051636 0.038176954
0.06628099 0.13397324 0.04607893 0.5645831 0.059309386 0.5773979 0.022320071 0.5274975
0.14543809 0.050165247 0.2796962 0.07856939 0.47762382 0.4177338 0.016080545 0.07403643
0.5092082 0.10251691 1.1464958 0.42808503 0.08715528 0.44599965 1.3773147 0.3034667
0.16636117 0.0397748 0.11915165 0.04447485 0.052787367 0.06316491 0.07341247 0.11512224
0.11353051 0.06433021 0.43781042 0.019922206 0.3044359 0.06387716 0.42707056 0.030966522
0.5045381 0.035051975 0.010863434 0.23952413 0.07776186 0.06906412 0.118363805 0.011746321
0.27569047 0.11685786 0.06534787 0.28339815 0.15226346 0.009428028 0.025718533 0.035788365
0.043354582 0.3261177 0.012067775 0.06201054 0.5428592 0.298905 0.05253115 0.060375668
0.021055672 0.043003116 0.37826923 0.41899642 0.17250074 0.28778067 0.051647823 0.31129694
0.07022669 0.013697407 0.10572551 0.013473051 0.13866062 0.09354758 0.072546825 0.03929032
0.053583816 0.11696839 0.16313145 0.18755734 0.09232126 0.45728374 0.44788 0.24823004
