_models/HalfCheetah-v5_critic.pt (torch, 77186 bytes, 21 tensors)

logstd f4 [6]
0	0xc01c7d7b	-2.4451587
1	0xc01cbf7b	-2.449187
2	0xc01bfe03	-2.4373786
3	0xc01dd1f6	-2.46594
4	0xc03600b6	-2.8437934
5	0xc01375c6	-2.3040633

mlp.0.weight f4 [64, 17]
0	0xbde168e2	-0.11006333
1	0xbf11ff5f	-0.5703029
2	0x3ebf0220	0.3730631
3	0x3e1320ba	0.14367953
4	0x3f097aa9	0.5370279
5	0x3e3bd533	0.18343048
6	0xbb1b4439	-0.0023691787
7	0xbfa131d4	-1.2593331
8	0xbd40492e	-0.04694479
9	0x3c4bbe99	0.012435579
10	0xbe79b8fd	-0.24386974
11	0xbf0b9843	-0.5452921
12	0x3e47ba00	0.19504547
13	0xbed75026	-0.42053336
14	0xbcde9d32	-0.027174566
15	0x3e6cd478	0.23127925
16	0xbf08f98a	-0.53505766
17	0x3f4cf9d2	0.80068696
18	0xbeba02a5	-0.36330143
19	0x3d0ca71f	0.034339067
20	0xbf2c76d5	-0.67368823
21	0xbd0deba7	-0.034648564
22	0x3ed33348	0.41250062
23	0x3f27fa68	0.65616465
24	0x3f8a005f	1.0781363
25	0xbf153e42	-0.5829812
26	0x3f2a427d	0.66507703
27	0xbd5f7bf1	-0.05456156
28	0xbed8abef	-0.42318675
29	0x3ef68c44	0.4815389
30	0xbea87e08	-0.32908654
31	0xbdc099b4	-0.094043165
32	0xbdadaad9	-0.08479852
33	0x3e36c02f	0.1784675
34	0x3e854aee	0.2603373
35	0xbfabdf4a	-1.3427517
36	0xbe0209d3	-0.1269906
37	0x3e9f476d	0.3110918
38	0x3e2533a6	0.16132984
39	0xbc4568e5	-0.012048935
40	0xbf1b82f5	-0.607467
41	0xbeaae97e	-0.33381265
42	0x3e9c18b8	0.3048761
43	0xbe3ad207	-0.18244182
44	0x3c46e60c	0.012139808
45	0xbda429e9	-0.08015806
46	0x3dcab325	0.0989745
47	0x3de6e7fd	0.11274717
48	0x3e86df90	0.2634244
49	0xbe17c31b	-0.1482052
50	0xbdb41de3	-0.08794763
51	0x3e4020b6	0.18762478
52	0xbf39b65d	-0.7254389
53	0x3f171ac9	0.59025246
54	0xbd5d9603	-0.05409814
55	0xbe178e9d	-0.14800496
56	0x3df436c2	0.11924507
57	0xbf587e8e	-0.8456811
58	0xbeafed51	-0.34360746
59	0x3f04f3c9	0.51934487
60	0xbe852c5f	-0.26010415
61	0x3e7e8d89	0.24858679
62	0xbddaf866	-0.106919095
63	0x3c3fd2a4	0.0117079355
64	0x3c361fd4	0.011115987
65	0xbe2a6674	-0.16640645
66	0x3e3e21ae	0.18567535
67	0xbdcfd676	-0.10148327
68	0x3f1f3533	0.6219055
69	0xbe6a02eb	-0.22852676
70	0x3eee57cb	0.46551356
71	0xbeaa75f5	-0.3329312
72	0x3f0a66a0	0.54062843
73	0x3f52beac	0.8232219
74	0x3f05567f	0.5208511
75	0x3f520a86	0.8204731
76	0xbc178379	-0.009247654
77	0xbe26866c	-0.16262215
78	0xbf2c02cc	-0.6719177
79	0x3c858701	0.016299726
80	0x3eb52b14	0.35384429
81	0x3e0ac2fd	0.13550945
82	0xbdef4995	-0.116839565
83	0x3e9ce12a	0.30640537
84	0x3e3bf47f	0.18354987
85	0x3f206dcf	0.62667555
86	0xbf57f2e5	-0.84355
87	0x3ec47a3d	0.3837451
88	0x3e6275cb	0.22115247
89	0x3e8af9c2	0.27143675
90	0x3e3e3496	0.18574747
91	0xbf00c54a	-0.5030104
92	0x3eec6700	0.46172333
93	0xbf3e1d56	-0.74263513
94	0xbf1c9490	-0.6116419
95	0x3ea047af	0.3130469
96	0xbbc429b0	-0.005986415
97	0xbe79617d	-0.24353595
98	0x3e44576d	0.19173975
99	0xbd9bdb69	-0.076102085
100	0x3edd00c9	0.43164662
101	0xbe22401e	-0.15844771
102	0x3efc61aa	0.49293262
103	0xbecad4fe	-0.39615625
104	0x3e782517	0.24232899
105	0xbc321006	-0.010868078
106	0xbcaa6d81	-0.020804169
107	0x3f2dece4	0.6793959
108	0x3ed94f1e	0.42443174
109	0x3ede56fb	0.43425736
110	0xbcc38609	-0.023867624
111	0xbed2a7e9	-0.4114373
112	0xbef3ee01	-0.4764252
113	0xbe30186d	-0.17196818
114	0x3eb1d98e	0.34736294
115	0xbe0b745a	-0.13618603
116	0xbd8192e1	-0.06326843
117	0x3e596b7b	0.21232407
118	0x3d6c7e56	0.05773767
119	0x3f396cb1	0.72431475
120	0xbd9e238e	-0.07721625
121	0xbd1582d9	-0.03650174
122	0xbf84eeef	-1.0385417
123	0x3e97493b	0.29548058
124	0x3ee341c1	0.44386104
125	0x3fc8b1c9	1.5679256
126	0x3f83e6f9	1.0304862
127	0xbfb39287	-1.4029092
128	0x3fa3c144	1.2793355
129	0x3e88bc9e	0.26706403
130	0xbec467de	-0.38360494
131	0x3e5bac35	0.2145241
132	0x3e14e7bd	0.14541526
133	0xbe697f33	-0.22802429
134	0xbe376e4d	-0.1791317
135	0x3dabe750	0.08393729
136	0x3f783447	0.9695477
137	0xbea42020	-0.3205576
138	0x3f0d8f1e	0.55296504
139	0xbfb1116e	-1.3833444
140	0x3f7ed258	0.9953971
141	0xbccc31b7	-0.02492605
142	0x3ee32bc9	0.44369343
143	0x3b8f9ce1	0.004382715
144	0x3d3ca3c6	0.046054624
145	0x3e8e5458	0.27798724
146	0xbe3b7d43	-0.18309502
147	0x3d55a24d	0.052156735
148	0xbe61f5d6	-0.22066435
149	0x3ee1d6ff	0.44109342
150	0x3ea4b909	0.3217242
151	0x3d447156	0.047959648
152	0x3cf23d51	0.029570254
153	0x3e55aeaa	0.2086741
154	0xbf17e726	-0.5933708
155	0xbe7636af	-0.24044298
156	0x3f528c37	0.822452
157	0xbe8e1fbd	-0.2775859
158	0xbeea0aa0	-0.4571123
159	0xbf88a5ea	-1.0675633
160	0xbd036c43	-0.03208567
161	0xbf0155eb	-0.50521725
162	0xbef63268	-0.48085332
163	0xbdf71fc7	-0.12066608
164	0xbe7b7d52	-0.24559525
165	0xbde67593	-0.11252894
166	0x3d8baf2b	0.0682052
167	0x3dbdddf9	0.092708535
168	0xbe3fd79f	-0.18734597
169	0x3d756588	0.05991128
170	0x3f222869	0.6334291
171	0xbee3cc8c	-0.44491994
172	0x3f1bd076	0.6086496
173	0xbf597219	-0.84939724
174	0x3deaa440	0.114571095
175	0x3ec71cb0	0.38889074
176	0x3cc91dd7	0.024550362
177	0x3e0a8aa1	0.13529445
178	0xbecf9279	-0.40541437
179	0x3f1445de	0.5791911
180	0xb96093f8	-0.00021417427
181	0x3e8a7380	0.27041245
182	0x3dffa841	0.12483264
183	0xbd2a04cd	-0.041508485
184	0xbda2f581	-0.079569824
185	0xbe0a87a6	-0.13528308
186	0x3e0c2351	0.13685347
187	0x3f23ccfe	0.6398467
188	0xbe1501c7	-0.14551459
189	0x3f2481d2	0.6426059
190	0x3e9ffaf9	0.31246164
191	0x3f3f1d56	0.7465414
192	0xbe2ab4cd	-0.16670533
193	0xbda3d688	-0.07999903
194	0xbe427d46	-0.189931
195	0xbf74489e	-0.95423305
196	0xbd2519c6	-0.040307783
197	0xbf34c9ae	-0.7062024
198	0x3e0feea8	0.14055884
199	0xbde31965	-0.11088828
200	0x3ee8f229	0.45497254
201	0xbd242e8c	-0.040083453
202	0x3f0ef264	0.5583861
203	0xbdadb428	-0.08481628
204	0x3f11e03a	0.5698277
205	0xbf871814	-1.0554223
206	0x3d33c558	0.043889374
207	0x3d70bf94	0.058776453
208	0x3d38b948	0.045098573
209	0x3e02bc56	0.12767157
210	0xbe055fc4	-0.13024813
211	0xbd776ba3	-0.060405385
212	0xbf20c7d1	-0.62804896
213	0xbe83d5fd	-0.25749198
214	0x3e99d45c	0.3004483
215	0x3e0e0591	0.13869311
216	0xbe30d5f0	-0.1726911
217	0x3ede2882	0.4339028
218	0x3d7f011d	0.06225692
219	0x3d406548	0.04697159
220	0xbe651ba0	-0.2237382
221	0x3edad99f	0.42744157
222	0xbf1ea58e	-0.61971366
223	0x3df94139	0.12170643
224	0xbf0163af	-0.5054273
225	0x3e48ae6d	0.19597788
226	0x3e687a23	0.22702841
227	0xbbcc235a	-0.0062298
228	0x3ececf06	0.4039232
229	0xbf161af6	-0.5863489
230	0xbe510cf1	-0.20415093
231	0xbe6ee086	-0.23327836
232	0x3e66aef4	0.22527677
233	0xbbb5594c	-0.0055343267
234	0x3e1504c2	0.14552596
235	0xbb8e9e0c	-0.0043523367
236	0xbe27b4c3	-0.16377549
237	0x3db167bd	0.08662365
238	0x3f453b37	0.7704348
239	0xbf7a5c5c	-0.9779718
240	0x3f3af04a	0.730229
241	0xbf042979	-0.5162578
242	0x3f33b498	0.7019744
243	0x3f0c91c5	0.54909927
244	0x3f0cd310	0.55009556
245	0xbe36d111	-0.1785319
246	0x3d842794	0.064528614
247	0x3f03e8f3	0.5152733
248	0xbf55c670	-0.83505917
249	0xbe614d57	-0.22002159
250	0x3e8d193f	0.27558324
251	0xbe75b9a0	-0.23996592
252	0xbe09f9d6	-0.13474211
253	0xbd1cbbe9	-0.038265143
254	0x3d0851c5	0.033281107
255	0x3f329672	0.6976081

mlp.0.bias f4 [64]
0	0xbdd4b96a	-0.103869274
1	0xbc0e7599	-0.00869503
2	0xbf139c7e	-0.57660663
3	0xbf1108c3	-0.56653994
4	0xbf7d6e8b	-0.989968
5	0xbeffb3c9	-0.49941853
6	0xbf216a98	-0.63053274
7	0xbf0e6853	-0.55627936
8	0xbf4bb88a	-0.7957846
9	0xbf173007	-0.5905766
10	0xbf1ae38e	-0.6050347
11	0xbe54704a	-0.2074596
12	0xbe9fbe6a	-0.31199962
13	0xbf1b794c	-0.6073196
14	0xbe417c54	-0.18895084
15	0xbf64d88a	-0.8939291
16	0xbf1ee76b	-0.62071866
17	0xbd981bee	-0.07427202
18	0xbed41961	-0.41425613
19	0xbea92edd	-0.33043566
20	0xbd4b0412	-0.04956443
21	0xbf2bb44e	-0.67072
22	0xbf55cb63	-0.8351347
23	0xbf42e85f	-0.7613582
24	0xbee45828	-0.44598508
25	0xbf4a0745	-0.7891734
26	0xbc84c5e2	-0.01620764
27	0xbef578a2	-0.47943598
28	0xbea2d153	-0.31800327
29	0xbf8620e2	-1.0478785
30	0xbed6a5aa	-0.41923267
31	0xbeee475f	-0.46538827
32	0xbe971714	-0.29509795
33	0xbf24cdf1	-0.6437674
34	0xbe7b4524	-0.24538094
35	0xbf60a793	-0.877557
36	0x3d5a9176	0.05336138
37	0xbf4963c5	-0.7866786
38	0xbe2ae356	-0.16688284
39	0x3ccf4e58	0.025305912
40	0xbf2f474a	-0.68468153
41	0xbedbe7fa	-0.42950422
42	0xbe20e2cb	-0.15711515
43	0xbf3beba6	-0.73406446
44	0xbe991194	-0.29896224
45	0x3c72fd3d	0.0148308845
46	0xbe779987	-0.2417966
47	0xbec41450	-0.38296747
48	0xbf5698cf	-0.8382692
49	0xbf164064	-0.58692
50	0xbf542a3f	-0.8287696
51	0xbf36504a	-0.7121626
52	0xbdbeb5c6	-0.09312014
53	0xbdb8ed97	-0.09029692
54	0xbcdcc669	-0.026950078
55	0xbf7ff3e1	-0.99981505
56	0xbebcbf1a	-0.3686455
57	0xbedcf8ed	-0.43158665
58	0xbf1e113d	-0.61745054
59	0xbd573fac	-0.052550957
60	0xbed7c725	-0.42144123
61	0xbf4b684a	-0.7945601
62	0x3e384898	0.17996442
63	0xbf084ee8	-0.532454

mlp.2.weight f4 [64, 64]
0	0xbf099e1c	-0.5375688
1	0xbce11ee1	-0.027480545
2	0xbeb37248	-0.35048127
3	0x3cc53f9e	0.024078187
4	0x3e18e32a	0.14930406
5	0x3e2725a7	0.16322957
6	0xbd8dd544	-0.06925443
7	0xbf3fb3b6	-0.7488359
8	0xbec43058	-0.38318133
9	0xbe8bf4fd	-0.2733535
10	0xbc3dfe45	-0.011596267
11	0x3d31621f	0.043306466
12	0xbd59b7b7	-0.05315372
13	0x3e3df056	0.18548712
14	0xbe53eeb9	-0.20696534
15	0x3e1c764c	0.15279502
16	0xbebab4d5	-0.3646609
17	0xbedf8498	-0.43655849
18	0xbe58d22c	-0.21173924
19	0xbe9f3c32	-0.31100613
20	0xbf2b5ec5	-0.6694148
21	0xbe77a1ac	-0.24182767
22	0xbebabf3e	-0.3647403
23	0xbeb0b043	-0.34509477
24	0xbf4e634b	-0.8062026
25	0xbe19f94c	-0.15036505
26	0xbaee2df9	-0.001817166
27	0xbf7792c2	-0.9670831
28	0xbe31e958	-0.1737417
29	0xbd9afa93	-0.075673245
30	0xbeb29e5c	-0.34886444
31	0xbe7ef613	-0.24898557
32	0x3de036e2	0.10947968
33	0x3e535adc	0.20640129
34	0xbdb828fe	-0.08992194
35	0xbde6a4c4	-0.11261895
36	0xbf477822	-0.77917683
37	0xbd6bab4b	-0.057536405
38	0xbeba91d6	-0.3643939
39	0xbeb92991	-0.36164525
40	0xbe3c6a83	-0.18400006
41	0xbe25f304	-0.16205984
42	0xbd90c04e	-0.07067929
43	0xbb364483	-0.0027811832
44	0xbf26ab54	-0.65105176
45	0xbd2b09c9	-0.04175738
46	0xbe6133cb	-0.21992414
47	0x3e82f74e	0.25579304
48	0xbd975218	-0.07388705
49	0xbe513c28	-0.20433104
50	0xbf061c8e	-0.5238732
51	0xbebbe032	-0.36694485
52	0xbeab1789	-0.33416393
53	0xbe12961e	-0.14315078
54	0xbe82239e	-0.254178
55	0xbed4d252	-0.41566712
56	0xbedf82cf	-0.43654487
57	0x3da056bf	0.078290455
58	0xbe8b4d98	-0.27207637
59	0x3e04b9a0	0.12961435
60	0xbec043ab	-0.37551627
61	0xbd3675dd	-0.044545997
62	0xbf72930c	-0.94755626
63	0xbe2ccf7a	-0.16876021
64	0x3db6baab	0.08922323
65	0xbda58834	-0.08082619
66	0x3d2f547b	0.042805176
67	0xbe3df748	-0.18551362
68	0xbe9ffff0	-0.31249952
69	0xbe2bd693	-0.16781072
70	0xbe86a7d5	-0.2629992
71	0xbf29c612	-0.66317856
72	0xbd584ab5	-0.05280562
73	0xbe1564a4	-0.14589173
74	0xbd983c40	-0.07433367
75	0x3d7bb216	0.061449133
76	0xbeb54508	-0.3540423
77	0xbe47a399	-0.19496001
78	0xbe6d8655	-0.23195775
79	0xbe73c2e1	-0.23804809
80	0x3de4fcb5	0.111810125
81	0xbd151d66	-0.03640499
82	0xbe7ba044	-0.24572855
83	0xbd8cda8b	-0.06877621
84	0x3e835d7e	0.25657266
85	0x3d4462bd	0.047945727
86	0xbe16fb64	-0.14744335
87	0xbe8bd7a6	-0.27312964
88	0x3cf7960d	0.030222917
89	0xbe88d34c	-0.26723707
90	0xbd4b4f83	-0.049636375
91	0xbd637ddf	-0.055539962
92	0x3d826c3f	0.063683026
93	0xbed59f37	-0.41723034
94	0xbedd98fa	-0.43280774
95	0xbe1407e6	-0.14456138
96	0xbe2ca466	-0.16859588
97	0xbea913eb	-0.3302301
98	0xbe945f5b	-0.28979
99	0xbc23b712	-0.009992378
100	0xbe40f87a	-0.18844786
101	0xbb4be5ae	-0.0031112242
102	0xbf10d6c7	-0.56577724
103	0xbe03a1fe	-0.12854764
104	0xbd5fe1ff	-0.054658886
105	0xbe3a219d	-0.18176885
106	0xbe02fce4	-0.12791783
107	0xbedb7155	-0.42859903
108	0xbe02dd23	-0.1277967
109	0xbd971b83	-0.07378294
110	0xbf38ac6d	-0.721381
111	0x3e1ad365	0.15119703
112	0xbe79549b	-0.2434868
113	0xbe17ce8e	-0.14824888
114	0xbea69761	-0.32537368
115	0xbf0ffdfc	-0.56246924
116	0xbeff871c	-0.49907768
117	0xbe7ee140	-0.24890614
118	0xbdae5381	-0.08512021
119	0x3c59352b	0.013257305
120	0xbd047d86	-0.03234627
121	0xbe612a54	-0.21988803
122	0xbde5bf88	-0.11218172
123	0xbe842e28	-0.25816464
124	0xbf612102	-0.8794099
125	0xbc0646a6	-0.008195555
126	0xbe89d4a2	-0.26920038
127	0xbe240b98	-0.16020048
128	0x3dc6941a	0.09696217
129	0xbd8e4e2e	-0.06948505
130	0xbe4acd48	-0.19804871
131	0xbd734f5a	-0.059401847
132	0x3d48f6d9	0.049063537
133	0xbe8459d7	-0.25849792
134	0xbebb4856	-0.36578625
135	0xbe438121	-0.19092228
136	0xbd589e43	-0.052885305
137	0xbe2bf38c	-0.16792125
138	0xbedab020	-0.42712498
139	0x3d9c0c44	0.07619527
140	0xbd4335e5	-0.04765882
141	0xbe1ae129	-0.15124954
142	0xbe24b5ed	-0.16085024
143	0xbd5186b6	-0.05115386
144	0xbdfa0795	-0.122084774
145	0x3cac81c9	0.02105798
146	0xbe9c44c4	-0.30521214
147	0xbe2c9793	-0.16854696
148	0xbeb2bb37	-0.3490846
149	0xbc1fd394	-0.009755034
150	0xbd86709b	-0.065644465
151	0xbe3a6be7	-0.18205224
152	0xbddc16ba	-0.10746522
153	0xbea73fd0	-0.32665873
154	0xbea49843	-0.32147416
155	0xbe7d122d	-0.24713965
156	0xbe684c5e	-0.22685382
157	0xbdb026e9	-0.086011715
158	0xbdf2fa3f	-0.11864137
159	0xbe775fa3	-0.24157576
160	0x3e909ece	0.28246158
161	0xbdabb2f4	-0.08383742
162	0xbeb87152	-0.36023957
163	0xbe6eb9cb	-0.23313062
164	0xbe466357	-0.19373833
165	0xbe1b8e0d	-0.15190907
166	0xbe91a730	-0.28447866
167	0xbdb0d228	-0.08633834
168	0xbc92fe54	-0.017943539
169	0x3cab26d3	0.020892536
170	0x3bbcb225	0.005758541
171	0x3c7d1078	0.015445821
172	0xbe8a8f61	-0.27062514
173	0xbe4940bf	-0.19653605
174	0xbe3af273	-0.1825655
175	0xbe0e0f64	-0.13873059
176	0xbe3a5abb	-0.18198673
177	0x3d3199b4	0.043359473
178	0xbdb2b534	-0.08725968
179	0xbe0aa7a8	-0.13540518
180	0xbe4723d4	-0.19447261
181	0xbd6842e5	-0.05670442
182	0xbe814bb0	-0.25253057
183	0xbe1d2fd9	-0.15350284
184	0xbe3da4b3	-0.18519859
185	0xbda28240	-0.079349995
186	0x3b9c449f	0.0047689225
187	0xbd9e641d	-0.07733939
188	0xbe05f8bb	-0.13083164
189	0xbe727e0b	-0.23680894
190	0xbdb7c1a4	-0.08972481
191	0xbd7c8ee7	-0.06165972
192	0xbc65f448	-0.014035292
193	0xbd0c8e3a	-0.034315325
194	0xbebf93b7	-0.37417385
195	0xbe5d1831	-0.2159126
196	0x3cc9cc61	0.024633588
197	0xbdac6c09	-0.084190436
198	0x3da044ac	0.07825598
199	0xbca695f1	-0.02033517
200	0xbe1c47e7	-0.15261804
201	0xbe3f97d4	-0.18710262
202	0xbdcb83ae	-0.09937225
203	0xbdec18bf	-0.115281574
204	0x3c84e9b1	0.016224714
205	0x3d24635d	0.040133823
206	0xbcac058f	-0.020998744
207	0xbe9a9915	-0.30194917
208	0xbe26b059	-0.16278209
209	0xbe8bc9cc	-0.27302396
210	0xbbe6accf	-0.0070396434
211	0xbe5e122b	-0.21686618
212	0xbe1adcb5	-0.15123256
213	0xbe2af010	-0.16693139
214	0xbe73638a	-0.2376844
215	0xbe20bd30	-0.1569717
216	0x3bfdf4cb	0.007750129
217	0xbde12f4b	-0.109953485
218	0xbe66fece	-0.22558138
219	0xbe0f0891	-0.13968112
220	0xbc95c762	-0.01828355
221	0xbe5756eb	-0.2102925
222	0xbe82aaff	-0.25521085
223	0xbe237e09	-0.15966047
224	0xbe874a5f	-0.26423928
225	0x3cb145f6	0.021639805
226	0xbe2acaa8	-0.1667887
227	0x3e1736ea	0.14767042
228	0xbda081ed	-0.078372814
229	0xbd9ae93c	-0.07564017
230	0xbdc2d128	-0.0951255
231	0x3d6b9e5d	0.057524074
232	0xbe084b7e	-0.13310048
233	0x3cb82a08	0.02248098
234	0xbdd6e1d9	-0.10492296
235	0xbdf13475	-0.117775835
236	0x3c28090e	0.010256065
237	0xbdeccdaf	-0.115626685
238	0xbd1902fb	-0.037356358
239	0xbe98a0c4	-0.29810154
240	0xbcd241f9	-0.025666224
241	0xbead187f	-0.33807752
242	0xbdd55773	-0.1041707
243	0xbd9ac888	-0.075577796
244	0xbdb097fb	-0.08622738
245	0xbd8861d8	-0.06659287
246	0xbd8bc759	-0.06825132
247	0xbe6146fd	-0.21999736
248	0xbcfb4837	-0.030674083
249	0xbe083ea8	-0.13305151
250	0xbc8f5ede	-0.01750129
251	0xbdfea1b1	-0.12433184
252	0x3b80b0bf	0.00392732
253	0xbd633d2e	-0.055478267
254	0xbe772f5d	-0.24139161
255	0xbddb65f6	-0.10712807

mlp.2.bias f4 [64]
0	0xbde43aad	-0.11144004
1	0xbe5a6a56	-0.21329626
2	0xbe5fa43b	-0.21839993
3	0xbe525157	-0.20538841
4	0xbe067ae4	-0.13132817
5	0xbe893615	-0.26799074
6	0xbe011085	-0.12603958
7	0x3f267c5c	0.6503351
8	0xbd9cdb25	-0.07658986
9	0xbd3c4692	-0.04596574
10	0xbe2d0cb0	-0.16899371
11	0xbe694e89	-0.22783865
12	0xbe84ecf5	-0.25962034
13	0xbe550711	-0.20803477
14	0xbc733eda	-0.014846528
15	0xbe704254	-0.23462802
16	0xbe838fe6	-0.25695723
17	0xbde35842	-0.11100818
18	0xbd59be4f	-0.053160008
19	0xbe55af1c	-0.2086758
20	0xbe5a778d	-0.21334668
21	0xbd881bd6	-0.06645934
22	0x3f196d2c	0.5993221
23	0xbe90b0b3	-0.2825981
24	0xbdd9c8a8	-0.10633975
25	0xbd888c33	-0.06667366
26	0xbde9f9a3	-0.114245676
27	0xbe882075	-0.26587263
28	0xbeb715e4	-0.3575889
29	0xbe8cdb99	-0.2751129
30	0xbd1f4987	-0.03888848
31	0xbe24b458	-0.1608442
32	0xbe24d270	-0.160959
33	0xbdad4364	-0.08460119
34	0xbe284d25	-0.16435678
35	0xbe956c22	-0.2918406
36	0xbe597008	-0.21234143
37	0xbe86ee08	-0.26353478
38	0x3e59489d	0.21219106
39	0xbc4bd9f6	-0.012442103
40	0xbe3996e3	-0.18123965
41	0xbdf682f4	-0.12036696
42	0xbe4ff0db	-0.20306723
43	0xbdd7373d	-0.10508583
44	0xbe1d92ec	-0.15388077
45	0xbe7a466a	-0.24440923
46	0xbe659139	-0.2241868
47	0xbcddb056	-0.027061623
48	0xbea063cb	-0.31326136
49	0xbf10ed65	-0.56612235
50	0xbe48f9d6	-0.19626555
51	0xbe23ee68	-0.16008914
52	0xbe41e657	-0.18935524
53	0xbda9026c	-0.08252415
54	0xbe5f5868	-0.21811068
55	0xbec5b5fa	-0.386154
56	0xbeca358d	-0.3949398
57	0xbdca6752	-0.09882988
58	0xbe6ca2d2	-0.23108986
59	0xbda48f9e	-0.08035205
60	0xbd831865	-0.06401137
61	0x3f009028	0.50219965
62	0xbe3d4a16	-0.18485293
63	0xbf1232f7	-0.57109016

mlp.4.weight f4 [6, 64]
0	0xbee3ff76	-0.4453084
1	0xbe5bddf0	-0.21471381
2	0xbdba03fb	-0.090827905
3	0xbd86b25e	-0.065769896
4	0xbc09bf14	-0.008407373
5	0xbe2c078d	-0.16799755
6	0xbc641908	-0.013921984
7	0xbd2e6d47	-0.042584684
8	0xbc9dabc8	-0.01924695
9	0xbdb1a048	-0.08673149
10	0x3cf0dddc	0.029402666
11	0x3bc3a755	0.0059708753
12	0x382955c9	4.0372634e-05
13	0xbd93ae2f	-0.07210957
14	0xbe5692f6	-0.20954499
15	0x3d2728f7	0.04081055
16	0xbd912fa7	-0.07089167
17	0x3e87fe68	0.26561284
18	0xbdd49461	-0.103798635
19	0xbdc8a985	-0.09797958
20	0xbdc968c7	-0.09834438
21	0x3c8ad5e4	0.016947694
22	0x3df7c778	0.120985925
23	0xbcbc45e0	-0.022982538
24	0x3dae8372	0.08521165
25	0xbb374b8b	-0.002796861
26	0xbd5669c4	-0.05234696
27	0x3d337f68	0.043822676
28	0x3d75c99a	0.060006715
29	0x3d59a9cc	0.053140447
30	0xbd57625b	-0.052584033
31	0x3d07c760	0.033149123
32	0x3d5243f7	0.051334348
33	0xbdf67e8e	-0.12035857
34	0xbd947c4a	-0.07250269
35	0xbddf13f9	-0.10892481
36	0x3e5437c0	0.20724392
37	0x3d865db5	0.06560842
38	0xbd5e0300	-0.05420208
39	0xbdd5ad18	-0.10433406
40	0x3dd5c2d1	0.10437549
41	0xbdb1c0ee	-0.086793765
42	0xbd240bb8	-0.04005024
43	0x3c9682fa	0.018373001
44	0xbcc2ad9f	-0.02376443
45	0x3e140787	0.14455996
46	0x3d5c6b32	0.053813167
47	0xbc2a56ff	-0.010396718
48	0x3dd6e027	0.104919724
49	0xbe4d797c	-0.20065874
50	0x3dcd063a	0.10010953
51	0x3dc2c3c3	0.09509995
52	0x3c271d4d	0.010199857
53	0xbd84622e	-0.06464039
54	0xbbe395ae	-0.0069453334
55	0xbe185b09	-0.14878477
56	0xbe7a9548	-0.24471009
57	0xbd1b4b83	-0.03791381
58	0xbc9bcf2a	-0.019019682
59	0x3d187efd	0.03723048
60	0xbd3f92e0	-0.04677093
61	0x3d137d91	0.03600842
62	0xbdf74d23	-0.120752595
63	0x3e819837	0.25311443
64	0x3e849776	0.25896806
65	0x3e412208	0.18860638
66	0xbd0190bd	-0.031632174
67	0xbcbe12b6	-0.023202281
68	0x3d40d022	0.04707349
69	0x3c3ed4ed	0.011647445
70	0x3d7fa283	0.062410843
71	0x3e9dd93d	0.30829802
72	0x3c829781	0.015941383
73	0xbd102a18	-0.035196394
74	0xbc76f1d5	-0.015072306
75	0x3db2ee6f	0.08736884
76	0xbc0705cf	-0.008241131
77	0xbdd23fe4	-0.102660924
78	0x3e7647c7	0.24050818
79	0x3ce932b8	0.028466567
80	0x3e1178bb	0.14206211
81	0x39ea58b7	0.00044698056
82	0x3d874e33	0.06606712
83	0xbe2d099d	-0.16898198
84	0xbc097804	-0.00839043
85	0x3e1e2128	0.15442336
86	0xbeb2aa1d	-0.3489541
87	0xbd643277	-0.05571219
88	0x3999201a	0.00029206352
89	0x3cfab5b0	0.030604213
90	0xbdbf438c	-0.093390554
91	0x3e171103	0.14752583
92	0x3d440001	0.047851566
93	0x3d610e6d	0.054945398
94	0x3c4e1e88	0.012580521
95	0xbd28b8bd	-0.041191805
96	0x3a2b88d7	0.0006543523
97	0x3e1523ea	0.14564481
98	0xbdc69a04	-0.09697345
99	0xbcd1bf00	-0.025603771
100	0x3d09da5b	0.033655506
101	0xbd2c485f	-0.042061206
102	0xbea4f339	-0.32216814
103	0xbe4df59a	-0.20113221
104	0x3d987eda	0.0744607
105	0x3bfddebb	0.007747499
106	0x3d4f66c8	0.05063513
107	0xbd0b920b	-0.034074824
108	0x3d5969d0	0.053079426
109	0x3dca54be	0.098794445
110	0x3ca9b4eb	0.020716151
111	0x3d409567	0.04701748
112	0xbbfdb4d7	-0.007742505
113	0x3d8b57d9	0.06803865
114	0x3df6018f	0.12012016
115	0x3c480f2a	0.012210647
116	0xbcd91436	-0.026498895
117	0x3dbc04b8	0.091805875
118	0xbd037917	-0.032097902
119	0x3df9759b	0.121806346
120	0x3ca6c3a3	0.020356959
121	0x3d5e427f	0.054262634
122	0xbb33aed3	-0.0027417436
123	0x3b88592c	0.0041610207
124	0x3d62e488	0.055393726
125	0x3e380808	0.17971814
126	0x3b6f1d63	0.0036486022
127	0xbd91eb8d	-0.07125006
128	0xbde77e1a	-0.11303349
129	0x3dc84ba0	0.09780049
130	0xbdc94322	-0.09827258
131	0x3c72d251	0.014820651
132	0xbd1ca13e	-0.03823971
133	0x3e2ecce1	0.17070343
134	0x3db960bc	0.09051654
135	0xbeb6b41c	-0.35684288
136	0x3d424899	0.047432516
137	0x3d64fd30	0.05590552
138	0xbd47be76	-0.048765622
139	0x3d035c32	0.032070346
140	0xbca07ce5	-0.019590804
141	0xbdad7823	-0.0847018
142	0x3d16afbe	0.036788695
143	0x3d0372db	0.032091957
144	0xbd0f4266	-0.03497543
145	0xbdb700c8	-0.08935696
146	0xbc88db71	-0.0167062
147	0x3dd82445	0.10553793
148	0x3bd4160b	0.0064723543
149	0x3d68f4ec	0.0568742
150	0x3ea4e0b5	0.32202688
151	0xbd6e49a8	-0.058175713
152	0x3d56dab9	0.052454684
153	0x3d163a89	0.036676917
154	0x3ded0235	0.115726866
155	0x3dced74a	0.10099657
156	0xbd819118	-0.063265026
157	0xbc1036f4	-0.008802164
158	0x3d2c2e1c	0.04203616
159	0x3c7a57bc	0.015279707
160	0x3c23ef18	0.010005735
161	0xbb2673c1	-0.0025398585
162	0x3c9a8bb9	0.018865453
163	0x3ab62b21	0.0013898351
164	0x3bd25228	0.006418485
165	0xbce1524f	-0.027505068
166	0xbda2a833	-0.07942238
167	0x3e399339	0.18122567
168	0xbe1026d4	-0.14077312
169	0xbdd3d7ae	-0.10343872
170	0x3c419c94	0.011817116
171	0x3d92db1f	0.071707
172	0x3da61117	0.081087284
173	0x3d067805	0.032829303
174	0x3d5dd305	0.054156322
175	0xbdb3e87c	-0.08784577
176	0xbc83e869	-0.016102033
177	0xbe12014d	-0.14258309
178	0xb9a4ffed	-0.00031471197
179	0xbcef47be	-0.029209014
180	0x3db55c8a	0.08855541
181	0xbccfd277	-0.025368912
182	0x3db88cb7	0.09011214
183	0xbde16d56	-0.11007182
184	0xbdc4c850	-0.09608519
185	0xbcd1d1f6	-0.025612812
186	0xbde5dfb3	-0.11224308
187	0x3cf1ce51	0.029517325
188	0x3bec7cbc	0.007217018
189	0xbe2701dc	-0.16309303
190	0xbd300e0a	-0.04298214
191	0xbc2c5660	-0.01051864
192	0xbd97f421	-0.07419611
193	0x3e91b9ac	0.2846197
194	0x3eac00c6	0.3359434
195	0xbd310024	-0.043213025
196	0x3d7d9459	0.061909053
197	0xbc062a3f	-0.008188783
198	0xbd023c35	-0.0317957
199	0xbe7db106	-0.2477456
200	0xbdb4f631	-0.0883602
201	0xbdc500c2	-0.09619285
202	0x3cbc303a	0.022972215
203	0x3dcdf4e6	0.10056476
204	0xbd846390	-0.064643025
205	0xbdbe6b3a	-0.092977956
206	0xbe6c95f5	-0.23104079
207	0xbcbe9bf7	-0.02326773
208	0xbd32c465	-0.043644328
209	0x3d6fb23f	0.058519598
210	0xbbde77a4	-0.0067891646
211	0x3d04aec5	0.032393236
212	0x3d351224	0.044206753
213	0xbdbe2a9a	-0.09285469
214	0x3ea1872e	0.31548446
215	0xbd0b0a6b	-0.033945482
216	0x3e244e69	0.16045536
217	0xbdc61611	-0.096721776
218	0xbd9d89f8	-0.07692331
219	0xbeb241b2	-0.34815747
220	0xbc404c96	-0.0117370095
221	0x3db08310	0.08618748
222	0x3c4b85b3	0.012422013
223	0xbdb6fc61	-0.08934856
224	0x3e07c6d9	0.13259448
225	0xbe15fd4b	-0.14647405
226	0x3d203b9d	0.03911935
227	0xbda93d92	-0.08263697
228	0xbdca3a6a	-0.09874423
229	0xbd0121bc	-0.031526312
230	0xbe2903f2	-0.16505411
231	0x3df58d18	0.11989802
232	0x3de55234	0.111973196
233	0x3d861f25	0.06548909
234	0xbcfb552a	-0.030680258
235	0x3d550727	0.052008774
236	0xbd0dc9d2	-0.0346163
237	0xbcc155d0	-0.023600489
238	0xbd1915af	-0.037374195
239	0x3ca22322	0.019792143
240	0x3d566fee	0.05235284
241	0xbd135f20	-0.03597939
242	0x3d38c0f7	0.0451059
243	0x3d265af4	0.040614083
244	0xbd1cfc29	-0.038326416
245	0x3d38b029	0.045089874
246	0x3a8f2b4c	0.0010922938
247	0xbdb6f332	-0.089331046
248	0xbe80de01	-0.25169376
249	0xbcd4121c	-0.025887541
250	0xbe0b1040	-0.13580418
251	0xbdd7efe4	-0.105438024
252	0xbd6ab656	-0.057302795
253	0xbcae641e	-0.021287974
254	0x3d588b8b	0.052867454
255	0x3e8b4dbf	0.27207753

mlp.4.bias f4 [6]
0	0xbe50da9a	-0.2039589
1	0x3f85e44c	1.0460296
2	0xbf24d604	-0.6438906
3	0xbf74f1da	-0.95681536
4	0xbf547cce	-0.83002937
5	0xbec5c298	-0.38625026

exp_avg f4 [6]
0	0xc17569db	-15.338344
1	0xc142d188	-12.176155
2	0x4185eab8	16.739609
3	0x415b0dd2	13.690874
4	0xc0c60140	-6.1876526
5	0x414e4630	12.892136

exp_avg_sq f4 [6]
0	0x44ad3aa5	1385.8326
1	0x449f1627	1272.6923
2	0x44a66b78	1331.3584
3	0x44b16646	1419.196
4	0x44aaa142	1365.0393
5	0x44afec71	1407.3888

exp_avg f4 [64, 17]
0	0x3d72aa43	0.059244405
1	0xbf0344ab	-0.51276654
2	0x3da21aa5	0.07915238
3	0xbf438ba9	-0.7638498
4	0x3edde724	0.4334041
5	0x3f1c7fe3	0.6113264
6	0x3f2432c6	0.64139974
7	0x3e8f6c92	0.2801252
8	0xc0a9d0d5	-5.306742
9	0x3f8bfcb3	1.0936493
10	0xbfda0968	-1.703412
11	0x40aabd0e	5.335578
12	0xc090f4ab	-4.5298667
13	0x40a62d92	5.193063
14	0x411cf746	9.8103695
15	0x40c1c843	6.055696
16	0x3f9fecf7	1.2494191
17	0xbd221fc8	-0.03958109
18	0xbea12091	-0.3147016
19	0x3e37af7b	0.17938034
20	0xbf258668	-0.6465821
21	0x3ec12165	0.3772079
22	0x3e2021db	0.15637915
23	0x3e986c3b	0.29770073
24	0x3ecf962d	0.40544263
25	0xc014db2e	-2.3258777
26	0xbea80805	-0.32818618
27	0xbfe82669	-1.8136722
28	0x410e3ac9	8.889352
29	0x3fad944e	1.3560884
30	0x3ed74028	0.42041135
31	0x413dcffe	11.863279
32	0x3e900b04	0.28133404
33	0xc036e270	-2.8575706
34	0xbab3aae9	-0.0013707551
35	0xbd8b7b09	-0.068105765
36	0x3c3ea372	0.011635648
37	0xbd3e375e	-0.04643952
38	0x3d123ffc	0.03570555
39	0x3dcdbdd6	0.10045974
40	0x3dbef0df	0.09323286
41	0x3d6a27be	0.057166807
42	0xbe8fd6f9	-0.280937
43	0xbc94592d	-0.018108929
44	0xbade173b	-0.0016944179
45	0xbe862300	-0.26198578
46	0x3ee9e6ba	0.45683843
47	0xbf0199ac	-0.5062511
48	0xbec694b8	-0.38785338
49	0x3f0af611	0.5428172
50	0xbd996473	-0.07489862
51	0xbe9a029c	-0.30080116
52	0xbeb4974a	-0.35271674
53	0xbe645af3	-0.2230032
54	0x3ead12cd	0.33803406
55	0xbe526805	-0.20547493
56	0xbee59f91	-0.44848302
57	0x3d675e38	0.05648634
58	0x3dcac3c8	0.099006236
59	0x3f28febb	0.6601369
60	0xbef46c91	-0.4773908
61	0x3f28789b	0.6580903
62	0x40b493bb	5.6430335
63	0xbdb9e3a9	-0.09076626
64	0x3fa960d7	1.3232678
65	0xc058fa9d	-3.3902962
66	0xbf142121	-0.5786305
67	0xbc7c51be	-0.015400348
68	0x3c71ddce	0.014762355
69	0xbcd0cbd5	-0.02548782
70	0x3bdc356d	0.006720236
71	0xbca1756d	-0.019709313
72	0x3bbc7e1f	0.0057523395
73	0x3d02d163	0.031937968
74	0x3d09a375	0.03360315
75	0x3cec9dca	0.028883833
76	0xbe2914b5	-0.16511805
77	0x3d732814	0.059364393
78	0x3dbc4743	0.091932796
79	0x3dfc7509	0.1232701
80	0x3e640369	0.22266926
81	0xbd06a1a6	-0.032869004
82	0x3e25cfd7	0.16192566
83	0xbea4b9ff	-0.32173154
84	0xbedfb88c	-0.43695486
85	0xbe1bf7ee	-0.15231296
86	0x3dc07da5	0.09398965
87	0xbdc39594	-0.09550014
88	0x3e8a001d	0.2695321
89	0xbe50df39	-0.20397653
90	0xbe98e0d9	-0.29859045
91	0xbe96cdc1	-0.29453853
92	0xbda22ba4	-0.0791848
93	0x3de5bbea	0.112174824
94	0x3e3e4296	0.18580088
95	0x3ebb67c8	0.36602616
96	0x3fd566eb	1.6672033
97	0xc026caf8	-2.6061382
98	0x3f06b719	0.52623135
99	0xbf67e2cc	-0.9058044
100	0x3fa6d00e	1.3032243
101	0x402328c0	2.5493622
102	0xbde73bae	-0.1129068
103	0xbdde96d7	-0.10868614
104	0xbdcc6f21	-0.09982134
105	0x3e5191f7	0.20465837
106	0xbdefeec2	-0.11715461
107	0xbea2d9bb	-0.3180674
108	0xbdcc60fe	-0.09979437
109	0x3d221f9e	0.039580934
110	0x3f9f3024	1.2436566
111	0xbe10d364	-0.14143139
112	0x3f3f3d4e	0.7470292
113	0x40415b8a	3.021212
114	0x40487ff6	3.13281
115	0xbf49950a	-0.7874304
116	0xbf2bf304	-0.6716769
117	0xbfc0da56	-1.5066631
118	0x3f7143c8	0.9424405
119	0x3af8af2b	0.0018973103
120	0xba127e8e	-0.0005588316
121	0xbb71b15b	-0.0036879394
122	0x3c498602	0.012300016
123	0xbc3a4317	-0.0113685345
124	0xbcb37d9f	-0.021910487
125	0xbbda400f	-0.0066604684
126	0xbaa5a1e5	-0.0012636749
127	0xbc3e2b29	-0.01160697
128	0xbd28a89f	-0.041176435
129	0x3cf2ae80	0.029624224
130	0x3d05a5af	0.03262871
131	0xb9a6647d	-0.00031736857
132	0x3dab82df	0.08374571
133	0xbe49c920	-0.1970563
134	0xbe4a8507	-0.19777308
135	0xbe15ff1c	-0.14648098
136	0xbd7a6d37	-0.06113931
137	0xbdafbc48	-0.08580834
138	0xbd3614e3	-0.044453513
139	0x3dce90bf	0.10086202
140	0xbd97d5b5	-0.07413808
141	0xbd5d9260	-0.054094672
142	0x3da612f9	0.081090875
143	0x3d0813fb	0.03322218
144	0xbfb06cdc	-1.3783221
145	0x3db4ba18	0.08824557
146	0xbf463bf1	-0.77435213
147	0xbfdf204c	-1.7431731
148	0x3f81cef9	1.0141288
149	0xbf469753	-0.7757465
150	0xbd32c5ab	-0.043645542
151	0xbe6f9dc2	-0.23400024
152	0xbd0a6870	-0.033791006
153	0x3b13e9ff	0.0022569892
154	0xbc183530	-0.009290025
155	0x3c016ff8	0.007900231
156	0xbc17ffc3	-0.009277287
157	0x3c533cee	0.012892945
158	0x3c294d8d	0.010333431
159	0x3cc25f77	0.023727162
160	0x3c0ca76c	0.008584838
161	0x3d21065a	0.039312698
162	0x3c6c83d3	0.014435726
163	0x3e35b18f	0.17743514
164	0xbe33c7bf	-0.17556666
165	0xbe21fae4	-0.15818363
166	0xbd6c59b1	-0.057702724
167	0xbec3cf79	-0.38244227
168	0xbe90f558	-0.28312182
169	0xbefd6d92	-0.49497658
170	0x3b013ae3	0.0019718937
171	0x39d4d68e	0.00040595647
172	0x3aea016f	0.001785321
173	0xbbdda4a8	-0.0067640133
174	0x3b9a81b7	0.0047151702
175	0x3c06f5be	0.0082373
176	0x3b386cb7	0.002814097
177	0x3aa17b9a	0.0012320161
178	0xbc8df6cb	-0.017329594
179	0x3be1c358	0.006889742
180	0xbc2980f4	-0.010345686
181	0xbd4c08a5	-0.04981293
182	0xbcf3a738	-0.029742822
183	0x3affb1e5	0.0019507973
184	0x3d729f20	0.059233785
185	0x3d838346	0.06421523
186	0xbc3ad4d5	-0.011403282
187	0xbd884cba	-0.066552594
188	0x3d5c511e	0.053788297
189	0xbccae41d	-0.024766976
190	0x3dc4de94	0.09612766
191	0xbdb1fad1	-0.086904176
192	0xbe2c104c	-0.16803092
193	0xbe30569a	-0.17220536
194	0xbd865667	-0.06559449
195	0x3bf33280	0.0074217916
196	0xbe8f0600	-0.27934265
197	0xbdb01c7a	-0.085991815
198	0x3f72c543	0.9483225
199	0xbf010059	-0.50391155
200	0x3f35f4fa	0.7107693
201	0xbeacfe75	-0.33787885
202	0x3eda0f1b	0.4258965
203	0x3f9127f7	1.1340321
204	0xbd74f178	-0.059800595
205	0x3cdd67bb	0.027027002
206	0xbd47a3fa	-0.048740365
207	0x3e0587d6	0.13040099
208	0xbd883725	-0.06651143
209	0xbe494110	-0.19653726
210	0xbd39e99f	-0.045388814
211	0xbc706958	-0.014673553
212	0x3f2258e9	0.63416916
213	0xbe97b5f8	-0.2963102
214	0x3902d143	0.00012475722
215	0x3ee5652d	0.44803753
216	0xbf56c6b3	-0.8389694
217	0x3f65b247	0.89725155
218	0xbf99c653	-1.2013649
219	0xbede9624	-0.43473923
220	0x3f2b99b6	0.6703142
221	0xba1a1c67	-0.0005878866
222	0x3875409b	5.847272e-05
223	0xba140008	-0.00056457566
224	0x3b18cb5a	0.0023314566
225	0xbab9d93f	-0.0014179124
226	0xbb4d9613	-0.0031369969
227	0xbac3124a	-0.001488277
228	0xba3bbfc8	-0.00071620615
229	0x3a2aae91	0.0006510998
230	0xbbe13216	-0.006872426
231	0x3b1ee8f5	0.002424774
232	0x3b8e7066	0.004346895
233	0x3b075e73	0.0020655661
234	0x3c1937d1	0.009351687
235	0xbce1a6a7	-0.027545286
236	0xbcc727c1	-0.024310948
237	0xbbcd0c28	-0.0062575527
238	0x3dd48aad	0.10378013
239	0xbe822fd1	-0.25427106
240	0x3e080771	0.13284089
241	0xbf0d478a	-0.55187285
242	0x3ebae8dd	0.36505786
243	0x3ed221b5	0.4104134
244	0x3ecdc495	0.40189043
245	0x3ea6979c	0.32537544
246	0xc0069977	-2.1031168
247	0x3dfc3fa6	0.123168275
248	0xbf69a136	-0.91261613
249	0x40909d8d	4.5192323
250	0xbf4fca88	-0.81168413
251	0x3fc30011	1.5234395
252	0x410bc8dc	8.736538
253	0x3f21c4f0	0.6319113
254	0xbfe1f8b0	-1.7654018
255	0xbdc6924d	-0.096958734

exp_avg_sq f4 [64, 17]
0	0x40e87707	7.2645297
1	0x4339e305	185.8868
2	0x40b4b825	5.6474786
3	0x41f89891	31.074495
4	0x40faa893	7.833078
5	0x41947d15	18.561075
6	0x40eac34b	7.3363395
7	0x40ace9a0	5.4035187
8	0x43a2b345	325.40054
9	0x429efb52	79.49086
10	0x42ef0ab2	119.52089
11	0x4597d987	4859.191
12	0x45eada31	7515.274
13	0x45909ada	4627.3564
14	0x45dd39c8	7079.2227
15	0x445ca51e	882.57996
16	0x447a5672	1001.3507
17	0x3f6d2120	0.9262867
18	0x41b5db5b	22.732107
19	0x3f3d4fbe	0.739498
20	0x407c7ce7	3.9451234
21	0x3fb2fff0	1.3984356
22	0x404f57a0	3.2397232
23	0x3f83f86c	1.0310187
24	0x3f60eb14	0.878587
25	0x423673d8	45.61313
26	0x4106acb5	8.417165
27	0x41c3a866	24.457226
28	0x43fd3507	506.41428
29	0x445a2f9f	872.7441
30	0x44148ad0	594.16895
31	0x446f3afa	956.9215
32	0x4366076d	230.029
33	0x4347f48c	199.95526
34	0x3f148d8d	0.5802849
35	0x41055556	8.333334
36	0x3fc5b7f9	1.5446769
37	0x401227dd	2.283683
38	0x3f7d1b5d	0.9886988
39	0x40849166	4.142749
40	0x3fec3d0d	1.8456131
41	0x3f8741b1	1.0566922
42	0x42a6c5ac	83.38608
43	0x41197a4a	9.592356
44	0x41e67b33	28.810156
45	0x4447bc43	798.9416
46	0x447b51d1	1005.2784
47	0x43ed5951	474.69778
48	0x445db142	886.76965
49	0x43b32b95	358.34048
50	0x4366bb03	230.73051
51	0x3fff59c6	1.9949272
52	0x42541d28	53.028473
53	0x3ff25292	1.8931448
54	0x40ab58b4	5.354578
55	0x3fd3859e	1.6525152
56	0x40f92cdc	7.786726
57	0x404cb7a5	3.1987088
58	0x3fc06163	1.502972
59	0x42f3a970	121.83093
60	0x418e2f7f	17.773191
61	0x4235291c	45.290146
62	0x449d693c	1259.2886
63	0x44f27bb6	1939.866
64	0x44662c26	920.6898
65	0x44b0d0c8	1414.5244
66	0x4410c9e5	579.1546
67	0x43f1b387	483.40256
68	0x40788069	3.8828375
69	0x430e89ee	142.53879
70	0x400f2a35	2.236951
71	0x41312b8c	11.073132
72	0x3ffeac6b	1.9896368
73	0x41414844	12.080143
74	0x4090be21	4.523209
75	0x4037ad82	2.869965
76	0x43223479	162.20497
77	0x421199b2	36.400093
78	0x4271bdac	60.435226
79	0x44845167	1058.5438
80	0x44d4cbb7	1702.3661
81	0x4490594d	1154.7906
82	0x44d29a72	1684.8264
83	0x440a3492	552.8214
84	0x43db2557	438.29172
85	0x3f7085fa	0.9395443
86	0x4211073b	36.25706
87	0x3f43f113	0.76539725
88	0x3f93d2f9	1.1548759
89	0x3f1b243a	0.6060215
90	0x3fc1196c	1.5085883
91	0x3f631462	0.88702977
92	0x3f1b1d54	0.60591626
93	0x41c1aa34	24.208107
94	0x40ebbcf9	7.366818
95	0x41aafeba	21.374378
96	0x43cdf37e	411.90228
97	0x44369341	730.30084
98	0x43d97071	434.87845
99	0x442bbe71	686.97565
100	0x43ae90ec	349.1322
101	0x43479b3c	199.60638
102	0x3fa8a36f	1.3174876
103	0x424914a0	50.27014
104	0x400238c8	2.0347157
105	0x40c74493	6.227121
106	0x3fcd7fd2	1.6054633
107	0x40e38da9	7.1110425
108	0x40382c6c	2.8777113
109	0x402090b2	2.5088315
110	0x429dbbe9	78.86701
111	0x41acc5aa	21.596516
112	0x421bda12	38.96296
113	0x443adbe8	747.43604
114	0x44811499	1032.6437
115	0x44451153	788.2707
116	0x449c06a0	1248.207
117	0x44417445	773.8167
118	0x43fb8a32	503.07965
119	0x40a16036	5.0429945
120	0x438448ff	264.57028
121	0x402a5161	2.661217
122	0x40e765f2	7.2311945
123	0x3fe22d25	1.7670027
124	0x40ee1650	7.4402237
125	0x407394b2	3.8059506
126	0x401ccc3a	2.449965
127	0x427db3a2	63.425423
128	0x41bc4501	23.533693
129	0x42ba8b64	93.27225
130	0x44ad3078	1385.5146
131	0x44af382e	1401.7556
132	0x443f8355	766.05206
133	0x44b899ca	1476.8059
134	0x445d0716	884.1107
135	0x441d3b1b	628.9235
136	0x3f0c56a2	0.5481969
137	0x410db5c7	8.856879
138	0x3f0319d9	0.51211315
139	0x3f9b9704	1.2155461
140	0x3f13d1b9	0.57741886
141	0x3ff7e086	1.9365394
142	0x3f8e4a7a	1.1116478
143	0x3ed467f5	0.41485563
144	0x429c1ea3	78.05984
145	0x4058c45b	3.3869846
146	0x412b9a65	10.725194
147	0x4383159a	262.16876
148	0x43833dd8	262.48315
149	0x438e9ab8	285.20874
150	0x43f927d7	498.31125
151	0x430f17cd	143.09297
152	0x42dd7b2d	110.74058
153	0x3fe5ebf5	1.7962633
154	0x428b340d	69.60166
155	0x3f7c5f5a	0.98582995
156	0x4002c690	2.0433693
157	0x3f21b138	0.6316104
158	0x4085db5b	4.183027
159	0x400401b9	2.0626051
160	0x3f9314c5	1.1490713
161	0x4214657e	37.099113
162	0x4111af0c	9.105236
163	0x41f7e42e	30.986416
164	0x44277d40	669.95703
165	0x445b746d	877.81915
166	0x43f1c27e	483.51947
167	0x443336b8	716.855
168	0x43a70014	334.0006
169	0x4385ca00	267.57812
170	0x3f0f3424	0.55938935
171	0x41bfb279	23.962145
172	0x3ec558ef	0.38544413
173	0x3f0c305d	0.54761297
174	0x3ea04dca	0.31309348
175	0x3fc043a9	1.5020648
176	0x3f32cfca	0.6984831
177	0x3ef53228	0.4788983
178	0x413d1031	11.816453
179	0x4095392d	4.6632295
180	0x419d9340	19.6969
181	0x437713a6	247.07675
182	0x437daeb1	253.68239
183	0x4346adb9	198.6786
184	0x433cf7e9	188.9684
185	0x435a9e99	218.61952
186	0x42d6516e	107.15904
187	0x3fcc49ce	1.5960023
188	0x428b96e2	69.79469
189	0x3f4fe11e	0.81202877
190	0x3f9a20ff	1.204132
191	0x3f0936ed	0.53599435
192	0x3ff294fa	1.8951714
193	0x3f679a6e	0.90470016
194	0x3f2dea3e	0.6793555
195	0x418b4aff	17.41162
196	0x40a31fc4	5.0976276
197	0x41a47a95	20.559855
198	0x44373043	732.7541
199	0x444321b1	780.5264
200	0x43d61b7d	428.21475
201	0x44074323	541.049
202	0x438c20ef	280.2573
203	0x4331a7d5	177.6556
204	0x3fde5d98	1.7372313
205	0x428523e0	66.57007
206	0x3fa45124	1.2837262
207	0x3fd07854	1.6286721
208	0x3f478205	0.7793277
209	0x40475511	3.114567
210	0x4011b392	2.276585
211	0x3f97c0c3	1.1855701
212	0x4230594b	44.0872
213	0x41593887	13.576301
214	0x424882d2	50.127754
215	0x447390e8	974.26416
216	0x449d1c30	1256.8809
217	0x4426193d	664.39435
218	0x448e6627	1139.1923
219	0x441c46e0	625.1074
220	0x43c7a459	399.28397
221	0x3eae925f	0.34096047
222	0x41599b66	13.600439
223	0x3eb72705	0.35771957
224	0x3f0c509c	0.548105
225	0x3e980167	0.2968857
226	0x3f7803b1	0.9688063
227	0x3ed7e9e7	0.4217064
228	0x3e8a4fdb	0.2701405
229	0x40d7475a	6.72746
230	0x403caf76	2.9482093
231	0x415ed2e9	13.926492
232	0x431de07e	157.87692
233	0x4387e356	271.77606
234	0x4339319f	185.19383
235	0x433f01ff	191.0078
236	0x4309e764	137.90387
237	0x42d84902	108.14259
238	0x3fb4a20a	1.411195
239	0x4130c81c	11.048855
240	0x3fc985d3	1.5743965
241	0x410aae08	8.667488
242	0x40047e2c	2.070201
243	0x414bcf4e	12.7381115
244	0x404512f1	3.079281
245	0x40073bdf	2.1130292
246	0x4327cbc0	167.7959
247	0x41900a84	18.005135
248	0x421fb7e5	39.929585
249	0x442ebef4	698.98364
250	0x44772417	988.5639
251	0x44338143	718.0197
252	0x44a1d877	1294.7645
253	0x440432bb	528.79266
254	0x43b522ce	362.2719
255	0x40c0d700	6.026245

exp_avg f4 [64]
0	0xbeff92b0	-0.499166
1	0xbeea95cb	-0.45817408
2	0xbe2c5ff6	-0.16833481
3	0x3e6d8f32	0.23199156
4	0xbd9de91c	-0.07710478
5	0x3f0df3f0	0.55450344
6	0x3e320ff1	0.17388894
7	0x3cc51b92	0.024060998
8	0xbd23fa7a	-0.040033795
9	0xbd03e11f	-0.032197114
10	0xbc360720	-0.011110097
11	0x3e59d902	0.21274188
12	0x3e41bfbe	0.189208
13	0x3b8d1c7d	0.0043063746
14	0xbf821e11	-1.0165426
15	0xbea338f2	-0.31879383
16	0xbe99ed53	-0.30063877
17	0x40f51d3b	7.659818
18	0x3f386cbb	0.7204091
19	0xbf3da22f	-0.740756
20	0x3f5ea7e5	0.86974937
21	0xbe1167e9	-0.14199795
22	0xbe78df6e	-0.24303982
23	0x3fadbc10	1.3573017
24	0x3feb78f8	1.8396292
25	0xbf97318d	-1.1811997
26	0x3fbefa9d	1.4920231
27	0xbff6725e	-1.9253652
28	0xbdb4d56a	-0.08829768
29	0x3fd87a1d	1.6912266
30	0xb60a0c1f	-2.0570658e-06
31	0x3f8e1e19	1.1102935
32	0xbe8c55f0	-0.27409315
33	0xbdd77740	-0.10520792
34	0x3fd64fae	1.6743066
35	0xbfa01ce4	-1.2508817
36	0x402e9699	2.7279418
37	0x3d2cae3a	0.042158343
38	0x3d60fe88	0.05493024
39	0x3f62e123	0.8862478
40	0xc0691c79	-3.6423628
41	0x3d458bc8	0.04822901
42	0xbfafb31f	-1.3726538
43	0x37e71c3e	2.7550497e-05
44	0x3ea4f781	0.3222008
45	0x407577a0	3.8354263
46	0x3e136344	0.14393336
47	0xbda1ef05	-0.079069175
48	0x3a00cd51	0.0004913407
49	0xbf00244c	-0.50055385
50	0x3d78c429	0.060733948
51	0xbfdb6f2c	-1.7143302
52	0x3f71c077	0.94434303
53	0xbfaa4a41	-1.330391
54	0xbef6e429	-0.48220947
55	0x3578184a	9.2422545e-07
56	0x34a17c09	3.0078834e-07
57	0xb91567bd	-0.00014248393
58	0xbdaaf694	-0.08347812
59	0x4072524f	3.7862737
60	0xbe375e99	-0.1790718
61	0xbc35ded1	-0.011100487
62	0x3f5794fb	0.842117
63	0x36bf67b6	5.704317e-06

exp_avg_sq f4 [64]
0	0x42fdcdfc	126.90231
1	0x41a6aeba	20.835316
2	0x4196a01c	18.828178
3	0x4219cbe5	38.449116
4	0x426455bc	57.083725
5	0x413b6bf5	11.713857
6	0x41f3a631	30.456148
7	0x423853ab	46.081707
8	0x41204faf	10.019454
9	0x419635bd	18.77624
10	0x40eddd28	7.4332466
11	0x41512cfe	13.073484
12	0x41a5b2c7	20.712294
13	0x40a4ff0f	5.156135
14	0x4210949b	36.145123
15	0x42fae33e	125.44383
16	0x41dc198d	27.512476
17	0x4337c30e	183.76193
18	0x41db000b	27.375021
19	0x41af984d	21.949366
20	0x4363b2d6	227.69858
21	0x4103ee3c	8.245663
22	0x4125f25d	10.371671
23	0x42140397	37.003506
24	0x438b8776	279.0583
25	0x41f298fc	30.3247
26	0x43b9a283	371.26962
27	0x43a31a3b	326.20493
28	0x412d627b	10.836543
29	0x40fb6f01	7.8573003
30	0x420570b8	33.360077
31	0x42ff4a96	127.645676
32	0x41f0aac1	30.083376
33	0x410655e6	8.395971
34	0x43427366	194.45078
35	0x435f0366	223.01328
36	0x42e27a77	113.23919
37	0x40af6a46	5.481723
38	0x4215d9ab	37.462566
39	0x43945ae6	296.71014
40	0x439df114	315.88342
41	0x41132ee0	9.198944
42	0x42fc17f5	126.04679
43	0x40235d3e	2.552566
44	0x42441fd4	49.031082
45	0x436404ef	228.01927
46	0x4276914a	61.641884
47	0x434842e3	200.26128
48	0x40e18b43	7.0482497
49	0x4173d2e0	15.238983
50	0x41607242	14.027895
51	0x42412cb6	48.293663
52	0x41e3b460	28.463074
53	0x41a5e42a	20.736408
54	0x41bdaf26	23.710522
55	0x400e764b	2.22597
56	0x4068c08f	3.6367528
57	0x42d1a6ac	104.82553
58	0x414ebfe6	12.92185
59	0x447c1f87	1008.4926
60	0x41a73b1c	20.903862
61	0x410a6a3f	8.650939
62	0x432436f2	164.21463
63	0x40a77ae9	5.2337537

exp_avg f4 [64, 64]
0	0xb220efc0	-9.367739e-09
1	0x254ad66a	1.7593353e-16
2	0x25beb91a	3.3085176e-16
3	0xab9113db	-1.0308381e-12
4	0x342720a0	1.5564956e-07
5	0xb3424be0	-4.5238153e-08
6	0xb132e129	-2.6030398e-09
7	0x2615b6c1	5.1942437e-16
8	0x260859e6	4.7306314e-16
9	0x258f124a	2.481894e-16
10	0xa54eb458	-1.7928755e-16
11	0x366ebcb0	3.5574594e-06
12	0x274a82f7	2.8104128e-15
13	0xa267f155	-3.1434098e-18
14	0xaa0cce37	-1.2506043e-13
15	0x349d3a14	2.9285786e-07
16	0x25bcdbd4	3.2761763e-16
17	0x296f8009	5.3179713e-14
18	0x2654e52b	7.3862856e-16
19	0x356cd372	8.8224544e-07
20	0x3070116e	8.733626e-10
21	0x2dc47829	2.2335982e-11
22	0xaa1b23e6	-1.377922e-13
23	0xaa86ff80	-2.398047e-13
24	0x276b5165	3.2656925e-15
25	0xa8e651ba	-2.5570573e-14
26	0x3601d2cd	1.93452e-06
27	0x2608aae3	4.7416073e-16
28	0x25eb40c9	4.0809902e-16
29	0xa31126f7	-7.868717e-18
30	0xb3dc6a57	-1.02638914e-07
31	0x24ec4016	1.0245725e-16
32	0x338eeae1	6.6551145e-08
33	0xa41bc5e5	-3.377789e-17
34	0xad50a1c9	-1.1859355e-11
35	0x345628a4	1.9945088e-07
36	0xb0eb9f37	-1.7143752e-09
37	0xa4eefee3	-1.0364784e-16
38	0x338cc64b	6.555327e-08
39	0x32616ca7	1.3121428e-08
40	0x345cfd03	2.0581142e-07
41	0x26ce6927	1.4322623e-15
42	0xa3ba54cd	-2.0202075e-17
43	0x23188c90	8.269702e-18
44	0xb1e75741	-6.7329045e-09
45	0x360b4253	2.075122e-06
46	0x3595d4f5	1.1163344e-06
47	0xb2c8303b	-2.3304997e-08
48	0xa2e873d5	-6.300637e-18
49	0x25d2f871	3.6597543e-16
50	0x24a5f885	7.197835e-17
51	0x23928a51	1.5887931e-17
52	0xb1cb9ea2	-5.926112e-09
53	0xa5a01b90	-2.7774253e-16
54	0x257cc0e0	2.1922864e-16
55	0x253d0896	1.6396046e-16
56	0x249b56f3	6.736783e-17
57	0x3380cf8f	5.998219e-08
58	0x24ed2043	1.0283702e-16
59	0x36d3e172	6.3145353e-06
60	0xb116d1e9	-2.1947193e-09
61	0xa23c7fe6	-2.554646e-18
62	0x27cd4136	5.696963e-15
63	0xa4b12635	-7.682624e-17
64	0x25bc46c7	3.2660762e-16
65	0x17f54068	1.5849012e-24
66	0x27e04e12	6.2257133e-15
67	0x28c55f4f	2.1912727e-14
68	0xa607acfd	-4.7071977e-16
69	0x26b05fa7	1.223838e-15
70	0x26d60dad	1.485294e-15
71	0x27e2d418	6.2957553e-15
72	0x133c5479	2.3770584e-27
73	0x2893f7f2	1.6427808e-14
74	0xa570cc64	-2.0885932e-16
75	0x26ed6f37	1.6475323e-15
76	0x269cc221	1.0877293e-15
77	0x22a88fd9	4.5688796e-18
78	0x1023441b	3.2198548e-29
79	0x27a368da	4.535527e-15
80	0x28ce51b6	2.290603e-14
81	0x2630995c	6.1270107e-16
82	0x2732b77b	2.4801927e-15
83	0x2297506e	4.101379e-18
84	0x295b6ff3	4.872487e-14
85	0xa58e8375	-2.4722152e-16
86	0x1250b76a	6.5859303e-28
87	0x27c8a44f	5.5689295e-15
88	0x29a20893	7.1957326e-14
89	0x25f58458	4.2590405e-16
90	0x286f1860	1.3272451e-14
91	0x284c1a9d	1.1330046e-14
92	0xa416ec3e	-3.272617e-17
93	0x27f664bb	6.838793e-15
94	0x25199513	1.3321143e-16
95	0xa5b5acf8	-3.1515703e-16
96	0xa708e69b	-1.8998803e-15
97	0x258dabfd	2.4576145e-16
98	0x280e5f65	7.903269e-15
99	0xa584c22a	-2.302992e-16
100	0x27025891	1.8089136e-15
101	0xa381f3fb	-1.4089538e-17
102	0x24d05698	9.0352316e-17
103	0xa7d815a7	-5.997552e-15
104	0x2755d90f	2.9677356e-15
105	0x2207d38c	1.8407904e-18
106	0x17b138df	1.1452713e-24
107	0x281a42b0	8.563178e-15
108	0x28460965	1.0993245e-14
109	0x288648b8	1.4908525e-14
110	0x284552b2	1.09536285e-14
111	0x286b32cf	1.3056138e-14
112	0x24ec8dd1	1.0258893e-16
113	0x24fcd6ac	1.0965125e-16
114	0x28ce754f	2.2921469e-14
115	0x25b6ce4b	3.1711757e-16
116	0x286565c9	1.2734125e-14
117	0xa386a396	-1.459759e-17
118	0xa42be2cf	-3.727183e-17
119	0x145c450f	1.1120781e-26
120	0xa5f8b830	-4.3145953e-16
121	0xa4e355f0	-9.859114e-17
122	0x27221085	2.2490972e-15
123	0x284bcb6a	1.1312872e-14
124	0x28a97370	1.8812832e-14
125	0xa504754f	-1.148892e-16
126	0x291d8fd3	3.498575e-14
127	0x12abec8f	1.0849933e-27
128	0x1193d647	2.332457e-28
129	0x8bfbc222	-9.697378e-32
130	0x0e45f431	2.4399699e-30
131	0x0e9c9f89	3.8610596e-30
132	0x214f1d95	7.017348e-19
133	0x14fed2dd	2.5730617e-26
134	0x1514fd3c	3.008813e-26
135	0x119b640e	2.4516352e-28
136	0x0a79f8e0	1.2035722e-32
137	0x0f682966	1.1446456e-29
138	0x0ed6f112	5.2987215e-30
139	0x2205ac4b	1.8116072e-18
140	0x923ef25b	-6.0252155e-28
141	0x0ebc3a79	4.6401885e-30
142	0x1391f37f	3.684325e-27
143	0x13eb39a5	5.9379182e-27
144	0x15308370	3.5646603e-26
145	0x1681dc23	2.098e-25
146	0x20b05b72	2.9876073e-19
147	0x9f4042eb	-4.0712935e-20
148	0x129fc6dd	1.0083334e-27
149	0xa0ebdc4e	-3.9956334e-19
150	0x0fc1ab4e	1.9097254e-29
151	0x0e3624d6	2.2450968e-30
152	0x1f8d6319	5.9879766e-20
153	0x141f096e	8.029308e-27
154	0x934dfa8d	-2.5998169e-27
155	0x15434066	3.9430738e-26
156	0x0f4ad695	1.0000696e-29
157	0x8d8d5684	-8.710624e-31
158	0x17374afb	5.922513e-25
159	0x12906f1c	9.115068e-28
160	0x221a8886	2.0943167e-18
161	0x10bec60f	7.5246944e-29
162	0x0f2a972d	8.4107625e-30
163	0x9fce5b94	-8.73959e-20
164	0x92d212c6	-1.3257491e-27
165	0x13e3c33c	5.7495372e-27
166	0x169bb179	2.5153602e-25
167	0x92cef242	-1.3060149e-27
168	0x0fd19585	2.0666584e-29
169	0x0eeb9bdb	5.8082056e-30
170	0x12149876	4.688849e-28
171	0x8c094c0d	-1.0576982e-31
172	0x12a3192d	1.02929525e-27
173	0x136920f8	2.942499e-27
174	0x15ba41bb	7.5228506e-26
175	0x2256fd7b	2.91366e-18
176	0x0e0bf265	1.7249782e-30
177	0x11db46f6	3.459584e-28
178	0x939aa835	-3.904093e-27
179	0x1425259d	8.337789e-27
180	0x0f31424f	8.739544e-30
181	0x148c6f72	1.4180345e-26
182	0x119e5a3b	2.4983613e-28
183	0x0e94815d	3.660939e-30
184	0x13993cd7	3.8682623e-27
185	0x138fe616	3.6325157e-27
186	0x92dd64d3	-1.3971916e-27
187	0x2114b397	5.0382036e-19
188	0x20f9f02f	4.234118e-19
189	0x0e8608b7	3.3041942e-30
190	0x2121b035	5.478213e-19
191	0x147a4eba	1.26373006e-26
192	0x09ce230d	4.9625658e-33
193	0x17ddf73c	1.4344201e-24
194	0x0a3090bd	8.501314e-33
195	0x17d489ef	1.3734998e-24
196	0x208dffba	2.4055555e-19
197	0x08da034b	1.3121172e-33
198	0x18cf2a10	5.355072e-24
199	0x8a81449f	-1.244806e-32
200	0x239ca2be	1.6982478e-17
201	0x9454ccf2	-1.0743683e-26
202	0xa0168438	-1.2749242e-19
203	0x9ff7ffc0	-1.0503167e-19
204	0xa37200da	-1.3119027e-17
205	0x167ea34f	2.0569488e-25
206	0x0bb03fde	6.788883e-32
207	0x9fd29c4c	-8.919703e-20
208	0x0b0b8331	2.6869124e-32
209	0x0b975189	5.8285765e-32
210	0x065d4c27	4.1621428e-35
211	0x248a35d4	5.993915e-17
212	0x94f2637a	-2.4474992e-26
213	0x21a4b0ac	1.1159837e-18
214	0x8785c074	-2.012473e-34
215	0x0753d3c9	1.5936114e-34
216	0x0a030a7b	6.309392e-33
217	0x154640d8	4.0036934e-26
218	0xa34719d3	-1.079328e-17
219	0x0f1e6e47	7.81124e-30
220	0xa137ffd3	-6.234139e-19
221	0x09945cc8	3.5716955e-33
222	0x911c43dc	-1.2327141e-28
223	0x0b555d67	4.1092576e-32
224	0x0b74a48c	4.7116482e-32
225	0x17121250	4.719826e-25
226	0x14dff79d	2.2614912e-26
227	0x2500debf	1.11777e-16
228	0x24b1d444	7.7121106e-17
229	0x11050fd2	1.0496725e-28
230	0x12b1ff83	1.1233259e-27
231	0x2491626c	6.305046e-17
232	0x24398aaa	4.0232933e-17
233	0x178187e9	8.370738e-25
234	0x9516783e	-3.0387113e-26
235	0xa1b9553a	-1.2558647e-18
236	0xa08e111d	-2.406706e-19
237	0xa392d05d	-1.5917597e-17
238	0x1797510b	9.778604e-25
239	0xa161ffac	-7.6571344e-19
240	0x09312686	2.1323714e-33
241	0x07fa58fb	3.7668117e-34
242	0x0a8760bf	1.3036419e-32
243	0x91c4272f	-3.0947496e-28
244	0x0b05d83b	2.5777542e-32
245	0x182c9415	2.2305241e-24
246	0x8a0b2507	-6.6995706e-33
247	0x2310ffcd	7.8604236e-18
248	0x885d17d8	-6.6532797e-34
249	0x14a5a7e3	1.6726962e-26
250	0x0a8d65f8	1.3616162e-32
251	0xa2caa76a	-5.4929466e-18
252	0xa0e49b24	-3.8727366e-19
253	0x14e820db	2.3438973e-26
254	0x238b243c	1.5085756e-17
255	0x0b8bfad1	5.391824e-32
