_models/MountainCar-v0_DQN.pt (torch, 2920 bytes, 4 tensors)

mlp.0.weight f4 [16, 2]
00000000: f4b4 25be 9814 3c3e 98bb 4f3e a023 90bc
00000010: 5a9c edbe 79c6 89be 241e dbbe 381b ee3d
00000020: 1175 05bf 0008 9cba bbdf 9abe 8637 18bf
00000030: 6bd6 283f 6899 aebd 94c7 3d3e 70c3 a03d
00000040: 40f9 2abe d7cf 293f 082f e8be dd54 333f
00000050: 4096 93be 3c92 223e 003e 4abd 32ab f13e
00000060: eab2 fb3e 5a41 8d3e 9a2a c73e f289 af3e
00000070: 59f6 9ebe 6423 f8be f121 1ebf 70c1 5bbe
-0.1618231 0.18367231 0.20286405 -0.017595112 -0.4640835 -0.26909235 -0.42796433 0.11626285
-0.52131754 -0.001190424 -0.30248818 -0.5945972 0.65952176 -0.08525354 0.18533164 0.07849777
-0.16696644 0.66332763 -0.45348382 0.70051366 -0.2882557 0.15876096 -0.049375534 0.47200924
0.49159938 0.27588922 0.3889969 0.3428493 -0.31047323 -0.484645 -0.6177054 -0.2146051

mlp.0.bias f4 [16]
00000000: 0a95 dabe 33f0 303f 78e2 e6be c8db dcbd
00000010: a74b 31bf 0eb4 cb3e c0b5 0bbc b089 b5be
00000020: 4dc3 16bf b7c1 95be 2295 b5be c08c f1be
00000030: 7cd6 05bf 6c94 5d3e 1e8f f23e 2006 9cbd
-0.42691833 0.69116515 -0.45094657 -0.107841074 -0.6925606 0.39785808 -0.008527219 -0.3545661
-0.58891755 -0.29249355 -0.35465342 -0.47177696 -0.522804 0.2163865 0.47374815 -0.07618356

mlp.2.weight f4 [3, 16]
00000000: b0c8 293d a836 5ebe 1cd7 983d 2e0b 743e
00000010: a058 9dbd 1217 4a3e 0ea1 7d3e c4c3 803d
00000020: 1882 eb3d 14ad a23d 40b6 d3bb b0b9 5a3d
00000030: 64a8 553e c05c 273c c028 11be c443 07be
00000040: 2224 4a3e d822 4f3e 80b0 1abd 78e2 4ebe
00000050: 3cf3 6abe 00cc 0ebd c269 66be 987d 0abd
00000060: 3401 72be c015 1e3e 6035 94bc 904e e2bd
00000070: b4c5 c2bd 860a 41be d412 83bd f09c c9bd
00000080: f825 f0bd 0c9b e5bd f4a5 b0bd 6ea4 38be
00000090: 9e44 523e 58fa 263e c4a1 20be 8ad5 4dbe
000000a0: 904d a93c e057 f1bd 98de b43d d89f 11bd
000000b0: 2833 4fbd d2ba 03be 0070 563b dccd 0b3e
0.041451156 -0.21700537 0.07462904 0.2383239 -0.076829195 0.19735363 0.24768469 0.06287339
0.11499423 0.07943168 -0.006460935 0.05339974 0.20865017 0.010214984 -0.14175701 -0.13209444
0.19740346 0.20228136 -0.03776598 -0.20203578 -0.22944349 -0.03486252 -0.22501281 -0.03381118
-0.23633271 0.15437984 -0.018091857 -0.11050141 -0.09510365 -0.1885167 -0.064000756 -0.098443866
-0.11725992 -0.112112135 -0.08625403 -0.18031475 0.20533988 0.16306436 -0.15686709 -0.2010099
0.020666867 -0.11784339 0.08831519 -0.03555283 -0.050585896 -0.12864235 0.0032720566 0.13652748

mlp.2.bias f4 [3]
00000000: 84ea 7abe 40ad acbc c28e 41be
-0.24503523 -0.021078706 -0.18902114
