_models/Pendulum-v1_DDPG.pt (torch, 812554 bytes, 15 tensors)

mlp.0.weight f4 [256, 3]
000000 11 03 a3 3e c8 06 e7 be 3c 09 dc bd ed 00 7f 3e
       0.31838277 -0.4512236 -0.10743949 0.24902697
000010 6a a3 27 bf e7 8e ab 3e f6 a4 1d 3e d4 f8 f1 3e
       -0.65483725 0.33507463 0.15394959 0.47260153
000020 49 86 c3 3d 91 46 1b 3d f3 e5 95 3e c2 38 51 3d
       0.09547097 0.037909094 0.29277 0.05107952
000030 ea 14 98 3e 18 99 92 be 61 5f df bd 35 cb 2a 3d
       0.29703456 -0.28632426 -0.10906864 0.0416977
000040 d5 ff 0f 3e 02 fe ee bc 18 2a 1b 3f c5 7f 00 3d
       0.14062436 -0.029173855 0.60611105 0.03137185
000050 b8 e5 98 be e2 44 c1 be d2 c4 31 be ed bf 78 be
       -0.29862761 -0.37747866 -0.17360237 -0.24291964
000060 cc ec 00 bd 71 82 53 3e 00 0f 9a 3e 5a 6f 45 3e
       -0.031475827 0.20655228 0.3008957 0.19280759
000070 30 da 47 bf a6 2d 9c 3e cd 62 9c 3e ea ee 35 3f
       -0.780673 0.30503577 0.3054413 0.7106768
000080 0e 27 c1 3e 5b 83 10 bf 0d be 38 bf cc 6f 83 be
       0.3772511 -0.5645043 -0.72164994 -0.25671232
000090 ae cd 12 3f f3 d4 7f be 31 20 5e 3e 11 c0 84 be
       0.5734509 -0.24983577 0.21691968 -0.25927785
0000a0 9c e9 3d 3f 9b 30 43 be 42 2f e1 3e e2 d6 f3 bd
       0.74184585 -0.1906151 0.43981367 -0.1190622
0000b0 f5 f2 90 be 95 c7 3e 3e 1e f9 0c bf c2 da 14 3e
       -0.28310362 0.18630822 -0.5506762 0.14536574
0000c0 d7 0c 85 bc f0 16 30 be 07 f8 14 bf 2e 01 8d be
       -0.016241474 -0.1719625 -0.5819096 -0.27539963
0000d0 24 ce bd 3e 16 77 f5 bd 30 cd 54 3f 61 12 d9 3e
       0.37071335 -0.119856045 0.8312559 0.42396834
0000e0 9f 29 18 bd 2c d2 9a be 96 7c 31 3f 7d 8c 57 3e
       -0.037149068 -0.30238473 0.6933073 0.21049686
0000f0 45 25 af be 7b 73 54 3f 9b 5f 82 3e c5 a0 d2 3e
       -0.34208122 0.8298871 0.25463566 0.41138282
000100 45 49 50 bf cd b6 99 bd 5b 2b 7d 3c a0 f1 08 3e
       -0.813618 -0.075055696 0.015452231 0.13373423
000110 14 65 d6 be a2 c0 08 bf 3e 40 a7 3e a1 4d 36 bd
       -0.4187399 -0.53418934 0.326662 -0.044507626
000120 47 eb be 3e 54 ec 83 bc 3d 0b 35 3e 3e c1 87 3e
       0.37288877 -0.016103901 0.17680068 0.2651462
000130 6e 5e 98 3e aa ae 81 3e 96 74 22 bf 86 ef 8b 3e
       0.29759544 0.2532857 -0.63459146 0.2733118
000140 33 82 96 be 64 03 ff be d3 2c dc bd ee 64 b3 bd
       -0.2939621 -0.49807274 -0.10750737 -0.08759485
000150 f3 8f c5 3e a5 3b 18 bf 2f e9 f7 be b0 3a 0d 3f
       0.38586387 -0.5946601 -0.48420092 0.55167675
000160 bf e2 75 bd 84 bf 82 3e 0f 30 87 3c 87 c1 3b bf
       -0.060030695 0.2553674 0.016502408 -0.73342174
000170 36 47 37 3d e5 b1 77 3e 86 0c 15 bf c4 9d 7f be
       0.044745646 0.24188955 -0.58222234 -0.24962527
000180 b8 c9 3b 3e 4e c4 c4 bd 4e 4a 76 be 66 1a 6d bd
       0.18338668 -0.09607755 -0.24051782 -0.057886504
000190 0d 8e 23 3f aa a1 8a bd 4f 90 ef 3e fe f1 8c 3d
       0.6388863 -0.06769116 0.46789786 0.06882094
0001a0 31 a2 ba be a7 ca d9 be 6c c6 49 3f 2d de 41 3d
       -0.36451867 -0.42537424 0.7881839 0.047331024
0001b0 df b2 3b 3f 9f 09 ff 3d 2a 10 1c 3e cd 01 04 3f
       0.7331981 0.12453007 0.15240541 0.5156525
0001c0 6e 97 09 3f 09 e4 b1 be d5 f2 6a 3e fe 08 17 3f
       0.5374669 -0.3474429 0.22944196 0.58998096
0001d0 22 7c c7 3e e9 1f d4 3e 98 34 5c bf 4c 86 72 be
       0.38961893 0.41430596 -0.8601775 -0.23684043
0001e0 e3 fb ed be 1e ab 01 3e 97 e6 0c 3f ee ab b9 be
       -0.46481237 0.12662932 0.5503935 -0.36263984
0001f0 23 fa 74 3e 84 46 a6 be 60 eb 3a bf ea 5b 9a 3c
       0.23923545 -0.32475674 -0.73015404 0.018842656
000200 f6 fe 99 3e 95 46 15 3f c2 72 21 bf 7b 91 c7 3d
       0.30077332 0.58310825 -0.6306573 0.09744545
000210 0b a5 09 3f 27 13 c4 3e 02 86 ab 3e 6d 18 43 3f
       0.5376746 0.38295862 0.33500677 0.76209146
000220 28 ee bb 3e 62 0e eb 3d bb c1 ea be 6c 37 1d bf
       0.36705136 0.11477353 -0.4585093 -0.6141269
000230 77 0e 71 be 1c c2 a1 be 5c 4e ce be cb c1 1f 3e
       -0.23540674 -0.31593406 -0.40294158 0.1560127
000240 7f da 5c 3e 99 85 35 be 69 ad 4d 3e 38 de af 3e
       0.21567725 -0.17726745 0.20085682 0.34349227
000250 3c 8c e0 3e d0 0c 9f 3e c5 37 a3 bc 8e c7 34 3f
       0.4385699 0.31064463 -0.019924054 0.70616996
000260 e3 4d 84 bd fd e6 87 3c 5f 1e 5e bf 38 4f 94 be
       -0.06460168 0.016589636 -0.8676509 -0.2896669
000270 46 2b 0c bf f1 83 5e be 08 84 bf 3e ea ff bf be
       -0.5475353 -0.21730019 0.3740542 -0.37499934
000280 e2 2d dc be 17 13 50 3e b2 92 9a 3e 80 e0 d2 3e
       -0.43003756 0.20319782 0.30190045 0.41186905
000290 6e ba aa be 56 18 04 3e f7 ee b8 be 4b e6 e7 bd
       -0.3334536 0.12899908 -0.36119816 -0.11323222
0002a0 ef 31 1e bf e3 5f 97 be cd 73 99 bd 99 36 01 3f
       -0.6179494 -0.29565343 -0.0749279 0.50473934
0002b0 4f e9 9e 3d 88 1c f6 3d f7 0f 74 3f 94 52 37 3f
       0.07759344 0.12017161 0.9533686 0.7161038
0002c0 86 d3 aa 3e 67 53 29 be 78 69 d5 be 64 27 ce 3e
       0.33364505 -0.16535722 -0.4168203 0.40264428
0002d0 cd 09 38 bc cb e0 5b be df e1 fa be 3e aa 68 be
       -0.011232805 -0.2147247 -0.4900045 -0.22721192
0002e0 b7 f8 eb be d7 1e e5 3e dd 13 4c bf 38 94 8c be
       -0.46088192 0.4475009 -0.7971781 -0.27456832
0002f0 66 6a af 3c 6b e1 e0 be 04 3a 3b 3e f3 f6 d4 bd
       0.02141304 -0.4392198 0.1828385 -0.10398664
000300 3b 79 e1 be c8 e5 0a 3e c0 19 c1 3e b3 1b b3 be
       -0.44037804 0.13564217 0.37714958 -0.3498207
000310 68 ac 11 3f ee c3 bc 3e 72 d8 f6 3e a2 76 1b bf
       0.56903696 0.36868232 0.4821201 -0.60727894
000320 a1 82 fb 3d 4c 67 c9 be d6 d3 ed 3e ee b1 90 be
       0.12280775 -0.39336622 0.4645068 -0.2826075
000330 2c 76 e9 3e 92 c2 4f be c6 27 36 bd 38 25 10 be
       0.4559797 -0.20289066 -0.044471525 -0.14076698
000340 97 f7 40 3e 2e c7 6e 3e 7a b6 17 3e a4 7a 6d 3e
       0.18844448 0.23318169 0.14815703 0.23191315
000350 b3 16 fd be 26 8b 0f 3f 6b e1 09 3f 2e e7 e8 3e
       -0.4943138 0.560717 0.53859586 0.45488876
000360 3a bd e8 3e 9a 72 3b bf 7b e7 35 be 38 ec e8 3e
       0.45456868 -0.73221743 -0.17764084 0.4549272
000370 24 68 0c bf f5 75 f9 3e 73 5a 28 bf 0d 65 c1 be
       -0.54846406 0.48722807 -0.65763015 -0.37772408
000380 7e c1 80 3e e4 e8 dc be 83 0b ae bd 92 46 bd 3e
       0.25147623 -0.4314643 -0.084982894 0.36967903
000390 64 70 20 3f e1 8b 05 3f 07 e4 ef bd c8 0b c9 be
       0.62671494 0.52166563 -0.11713415 -0.392668
0003a0 c6 9a 23 3f 09 f5 28 be 5e 6c 66 be 1c 37 10 3e
       0.6390804 -0.16499723 -0.22502276 0.14083523
0003b0 2f c9 cf be 80 89 ad 3e be 5d 00 3f 10 7e f6 be
       -0.40583178 0.33893967 0.5014304 -0.48143053
0003c0 21 6b 3b bf 90 6c e3 3d a5 9b 56 3e 58 f7 a2 be
       -0.7321034 0.11104691 0.20957811 -0.31829333
0003d0 21 45 de be 44 04 3b 3a 52 cc af be b9 12 18 bf
       -0.43412116 0.00071341195 -0.34335572 -0.5940357
0003e0 1d 82 d6 be 4e 2b 1c 3f b3 0f ab 3e f7 ec 85 be
       -0.41896144 0.6100358 0.33410415 -0.26157352
0003f0 92 a1 99 3e 91 69 d3 3e 7f a0 18 3e 67 23 1e be
       0.3000608 0.41291478 0.14904974 -0.15443192

mlp.0.bias f4 [256]
000000 4a 79 3a bd 95 75 4b 3e 67 58 cb be 0e 6b a3 3d
       -0.045525827 0.19869073 -0.39715883 0.079794034
000010 c2 aa 01 bf 32 06 bf 3e 8f b3 19 3f f5 f2 66 be
       -0.5065118 0.37309414 0.6003961 -0.22553618
000020 81 b2 ed 3d 63 8f c5 be fa 4c d2 be d6 11 a3 be
       0.116063125 -0.38585958 -0.41074353 -0.31849545
000030 a3 98 a8 be 7d 55 35 3e de 04 bd bd fe 1f 1f bd
       -0.32928953 0.17708392 -0.09229444 -0.03884887
000040 fd 73 e2 be 4c 27 cf be d3 4a c5 be 15 1a a5 be
       -0.44229117 -0.4045967 -0.3853365 -0.32246462
000050 59 61 05 3f 86 5d 61 3e 46 b3 10 bf 8e 68 4e 3b
       0.52101666 0.22008333 -0.5652355 0.0031495425
000060 97 8f 5a 3d 53 b7 9a 3e 8a 76 1d 3f 27 83 48 3e
       0.053359594 0.3021799 0.61509 0.1958128
000070 bf 28 da 3e 4e 66 8f be 0c 95 04 be 69 ff b3 be
       0.42609212 -0.2800774 -0.12947482 -0.351558
000080 b1 05 cd 3d e6 73 13 3f ef 43 c9 3e e1 69 15 3f
       0.10010851 0.5759872 0.39309642 0.58364683
000090 bd 1a 65 be e8 22 d0 bc 42 b3 0e 3e 9d ac 07 3f
       -0.22373481 -0.02540727 0.13935569 0.5299776
0000a0 1b 12 10 bf 98 3a 57 be e5 d6 76 3d de 38 c3 be
       -0.56277627 -0.21018445 0.060263533 -0.38129324
0000b0 60 e5 44 3e b2 e4 91 3c 22 e6 43 be cb 70 77 3e
       0.19228125 0.017809246 -0.19130757 0.24164121
0000c0 1f 07 c4 3e 78 b6 07 3f 59 5d b9 3e 9f ad a0 3d
       0.38286683 0.530128 0.3620403 0.078456156
0000d0 91 a7 e0 3e cd 24 e1 3e ef f8 79 be c4 22 95 3e
       0.43877843 0.4397339 -0.24411367 0.29128087
0000e0 d8 99 22 3e 30 8e 65 be d3 79 c1 bd 83 66 51 be
       0.15878999 -0.22417521 -0.09447064 -0.20449261
0000f0 6f ae ce be 00 f1 70 be f5 76 67 3e 77 41 07 3f
       -0.40367457 -0.23529434 0.22603972 0.52834266
000100 3b 6b 1d bc 1a ba 09 bf 23 a4 8f 3e c9 ff e1 bc
       -0.009608085 -0.53799593 0.28054914 -0.027587788
000110 c0 83 fe 3e 81 d4 20 bf 01 fa c0 bd 61 ae e7 3e
       0.49709892 -0.62824255 -0.094226845 0.45250228
000120 40 f6 92 3e 2c 36 a3 be 3f c6 0a bf a3 1d 05 bd
       0.287035 -0.31877267 -0.5420875 -0.032498967
000130 ed df 94 3e 8f b1 f4 be d6 d3 f1 be c9 9e 9e bd
       0.29077092 -0.47791716 -0.4723193 -0.077451296
000140 3e 0e 24 be aa 4e b6 3e a6 cf fd be 6a 7d 8b bd
       -0.16021058 0.3560689 -0.49572486 -0.0681103
000150 86 4a aa be c9 6f 0b bc 47 c2 c3 be b7 0b b9 3d
       -0.33259982 -0.008510538 -0.3823416 0.090354376
000160 82 ec fa be 30 df de be bb 14 b9 be 20 79 ea be
       -0.49008566 -0.43529654 -0.3614863 -0.45795536
000170 54 41 ce 3e 4a 24 22 be 4c 1e 7e be ae cb b5 3e
       0.40284216 -0.15834156 -0.24816245 0.35506958
000180 61 14 10 be 4a ed 8d 3e ce ec 75 be a9 ac fa be
       -0.14070274 0.277201 -0.24016115 -0.48959854
000190 af 62 d0 3d 86 a9 a0 3e 50 ba 1c bf fe 53 ae 3d
       0.101750724 0.31379336 -0.6122179 0.08512114
0001a0 17 6f e1 3d bb b2 01 3d 78 76 a8 bc c5 79 43 be
       0.11007517 0.03166459 -0.020564303 -0.1908942
0001b0 37 05 f3 be 5b de e8 3d 99 a1 04 bf 19 4b ce be
       -0.47464916 0.11370536 -0.5180908 -0.4029167
0001c0 fb 3d 3b be a0 d1 cc be 55 26 75 3e 46 c7 c7 3e
       -0.18285362 -0.4000368 0.23940404 0.3901922
0001d0 95 96 d9 3e 91 3a c2 be b3 43 97 3e 7e a7 f9 3e
       0.42497697 -0.37935308 0.29543838 0.487606
0001e0 66 8f e5 bb a0 09 94 3e a1 7f a8 3e 71 c1 d1 3e
       -0.00700562 0.28913593 0.32909873 0.40967897
0001f0 b5 b0 3c 3e a9 23 48 3e 7c fa 71 be f0 78 82 be
       0.18426783 0.19544853 -0.23630708 -0.25482893
000200 59 b4 33 be cf 5b 03 3f cd 3d a4 bd d8 97 d9 3d
       -0.17549266 0.51311964 -0.080196 0.10624665
000210 76 67 16 bf 44 59 c9 bd 37 78 32 be 89 97 d6 be
       -0.5875162 -0.09831479 -0.17428671 -0.41912487
000220 ca d8 f3 3e 98 da d7 be 69 9a 88 bd ba ef 25 bd
       0.47626334 -0.4215896 -0.066700764 -0.040511824
000230 aa 41 fe be a3 79 95 3e 12 3f 2f be df 3b 3d 3e
       -0.49659473 0.29194364 -0.17113903 0.1847987
000240 da 5b a5 3e 12 5a 0f 3f 1c a0 1a 3e 71 21 c9 3e
       0.3229664 0.5599681 0.1510014 0.39283326
000250 80 92 06 3f 76 ec 0b 3e 68 37 00 be f9 3e 3c be
       0.5256729 0.13664421 -0.12521136 -0.18383397
000260 4c 82 9e 3d 9a c8 85 3e cf 72 08 bf 49 02 c2 3e
       0.07739696 0.2612961 -0.53300184 0.37892368
000270 b6 f4 24 3d f6 16 09 bf 19 8d 2e 3e 44 5e b7 3e
       0.040272437 -0.5355066 0.17046012 0.35814106
000280 53 a6 38 3e 71 6e 02 3f 2f 62 c0 3c 06 aa d9 be
       0.18032198 0.5094977 0.023484318 -0.4251253
000290 3f 2f f2 bb b6 81 ce 3e aa 6c a3 be 29 da 8d 3e
       -0.007390886 0.40333337 -0.31918842 0.27705505
0002a0 40 ac 1f 3e 3e 2c 42 bc 5b 33 6f 3d cd 14 55 3e
       0.15593052 -0.0118513685 0.058398586 0.20808716
0002b0 19 1b c2 be 5c 97 c1 3e 15 f9 dd 3e 6f 7c ae 3e
       -0.379113 0.3781079 0.43354097 0.3407931
0002c0 77 b3 0a 3f ed fc 79 3d e6 b9 e3 be d7 7c dd bc
       0.5418009 0.061032224 -0.44477767 -0.027037067
0002d0 b6 23 0f be 56 ea 2c 3e 35 e3 07 3f c7 c5 db be
       -0.13978466 0.16886267 0.53081065 -0.4292433
0002e0 da 7e 76 3d 37 69 16 3f de ec ec be a8 d5 c3 bd
       0.06017957 0.58754295 -0.46274465 -0.09562236
0002f0 39 02 1f 3f 86 27 da 3e 7d 4c 1f 3e f6 34 38 be
       0.62112767 0.4260828 0.15556522 -0.17988953
000300 17 87 a1 bd 1d 1c f2 be f6 dd 06 bf 89 e0 0f bf
       -0.078870945 -0.47287074 -0.52682436 -0.5620199
000310 69 61 1b 3f c7 02 eb 3e 83 f3 60 3e 86 56 2d be
       0.6069551 0.45900556 0.21967892 -0.16927537
000320 ae 73 ed 3e 8a e4 4f be 86 fc d2 3e 52 04 6b bd
       0.4637732 -0.20302024 0.41208285 -0.057377167
000330 40 95 5f be 86 f8 1f be a6 5b 4c bd 45 5b f1 be
       -0.21834278 -0.15622148 -0.04989209 -0.47139946
000340 e9 df 7e 3e d4 aa 71 be 28 91 8b 3e 0b ce dd 3e
       0.24890102 -0.23600322 0.27259183 0.4332126
000350 af 9c b3 bc b8 50 c4 3e 7e c8 9f 3d e7 54 b5 3e
       -0.021925298 0.38342834 0.07801913 0.35416338
000360 61 ec cd be be 07 32 3d aa 49 6b be 27 6b ff 3e
       -0.40219405 0.043464415 -0.2297732 0.49886438
000370 39 11 f9 be 45 f2 72 be 63 5e 8e 3d 26 00 e0 3e
       -0.48645952 -0.23725231 0.069515966 0.43750113
000380 04 8d a1 3e 7a fb 0b bf fb 41 e9 be f0 8a 24 3f
       0.315529 -0.546806 -0.45558152 0.642745
000390 9f ff 1b 3d ec ee cf be b3 5e 1a be 70 7f 8c 3e
       0.038085576 -0.4061197 -0.15075187 0.27440977
0003a0 fe 31 4d be ea 55 c9 be 94 4c ab be 72 6e 88 be
       -0.20038602 -0.3932336 -0.33456862 -0.26646763
0003b0 de 44 03 3d 38 64 d3 3e 60 b6 93 3e a0 58 81 be
       0.0320481 0.41287398 0.2885008 -0.25262928
0003c0 8b 03 19 bd d9 d9 d5 be 6f c7 c6 3e d8 c4 0f 3f
       -0.037356894 -0.41767767 0.3882403 0.56159735
0003d0 38 d8 04 3f 8f 8f 88 3e 72 2c d2 bd b9 89 a3 bb
       0.51892424 0.26672027 -0.102623835 -0.004990783
0003e0 a5 4b 2e 3e 08 5f b5 be 55 ad 01 3d f9 54 fe be
       0.17021044 -0.35424066 0.031659443 -0.49674204
0003f0 fd 0e 11 bf 5d 69 0a 3e d8 72 d7 bd 52 10 be be
       -0.56663495 0.13516755 -0.105199516 -0.37121826

mlp.2.weight f4 [256, 256]
000000 0c 49 58 3e 26 29 7f 3b bf 48 71 3d ec b6 08 bd
       0.21121615 0.0038934438 0.058907267 -0.033377573
000010 3d ed 0e be 4f 9f 37 3c dd 3c 11 3e 69 f3 d0 bd
       -0.13957687 0.011207416 0.14183374 -0.10202677
000020 7f c6 40 3d da c7 50 3c 99 9b c9 3c 71 42 f4 bd
       0.0470643 0.012742961 0.024610328 -0.11926735
000030 95 6c 51 bd ef c3 aa 3c 3d 97 1e bc 91 99 ee 3b
       -0.051128943 0.020845382 -0.009679613 0.00728149
000040 b2 e6 3d bd 9a 03 2d 3c 74 2f 82 bd 78 c3 6c 3d
       -0.046362586 0.010559941 -0.06356707 0.0578036
000050 a0 9b 38 3d 89 33 70 bd c1 06 11 3b c2 93 b3 bb
       0.04507029 -0.058642898 0.002212927 -0.0054802606
000060 69 b9 94 ba cc 12 2d b9 1c b8 5e bd e7 02 1a bd
       -0.001134676 -0.00016505568 -0.0543748 -0.037600424
000070 0b 05 bc 3d e9 2e 94 3b fd ce c4 3c 6e 99 bc 3c
       0.09180649 0.0045221937 0.024024481 0.02302238
000080 45 27 ef 3c 5f fc 9b 3d f8 43 53 bd e7 9b 5a 3d
       0.02919353 0.07616495 -0.051578492 0.053371336
000090 d9 cf df 3c cd 45 1e 3d e5 57 7a bd cf 0e 63 3d
       0.02732079 0.038640786 -0.06111898 0.055434044
0000a0 99 39 6c bd b2 52 8e bd bc 34 1f bb 8c 5b 28 bd
       -0.057672117 -0.06949367 -0.0024292907 -0.04110293
0000b0 20 49 7b bd 29 2d c0 3b 42 b9 67 bc 91 9f 67 3d
       -0.061349034 0.0058647585 -0.01414329 0.05654866
0000c0 9f e2 13 bd 4a eb 31 bc 27 bc 84 bd 18 7b 35 be
       -0.036104795 -0.01085932 -0.064812 -0.17722738
0000d0 61 8e 8f bc b1 9a 77 3d 57 81 92 bc 54 53 e3 3d
       -0.017523946 0.06045026 -0.01788394 0.11099878
0000e0 8c 4c 19 3e 3d a0 5a 3c 4d cc 53 3d a0 88 2c 3d
       0.14970607 0.013343868 0.05170851 0.042122483
0000f0 e2 41 69 3d 76 2e 3a 3c c5 5f 37 bd 42 41 c5 bb
       0.056947596 0.011363616 -0.044769067 -0.006019742
000100 64 7b 03 bd e2 f2 53 3d 0c ca 1a 3d ea ab 27 bd
       -0.032100096 0.051745303 0.037790343 -0.040935434
000110 1b e9 13 bd fe 0e 3c bd 69 e7 2a 3d 17 77 c8 bb
       -0.03611098 -0.045912735 0.041724596 -0.0061177122
000120 66 0b 12 3d 6f 77 f4 bb 0f 60 5c bc 68 ba 83 3a
       0.0356554 -0.0074605267 -0.0134506365 0.001005006
000130 35 10 34 3d b5 79 e8 bc d3 f3 d1 bd 58 0c 25 3b
       0.04396077 -0.028378347 -0.10251584 0.002518436
000140 22 ab ef bc d6 bd f9 3c 91 8f 01 bb af ec 14 b9
       -0.029256407 0.030486029 -0.001976941 -0.00014202551
000150 54 be 20 3d 1b cd f2 3c bf e7 7f bd b2 8e 84 3c
       0.03924401 0.029638818 -0.06247687 0.016181324
000160 88 1a 24 bd bf 26 43 bd bc 42 8d bb 25 f7 8d 3d
       -0.040064365 -0.047644373 -0.004310934 0.06931905
000170 ce 94 81 bd 43 8d 76 bd d2 91 7b bd b9 fe 2e 3c
       -0.0632721 -0.06019331 -0.061418362 0.010680848
000180 d2 b2 9f bd cd ad 45 3d af 08 00 bd 8e a3 a9 3c
       -0.07797779 0.048261452 -0.03125828 0.020707872
000190 54 ff 91 bc 82 98 ff bd 58 3d 60 bd 54 d7 90 bd
       -0.017821945 -0.124802604 -0.054746002 -0.070723206
0001a0 aa 4e 32 bd 5b bd b6 3c 2e 9b 4a 3d 2b 7a 9f 3d
       -0.04353205 0.022307089 0.049464397 0.077869736
0001b0 e9 3f 84 bc 28 1b 40 3e a5 58 25 bd 37 16 5a bd
       -0.016143756 0.1876036 -0.04036774 -0.053243842
0001c0 f4 a3 74 3d 29 2a 1e 3d b7 7c dc bd d8 f9 fc bc
       0.05972667 0.038614426 -0.10765975 -0.030880854
0001d0 47 ac 79 bd 13 4c 9e 3d e2 b7 79 3d 61 6c c3 bc
       -0.060955312 0.07729354 0.06096638 -0.02385539
0001e0 03 c2 46 3c 49 cb 3e bc 39 d9 1c bd 67 9e e5 bc
       0.012131217 -0.011645147 -0.038293097 -0.028029634
0001f0 c8 6d a5 bb c7 fd 4e bd 99 53 89 bc d8 f7 7e bd
       -0.0050484873 -0.05053499 -0.016763495 -0.06224808
000200 1c dc 22 bd 1d b6 29 3d 8d c3 25 bc 86 e4 ef bb
       -0.039760694 0.041433442 -0.010117424 -0.0073209433
000210 77 55 69 3d 02 51 b9 bc 07 d6 55 be 2d 4b a1 bd
       0.05696627 -0.022621635 -0.20882426 -0.07875667
000220 52 c1 ad bd bd bb 1f 3d 96 1a 34 3d 39 7f a0 3d
       -0.084841385 0.0389974 0.043970667 0.07836766
000230 10 10 89 bd dc bd 72 3d 94 2d 26 bd 86 88 ae bc
       -0.06692517 0.059263095 -0.04057081 -0.021305334
000240 af 80 4d bd e2 47 60 bd 7c 09 a2 ba c2 9a 0d bd
       -0.05017155 -0.054756053 -0.0012362446 -0.034571417
000250 98 66 25 3d 3a ae 3f 3c 81 21 00 3b a0 28 14 bd
       0.040381044 0.011699254 0.001955122 -0.036171556
000260 76 01 dd 3c 41 b9 35 3d 0a 03 88 ba 50 52 2a be
       0.026978236 0.044366125 -0.0010376882 -0.16632962
000270 03 fb bf bd b9 ac 76 3d ad 5b ff 3c 2e e2 f7 3c
       -0.093740486 0.060223315 0.031171644 0.030259218
000280 da f4 51 3c 4d b3 37 3d 01 f4 b3 3c 8d f4 0f 3d
       0.012814725 0.04484873 0.021966936 0.03514533
000290 03 a8 a6 3c 4b f2 fd 3b 79 8e a3 bb df 8c a4 3c
       0.020343786 0.007749831 -0.0049913493 0.020086704
0002a0 8b 83 1f be cd fd 29 bd 84 39 23 bb 59 74 70 3d
       -0.15577523 -0.04150181 -0.0024906108 0.058704708
0002b0 52 0a 0f bb 95 27 34 bd 8a b0 7f 3d f8 f8 e0 3c
       -0.002182622 -0.04398306 0.06242422 0.027462468
0002c0 f7 58 c0 3c 1c 43 7c 3d 72 97 05 3d 0e 8a a3 3c
       0.023479922 0.061587438 0.032615133 0.01996329
0002d0 66 87 fa 3c e0 83 6f bd b6 83 b9 bc 49 73 84 3d
       0.030582141 -0.058475375 -0.022645812 0.064673014
0002e0 b5 97 1d 3d 98 41 13 bd ba 88 91 bd 1c 6f 9b 3b
       0.038474757 -0.035951227 -0.07106157 0.00474347
0002f0 80 7a 41 bd 7c 22 a2 3b 0a 29 6c 3d bd 9c c4 bd
       -0.047235966 0.0049479585 0.057656325 -0.09600208
000300 c1 97 6c 3d e2 b5 96 3b 97 b2 9c 3d 99 3f 42 bd
       0.05776191 0.004599319 0.07651251 -0.047423933
000310 9d b4 6b 3c 97 5b 17 bd 18 93 58 bc fc d9 0d 3d
       0.014386323 -0.03695258 -0.013218664 0.034631714
000320 2c 4c 02 3d 1b de 8a bd 02 2e 2c bc ac 54 c2 3c
       0.031810924 -0.067806445 -0.010509016 0.023722015
000330 29 30 bd bc fa e7 04 bd 2f 70 6a 3d c4 e0 96 3d
       -0.023094254 -0.032447793 0.057235893 0.073670894
000340 ee 2a e4 3c b9 99 08 bd f9 a0 10 3d a9 d3 b9 3d
       0.027852502 -0.033349726 0.035309765 0.09073574
000350 0c 77 13 bd e6 09 ba 3d da 01 17 bb 74 4b da bc
       -0.036002204 0.09083919 -0.0023041875 -0.026647307
000360 b3 63 6a bd f9 34 90 bc bf 2f d3 bc 9b 3e 44 bd
       -0.057223987 -0.017603384 -0.025779603 -0.047911268
000370 b1 96 85 bd 72 f7 f7 bd 14 ca 8a 3d 91 da 27 bd
       -0.06522883 -0.12107743 0.067768246 -0.040979926
000380 dc b2 15 be ef 7f 62 bb 05 05 66 3d e9 0f db 3d
       -0.1461901 -0.0034561118 0.05615713 0.10696394
000390 ca 6d 40 3d 31 97 4e bd 4d 6b 87 3c 65 6b 54 bc
       0.046979703 -0.050437156 0.016530657 -0.012965058
0003a0 4f 0e 73 bc 11 91 41 bb 6a 44 0d 3d 40 c8 7f 3c
       -0.014834954 -0.002953593 0.034489073 0.015611708
0003b0 b0 60 f6 bd 74 4a 28 3d 0f a7 8b 3b 82 f6 07 bd
       -0.120301604 0.04108663 0.0042618583 -0.033194073
0003c0 d4 3a 8f 3d e5 4c b6 bb b8 2a 71 3d dd a5 51 3d
       0.069936424 -0.0055633658 0.05887863 0.05118357
0003d0 c8 cd 00 bd bc 26 cb 3b ac b8 8b bd 7e 25 cf b9
       -0.03144625 0.006199686 -0.06822333 -0.0003951005
0003e0 89 51 27 3d 90 67 7f 3c ac 23 0d bd 3b 97 ef bc
       0.040849242 0.015588656 -0.034457847 -0.029246917
0003f0 60 c7 7c bd 79 f4 3e be c4 54 3d 3e e6 dd 12 bd
       -0.061713576 -0.18647946 0.18489367 -0.03585615

mlp.2.bias f4 [256]
000000 8a af 89 3c 2d 91 c6 3b 19 44 43 bd 60 e4 8c 3d
       0.016807336 0.006059787 -0.047672365 0.068794966
000010 1c 97 47 3c be 3b 6c 3b 85 ec be 3b e0 ee 01 3d
       0.012182023 0.0036046351 0.005826535 0.03172195
000020 7e c8 19 bd 32 9c dd 3b e7 58 2c 3d 2b 17 81 bb
       -0.03754472 0.0067630047 0.04207697 -0.0039395294
000030 5c c4 ba bc 69 ab a0 3c 16 6a 60 bd 70 be 55 3d
       -0.02279871 0.019612985 -0.05478867 0.05218357
000040 b2 eb fd 3d 14 73 82 bc 66 7b 0f bc c0 c7 f7 ba
       0.12398471 -0.015924014 -0.008757448 -0.0018904135
000050 e7 e7 5e 3d a4 e5 e4 bc 3f e8 15 3c fa 0c 5a 3d
       0.054420378 -0.027941532 0.00914961 0.05323503
000060 de 6c 30 bd 08 15 87 3d 39 01 2c bd fc dc 84 3c
       -0.043072574 0.06595808 -0.041993354 0.016218655
000070 77 6e 12 3b 4d f6 05 3d 63 76 55 bc 60 5d 35 bc
       0.0022343674 0.032705594 -0.013028714 -0.011069626
000080 a9 9b 6b 3c ea 29 d0 3c 98 76 d9 ba 5b 13 7a 3d
       0.014380374 0.025410611 -0.001659113 0.061053615
000090 c6 01 5c bd b6 93 6e 3d ad 93 29 3d b7 83 53 3d
       -0.05371263 0.058246337 0.0414006 0.051639285
0000a0 c4 83 b8 bc 58 9c fa bc 12 27 2e 3d 6b 4d 12 3b
       -0.022523768 -0.030592129 0.04251773 0.0022323977
0000b0 fc 8e 30 3d b7 b1 3e bd d2 75 d7 3b c1 12 d7 3c
       0.04310511 -0.0465562 0.0065753246 0.02625406
0000c0 ca 2d e9 bc 2e 92 1e 3d 78 2d 7d 3d 4c ab 13 bc
       -0.028464217 0.038713627 0.06181094 -0.009013008
0000d0 34 ca 11 3d 77 80 31 bd 6d 52 59 3d 0b 0c cc 3c
       0.035593227 -0.043335404 0.053057123 0.024908086
0000e0 73 a3 8e bd 33 af 2c bd 2b d7 3d 3c 08 1c 41 3c
       -0.06964769 -0.04215927 0.011586945 0.011786468
0000f0 fa ac 1b bd 62 b8 42 3d 09 6c 5b bd fe f0 af bd
       -0.03800676 0.047539122 -0.053569827 -0.085908875
000100 4f 08 16 3c 83 ce 8b 3d c9 1b 65 3d c9 b0 a8 bb
       0.009157254 0.06826498 0.0559347 -0.0051480276
000110 68 0d 56 3d df 8b 77 bd 5b a2 99 3d bd a7 70 bb
       0.05225888 -0.060436126 0.0750167 -0.0036721074
000120 f9 1c 58 ba e9 2a 6e 3d 0c 58 13 bd 9a 8a 6b bd
       -0.00082440634 0.05814639 -0.03597264 -0.057505228
000130 db 47 7c 3d 8a ca 29 bc 61 d7 5a bc f0 84 ff bc
       0.061591964 -0.0103632305 -0.013357014 -0.03119132
000140 88 b5 e7 3c 3e 16 1a 3d c2 d2 b2 bb 88 fd e0 3c
       0.028284803 0.037618868 -0.005457253 0.027464643
000150 04 b0 f3 3b 79 45 16 3d 1c 9d 50 bd 23 28 4e bc
       0.007436754 0.036687348 -0.05093108 -0.0125828115
000160 07 ed 78 3d 1e 01 4d 3d 43 bd bb b9 b0 24 1c 3d
       0.060772922 0.050049894 -0.0003580843 0.038120925
000170 19 3d 4b 3c ed ec 04 3d 27 b3 69 bd 8a a7 b8 bc
       0.012404704 0.032452513 -0.05705562 -0.022540826
000180 27 72 a9 3c 90 54 21 bd 46 31 03 3b 5d 81 65 3c
       0.020684315 -0.039387286 0.0020018383 0.014007893
000190 8c b2 85 bd 53 3d a2 3b 8c 2a 89 3c 18 fc db 3c
       -0.06528196 0.004951158 0.01674392 0.026853606
0001a0 70 fb 7f 3c 6e 3d 1e bd e5 a6 49 3d e3 cd 80 bc
       0.015623912 -0.038632803 0.04923143 -0.015723174
0001b0 d2 5b 88 bd 64 b2 78 bd 9b 2a 3e bd de 91 8d bc
       -0.06658138 -0.060717 -0.04642735 -0.017281469
0001c0 23 54 cf 3b 67 30 3c bd 49 dc d5 3c 2a d2 89 3d
       0.0063271686 -0.045944598 0.026106017 0.06729539
0001d0 78 dd 82 3d 64 6d 9a bd c2 2b ab 3c df e9 b6 3c
       0.06389898 -0.07540396 0.020894889 0.022328315
0001e0 bd d5 0f bc 59 82 a2 3c 0f 73 35 3d 66 03 c7 3c
       -0.0087789865 0.019837545 0.04429918 0.024293613
0001f0 66 e2 53 3d af 17 45 bb e6 09 23 bd 4d 88 c8 3a
       0.051729582 -0.003007393 -0.03980436 0.001529941
000200 46 34 26 bc 84 5e d5 bc bb a1 dd 3c 04 16 2b bd
       -0.010144299 -0.026046045 0.027054658 -0.041769043
000210 51 75 3b 3c 94 e5 93 bb ae 6d 5b 3d a8 79 86 3d
       0.011441545 -0.004513452 0.053571396 0.06566173
000220 4b 67 10 3d 42 be 5c 3d 96 38 fb bc 2f 90 ee 3c
       0.035254758 0.05389238 -0.03066663 0.029121486
000230 5c 01 be bb be cb 80 bc 19 a4 58 3d 1b ad 2e bd
       -0.005798502 -0.015722152 0.05289087 -0.042645555
000240 51 53 52 bd 81 ba 50 bd a5 7b 83 bd 2d c8 f3 3c
       -0.051348988 -0.050959114 -0.06420068 0.029758537
000250 4d e8 c4 bc e3 e7 ea bc a0 62 ed 39 b7 23 b6 bc
       -0.02403655 -0.028675025 0.00045277644 -0.022233827
000260 e4 9b 26 3d 7d e5 6a bc 5c 9c 2e 3c 20 f9 27 3d
       0.040676013 -0.014336941 0.010657396 0.04100907
000270 bb d4 47 bd 52 42 6e bd e5 72 46 bc 8f 6d 18 bd
       -0.04878686 -0.058168717 -0.012112354 -0.03721386
000280 aa c7 44 3b 22 f0 8a 3d cc ac 64 3c 64 1d 04 bd
       0.0030026236 0.06784083 0.013957214 -0.03225459
000290 a6 b8 2b 3d 4d 44 d6 bc 07 b4 fe 3c 41 28 a8 3d
       0.04192414 -0.026155615 0.031091703 0.08210803
0002a0 a6 c2 39 3d 25 f3 80 3b 96 80 31 bd 05 0c 4e bd
       0.045351647 0.003935235 -0.04333552 -0.05030443
0002b0 f3 1f ab 3c 2a 12 77 3d 1a e6 62 3d a5 31 46 3d
       0.020889258 0.060320057 0.055395223 0.04838719
0002c0 8c 27 96 bb a0 1b 62 3c ba 71 d8 3c 93 6b ef 3c
       -0.004582351 0.013800532 0.026421417 0.0292261
0002d0 e2 0b 17 3d 36 39 a2 3c 74 27 34 bc 12 f1 f0 3c
       0.036876567 0.01980267 -0.0109957345 0.029411826
0002e0 d7 9b 7f bc 69 99 33 3d 57 7a 90 3d 30 0f 80 bc
       -0.01560112 0.043847475 0.070545845 -0.015632242
0002f0 2b 28 78 bd e9 20 2f bd de ce df 3b cc ae c9 bc
       -0.060585182 -0.042755995 0.0068300804 -0.024619482
000300 6b d8 63 3c 87 15 fb bc c6 ac a0 bd 67 fe d4 3d
       0.0139065785 -0.030649913 -0.07845454 0.10400086
000310 ca 7e 62 bd af 24 e9 3c 0c b8 12 3c e8 d0 4d 3d
       -0.055296697 0.028459875 0.008955013 0.050248057
000320 8f 69 64 3c 05 3c 03 3c 70 42 33 3d 27 c7 61 bd
       0.013941183 0.008009915 0.04376453 -0.055121567
000330 eb 23 8c 3d b6 16 55 bd f6 7f 5c bc 9b c0 32 bc
       0.06842788 -0.052023612 -0.013458243 -0.010910179
000340 9a c0 e5 3b a3 83 d6 bc 53 8b ed 3b 25 97 18 bd
       0.0070114853 -0.026185816 0.0072492748 -0.037253518
000350 a3 c0 97 3d d3 7b b3 bc f3 ff 59 3c a3 bb 2f bd
       0.074097894 -0.02190963 0.013305652 -0.042903554
000360 b4 f1 a5 b8 2d 63 47 3d 37 6b ce bc d1 13 99 3c
       -7.912834e-05 0.048678566 -0.025197608 0.018686207
000370 c6 39 88 3d 89 70 29 3d a0 18 26 bd f6 af 70 bd
       0.066516444 0.041367088 -0.040550828 -0.05876156
000380 be f7 1f 3c 8c e4 57 3c cb 20 78 bc aa c9 33 bd
       0.009763656 0.013177048 -0.015144537 -0.043893494
000390 1e e1 2e 3d 73 4a 2e 3d ef a0 03 3d a1 2b 32 3d
       0.042695157 0.04255147 0.0321359 0.04349864
0003a0 bd 96 ee bb 06 00 62 bd 66 49 d7 3c 18 b2 71 3d
       -0.007281153 -0.055175804 0.026280116 0.059007734
0003b0 f4 b2 c9 3c e9 c9 13 3c a7 d2 b2 bb 0a 33 96 bc
       0.024621464 0.009020307 -0.0054572406 -0.018334884
0003c0 b8 2c ec 3c c1 a6 ce 3d 33 f7 1e 3d df ef 34 bd
       0.028829917 0.100903995 0.038809966 -0.04417407
0003d0 58 f6 49 3d 9a 60 80 3c 52 c9 6e 3d a7 2a 2d 3c
       0.049307197 0.015671063 0.058297463 0.010569251
0003e0 c9 71 8b 3c 42 75 16 3d 16 79 c9 bc 79 45 62 bd
       0.01702203 0.03673292 -0.024593871 -0.055242036
0003f0 f5 bf 44 bc b6 b9 53 3d d6 6b b9 3c 7b bd 3f 3d
       -0.012008657 0.05169078 0.022634428 0.046811562

mlp.4.weight f4 [1, 256]
000000 d2 75 48 3d ea 8b 28 bc 95 90 02 3d 01 7a c6 3d
       0.048940487 -0.010287264 0.031876165 0.09691239
000010 9f 55 25 3e d5 c5 23 bd ba 47 ca bd 6e bc 6f bd
       0.16145943 -0.03998359 -0.09876962 -0.05852931
000020 f0 5b 3d be ca 2e 9e 3d 6e d3 0a 3d 2d 0d 15 be
       -0.18492103 0.07723768 0.03389304 -0.14555807
000030 d8 b4 8f bd 06 7c 27 3d aa 66 80 3b b1 4e 07 3d
       -0.07016915 0.040889762 0.0039184885 0.03303403
000040 2c 50 5e 3e cd 49 99 bc 5f 9d de 3a ee 3a 32 3d
       0.2171027 -0.018711949 0.0016984156 0.04351323
000050 8d 74 4b be 60 cb 96 3e d8 2e 4d bd 9e 4a 0d be
       -0.1986868 0.29452038 -0.0500935 -0.13797995
000060 a4 f1 38 bd 58 92 81 3d 26 1f 94 3c ca b6 57 3e
       -0.04515232 0.06326741 0.018081259 0.21065822
000070 96 13 89 3d 20 50 79 3d 0f 80 b0 3d f4 75 08 bd
       0.06693189 0.06086743 0.08618175 -0.033315614
000080 9a e6 29 3d 5a 59 37 3d c2 60 40 bd 30 06 9b 3d
       0.041479684 0.044762947 -0.046967275 0.075695395
000090 12 32 82 ba 5b e7 dd bd 24 92 47 3b e1 0f 0f be
       -0.0009933135 -0.10835143 0.0030452097 -0.13970901
0000a0 48 f1 1e 3d ef a3 c3 be 34 26 13 be f4 e5 b8 3c
       0.038804322 -0.3821101 -0.14370042 0.022570588
0000b0 a8 58 0a 3d 85 0d 1a bd bb 6d b5 3c a9 93 e8 bc
       0.033775955 -0.03761055 0.02214705 -0.028390722
0000c0 d0 a4 de 3d 1a 02 4f 3d 5c 31 a4 bd a2 74 98 bd
       0.10871279 0.050539114 -0.08017227 -0.07444121
0000d0 40 39 e7 3c dd b5 85 bc be 1c 13 bd 90 1d ca bd
       0.028225541 -0.01632207 -0.035916083 -0.0986892
0000e0 9b f3 38 3d bf 52 22 3d c5 97 38 bd 1c e8 a0 bc
       0.045154195 0.039629694 -0.045066614 -0.019641928
0000f0 2f d9 b1 bc 54 8a c2 bd a3 5c 00 bc 3d d4 91 be
       -0.021710007 -0.0949904 -0.007834586 -0.28482237
000100 e5 e8 00 bd 93 f9 e6 bc 39 10 0f 3d ce 9f 90 3b
       -0.031472106 -0.028195178 0.03492758 0.0044135815
000110 df 50 36 3d 21 f1 27 3d 02 7d a7 be a9 08 32 be
       0.04451072 0.041001443 -0.3271256 -0.17386116
000120 d7 86 81 be 5c 07 36 bd d6 ed 26 bd 52 ff 24 bc
       -0.25298187 -0.044440612 -0.04075416 -0.010070639
000130 1c 09 95 3e f0 e7 8b bd 59 e6 80 3d 4a dd ab 3d
       0.29108512 -0.06831348 0.06293935 0.08391817
000140 f9 9b 3e be 96 83 cd bc 9f 0f ff bc 6d 18 75 bd
       -0.18614186 -0.02508716 -0.031135378 -0.059837747
000150 61 41 c5 3a 42 47 58 be 9e 17 5c bd 22 9b d5 3c
       0.0015049392 -0.21120933 -0.05373346 0.02607495
000160 a9 1a 8e bc 16 b7 b9 bd 5f 7c 43 3d 58 fc 91 bd
       -0.017346697 -0.09068124 0.04772603 -0.07128209
000170 48 f5 70 3d fa bd 3e 3d d0 26 8e 3d 91 14 b1 3c
       0.05882767 0.046567895 0.06940997 0.021616252
000180 28 19 de bc 65 5b 39 3c c9 d5 ae 3d 43 75 6f bc
       -0.027111605 0.011313294 0.0853687 -0.01461536
000190 89 81 59 3c 69 64 e1 bc c5 81 75 bd ee a9 34 be
       0.0132755125 -0.0275137 -0.05993821 -0.17642948
0001a0 42 3c 52 bd 18 e2 85 3d ed e0 b8 3c 2d bd 40 3d
       -0.051326998 0.065372646 0.02256819 0.047055412
0001b0 82 32 f2 be 25 19 cc bc 2b f7 6e be 22 1f 4c bd
       -0.4730416 -0.024914334 -0.23336475 -0.049834378
0001c0 ac 45 e3 bd b8 91 71 3d 22 dd cd bd 48 93 94 3d
       -0.11097273 0.05897686 -0.10051943 0.07254654
0001d0 b1 f7 13 bd 3d 8b 2a be b6 44 95 3b d7 e3 4c 3d
       -0.03612489 -0.16654678 0.00455531 0.050021973
0001e0 44 dc b7 3d 44 28 da bd 7f 4d 0c 3e 92 aa ca bd
       0.08977559 -0.10652211 0.13701437 -0.09895815
0001f0 81 2e db bc 2f 4b da bc be 65 78 bd f4 45 24 bd
       -0.026755573 -0.026647178 -0.060643904 -0.040105775
000200 2a d8 d8 bc ca e4 76 3d ac 64 2a bd 70 e6 66 bd
       -0.026470263 0.060276784 -0.041599914 -0.056372106
000210 a3 9d 69 3d 78 38 81 3d 82 9f 76 3d 9a 3f dc bc
       0.0570351 0.06309599 0.060210712 -0.026885796
000220 fc b6 89 bd 6a cd 93 bd 01 ca 8d bd e6 c2 05 bb
       -0.067243546 -0.07216914 -0.06923295 -0.0020410358
000230 b2 5f 71 3d cb 5a 2b 3e 74 bb b2 bc cd 34 ce 3b
       0.058929153 0.16733854 -0.0218179 0.0062929154
000240 5e bd 0f 3d 8c 44 23 bc f3 e2 61 3d bc ef 1d 3d
       0.035092704 -0.009965073 0.055148076 0.038558707
000250 37 5a 85 3b b2 07 4f 3d 0b e4 20 bd 00 6f b9 3a
       0.0040695923 0.05054445 -0.03927998 0.001414746
000260 14 21 e3 3c 8a 86 33 3e ba e9 dc bd 0c 1f a9 bd
       0.027725734 0.17531791 -0.10786767 -0.08257875
000270 55 8c a4 3c 36 d6 6a bd e3 6a 8e bd d8 2f ad 3d
       0.020086447 -0.057333194 -0.06953981 0.08456391
000280 72 f5 88 be 84 2a 27 3e 0f 4a 4c 3e cb 78 b2 bc
       -0.2674976 0.16324812 0.19950126 -0.021786114
000290 a5 5e 6a 3c 2a 1e b3 bc 6a 12 ae 3d 36 f3 3a bd
       0.014304792 -0.02186497 0.08499606 -0.0456421
0002a0 db 15 a1 3d 12 7f 59 bd 21 1d 75 3d e1 89 cb 3c
       0.07865497 -0.0530997 0.059842233 0.02484602
0002b0 fd f7 ce 3d ce e7 ff 3c d8 32 b5 3d ee 0c 51 3d
       0.10105894 0.031238463 0.08847588 0.05103772
0002c0 9d 0c 83 bd 75 4a 8a 3b 5b c8 17 3d a1 58 64 be
       -0.0639889 0.0042203018 0.03705631 -0.22299434
0002d0 9d 56 09 be 86 8a a6 bb e4 92 1d bd 23 47 bd 3d
       -0.13411947 -0.0050824312 -0.038470164 0.09242084
0002e0 e1 9c 6a 3c c8 59 5d bc 8e 5b 02 3e 89 de be bd
       0.014319629 -0.013510175 0.12730238 -0.09319789
0002f0 ec 1c 6a bc 0e 89 43 3d f8 3d ab bd b0 c9 96 3d
       -0.014289122 0.047738127 -0.08361429 0.073626876
000300 fe ff 78 be 6e 06 77 3d 73 87 1b 3e 2a 3b 21 3e
       -0.24316403 0.060308866 0.15188389 0.15745226
000310 85 b9 85 3b 9e 15 7b 3d 0f a4 29 3d 19 ae 50 3d
       0.0040809535 0.061299913 0.041416224 0.050947282
000320 a7 a8 14 bc 74 2d 4f 3c 7a a1 88 3d 32 51 56 bd
       -0.009073413 0.012645114 0.06671424 -0.052323528
000330 cf 0a b6 bc c5 60 17 bd 76 e0 13 3d b5 82 44 3d
       -0.02222195 -0.03695752 0.036102735 0.047976214
000340 35 fa 0f be 38 7d 53 bd e3 da 20 be a0 bd 15 bd
       -0.1406029 -0.05163309 -0.15708499 -0.036557794
000350 23 c2 bd 3d 96 ee 82 3d 18 d7 5a bc 68 e2 68 be
       0.09265544 0.06393163 -0.013356946 -0.22742617
000360 67 ef 11 3e 5d 22 ec bc 02 31 ce 3c d1 8e 47 bd
       0.14251481 -0.02882498 0.025169853 -0.048720185
000370 3a 90 01 be f9 11 28 bd fe e4 84 bd d9 06 d8 bc
       -0.12652674 -0.041032765 -0.06488989 -0.026370453
000380 ba e7 37 be 95 15 69 bd 09 13 af 3b dc c9 01 be
       -0.1795949 -0.056905348 0.0053428453 -0.1267466
000390 44 9b 41 3e 79 68 3c be c7 de 65 3d 07 19 90 be
       0.18906885 -0.18399228 0.05612066 -0.28144094
0003a0 92 73 1f 3d d0 01 9c bb a1 3b 00 3d 90 bf 1f bd
       0.038928576 -0.0047609583 0.031306867 -0.039001048
0003b0 4c 4c 81 bd 44 f0 71 3d 91 ab 2e 3b f2 47 47 3d
       -0.063133806 0.059067026 0.0026652555 0.048652597
0003c0 74 0a 76 bd 14 ec 28 3e 05 21 24 3e e8 05 65 3d
       -0.060068563 0.16496307 0.16028221 0.055913836
0003d0 64 44 37 be 84 9e 89 3e 93 e1 06 be 1c 4c 4e be
       -0.17897183 0.2687875 -0.13171987 -0.20146221
0003e0 4b 34 59 3d 5f a2 8c 3e 42 10 d3 3d 04 02 62 bc
       0.053028386 0.2746763 0.10305835 -0.013794426
0003f0 62 c2 4d bd 25 f1 38 bd ba b7 64 bd fd 94 7b 3d
       -0.050234206 -0.04515185 -0.055839278 0.061421383

exp_avg f4 [256, 3]
000000 a5 f6 59 3c be 31 3b 3b 55 23 2b bb 2a 97 2c 3b
       0.013303434 0.0028563584 -0.0026113589 0.0026335218
000010 3e c4 03 3b 51 5f 84 3c 7f 75 e4 bc ba 99 93 bc
       0.0020105983 0.016158732 -0.027888058 -0.018017638
000020 ed 18 4b 3c 11 92 86 bb 45 60 92 39 e5 40 40 3c
       0.0123960795 -0.004106768 0.00027919016 0.011734222
000030 59 a3 cc 39 58 39 77 ba 9c f1 49 bb f3 66 56 ba
       0.00039031616 -0.0009430847 -0.0030814176 -0.0008178793
000040 a8 a4 44 39 f6 9f fe 3b e8 4c f4 3a c1 20 94 39
       0.00018753356 0.0077705337 0.0018638643 0.00028253163
000050 a7 ca eb ba 21 92 d1 38 ec 09 b1 b9 f0 fd a6 b9
       -0.0017989472 9.993115e-05 -0.00033767463 -0.00031851185
000060 df b1 64 b9 d1 52 7f ba bf 58 8d bb 41 24 43 3a
       -0.00021810037 -0.00097398186 -0.004313558 0.0007444062
000070 32 13 85 39 2c ec ad 3a 69 5a 14 bb 85 9d c8 38
       0.00025382038 0.0013269237 -0.0022636896 9.5660835e-05
000080 52 a4 1e 3c ce 7c f5 38 45 6d d0 b9 cf 70 56 b9
       0.009682732 0.00011705757 -0.00039754264 -0.00020450655
000090 1e fa 6d bb 61 2c 9f ba 9f 8f 15 bc 5d c5 3c bb
       -0.0036312412 -0.0012143963 -0.00912848 -0.002880416
0000a0 ad 10 f9 b9 31 58 0e b5 b5 53 2c 3b 0d cb a0 3a
       -0.00047505405 -5.302746e-07 0.002629501 0.0012267545
0000b0 00 9a cc ba bc d8 83 ba fa 6e e0 b9 80 b7 90 bb
       -0.001560986 -0.0010059099 -0.00042807293 -0.004416406
0000c0 e0 7c a3 b9 6e 43 61 b8 2d 51 74 b9 c6 4d 1f b8
       -0.00031182822 -5.370698e-05 -0.00023299894 -3.7980986e-05
0000d0 99 3e 06 39 08 94 0f ba 3a 1d 5f ba 25 ee 80 3b
       0.00012802555 -0.00054770755 -0.000851113 0.003934639
0000e0 c6 0c 21 3d 2a 41 e8 ba 5e c6 90 ba f2 e0 4f b8
       0.039318822 -0.0017719616 -0.0011045446 -4.9562143e-05
0000f0 e7 99 b8 39 72 aa f9 39 c2 36 c2 3b 89 4d 08 3d
       0.0003520988 0.00047619973 0.005926938 0.03327707
000100 ab f5 88 3c c8 05 8d 3d a3 79 75 38 0e 4c 1b b8
       0.016718706 0.06885868 5.8525835e-05 -3.702571e-05
000110 0e 57 eb b9 3e 18 db bb a2 6f 1b bb 92 db 4f 3d
       -0.00044887554 -0.0066862395 -0.0023717661 0.050746508
000120 ee 84 b0 ba 05 7a 1b 3a 1c c7 fd 3b 04 37 02 bb
       -0.001346735 0.0005930963 0.007744683 -0.0019869218
000130 5f b0 a4 b9 75 2c 90 3b ea dc a0 ba 6c 26 9c b9
       -0.00031411924 0.004399831 -0.0012272869 -0.00029783265
000140 dd 8b 0f 38 59 d8 b1 bb 13 fa 51 ba cd b5 43 3d
       3.4224115e-05 -0.005427402 -0.0008009981 0.0477808
000150 b9 76 5f 3b ae 47 51 3a 07 d4 2a ba ec 0b 81 b9
       0.0034097864 0.00079833984 -0.000651658 -0.0002461368
000160 c2 a8 8c 39 1b cc e6 3a ed d7 19 3b ac f9 41 ba
       0.00026828615 0.0017608436 0.002347465 -0.000739957
000170 05 d7 69 bc 78 b9 96 ba 7b 1d 18 b9 a1 e0 e6 39
       -0.014272456 -0.0011499366 -0.00014506832 0.0004403638
000180 70 53 1c 3b 15 ca 17 3a 31 80 48 ba cc 7b 84 bc
       0.0023853444 0.00057903054 -0.00076484965 -0.016172312
000190 99 42 62 bc 38 15 a8 bd 62 17 77 39 d4 01 4b 3a
       -0.013809823 -0.08207172 0.00023564466 0.0007744108
0001a0 49 36 03 3b bb 0e 81 bb 0b de ed ba 19 7f 74 bb
       0.002002137 -0.0039385236 -0.0018147839 -0.0037307201
0001b0 da 08 76 bb 3b d9 d5 ba e5 71 58 bc 47 eb 55 3a
       -0.0037541897 -0.001631535 -0.013210748 0.0008160364
0001c0 4c 84 cc 39 a7 5f cd b8 4a b8 47 ba cb dc 49 39
       0.0003900848 -9.7929784e-05 -0.0007618709 0.00019251106
0001d0 8e b9 2b 3b 92 31 8b 3b 31 c2 96 3a e4 32 03 3b
       0.0026203129 0.0042478526 0.0011501965 0.0020019347
0001e0 89 c9 b0 ba 29 38 d7 b9 cd 35 6e bb c4 bb 63 39
       -0.0013487797 -0.00041049838 -0.0036347986 0.00021718355
0001f0 0b f1 5c b9 b6 bd 1b ba 6a ba d4 b8 57 4e e7 36
       -0.0002107063 -0.000594105 -0.0001014367 6.8934564e-06
000200 0d 74 9e 3b 09 3a 96 bb 6e d9 ef ba 1b 12 be bc
       0.0048356117 -0.004584555 -0.0018299052 -0.023201993
000210 7d 99 8d 3a 16 24 ba 3a 5c 5d 44 3c 13 4f 95 bb
       0.0010803189 0.0014201428 0.011985149 -0.0045565455
000220 af a0 fd ba 1a 76 17 bc ef 0a b9 38 79 89 95 b9
       -0.0019350256 -0.009244466 8.823524e-05 -0.0002852192
000230 b1 78 59 b9 a7 90 f0 3a 60 03 66 3a 83 56 b7 3b
       -0.00020739694 0.0018353657 0.00087743066 0.00559503
000240 5b 02 b4 3a af 26 2b 3a fe 67 a8 3b 47 3d 04 bb
       0.0013733612 0.00065288966 0.00513935 -0.0020178126
000250 3c 26 a4 b8 d3 f6 70 3b 69 e6 79 ba f7 8e 7a 3b
       -7.827251e-05 0.0036768212 -0.000953293 0.0038232186
000260 c4 ae 26 3d 12 31 24 3b cb 2f d1 b8 9a 03 77 3a
       0.040694013 0.0025053662 -9.974799e-05 0.0009422839
000270 12 e5 80 3a aa 27 f3 39 fe 63 de 3b 31 b6 46 ba
       0.0009833893 0.00046378124 0.0067868223 -0.0007580249
000280 df f8 96 ba da 41 14 bc b0 15 ed ba d0 d6 7c b9
       -0.0011518261 -0.009048903 -0.0018088128 -0.00024112617
000290 fa f0 14 39 f0 27 d9 3b 20 e1 e7 3a 38 fd 3b 3b
       0.0001420415 0.0066270754 0.0017690994 0.0028684866
0002a0 44 fa 2f bc 16 30 55 3b 6a af 9f 3d eb 29 ad bb
       -0.01074082 0.0032529882 0.077971295 -0.005284538
0002b0 3e fd 16 bb e3 5a 81 bc 71 d4 40 ba 03 c6 29 38
       -0.0023039128 -0.015790408 -0.0007355875 4.0477153e-05
0002c0 54 c9 9a 3b f2 8f 80 3a 5a 7b fc 39 9a 32 e3 3a
       0.004723707 0.0009808524 0.0004815709 0.0017333806
0002d0 28 ac 3d b9 38 47 68 b8 30 e8 af b9 21 5c e1 37
       -0.00018088578 -5.5379438e-05 -0.00033551594 2.6864991e-05
0002e0 71 db c8 b9 e8 cf a4 3a 26 72 c4 3a 1a 45 29 b8
       -0.0003831047 0.0012574168 0.0014987632 -4.0357096e-05
0002f0 73 c6 4e bc 30 a7 3b bc e1 69 6d bb 56 c6 cd 3d
       -0.012620556 -0.011453435 -0.0036226439 0.10047595
000300 1f 0e c0 39 f8 61 2f 38 07 27 80 39 43 35 bf ba
       0.00036631615 4.1814492e-05 0.0002444314 -0.0014588017
000310 89 d6 2c ba 80 d8 42 bb bf 90 15 3b 81 85 b0 3a
       -0.00065932475 -0.0029731095 0.002282187 0.0013467522
000320 f0 4f db 3b ab 98 70 39 50 90 7a b9 6d 5b 19 ba
       0.006692879 0.00022945057 -0.00023895619 -0.00058501103
000330 40 63 1d bb 75 c3 ac ba 9d 47 a5 bc 1f 1c 3a 3a
       -0.0024015456 -0.0013180809 -0.02017575 0.0007099527
000340 55 aa 17 39 fa 12 51 3b f0 30 31 bb 45 ea c0 b9
       0.00014463936 0.003190218 -0.0027037226 -0.00036795638
000350 ba 14 01 39 f8 17 83 ba 19 8d d8 39 56 bb b4 3b
       0.0001231012 -0.001000165 0.00041303856 0.0055154962
000360 2f 84 bb 3b 57 82 aa 3a 10 da df 39 af ea 1a ba
       0.0057225446 0.0013008815 0.00042696344 -0.00059096044
000370 d3 4e 3d ba 31 49 9e bb 31 10 86 3a e9 7e 4f 39
       -0.00072215236 -0.0048305024 0.0010228214 0.00019788336
000380 c1 71 9e bb e1 3d a5 ba 2b c0 a0 ba 8f 30 bd bb
       -0.004835338 -0.0012606942 -0.0012264302 -0.005773611
000390 a9 a2 82 3b 2a d2 cf 3b a8 6c 77 3d 44 05 f4 b7
       0.0039866758 0.006342192 0.060406357 -2.9089519e-05
0003a0 9f 63 42 b8 4b 39 16 ba f5 71 be 38 fc 16 04 b9
       -4.6345984e-05 -0.0005730583 9.081132e-05 -0.00012597063
0003b0 51 60 29 ba e4 71 92 ba 34 25 84 b8 35 e3 f8 b8
       -0.00064611906 -0.0011172858 -6.30118e-05 -0.00011867882
0003c0 32 04 cf 39 fa 2a a0 b9 cb c8 e9 bb 22 75 03 3a
       0.00039485242 -0.00030549598 -0.007134532 0.00050147076
0003d0 72 5f fa b9 b5 c3 93 bc 78 2b ec 37 6b 5d b5 b8
       -0.00047754828 -0.018037656 2.8153634e-05 -8.648153e-05
0003e0 bc 09 9f b9 cc 74 bb ba 2b 2f 26 3a 32 a8 ff 3a
       -0.00030334096 -0.0014301776 0.0006339426 0.0019505082
0003f0 f9 00 0a bc a5 ae 5f bb 2d 46 fa bb 5b 91 d9 ba
       -0.008423083 -0.0034131196 -0.00763776 -0.0016599105

exp_avg_sq f4 [256, 3]
000000 e2 e0 a5 3b a2 99 69 39 06 ad 72 3b 5c d7 dd 37
       0.0050622085 0.00022277844 0.00370294 2.6445538e-05
000010 08 16 84 37 05 11 fc 3a 87 74 5c 3a 89 08 a1 39
       1.5745885e-05 0.0019231146 0.0008409698 0.00030714672
000020 56 91 4b 3d 33 47 1b 3a 89 95 97 37 12 79 1b 3a
       0.04969915 0.000592339 1.8070235e-05 0.00059308216
000030 c5 20 d5 36 00 16 d8 37 64 78 41 3a 34 28 a6 37
       6.3517095e-06 2.5759451e-05 0.00073803053 1.9807463e-05
000040 ed a0 c0 36 58 b2 fd 39 91 33 0c 39 3a 6a 86 37
       5.74078e-06 0.00048388797 0.0001337065 1.602351e-05
000050 f4 cd 10 39 2f 91 9b 35 f9 44 20 36 05 f1 d4 38
       0.00013809634 1.1590654e-06 2.3882005e-06 0.00010153841
000060 87 29 70 38 11 34 80 36 0f 19 f7 39 75 44 35 37
       5.7259134e-05 3.8207586e-06 0.0004713018 1.080438e-05
000070 b9 3e fe 36 ab b4 03 3a c8 e3 96 37 1c e0 cc 35
       7.5770918e-06 0.0005024175 1.7987462e-05 1.5264409e-06
000080 60 ff 15 39 21 cd 28 36 c9 3b 86 36 7f 55 5b 39
       0.00014304882 2.5153352e-06 4.000471e-06 0.00020917317
000090 35 ee 00 38 d8 2f f9 36 c8 56 44 3a 6e 60 3d 38
       3.0739426e-05 7.426348e-06 0.0007489738 4.515092e-05
0000a0 63 e9 72 36 46 21 ed 38 09 b5 85 39 db 09 89 37
       3.619666e-06 0.00011307238 0.00025502619 1.6336262e-05
0000b0 6a 01 b0 39 f2 e9 57 38 e0 08 1c 37 88 ae 15 3a
       0.0003357039 5.1477873e-05 9.300391e-06 0.0005709906
0000c0 ca 32 19 36 fa 15 33 36 de 79 f1 38 e5 44 4f 35
       2.282834e-06 2.668587e-06 0.00011514475 7.7213764e-07
0000d0 92 e2 a3 35 24 c9 67 38 c9 e8 ef 39 cc ed 3d 38
       1.2210387e-06 5.526202e-05 0.0004575907 4.5282577e-05
0000e0 00 ce 5a 3b 6e d3 1f 38 f2 18 ac 37 16 08 16 3b
       0.0033386946 3.8105463e-05 2.0515614e-05 0.0022893003
0000f0 82 41 a8 37 94 6b 96 36 1f 17 ab 39 80 2d 97 3b
       2.0057665e-05 4.482872e-06 0.00032632888 0.0046135783
000100 0e ae 59 3a 35 14 1c 3e f7 6f d1 33 12 28 4b 34
       0.0008303829 0.15242083 9.752687e-08 1.8920426e-07
000110 1b cc 07 37 b7 65 09 38 c6 3e a9 36 df 9e 03 3b
       8.094149e-06 3.2758075e-05 5.0439003e-06 0.0020083708
000120 a5 73 f8 38 bc 42 20 37 28 d3 45 3a 6a 06 af 38
       0.00011847102 9.552281e-06 0.00075464183 8.345845e-05
000130 23 27 60 36 30 35 91 38 eb 37 4f 38 e2 ae 80 36
       3.3401382e-06 6.924046e-05 4.9404724e-05 3.8350563e-06
000140 62 9a 09 39 70 34 2e 39 4d 5d 03 38 bb 6b 40 3c
       0.0001312285 0.00016613468 3.1319727e-05 0.011744435
000150 d2 82 7f 39 2c c7 65 37 e5 f0 0c 39 ad 0f 8c 36
       0.0002436743 1.3695837e-05 0.0001344118 4.17415e-06
000160 78 6d f4 35 dd 1d 93 39 cd d3 65 38 b3 d2 b3 37
       1.8211276e-06 0.00028060275 5.479511e-05 2.1436577e-05
000170 0d 95 60 3b 4b 04 6c 37 21 dd 87 37 9a 6b 0d 3a
       0.0034268529 1.4067696e-05 1.6196225e-05 0.0005394757
000180 94 9f 0d 39 49 eb 15 37 1c 6b ce 38 a3 9e 8b 3a
       0.00013506255 8.935874e-06 9.842796e-05 0.0010652136
000190 8d 15 cc 39 28 69 23 3d b1 3b 91 37 52 5f 52 36
       0.0003892597 0.039895207 1.7313143e-05 3.1347922e-06
0001a0 64 d7 ea 37 8d 63 f0 38 74 ae f6 37 51 7c 61 3b
       2.7995273e-05 0.000114626346 2.9406721e-05 0.0034406374
0001b0 2b 11 40 38 bc a5 50 37 e6 70 72 3a f3 a2 df 37
       4.5792356e-05 1.2436354e-05 0.00092483906 2.665955e-05
0001c0 1b 4b 44 36 47 64 12 39 3d eb ca 37 a2 c9 f8 35
       2.9249993e-06 0.00013961001 2.4189818e-05 1.8536123e-06
0001d0 03 44 12 39 dc 7b 82 39 2d 1e 12 37 ef fd ba 38
       0.00013948981 0.00024887815 8.709304e-06 8.91647e-05
0001e0 1b f4 57 37 fc e7 da 36 da f9 9c 3a 9a 6f 80 35
       1.2871834e-05 6.523913e-06 0.0011976317 9.569223e-07
0001f0 37 13 f1 35 85 fb 92 38 a3 5f 97 36 b1 99 66 36
       1.7961491e-06 7.008672e-05 4.5112843e-06 3.436213e-06
000200 5f e4 c9 39 3e a5 41 38 78 bc c1 37 15 9b 0d 3b
       0.00038507857 4.616868e-05 2.3095155e-05 0.0021607329
000210 c1 57 ef 37 00 44 10 37 a8 4c 92 3a 5a 27 63 38
       2.8531884e-05 8.598901e-06 0.0011161761 5.4157666e-05
000220 3c d2 92 37 cc e9 b9 3a 24 15 73 35 24 e0 01 36
       1.7502454e-05 0.0014184057 9.055532e-07 1.9352965e-06
000230 de 36 9a 38 84 80 25 37 21 88 a4 36 56 24 fc 39
       7.353512e-05 9.864689e-06 4.9034284e-06 0.00048092258
000240 6e 20 3e 37 95 49 8c 36 08 a0 1e 3a c1 50 ef 37
       1.1332433e-05 4.180891e-06 0.0006051068 2.8528624e-05
000250 ff d6 ea 35 11 7a 09 39 0f e9 b7 39 5c 57 06 38
       1.7496931e-06 0.00013110811 0.00035078122 3.202945e-05
000260 1d 77 04 3b dd a7 59 3a ff b0 24 38 ec 91 0f 3a
       0.0020212599 0.00083029066 3.9265487e-05 0.0005476761
000270 05 4c b0 36 28 73 73 36 f0 41 24 39 c5 9f 12 38
       5.2540586e-06 3.6276851e-06 0.00015664822 3.495791e-05
000280 e0 1d 98 36 11 23 cd 39 dc 9a d1 37 fb 65 8f 35
       4.533431e-06 0.00039126773 2.4986854e-05 1.068401e-06
000290 8d d1 c3 37 3f 4f 11 3a 09 36 bd 37 e3 4f 09 39
       2.3343391e-05 0.00055431196 2.2555718e-05 0.00013095098
0002a0 94 ec a6 3a d1 83 1e 3a 06 53 f4 3d fb c8 0f 39
       0.0012735301 0.0006046864 0.11929898 0.00013712414
0002b0 dd 2c 94 37 b1 06 ba 3a 00 32 7e 37 3b d0 9c 36
       1.7663866e-05 0.0014192668 1.5151221e-05 4.6734035e-06
0002c0 13 0c e3 38 3e de 6b 36 44 b5 ee 35 8b f0 7b 39
       0.000108264525 3.514709e-06 1.7785137e-06 0.00024026835
0002d0 56 0e 9f 35 c4 c8 cf 35 4e 5d 81 38 ad 07 48 36
       1.1850595e-06 1.5481132e-06 6.168579e-05 2.980679e-06
0002e0 8b 7f 02 36 b0 33 66 38 11 06 a5 36 c7 05 1a 36
       1.944575e-06 5.488441e-05 4.9180894e-06 2.295115e-06
0002f0 bb 9f df 39 c9 b5 9b 39 11 33 c2 38 eb 41 a5 3c
       0.00042652883 0.00029699344 9.260153e-05 0.020173034
000300 a4 10 f0 35 df 18 3d 35 0e 11 00 39 c4 b0 30 37
       1.7886236e-06 7.044418e-07 0.00012213385 1.0531574e-05
000310 d0 79 b5 36 33 17 25 3a a5 4a b9 37 00 ea 02 37
       5.408401e-06 0.00062977074 2.2088478e-05 7.803086e-06
000320 6d e3 8b 3a a1 e9 ce 35 36 13 10 36 cb 27 b2 38
       0.0010672637 1.5416191e-06 2.1468854e-06 8.4951134e-05
000330 85 86 89 37 03 c1 1f 37 99 01 42 3a 8c f1 68 35
       1.6394313e-05 9.522078e-06 0.0007400751 8.677823e-07
000340 35 e5 bd 34 ef 30 57 38 1e bc eb 38 6c c4 98 36
       3.5370763e-07 5.1305567e-05 0.00011240713 4.5528195e-06
000350 b4 87 d4 38 8f 23 c2 38 17 ab 9e 36 b7 91 b4 39
       0.000101342244 9.257264e-05 4.7286844e-06 0.0003444084
000360 ad b9 37 3a 5a 18 f9 37 69 50 ae 39 41 80 72 36
       0.0007008564 2.9694453e-05 0.00033247776 3.6135464e-06
000370 7d 11 2c 36 64 df 18 39 84 f1 dd 35 34 51 54 35
       2.5640177e-06 0.00014579069 1.6536073e-06 7.909432e-07
000380 d9 b1 c9 38 bc ea 6a 36 53 4a 29 36 9d 31 89 39
       9.6175536e-05 3.500535e-06 2.5226225e-06 0.0002616764
000390 a8 94 ee 39 fa ce e7 38 90 bb 05 3c 1b 94 a1 35
       0.00045505655 0.00011053491 0.008162394 1.2038539e-06
0003a0 31 4d cc 35 da 7e 72 38 70 e5 27 35 3b 22 1d 35
       1.522165e-06 5.7815436e-05 6.2546223e-07 5.853687e-07
0003b0 6f d8 7e 37 1e d8 ea 37 76 a3 88 35 be 93 55 37
       1.5189972e-05 2.7995611e-05 1.0180363e-06 1.2730188e-05
0003c0 39 c3 57 36 00 6c 3f 36 91 41 9e 39 5a 32 91 38
       3.215113e-06 2.8524082e-06 0.0003018496 6.9235175e-05
0003d0 60 6e b4 37 d0 48 86 3b 85 ce 23 34 a1 ff e8 34
       2.150907e-05 0.0040980354 1.525569e-07 4.3399362e-07
0003e0 1d b9 3f 37 1f 95 98 38 86 38 94 36 af e0 19 39
       1.1427587e-05 7.275701e-05 4.417324e-06 0.00014674918
0003f0 4e a3 dc 3b 48 43 e5 38 d9 e6 96 3a 60 47 96 37
       0.0067333346 0.00010932103 0.001151289 1.791463e-05
