_models/Pendulum-v1_DDPG.pt (torch, 812554 bytes, 15 tensors)

mlp.0.weight f4 [256, 3]
0.37113753 -0.35155678 -0.08024347 0.34794033 -0.6053745 0.3529699 -0.062961124 0.41815725
0.08931612 -0.036975324 0.26312187 0.015458714 0.28956506 -0.39473057 -0.08618338 0.06008049
0.093543716 0.0024622132 0.64114314 0.23780805 -0.122954234 -0.34197137 -0.18562849 -0.23771816
-0.27855486 0.03832258 0.3421112 0.27739704 -0.66089493 0.34573892 0.2844073 0.5616964
0.36856145 -0.49769396 -0.6936283 -0.2874902 0.5538235 -0.18842009 0.24019577 -0.27496633
0.6232238 -0.2516051 0.50825596 0.02436076 -0.2700344 0.2920252 -0.4101713 0.16626154
-0.15707518 -0.11265591 -0.53630793 -0.2946553 0.4078675 -0.13989246 0.7322911 0.4522748
0.056114916 -0.4202811 0.46466893 0.183711 -0.42792904 0.4496691 0.3448317 0.59646314
-0.38239205 -0.01794925 0.019215291 0.13508745 -0.43088964 -0.434559 0.36324555 -0.15032783
0.30734763 0.042873636 0.19291575 0.1733129 0.18587568 0.2722766 -0.5694507 0.42320693
-0.39342058 -0.43745786 -0.06089126 -0.10118938 0.4251386 -0.38649547 -0.49900964 0.42802703
-0.10201411 0.31609282 0.18815452 -0.48091486 0.12035634 0.21839023 -0.43403798 -0.26338202
0.18394609 0.10970591 -0.22575961 -0.18323192 0.6155151 -0.08204623 0.36835203 0.2227009
-0.34614962 -0.46965003 0.6752255 0.06319068 0.44817266 0.120438814 0.18465222 0.44649044
0.6865261 -0.36079544 0.08204815 0.4742232 0.41683173 0.44755173 -0.5123197 -0.3744715
-0.3737792 0.07420099 0.5682169 -0.3796254 0.35762566 -0.31895697 -0.5985032 -0.1162838
0.32696852 0.60664505 -0.42540854 0.1389021 0.57084054 0.34537134 0.35938844 0.51375574
0.40703407 0.13506222 -0.4358362 -0.627404 -0.2613948 -0.124078564 -0.37531963 0.21570687
0.22426704 -0.13522764 0.21632278 0.23803124 0.3618972 0.39042655 -0.14030002 0.6749312
-0.045763414 -0.036639225 -0.6925431 -0.36045623 -0.36108315 -0.24719575 0.3960567 -0.26495993
-0.45782936 0.22078007 0.16822028 0.4610365 -0.29649228 0.1494312 -0.3100662 -0.10854195
-0.50070226 -0.38690862 -0.15258986 0.3134603 0.06478368 0.13675009 0.63868105 0.5841226
0.39765283 -0.041866425 -0.39734897 0.44464317 -0.09532141 -0.09989632 -0.4703656 -0.2039069
-0.36313167 0.52529645 -0.5636048 -0.45186976 -0.028541977 -0.39384317 0.23358864 -0.20326419
-0.29926348 0.075171754 0.4156686 -0.43270144 0.3775893 0.37596127 0.5746311 -0.46706107
0.1462342 -0.42772967 0.49203423 -0.23715103 0.4098885 -0.035968006 -0.026966045 0.04194654
0.032253776 0.2651463 0.054335374 0.21340172 -0.50714445 0.45335162 0.54633933 0.47870645
0.5111812 -0.49676695 -0.17583913 0.51188993 -0.49375948 0.52047926 -0.51166105 -0.39469284
0.277904 -0.46495715 -0.060061008 0.4088802 0.57366294 0.5742299 -0.09200378 -0.5228976
0.60274875 -0.15198217 -0.27142414 0.07726838 -0.392447 0.41195694 0.52621835 -0.44548732
-0.52371615 0.015921365 0.24210669 -0.042055197 -0.3942624 0.018442659 -0.5357938 -0.56879073
-0.37209663 0.5025106 0.59997493 -0.1708014 0.08348564 0.3735994 0.07309459 -0.23829158
00000000: bd05 be3e 40ff b3be b056 a4bd 3c25 b23e
00000010: d3f9 1abf 79b8 b43e c3f1 80bd b518 d63e
00000020: 5feb b63d 7073 17bd e9b7 863e 8c46 7d3c
00000030: df41 943e 201a cabe e980 b0bd f616 763d
00000040: d993 bf3d 155d 213b f521 243f f483 733e
00000050: 6ecf fbbd df16 afbe 6515 3ebe 646c 73be
00000060: be9e 8ebe 23f8 1c3d 3329 af3e fc06 8e3e
00000070: 6930 29bf b104 b13e d59d 913e 56cb 0f3f
00000080: 16b4 bc3e bed1 febe a091 31bf ea31 93be
00000090: 60c7 0d3f 32f1 40be e1f5 753e 63c8 8cbe
000000a0: 988b 1f3f 62d2 80be 101d 023f 3790 c73c
000000b0: f341 8abe 5484 953e f901 d2be 7740 2a3e
000000c0: 51d8 20be 24b8 e6bd 7a4b 09bf 0fdd 96be
000000d0: 02d4 d03e f83f 0fbe 6e77 3b3f 9090 e73e
000000e0: c1d8 653d 162f d7be 16e9 ed3e bd1e 3c3e
000000f0: 8419 dbbe 073b e63e c88d b03e cfb1 183f
00000100: e4c8 c3be 4e0a 93bc 6369 9d3c 5d54 0a3e
00000110: 919d dcbe 847e debe 52fb b93e 8aef 19be
00000120: ab5c 9d3e 449c 2f3d b58b 453e f078 313e
00000130: 3256 3e3e d767 8b3e 85c7 11bf 94ae d83e
00000140: 6c6e c9be 7afa dfbe 1d69 79bd 613c cfbd
00000150: c4ab d93e bce2 c5be 317e ffbe 5c26 db3e
00000160: c6ec d0bd ebd6 a13e 94ab 403e 793a f6be
00000170: 637d f63d b0a1 5f3e 3a3a debe 02da 86be
00000180: 5d5c 3c3e 7ead e03d 872d 67be 26a1 3bbe
00000190: 6692 1d3f db07 a8bd a398 bc3e b40b 643e
000001a0: 863a b1be f875 f0be 94db 2c3f 1e6a 813d
000001b0: e376 e53e a0a8 f63d 7915 3d3e 659a e43e
000001c0: 2dc0 2f3f 2eba b8be dc08 a83d 62cd f23e
000001d0: f86a d53e 8025 e53e 6227 03bf baba bfbe
000001e0: fd5f bfbe b0f6 973d aa76 113f 435e c2be
000001f0: b61a b73e 544e a3be 8137 19bf 3326 eebd
00000200: 6b68 a73e 174d 1b3f 26cf d9be 5a3c 0e3e
00000210: 9b22 123f 83d4 b03e c301 b83e 7f85 033f
00000220: c566 d03e c04d 0a3e ec25 dfbe 8c9d 20bf
00000230: 8ad5 85be e71c febd e529 c0be 43e2 5c3e
00000240: 42a6 653e 1d79 0abe b883 5d3e 76be 733e
00000250: 974a b93e fde5 c73e cfaa 0fbe 4bc8 2c3f
00000260: 6b72 3bbd 0313 16bd 814a 31bf b88d b8be
00000270: e4df b8be e220 7dbe f2c7 ca3e d4a8 87be
00000280: 9c68 eabe 2c14 623e f041 2c3e fa0c ec3e
00000290: d6cd 97be 7e04 193e ffc0 9ebe 3e4b debd
000002a0: 062e 00bf e318 c6be 8440 1cbe de7d a03e
000002b0: 4ead 843d 3708 0c3e 9a80 233f 0f89 153f
000002c0: 2799 cb3e 217c 2bbd 5371 cbbe 45a8 e33e
000002d0: df37 c3bd 7196 ccbd c3d3 f0be f8cc 50be
000002e0: 65ec b9be d479 063f 6748 10bf 795b e7be
000002f0: ddd0 e9bc d0a5 c9be dc31 6f3e 7d24 50be
00000300: 1039 99be a6f3 993d 84d2 d43e 0b8b ddbe
00000310: 6253 c13e ff7d c03e 061b 133f a122 efbe
00000320: 6bbe 153e 62ff dabe e9eb fb3e b8d7 72be
00000330: e8dc d13e 3053 13bd e5e7 dcbc 23d0 2b3d
00000340: 891c 043d 41c1 873e c58e 5e3d fb85 5a3e
00000350: 38d4 01bf b41d e83e e5dc 0b3f 0319 f53e
00000360: c5dc 023f 3d58 febe 2c0f 34be 380b 033f
00000370: 0bce fcbe 213e 053f 38fc 02bf 2e15 cabe
00000380: 6f49 8e3e dd0e eebe 8802 76bd bf58 d13e
00000390: 93db 123f bb00 133f 7a6c bcbd 9edc 05bf
000003a0: be4d 1a3f 37a1 1bbe 1bf8 8abe e23e 9e3d
000003b0: d0ee c8be 05ec d23e 3fb6 063f ea16 e4be
000003c0: 4312 06bf 866d 823c d1ea 773e 1242 2cbd
000003d0: c3dc c9be 0f15 973c c829 09bf 459c 11bf
000003e0: 7383 bebe 89a4 003f f597 193f 90e6 2ebe
000003f0: 85fa aa3d 6c48 bf3e 9eb2 953d b502 74be

mlp.0.bias f4 [256]
-0.04887153 0.2476586 -0.42392394 0.11888104 -0.47551078 0.3817698 0.63620734 -0.20736842
0.06729996 -0.30694264 -0.3480093 -0.27953377 -0.2666381 0.14489463 -0.06854697 0.050001346
-0.495388 -0.36943978 -0.43079984 -0.41465452 0.47268313 0.29299286 -0.5939646 -0.060160767
0.04264578 0.32870567 0.509667 0.1866489 0.41227728 -0.23623547 -0.009045684 -0.3928938
0.15493526 0.53607184 0.3660055 0.5779493 -0.2719535 -0.04170082 0.11026114 0.49811012
-0.543892 -0.25240865 0.08578315 -0.30409777 0.22466616 -0.020741535 -0.13846733 0.3230126
0.40901577 0.5556356 0.32654893 -0.02372228 0.48039198 0.46548352 -0.26393247 0.29041263
0.086995155 -0.2535348 -0.14735378 -0.15286636 -0.43461612 -0.19011414 0.23747258 0.4387367
0.026070755 -0.55335724 0.30388552 -0.13566624 0.5321729 -0.5601163 -0.13949665 0.44153458
0.28019187 -0.28265023 -0.5094429 -0.022773819 0.2511892 -0.44688532 -0.48106515 0.021317136
-0.11727935 0.361988 -0.55539197 -0.052083656 -0.44121483 -0.091647096 -0.30076215 0.1916512
-0.50429785 -0.41646823 -0.3223321 -0.5338076 0.36242718 -0.1026731 -0.33788297 0.3696075
-0.1324313 0.29651096 -0.20456386 -0.54074234 0.113702625 0.37158093 -0.533434 0.0815201
0.111074515 0.073521174 0.0027627754 -0.1543557 -0.48727334 0.15996943 -0.37062687 -0.46282884
-0.17829846 -0.46969527 0.23973696 0.38276088 0.43949616 -0.40323794 0.29727185 0.42272258
0.0048378943 0.24774007 0.32693076 0.44770816 0.316895 0.22196177 -0.21181041 -0.30183947
-0.28561255 0.49759108 -0.061010286 0.068192884 -0.52251357 -0.014059245 -0.21237919 -0.37916246
0.49302474 -0.44641587 -0.11326525 -0.033236306 -0.50357145 0.34290308 -0.1721425 0.21804544
0.3224748 0.52094984 0.17421833 0.42953584 0.53882056 0.097000435 -0.10109309 -0.15464333
0.11014357 0.22174202 -0.534486 0.48677728 0.119496845 -0.5330117 0.20566395 0.36525804
0.21264973 0.48082677 0.020713964 -0.45793927 0.012739996 0.45491835 -0.26311162 0.23166302
0.093761764 -0.077214144 0.03947231 0.2897159 -0.3888143 0.36492255 0.42783153 0.30301347
0.57093966 -0.028891113 -0.4293209 -0.0027375098 -0.14661475 0.18023144 0.5153525 -0.33725497
0.027515354 0.57043195 -0.47838157 -0.08706224 0.5650209 0.41336304 0.17676044 -0.23747526
-0.050640088 -0.49095732 -0.5322938 -0.54434896 0.56226176 0.48212954 0.24698062 -0.1534698
0.48680303 -0.1702653 0.4102538 -0.0055480315 -0.27894047 -0.1472303 -0.12412831 -0.5205829
0.20950209 -0.18074001 0.26833016 0.37788782 -0.11130561 0.27481917 0.103691705 0.42483956
-0.37782702 -0.05699301 -0.18146144 0.5258466 -0.4906838 -0.29501912 0.08523578 0.52209556
0.39705253 -0.59146667 -0.41860363 0.58646953 0.09155648 -0.53263503 -0.18570282 0.24127409
-0.1288575 -0.48948774 -0.34030306 -0.315502 0.021843983 0.276227 0.28866258 -0.2991548
-0.09907896 -0.44155714 0.4269289 0.56452394 0.54360217 0.24546604 -0.12985927 -0.020155393
0.19765818 -0.41565457 0.027944038 -0.47480118 -0.5365345 -0.03563984 -0.1047778 -0.37070286
00000000: 832d 48bd 379a 7d3e 8f0c d9be e777 f33d
00000010: 2676 f3be 5577 c33e 7cde 223f 6358 54be
00000020: 90d4 893d 9627 9dbe 462e b2be 0d1f 8fbe
00000030: ca84 88be 425f 143e 5b62 8cbd 36ce 4c3d
00000040: 7fa3 fdbe 3627 bdbe cc91 dcbe 994d d4be
00000050: 8603 f23e 2903 963e 100e 18bf 236b 76bd
00000060: 57ad 2e3d 1c4c a83e 8979 023f e420 3f3e
00000070: 0216 d33e b6e7 71be 5934 14bc 6029 c9be
00000080: 59a7 1e3e 013c 093f 1365 bb3e 7cf4 133f
00000090: 7d3d 8bbe 7bce 2abd 98d0 e13d 4a08 ff3e
000000a0: 823c 0bbf b53b 81be 13af af3d b4b2 9bbe
000000b0: e30e 663e 27ea a9bc 61ca 0dbe e861 a53e
000000c0: 846a d13e 223e 0e3f 6c31 a73e 3a55 c2bc
000000d0: f0f5 f53e db53 ee3e 2822 87be f7b0 943e
000000e0: 842a b23d 50cf 81be e9e3 16be 0089 1cbe
000000f0: 0186 debe 48ad 42be 032c 733e 19a2 e03e
00000100: 5692 d53c d2a8 0dbf e296 9b3e 17ec 0abe
00000110: 7c3c 083f c863 0fbf 36d8 0ebe d210 e23e
00000120: 4f75 8f3e 88b7 90be da6a 02bf 2990 babc
00000130: df9b 803e 27ce e4be 2c4e f6be 46a1 ae3c
00000140: 2830 f0bd 7e56 b93e 2b2e 0ebf ac55 55bd
00000150: e9e6 e1be 79b1 bbbd 7ffd 99be 3640 443e
00000160: aa19 01bf 533b d5be b708 a5be 9da7 08bf
00000170: 0e90 b93e 4646 d2bd fffe acbe 323d bd3e
00000180: 129c 07be 49d0 973e 3079 51be 176e 0abf
00000190: ecdc e83d db3f be3e 218f 08bf 03f4 a63d
000001a0: 097b e33d 4592 963d ae0f 353b 6c0f 1ebe
000001b0: e47b f9be 07cf 233e cec2 bdbe e7f7 ecbe
000001c0: df93 36be e67b f0be 9b7d 753e 3cf9 c33e
000001d0: a405 e13e 3475 cebe 0434 983e 186f d83e
000001e0: 3387 9e3b 93af 7d3e 7863 a73e 013a e53e
000001f0: 1040 a23e f249 633e d4e4 58be b48a 9abe
00000200: cf3b 92be 42c4 fe3e ece5 79bd b6a8 8b3d
00000210: 73c3 05bf bf58 66bc ee79 59be 9521 c2be
00000220: bd6d fc3e 9f90 e4be 9df7 e7bd cb22 08bd
00000230: 0fea 00bf fe90 af3e 2046 30be 4e47 5f3e
00000240: 6b1b a53e f85c 053f 4a66 323e 1fec db3e
00000250: 25f0 093f 2aa8 c63d e509 cfbd d25a 1ebe
00000260: f492 e13d 5710 633e 13d4 08bf df3a f93e
00000270: c3ba f43d 7473 08bf 9299 523e 1a03 bb3e
00000280: dac0 593e ed2e f63e 55b0 a93c 0477 eabe
00000290: 6bbb 503c 0feb e83e 91b6 86be 1239 6d3e
000002a0: 2b06 c03d 7322 9ebd b8ad 213d a455 943e
000002b0: ab12 c7be 21d7 ba3e bc0c db3e 9524 9b3e
000002c0: 1a29 123f 0ead ecbc f3cf dbbe cb67 33bb
000002d0: 2d22 16be 978e 383e 24ee 033f afac acbe
000002e0: e167 e13c d407 123f 6eee f4be b04d b2bd
000002f0: 36a5 103f 52a4 d33e b000 353e b72c 73be
00000300: fb6b 4fbd c25e fbbe 6844 08bf 745a 0bbf
00000310: 63f0 0f3f afd9 f63e 7de8 7c3e 3027 1dbe
00000320: 3f3e f93e 075a 2ebe c90c d23e 43cc b5bb
00000330: 49d1 8ebe 8ac3 16be fc36 febd ec44 05bf
00000340: b787 563e e913 39be 9262 893e 837a c13e
00000350: 32f4 e3bd 19b5 8c3e 515c d43d 9284 d93e
00000360: 8b72 c1be 8171 69bd 07d1 39be e29d 063f
00000370: e83a fbbe bf0c 97be 1990 ae3d 0ea8 053f
00000380: 784a cb3e 5c6a 17bf 3753 d6be de22 163f
00000390: f781 bb3d c55a 08bf e128 3ebe 8e10 773e
000003a0: 38f3 03be 239e fabe 343c aebe 7a89 a1be
000003b0: 27f2 b23c a06d 8d3e 95cb 933e d12a 99be
000003c0: e9e9 cabd c713 e2be 6d96 da3e a484 103f
000003d0: 8329 0b3f 735b 7b3e d4f9 04be ec1c a5bc
000003e0: e866 4a3e add0 d4be e5ea e43c 2419 f3be
000003f0: 535a 09bf 15fb 11bd be95 d6bd c4cc bdbe

mlp.2.weight f4 [256, 256]
0.020299776 0.008574618 -0.023323145 -0.06505041 -0.062310085 -0.016872615 -0.107480936 -0.022778677
0.048515707 0.02064016 0.019265983 -0.009670313 -0.050649572 0.010828257 -0.056527972 0.013745239
-0.050543834 0.045696367 -0.1670195 0.055397652 0.04135426 0.018345559 0.035735294 0.012999489
-0.0069556213 -0.0053385356 -0.02255164 -0.04500271 0.028915618 0.0039452957 0.04420958 0.00045479042
-0.0011904923 -0.065439045 -0.07007721 0.035020556 0.014659221 0.014285033 -0.06715002 -0.050801847
-0.054353513 -0.008813577 0.0033910552 -0.04030152 -0.0701222 -0.023999806 0.054123808 0.06465186
-0.037730698 -0.016358335 -0.103640564 -0.061735068 -0.012461131 0.070220955 -0.01806923 0.00018189059
0.06256656 0.002759013 0.03909258 0.04906302 0.05684021 0.017936608 -0.019579072 -0.054664355
-0.029753776 0.053166494 0.0365794 0.01674445 -0.07041842 -0.044424184 0.049209177 -0.0134301055
-0.057264965 -0.0027918979 -0.0011909616 0.0066498523 -0.020494249 0.022768436 -0.0495479 -0.0024852687
-0.023252327 0.05724485 0.029220121 0.0060738917 0.045903556 0.028916273 -0.05928271 0.018129967
-0.030625418 0.006721282 -0.016224932 0.060134698 -0.046440482 -0.05497966 -0.023928342 0.017136818
0.018060947 0.04836915 0.046312816 0.01791897 -0.00943021 -0.022890165 -0.06124624 -0.015542964
-0.03594704 0.029293755 0.012269414 0.051254164 -0.06343605 0.05216815 -0.040692393 -0.006653135
0.073124535 0.032059226 -0.09703647 0.028188325 -0.05369587 0.047031377 0.056128882 -0.045491498
0.022558775 -0.03863179 -0.02749764 -0.016704699 -0.0003271524 -0.048050057 -0.05235155 0.005545543
-0.042436033 -0.06341605 -0.069781765 -0.07459426 0.056473 -0.018482327 -0.046678517 -0.01838203
-0.08986192 0.030401625 0.051910333 -0.08505079 -0.050957043 0.054973025 -0.018268254 0.016309926
-0.055398326 -0.059668507 -0.017187754 -0.031710524 0.012758637 -0.021139506 -0.001973953 -0.039828695
0.035891075 0.056171007 -0.0104295965 -0.05992616 -0.12682356 0.056839284 0.010865044 0.01132117
0.016443346 0.0045980606 0.016859027 0.028707381 0.051361386 -0.017536609 0.052121997 0.03310047
-0.011260087 -0.03059336 0.002416132 0.03406336 0.037857756 -0.042907618 -0.044391792 0.02816413
0.03335354 0.04929174 0.04298142 0.02622359 0.0063651702 -0.050465778 -0.03361108 0.004777328
-0.08818056 -0.0804312 0.040433142 0.019493936 -0.07497291 0.0045053833 0.024597706 0.042560518
0.06172485 -0.040376935 -0.00068059104 -0.03968458 -0.048816025 -0.051651888 -0.03364843 0.038296107
0.030788977 -0.03469831 -0.04051947 -0.035810895 -0.025484439 -0.042156715 0.014342794 0.0084382165
-0.0043951953 -0.032905467 0.032635137 -0.0537972 -0.016478995 -0.020503549 -0.0121573005 -0.02339028
0.006825663 -0.05907072 0.0364045 -0.059571434 -0.023939343 -0.04500256 0.034668814 0.018560162
-0.047514316 -0.03593078 0.061311524 0.013458391 0.05806939 -0.049683515 0.026376879 0.0411666
-0.010092341 -0.004735207 0.044421494 0.016240263 -0.00793653 -0.001522324 -0.029063387 -0.04005986
0.033023708 -0.002175935 0.058685675 0.047397144 -0.027200261 -0.012534836 -0.017802501 2.4900773e-05
0.041194465 0.033223365 -0.04657474 -0.023249034 -0.04622111 -0.061803848 0.058297694 -0.017225064
00000000: b74b a63c 8e7c 0c3c 2e10 bfbc 2639 85bd
00000010: dc38 7fbd 7038 8abc f71e dcbd 599a babc
00000020: 68b8 463d 8e15 a93c b2d3 9d3c 3c70 1ebc
00000030: ed75 4fbd 0069 313c e089 67bd b633 613c
00000040: 0d07 4fbd 1d2c 3b3d 2907 2bbe a6e8 623d
00000050: 1663 293d 6d49 963c 2c5f 123d cffb 543c
00000060: fbeb e3bb e2ee aebb 38be b8bc c354 38bd
00000070: 72e0 ec3c 8a47 813b 1b15 353d f070 ee39
00000080: 4b0a 9cba e804 86bd a484 8fbd b771 0f3d
00000090: 3b2d 703c c50b 6a3c f385 89bd 9915 50bd
000000a0: caa1 5ebd d266 10bc 773c 5e3b 3513 25bd
000000b0: 3a9c 8fbd 3e9b c4bc edb0 5d3d 3268 843d
000000c0: 818b 1abd ea01 86bc 8141 d4bd e9dd 7cbd
000000d0: c629 4cbc 01d0 8f3d ec05 94bc e2b9 3e39
000000e0: e622 803d 8fd0 343b 8b1f 203d 4ef6 483d
000000f0: 48d1 683d cbef 923c 4a64 a0bc bbe7 5fbd
00000100: 31be f3bc 1cc5 593d 48d4 153d a82b 893c
00000110: 8837 90bd 22f6 35bd 908f 493d f209 5cbc
00000120: ab8e 6abd 46f8 36bb 0a1a 9cba 01e7 d93b
00000130: 8ee3 a7bc df84 ba3c bdf2 4abd e4df 22bb
00000140: aa7b bebc 9379 6a3d 095f ef3c 7f07 c73b
00000150: 5e05 3c3d d2e1 ec3c 6dd2 72bd 4c85 943c
00000160: 28e2 fabc 333e dc3b 26ea 84bc cd4f 763d
00000170: 6038 3ebd 5a32 61bd 5f05 c4bc 8362 8c3c
00000180: 8df4 933c bb1e 463d 82b2 3d3d ceca 923c
00000190: 2b81 1abc 2884 bbbc 56dd 7abd eba7 7ebc
000001a0: 343d 13bd 75f9 ef3c a705 493c e3ef 513d
000001b0: c3ea 81bd 45ae 553d 11ad 26bd 8b02 dabb
000001c0: 51c2 953d 8950 033d 0fbb c6bd 34eb e63c
000001d0: 33f0 5bbd f9a3 403d 66e7 653d 4b55 3abd
000001e0: 2ecd b83c 5e3c 1ebd bb42 e1bc 4bd8 88bc
000001f0: a785 abb9 23d0 44bd 946e 56bd 63b7 b53b
00000200: 68d1 2dbd 46e0 81bd bee9 8ebd e0c4 98bd
00000210: 3c50 673d 4068 97bc f931 3fbd e995 96bc
00000220: 8709 b8bd d40c f93c ee9f 543d 1c2f aebd
00000230: 55b8 50bd 652b 613d 4ea7 95bc 659c 853c
00000240: 5be9 62bd f766 74bd 55cd 8cbc e5e2 01bd
00000250: 9a09 513c c22c adbc 705d 01bb 6a23 23bd
00000260: 8502 133d 9213 663d e6e0 2abc 2275 75bd
00000270: 09de 01be 4fd0 683d 4c03 323c 6e7c 393c
00000280: 32b4 863c 54ab 963b f11b 8a3c be2b eb3c
00000290: 5160 523d efa8 8fbc e07d 553d 5c94 073d
000002a0: 3a7c 38bc ed9e fabc f857 1e3b 0686 0b3d
000002b0: bc10 1b3d e6bf 2fbd 2bd4 35bd 76b8 e63c
000002c0: b99d 083d 23e6 493d 490d 303d dbd2 d63c
000002d0: eb92 d03b 34b5 4ebd c6ab 09bd 228b 9c3b
000002e0: 0298 b4bd 1db9 a4bd 399d 253d bfb1 9f3c
000002f0: 668b 99bd e5a1 933b 2181 c93c f053 2e3d
00000300: 32d3 7c3d 4962 25bd b169 32ba 4c8c 22bd
00000310: 50f3 47bd ee90 53bd f0d2 09bd 61dc 1c3d
00000320: 2a39 fc3c d11f 0ebd bef7 25bd 72ae 12bd
00000330: bec4 d0bc 85ac 2cbd 0afe 6a3c 7240 0a3c
00000340: 9205 90bb e2c7 06bd 6cac 053d 745a 5cbd
00000350: f5fe 86bc 0ff7 a7bc 6a2f 47bc f99c bfbc
00000360: d0a9 df3b 24f4 71bd e31c 153d 2d01 74bd
00000370: 711c c4bc 9b54 38bd e300 0e3d 7b0b 983c
00000380: 5f9e 42bd 272c 13bd cb21 7b3d 9580 5c3c
00000390: 2bda 6d3d f180 4bbd 5314 d83c 4f9e 283d
000003a0: 595a 25bc cc29 9bbb 50f3 353d 4d0a 853c
000003b0: 3808 02bc b888 c7ba 5716 eebc cf15 24bd
000003c0: de43 073d 229a 0ebb 6460 703d 8223 423d
000003d0: 15d3 debc ea5e 4dbc 8dd6 91bc 01e2 d037
000003e0: 87bb 283d 3915 083d 28c5 3ebd c274 bebc
000003f0: 5952 3dbd 0826 7dbd 90c9 6e3d 941b 8dbc

mlp.2.bias f4 [256]
0.008771554 0.0050028013 -0.06120995 0.054328404 -0.0015669651 -0.013052152 0.0186491 0.03172195
-0.031664588 -0.0021066992 0.04302305 -0.0045197373 -0.0024224182 -0.013729154 -0.050343778 0.050801452
0.057287447 -0.022209786 -0.011608552 -0.0040805596 0.034719776 -0.04403926 0.009165879 0.053394355
-0.04891433 0.023413735 -0.04315027 0.019042125 -0.011819949 0.0243552 -0.016131643 -0.0115196565
-0.020239124 0.0210997 0.016630087 0.02894363 -0.035518672 0.05749621 0.069674365 0.037779126
-0.015566151 -0.036355723 0.064623624 0.014998464 0.031540778 -0.04529845 -0.0010960241 0.0152043905
-0.04230123 0.03413954 0.056926757 -0.005388504 0.030897235 -0.04393055 0.05605862 0.03973949
-0.06711631 -0.04262629 -0.031740643 0.008922966 -0.044845328 0.037844837 -0.029769428 -0.035516888
0.011295344 0.066246755 0.034102708 -0.001914475 0.018842526 -0.03793628 0.05359023 0.031944614
-0.021312721 0.05813878 -0.03597264 -0.05805578 0.051383443 -0.013164228 -0.013211966 -0.055475134
0.010175556 0.039316107 -0.008283637 0.02610889 0.02240201 0.059792295 -0.050170846 -0.013303771
0.06533372 0.06002328 -0.0027875586 0.051380295 0.010061531 0.019249007 -0.07634436 -0.012244576
0.0042587663 -0.022305137 -0.023434844 0.031791862 -0.06697412 0.0016653998 0.0063006845 0.03898015
0.015623912 -0.05124835 0.04993311 -0.012326092 -0.04572987 -0.059664667 -0.027260697 -0.047029123
0.042179164 -0.040421832 0.030389711 0.053342838 0.06699766 -0.04300911 0.025879757 -0.0058202865
-0.018367842 0.045238502 0.030355059 0.014799183 0.067333855 0.0018289825 -0.03980436 -0.0011027438
0.0037046708 -0.026046045 0.05198902 -0.038674667 0.0075162277 -0.011582161 0.050758976 0.070223495
0.03866508 0.053872928 -0.031765305 0.03145442 -0.0135285165 0.0015027126 0.04813229 -0.026495708
-0.051270336 -0.04533549 -0.06333261 0.019361332 -0.015465729 -0.030559458 -0.0038285572 0.0014388519
0.031289406 -0.02098255 0.03505726 0.035531525 -0.03834242 -0.04485389 -0.04402762 -0.027726557
0.037879895 0.04708585 0.043147396 -0.032429487 0.055723447 -0.0007635997 0.00391035 0.052437205
0.025341086 -0.001245107 -0.05759548 -0.04113839 0.00063357427 0.05069102 0.031798843 0.046095014
-0.0071028983 0.03552979 0.021994408 0.019458156 0.01921694 0.02750788 -0.040269952 0.020117572
-0.019749677 0.043050557 0.038295265 -0.034524117 -0.069060504 -0.05121952 0.023459014 -0.0198166
0.051858492 -0.026174944 -0.06734183 0.03047358 -0.060793027 0.03633346 -0.023934914 0.051662214
0.036140226 0.009724038 0.030140888 -0.06779601 0.049790557 -0.055490963 -0.0385066 -0.0070087076
0.044652894 -0.038159166 -0.0151505675 -0.059256833 0.048389662 -0.021029372 0.0068575763 -0.037274618
-0.014236845 0.040114373 -0.020139996 0.015094357 0.07031252 0.05573063 -0.049840007 -0.048044212
0.010060688 0.016752483 -0.0054253577 -0.026634084 0.0709343 0.03203567 0.035663884 0.040538713
-0.0064070504 -0.055175804 0.023582885 0.045704972 0.027155614 0.01190522 -0.0034855565 -0.026271837
0.00073491916 0.024633229 0.060594294 -0.041637197 0.06923425 0.0073655285 0.05521218 0.068958655
-0.005979853 0.029156376 -0.0658135 -0.05971117 -0.03330801 0.073709786 0.052027952 0.025454711
00000000: 90b6 0f3c 8aee a33b 49b7 7abd 7687 5e3d
00000010: a062 cdba b1d8 55bc ffc5 983c e0ee 013d
00000020: bab2 01bd 8c10 0abb f038 303d 4e1a 94bb
00000030: 6fc1 1ebb 3ff0 60bc 4735 4ebd 2f15 503d
00000040: 3ea6 6a3d 4cf1 b5bc cc31 3ebc 37b6 85bb
00000050: 5336 0e3d 8362 34bd 7c2c 163c 0ab4 5a3d
00000060: 645a 48bd 29ce bf3c 56be 30bd 3bfe 9b3c
00000070: 76a8 41bc 8e84 c73c 8226 84bc f1bc 3cbc
00000080: 85cc a5bc 47d9 ac3c d23b 883c 311b ed3c
00000090: 077c 11bd 2581 6b3d 6fb1 8e3d 49be 1a3d
000000a0: 2b09 7fbc bde9 14bd 6459 843d 1ebc 753c
000000b0: e730 013d de8a 39bd 77a8 8fba d61b 793c
000000c0: 0e44 2dbd e7d5 0b3d 082c 693d 0c92 b0bb
000000d0: 331c fd3c 85f0 33bd b99d 653d e0c5 223d
000000e0: 4774 89bd e898 2ebd 7a02 02bd a231 123c
000000f0: bcaf 37bd 3003 1b3d 04df f3bc 287a 11bd
00000100: 1b10 393c 61ac 873d 48af 0b3d 1fef faba
00000110: a45b 9a3c 1363 1bbd 6e81 5b3d 5bd8 023d
00000120: 0498 aebc ee22 6e3d 0c58 13bd e6cb 6dbd
00000130: 7277 523d c6ae 57bc 0077 58bc e539 63bd
00000140: 60b7 263c ed09 213d 18b8 07bc 50e2 d53c
00000150: 6c84 b73c c4e8 743d f27f 4dbd 0ff8 59bc
00000160: afcd 853d f9da 753d 79af 36bb 2574 523d
00000170: 1fd9 243c 18b0 9d3c 6f5a 9cbd 799d 48bc
00000180: 1f8d 8b3b 43b9 b6bc 6efa bfbc 2f38 023d
00000190: ba29 89bd 8b49 da3a f975 ce3b a6a9 1f3d
000001a0: 70fb 7f3c cae9 51bd a986 4c3d 61f3 49bc
000001b0: 3f4f 3bbd f062 74bd d351 dfbc 9ca1 40bd
000001c0: 0fc4 2c3d 5d91 25bd d8f3 f83c 057e 5a3d
000001d0: 1236 893d 522a 30bd c901 d43c 1ab8 bebb
000001e0: 2878 96bc 024c 393d 2cab f83c 4678 723c
000001f0: 55e6 893d 78ba ef3a e609 23bd f189 90ba
00000200: 10ca 723b 845e d5bc 70f2 543d 5469 1ebd
00000210: b04a f63b 1bc3 3dbc a5e8 4f3d 56d1 8f3d
00000220: 465f 1e3d dca9 5c3d 561c 02bd 5ad6 003d
00000230: b6a6 5dbc abf6 c43a 5d26 453d 870d d9bc
00000240: d800 52bd b5b1 39bd 87b4 81bd a89b 9e3c
00000250: f863 7dbc d457 fabc 88e8 7abb dc97 bc3a
00000260: 5229 003d 99e3 abbc 3498 0f3d 8189 113d
00000270: f10c 1dbd b6b8 37bd 4e56 34bd ce22 e3bc
00000280: f327 1b3d 18dd 403d 53bb 303d c8d4 04bd
00000290: 453e 643d 4f2c 48ba 6522 803b 65c8 563d
000002a0: 1c98 cf3c dc32 a3ba 3de9 6bbd ba80 28bd
000002b0: 7316 263a 63a1 4f3d 813f 023d 20ce 3c3d
000002c0: 6ebf e8bb af87 113d 9e2d b43c b666 9f3c
000002d0: d86c 9d3c 3558 e13c 1bf2 24bd 9bcd a43c
000002e0: 13ca a1bc c855 303d 7fdb 1c3d 2969 0dbd
000002f0: 986f 8dbd 8fcb 51bd 1e2d c03c 6c56 a2bc
00000300: 9269 543d d66c d6bc 83ea 89bd bba3 f93c
00000310: 1c02 79bd 65d2 143d 2713 c4bc c29b 533d
00000320: c607 143d 9251 1f3c 06ea f63c a2d8 8abd
00000330: 2ff1 4b3d 7e4a 63bd 19b9 1dbd 4da9 e5bb
00000340: f4e5 363d c94c 1cbd 163a 78bc 4bb7 72bd
00000350: 3d34 463d ca45 acbc 85b5 e03b 45ad 18bd
00000360: a841 69bc f84e 243d a2fc a4bc 524e 773c
00000370: 0300 903d cd45 643d 0925 4cbd 02ca 44bd
00000380: 95d5 243c 813c 893c 33c7 b1bb b92f dabc
00000390: 0146 913d d637 033d 4b14 123d ec0b 263d
000003a0: 3cf2 d1bb 0600 62bd e530 c13c 2335 3b3d
000003b0: 7375 de3c 1d0e 433c ef6d 64bb 0938 d7bc
000003c0: 97a7 403a a0cb c93c b931 783d c48b 2abd
000003d0: b0ca 8d3d 885a f13b 2b26 623d 323a 8d3d
000003e0: a5f2 c3bb 5ad9 ee3c 3ac9 86bd b393 74bd
000003f0: fb6d 08bd 28f5 963d 431b 553d 6686 d03c

mlp.4.weight f4 [1, 256]
0.06573593 -0.14762682 0.02096448 0.08895415 0.08441211 -0.037652396 -0.04309722 -0.05852931
-0.03928493 0.15839618 0.051919885 -0.069925696 0.036783725 0.06057015 0.023332419 0.067195415
0.10934832 -0.017146248 0.009612234 0.042967677 -0.12007469 0.024796186 -0.050078735 -0.021755302
-0.018520048 0.024919907 0.035339516 0.14294094 0.055992227 0.051837698 0.051087886 -0.030821787
0.04585313 0.057935998 -0.13554975 0.03601588 -0.06413762 -0.11752738 -0.03423382 -0.038753845
0.034822915 -0.07057049 -0.034403577 0.060992464 0.051053125 -0.029709278 0.016752644 -0.019393722
0.0668327 0.062037047 -0.061870255 -0.06287112 -0.035922106 -0.017892722 -0.04424829 -0.064583965
0.027953941 0.05069869 -0.04957902 -0.016863192 -0.024359956 -0.054719273 -0.05405631 0.046133548
-0.024559926 -0.0255425 0.02792642 -0.00084403664 0.04903974 0.11355038 -0.027633814 -0.085655935
-0.1058412 -0.044428628 -0.04075416 -0.010443379 0.028599469 -0.052787866 0.04386013 0.046131227
-0.061284788 -0.051418096 -0.046920765 -0.056412548 0.025639309 -0.060620908 -0.054414872 0.03260394
-0.020124644 -0.01890324 0.0852886 -0.029024655 0.049666706 0.030707575 0.06009617 0.055677094
-0.042236157 0.05752642 0.08496154 0.015597861 0.011902686 -0.02572413 -0.056302395 0.05462747
-0.051326998 0.07574931 0.05930904 -0.01917296 -0.10615213 -0.033129748 -0.022134313 -0.0055330545
-0.07616223 0.062467933 -0.10404403 0.057179615 -0.028037533 -0.12211663 0.015544663 0.007041377
0.06985748 -0.070140086 0.002700065 -0.09358926 -0.027649194 -0.015255485 -0.060643904 -0.044491876
-0.02562613 0.060276784 -0.014032929 -0.13890588 0.057551198 0.06905961 0.06133989 -0.019965561
-0.053042844 -0.048593353 -0.064222105 -0.0036950994 0.09050532 0.07638119 -0.031408098 0.016015442
0.033899937 -0.08477269 0.05661637 0.03242076 -0.11561256 0.055708956 -0.039251875 -0.08792075
0.024554268 0.021320336 -0.021998404 -0.0927115 0.007975155 0.03907529 -0.07601437 0.098220065
-0.17229763 0.1368929 0.031504765 -0.021623865 -0.10200479 -0.10998912 0.033179518 0.050221357
0.09237166 -0.059710182 0.05208842 0.07771203 0.11232791 0.03444517 0.048768215 0.050232545
-0.0526817 0.01146332 0.070874415 -0.06302048 -0.0384334 -0.022226518 -0.061110154 0.10349753
0.03546039 -0.016190033 -0.22200854 -0.08192753 -0.022710832 0.036347535 0.030968532 0.11458608
0.05679255 0.044693407 0.100877315 0.0074182795 0.0036141018 0.07650329 0.10765098 0.042449113
-0.08756118 0.038911607 0.03809184 -0.016575761 -0.047515016 -0.07980981 0.049968485 0.06133846
-0.03954888 -0.039060924 -0.07591538 -0.07027387 0.06165871 0.050601967 -0.027090203 0.047364663
0.022805152 -0.017764535 0.06738966 -0.045665447 -0.10470458 -0.10338223 -0.055205453 -0.00281959
-0.061102852 -0.18303852 0.070629574 -0.10228782 0.14343081 -0.16950199 0.059069425 -0.065511145
0.046075262 -0.0047609583 0.06427201 -0.011375138 -0.06472127 0.06012835 -0.0039207796 0.029110169
-0.03518988 0.0045270626 0.097737804 0.058154028 -0.124243334 0.13107778 -0.029522749 -0.03680614
0.036606755 0.08889009 0.01317666 -0.0147376815 -0.013236872 -0.15548009 -0.1427384 0.078853324
00000000: 8fa0 863d 7c2b 17be b3bd ab3c 982d b63d
00000010: 42e0 ac3d 6639 1abd b686 30bd 6ebc 6fbd
00000020: 3ce9 20bd 9c32 223e f2a9 543d 3435 8fbd
00000030: 88aa 163d 6818 783d a123 bf3c c09d 893d
00000040: 03f2 df3d 4a76 8cbc a27c 1d3c e0fe 2f3d
00000050: b8e9 f5bd 5f21 cb3c 5c1f 4dbd 2d38 b2bc
00000060: 5bb7 97bc d524 cc3c 2bc0 103d 1c5f 123e
00000070: 1b58 653d c453 543d 8841 513d f97d fcbc
00000080: 7ed0 3b3d 4c4e 6d3d 8ecd 0abe 6385 133d
00000090: 965a 83bd 32b2 f0bd c338 0cbd 5abc 1ebd
000000a0: 79a2 0e3d 4387 90bd c4ea 0cbd 3cd3 793d
000000b0: 151d 513d df60 f3bc d73c 893c 95df 9ebc
000000c0: 95df 883d 8f1a 7e3d aa6b 7dbd 93c2 80bd
000000d0: 0f23 13bd c293 92bc b23d 35bd 9944 84bd
000000e0: aaff e43c 6ea9 4f3d 5f13 4bbd ad24 8abc
000000f0: 888e c7bc 5121 60bd 266a 5dbd 88f6 3c3d
00000100: e631 c9bc 813e d1bc f3c5 e43c 5742 5dba
00000110: e5dd 483d 1a8d e83d 4f60 e2bc 616c afbd
00000120: 45c3 d8bd cbfa 35bd d6ed 26bd b51a 2bbc
00000130: 6f49 ea3c 1738 58bd aea6 333d 19f4 3c3d
00000140: c205 7bbd c89b 52bd fd2f 40bd d810 67bd
00000150: 8709 d23c a14d 78bd 21e2 5ebd b68b 053d
00000160: 70dc a4bc f8da 9abc caab ae3d 1dc5 edbc
00000170: 516f 4b3d 748e fb3c 6727 763d aa0d 643d
00000180: d2ff 2cbd d3a0 6b3d 5100 ae3d 2c8e 7f3c
00000190: 7c03 433c 69bb d2bc 579d 66bd 0ec1 5f3d
000001a0: 423c 52bd 7422 9b3d 09ee 723d 9d10 9dbc
000001b0: 4a66 d9bd 0fb3 07bd 0553 b5bc a04e b5bb
000001c0: f1fa 9bbd 60de 7f3d 0915 d5bd 2c35 6a3d
000001d0: f8ae e5bc 4918 fabd 0baf 7e3c 5abb e63b
000001e0: 7011 8f3d 9ba5 8fbd 93f3 303b baab bfbd
000001f0: 9080 e2bc 24f2 79bc be65 78bd 1d3d 36bd
00000200: e4ed d1bc cae4 763d 5fea 65bc 583d 0ebe
00000210: ceba 6b3d 206f 8d3d 893f 7b3d d18e a3bc
00000220: 7443 59bd d309 47bd e186 83bd 7b29 72bb
00000230: da5a b93d be6d 9c3d c7a5 00bd d132 833c
00000240: a9da 0a3d 4e9d adbd 91e6 673d a1cb 043d
00000250: 47c6 ecbd 132f 643d 93c6 20bd cb0f b4bd
00000260: 0826 c93c fca7 ae3c ff35 b4bc 87df bdbd
00000270: 39aa 023c 690d 203d 6cad 9bbd 9a27 c93d
00000280: ca6e 30be a72d 0c3e 240b 013d 8824 b1bc
00000290: e3e7 d0bd fa41 e1bd 3fe7 073d e9b4 4d3d
000002a0: 5a2d bd3d aa92 74bd ab5a 553d 7c27 9f3d
000002b0: 2d0c e63d 6116 0d3d 2ec1 473d a4c0 4d3d
000002c0: c4c8 57bd a6d0 3b3c 9b26 913d e210 81bd
000002d0: 576c 1dbd 6314 b6bc a44e 7abd 83f6 d33d
000002e0: ea3e 113d f6a0 84bc 3556 63be 9fc9 a7bd
000002f0: 110c babc 27e1 143d b8b1 fd3c 1bac ea3d
00000300: 4e9f 683d 6f10 373d c498 ce3d 0a15 f33b
00000310: 91da 6c3b c2ad 9c3d 1e78 dc3d 1fdf 2d3d
00000320: 4753 b3bd c761 1f3d 3006 1c3d e4c9 87bc
00000330: 1b9f 42bd 5373 a3bd c1ab 4c3d 093e 7b3d
00000340: 02fe 21bd 59fe 1fbd 8679 9bbd bfeb 8fbd
00000350: d88d 7c3d 0244 4f3d 46ec ddbc 7301 423d
00000360: dfd1 ba3c ee86 91bc 9703 8a3d b10b 3bbd
00000370: 5b6f d6bd 10ba d3bd 1d1f 62bd dfc8 38bb
00000380: fc46 7abd 736e 3bbe 3da6 903d 477c d1bd
00000390: 87df 123e ee91 2dbe c8f2 713d b52a 86bd
000003a0: 6ab9 3c3d d001 9cbb 0ba1 833d c95e 3abc
000003b0: 968c 84bd 2549 763d e279 80bb 7378 ee3c
000003c0: 4323 10bd c157 943b c22a c83d eb32 6e3d
000003d0: 4a73 febd 4139 063e b1d9 f1bc 09c2 16bd
000003e0: f7f0 153d 020c b63d ebe2 573c 5176 71bc
000003f0: 77df 58bc 2c36 1fbe 042a 12be da7d a13d

exp_avg f4 [256, 3]
-0.012233062 -0.0013864933 0.017994791 -0.00078511506 -0.00034602158 -0.0004919859 -0.005312557 -0.0065128976
-0.032843776 0.010634901 0.005626636 -0.04196606 -0.008765264 0.025528435 0.059845813 0.0022634151
0.0006983829 -0.0044998326 0.00044786246 -0.00020227031 -0.00084709236 -0.00046780772 0.0011590004 0.000518632
0.00026696626 -0.0015296941 -0.00079844554 0.00014384583 0.00072581135 0.0042664246 -0.0037136397 -0.0003182409
-0.00079137203 -0.0025379932 0.005423542 0.00478166 0.0010041997 0.0015654517 0.0042236503 -0.00014353628
0.00021037633 -0.0041265567 -0.0017888461 -0.00238539 0.0038207762 -0.00062145485 -0.00038993536 0.0012139116
-0.0003380821 -0.0003169528 0.0031943049 0.00034408725 -0.0010957257 0.0072621196 0.03781641 0.009377399
0.0121230045 -0.0017358471 -0.005327428 -0.0097593805 -0.0008626568 -0.0016761404 -0.0037242197 0.005902367
0.012152974 0.019622564 0.00013970754 -0.0006488487 0.0002895284 0.00038715446 -0.00047206928 0.00068517245
0.0038613542 0.000980736 0.0008950283 -0.000875084 0.00035210123 -0.0022041115 0.0005472432 -0.0008055966
-0.00038967765 -0.0010933903 0.003937051 0.00045389688 -0.0028982596 -0.0021089255 0.0066334577 0.0015848996
0.00017059104 0.0014459055 -0.0021121204 -0.0015501619 -0.0005359467 -0.0011351383 -0.00044258137 0.006839917
0.00026873447 0.0014222712 -0.0027614024 -0.0030168237 -0.007964173 -0.009819031 -0.0007302697 -0.00050732656
-0.0024463155 0.0027718772 -7.601695e-05 -0.022367366 0.0048089153 0.000642824 0.0009228918 0.0004824476
-0.0011630225 -0.0045509376 0.0018147333 -0.00026262403 -0.001548727 -0.0036148427 -0.0007152624 0.0063422485
-0.00011592747 -0.0005618416 0.0014195209 0.00043293313 -5.12526e-05 -0.0013003692 -0.0001067318 -0.0006097744
0.0019645048 -2.972876e-05 -0.00018985539 0.00068909227 0.0008555464 0.0012454281 0.00095772225 0.007964193
0.0014821513 -0.0026493063 -0.0030751694 0.00782909 0.0048001497 -0.0029679874 -0.0012689889 -0.0015648868
0.0003879886 -0.0001166236 -0.00047390154 -0.00031612834 0.00057448726 -0.0009423218 0.0016484939 -0.0019340367
-0.008852868 -0.0011268385 0.0028702742 0.003651687 -0.0015790964 -0.00012014364 -0.00059166213 -0.0023070648
-0.0005212536 -4.1589956e-05 0.0003563639 -0.00036309712 -0.002457644 -0.0043406463 -0.00029399683 0.0075623267
-0.002719946 0.0069982987 0.002032249 0.004108939 0.00078118197 0.002259689 0.0035711287 0.00054720754
0.00030582558 0.00025533626 -0.0004501032 0.0006915708 -0.00014855432 2.1720414e-05 0.002339989 4.5769477e-05
-0.0007820393 0.0010262126 -0.0038755285 0.0072994134 0.008164237 0.0029227326 0.0016639117 -0.0006186056
7.700155e-05 -0.00051292864 0.0009850508 -0.0007872191 -0.0023235753 -0.004236467 0.00061141705 6.141255e-05
0.0015962718 0.00047952123 0.0005344085 -0.004096005 0.0026587402 0.0017838046 -0.003687172 0.00030611907
0.0004596276 0.0016028598 0.00037570263 0.0004946232 -0.001329291 0.0034467329 0.0002907064 -0.0016515213
-0.0075460416 -0.0024314742 0.010492566 -0.00052213296 -6.804175e-07 0.0035125315 3.5280755e-05 -0.0009135443
0.0008253668 -0.00049376924 -0.000975288 -0.00049728685 0.00939289 0.0061870855 0.0049372273 0.00043756262
-0.0011215378 0.009098876 -2.7811111e-05 -0.00036921006 0.00084749574 -0.00012286901 -0.0012020229 -0.0028283591
-0.0005394493 -0.0022131484 -0.0032658074 -0.0016759246 0.0012597316 0.0061424533 -0.0014135368 0.0033719214
0.0028546047 0.00079932803 -0.0009826331 -0.0053907665 -0.0074844435 -0.008023343 -0.050008915 -0.00011928686
00000000: 2e6d 48bc ffba b5ba d069 933c 2ed0 4dba
00000010: 3b6a b5b9 9df8 00ba f514 aebb 256a d5bb
00000020: 3287 06bd 023e 2e3c a55f b83b 9ae4 2bbd
00000030: 2f9c 0fbc 0221 d13c e220 753d ce55 143b
00000040: af13 373a 5573 93bb 15cf ea39 8618 54b9
00000050: 680f 5eba 1744 f5b9 9ae9 973a cef4 073a
00000060: 9bf7 8b39 0480 c8ba c64e 51ba 52d5 1639
00000070: 6044 3e3a 5dcd 8b3b 8960 73bb 92d9 a6b9
00000080: 1474 4fba 7654 26bb f8b7 b13b 79af 9c3b
00000090: 5a9f 833a d82f cd3a 8c66 8a3b 3a82 16b9
000000a0: 7798 5c39 1138 87bb b777 eaba 3454 1cbb
000000b0: fd65 7a3b 21e9 22ba 3d70 ccb9 1d1c 9f3a
000000c0: 9d40 b1b9 af2c a6b9 8b57 513b 9c66 b439
000000d0: 749e 8fba 13f7 ed3b 61e5 1a3d aaa3 193c
000000e0: 919f 463c 5d85 e3ba b591 aebb cfe5 1fbc
000000f0: eb23 62ba f0b1 dbba 0a12 74bb a568 c13b
00000100: 441d 473c 80bf a03c 757e 1239 8017 2aba
00000110: d8cb 9739 fefa ca39 1180 f7b9 259d 333a
00000120: c60e 7d3b 0a8c 803a 55a0 6a3a e565 65ba
00000130: 3a9a b839 db72 10bb df74 0f3a ac2e 53ba
00000140: a64d ccb9 1750 8fba 6102 813b 02f9 ed39
00000150: baf0 3dbb e635 0abb 7a5d d93b 68bc cf3a
00000160: afe0 3239 8a84 bd3a 806b 0abb cd2e cbba
00000170: c67e 0cba ecc8 94ba 440a e8b9 6221 e03b
00000180: eee4 8c39 816b ba3a a5f8 34bb e7b5 45bb
00000190: 2a7c 02bc 00e0 20bc 926f 3fba 1cfe 04ba
000001a0: 5d52 20bb 62a8 353b 4a6b 9fb8 c43b b7bc
000001b0: 1b94 9d3b 3083 283a 38ee 713a 05f1 fc39
000001c0: 8f70 98ba 0820 95bb 58dc ed3a cdb0 89b9
000001d0: a8fe caba ffe6 6cbb 7280 3bba a3d2 cf3b
000001e0: 161e f3b8 8d48 13ba 380f ba3a 4dfb e239
000001f0: 0ff8 56b8 2671 aaba 33d5 dfb8 44d9 1fba
00000200: ecbe 003b 0762 f9b7 eb13 47b9 33a4 343a
00000210: bf46 603a a23d a33a a70f 7b3a 3f7c 023c
00000220: bf44 c23a fc9f 2dbb c888 49bb 9545 003c
00000230: 934a 9d3b 9182 42bb 3454 a6ba e31c cdba
00000240: f36a cb39 d293 f4b8 fd75 f8b9 07be a5b9
00000250: 3099 163a 2506 77ba 4712 d83a 817f fdba
00000260: 9f0b 11bc 6db2 93ba 361b 3c3b 2451 6f3b
00000270: aff9 ceba a0f5 fbb8 c619 1bba 2032 17bb
00000280: bda4 08ba e070 2eb8 5ad6 ba39 125e beb9
00000290: 6d10 21bb fb3b 8ebb 9623 9ab9 65cd f73b
000002a0: 1f41 32bb fc51 e53b 7b2f 053b 47a4 863b
000002b0: 3cc8 4c3a 4a17 143b 9909 6a3b 7a72 0f3a
000002c0: 3757 a039 a7de 8539 d4fb ebb9 884a 353a
000002d0: 3fc5 1bb9 3c34 b637 805a 193b 9af8 3f38
000002e0: c501 4dba fb81 863a 94fc 7dbb eb2f ef3b
000002f0: 4bc3 053c 518b 3f3b 9d17 da3a eb29 22ba
00000300: e47b a138 0f76 06ba d21c 813a 615d 4eba
00000310: 2047 18bb 10d2 8abb 8147 203a 9dca 8038
00000320: fe39 d13a 4068 fb39 8c17 0c3a c837 86bb
00000330: 423e 2e3b 8dce e93a 7ba4 71bb 9b7e a039
00000340: 2cfa f039 0d17 d23a f4f9 c439 9aa9 013a
00000350: 9b3b aeba 95e2 613b f469 9839 dc77 d8ba
00000360: c944 f7bb 5e59 1fbb 03e9 2b3c c0df 08ba
00000370: efa5 36b5 8032 663b 6cfa 1338 ec7a 6fba
00000380: 6e5d 583a 4b70 01ba 78aa 7fba 5b5c 02ba
00000390: a3e4 193c 09bd ca3b 77c8 a13b a968 e539
000003a0: 9000 93ba 7413 153c e84b e9b7 8992 c1b9
000003b0: 7a2a 5e3a 66d6 00b9 328d 9dba fe5b 39bb
000003c0: d469 0dba 780a 11bb 2807 56bb b3aa dbba
000003d0: 941d a53a a246 c93b 6d46 b9ba 74fb 5c3b
000003e0: 5214 3b3b ff89 513a b2cb 80ba 07a5 b0bb
000003f0: 1040 f5bb 5774 03bc 26d6 4cbd a529 fab8

exp_avg_sq f4 [256, 3]
0.0009766539 0.000113010174 0.004033497 7.4547693e-06 2.0081418e-06 6.8354e-05 3.2315613e-05 9.237045e-05
0.0056682485 0.00036073892 5.303087e-05 0.0032316458 8.755755e-05 0.00029730395 0.012364277 1.1842192e-05
4.0297264e-06 0.00014996072 4.2683128e-06 9.416024e-06 0.0005281887 3.152941e-07 5.853628e-07 3.3405686e-05
2.3789946e-06 3.8870276e-06 0.00021594542 2.0387442e-06 2.0576103e-06 9.56151e-05 1.1250147e-05 5.24021e-06
0.00021602082 3.6426572e-06 9.087754e-06 0.00040619625 6.9747684e-06 3.2346281e-06 0.00014139563 1.9212096e-06
1.8914466e-06 0.00014479844 3.204745e-05 5.1709603e-06 0.00027004 1.3635319e-05 3.1309544e-06 0.00013224821
5.16359e-07 8.82834e-07 5.539246e-05 4.8105285e-06 5.0687154e-06 0.0006943187 0.0051004495 0.0006707964
0.022809284 8.114702e-06 4.1101237e-05 0.0025654845 7.252543e-06 4.9207288e-06 0.000223674 3.1552747e-05
6.712425e-05 0.0032423325 7.1901417e-07 5.9073847e-07 8.712994e-05 5.792048e-07 8.421478e-07 6.306512e-05
5.3840748e-05 1.899022e-05 0.0013124173 1.1741774e-06 1.6028757e-06 0.000104498555 1.4686714e-06 7.820369e-07
8.133991e-05 2.506681e-06 6.2693703e-06 0.00029726175 0.000115168645 9.710885e-06 0.00031822795 5.5561804e-06
1.8237523e-06 6.885506e-05 4.0558658e-05 8.89428e-06 0.0003311894 2.2301754e-06 5.4025854e-06 0.00023144574
5.1834786e-06 2.391716e-06 0.00017322955 8.385888e-05 6.374552e-05 0.004255326 4.552476e-06 4.989499e-07
1.2880411e-05 4.9329683e-05 1.6084641e-05 0.0011164816 0.00012463874 1.538686e-05 0.0006969217 1.5105433e-05
2.2602426e-06 0.00013870937 1.2178305e-05 2.9231285e-06 0.00014097907 0.00012636691 9.171147e-06 0.00014439922
7.644225e-07 2.797704e-06 0.00019252344 4.93349e-07 9.938627e-07 4.8549733e-05 4.5819002e-07 1.7298428e-06
8.62533e-05 4.6359705e-06 9.116568e-06 0.00046651726 1.1855209e-05 5.406071e-06 0.00033109705 0.00024956418
3.311085e-05 0.0012338818 1.10530245e-05 2.3594504e-05 0.0014966358 4.9877533e-05 6.4662545e-06 0.00024813035
1.9729305e-06 2.8064305e-06 0.00015961786 2.5662782e-06 2.1737249e-06 0.00012678579 3.9232316e-05 1.3713598e-05
0.0012194365 2.2677964e-06 4.091985e-06 0.0002606896 1.38567875e-05 7.5891506e-07 2.865691e-05 4.2057785e-05
4.1068956e-06 0.00017113518 1.2351519e-06 7.4119646e-07 2.9375575e-05 0.00017298608 1.6611317e-05 0.00039193037
6.9809153e-06 1.5520987e-05 0.00087067584 7.266711e-05 6.6641205e-06 0.00026221425 6.846166e-05 8.633909e-06
0.0003953521 4.2102735e-07 4.4309286e-07 2.7552107e-05 1.4292033e-07 2.9601438e-07 1.8493378e-05 4.8281186e-07
1.2178684e-06 7.058563e-05 6.360742e-05 6.629421e-05 0.0062080896 2.7154705e-05 2.1420883e-06 0.0001103378
9.399844e-07 1.4155589e-06 6.061857e-05 1.4587772e-06 6.1591845e-06 0.00036263163 2.0842854e-06 7.3415927e-06
0.00033278455 2.3978575e-06 3.879352e-06 0.00028123407 1.3405551e-05 1.1027587e-05 0.0004868574 4.605083e-07
1.1159751e-06 6.39117e-05 5.9568185e-07 4.222044e-07 9.875787e-06 5.035681e-05 1.1234788e-05 0.0006152562
0.00045613878 6.193246e-05 0.0021819375 3.3287686e-06 3.8404123e-06 0.00027726075 1.6117942e-06 7.2877115e-06
0.00035535742 5.509645e-07 2.634833e-06 0.0001623347 0.000357182 8.958585e-05 0.0035867484 5.2687233e-06
4.0217024e-06 0.00060056645 7.5565524e-08 2.4637066e-07 1.1020121e-05 5.3805065e-06 9.668144e-07 3.186704e-05
1.7858695e-06 8.021159e-06 0.0004452555 3.400236e-05 6.5052227e-06 0.00043237506 1.318872e-06 3.984e-06
0.00015970494 2.0126945e-05 5.51315e-06 0.00031200337 9.464897e-05 0.00022280468 0.01452656 5.0224673e-07
00000000: 1103 803a e0ff ec38 6d2b 843b fb23 fa36
00000010: 9dc3 0636 4659 8f38 a08a 0738 02b7 c138
00000020: b7bc b93b 8f21 bd39 776d 5e38 05ca 533b
00000030: 1a9f b738 76df 9b39 8993 4a3c d4ad 4637
00000040: 1637 8736 c63e 1d39 8738 8f36 84f9 1d37
00000050: 2576 0a3a b145 a934 d321 1d35 151d 0c38
00000060: d1a6 1f36 506d 8236 686f 6239 5cd1 0836
00000070: 7a15 0a36 f784 c838 03bf 3c37 10d5 af36
00000080: a683 6239 6074 7436 9b77 1837 bdf6 d439
00000090: ce08 ea36 7d12 5936 9a43 1439 21ee 0036
000000a0: 9cdd fd35 09d5 1739 b06a 0638 3682 ad36
000000b0: 2894 8d39 40c3 6437 631d 5236 1cac 0a39
000000c0: ec9b 0a35 e4fb 6c35 3355 6838 206a a136
000000d0: ef13 aa36 f002 363a ac21 a73b 62d8 2f3a
000000e0: 89da ba3c 6124 0837 1e64 2c38 b021 283b
000000f0: df5a f336 bd1c a536 088a 6a39 8157 0438
00000100: 0fc5 8c38 507d 543b 4702 4135 3d93 1e35
00000110: 88b9 b638 a77a 1b35 f50f 6235 d441 8438
00000120: 10d3 6138 304d 9f37 6b05 ac3a 6e98 9d35
00000130: 6422 d735 3c26 db38 2a1f c535 2bed 5135
00000140: 0895 aa38 7438 2836 7b5d d236 ccd9 9b39
00000150: b286 f138 efeb 2237 d5d7 a639 3a6f ba36
00000160: a7c7 f435 4766 9038 871d 2a38 a438 1537
00000170: 7da3 ad39 1faa 1536 db47 b536 3eb0 7239
00000180: beed ad36 5e81 2036 f4a4 3539 65dd af38
00000190: 1eaf 8538 4370 8b3b 79c1 9836 93ef 0535
000001a0: f218 5837 58e7 4e38 81ed 8637 e856 923a
000001b0: 75b1 0239 0813 8137 a0b1 363a 576d 7d37
000001c0: acae 1736 8372 1139 6c51 4c37 f72a 4436
000001d0: c8d3 1339 5c81 0439 c7dd 1937 df69 1739
000001e0: b732 4d35 30c0 3b36 1ee0 4939 af6e 0435
000001f0: dd64 8535 e1a1 4b38 28fd f534 f22c e835
00000200: e3e2 b438 af8e 9b36 5df3 1837 e396 f439
00000210: bce5 4637 cc65 b536 1897 ad39 f0d7 8239
00000220: 81e0 0a38 34ba a13a 6170 3937 d0ec c537
00000230: c42a c43a 9833 5138 b4f8 d836 7e17 8239
00000240: b066 0436 1c56 3c36 185f 2739 5338 2c36
00000250: 4fe0 1136 cdf1 0439 618d 2438 7413 6637
00000260: 80d5 9f3a 7230 1836 e24d 8936 2aad 8839
00000270: 737a 6837 3fb8 4b35 3f64 f037 3467 3038
00000280: f7cd 8936 c072 3339 7fc7 a535 a2f6 4635
00000290: 916b f637 9963 3539 8858 8b37 017c cd39
000002a0: 9b3d ea36 1133 8237 113e 643a dc64 9838
000002b0: 5c9c df36 cd79 8939 1393 8f38 5bda 1037
000002c0: 4347 cf39 8f09 e234 38e2 ed34 b31f e737
000002d0: a475 1934 e8eb 9e34 3a22 9b37 949a 0135
000002e0: a475 a335 5f07 9438 f964 8538 6f07 8b38
000002f0: 3b6d cb3b 49ca e337 ccc0 0f36 2865 e738
00000300: 3c53 7c35 3cfe bd35 b240 7e38 34cb c335
00000310: feaa ce36 981f be39 c0df 0b36 cd57 f636
00000320: 9679 ae39 e1ea 2036 612b 8236 9972 9339
00000330: 67e8 6037 2003 3937 e540 ff39 c73b f734
00000340: 9dc8 9535 5508 8638 f2e6 1f35 55ab e234
00000350: 2fb0 2537 3736 5338 0c7d 3c37 2549 213a
00000360: e925 ef39 bce1 8138 d6fe 0e3b cf63 5f36
00000370: e4dc 8036 4f5d 9139 d454 d835 f788 f436
00000380: 444f ba39 fee5 1335 16d2 3036 6438 2a39
00000390: 2844 bb39 09e0 bb38 a70f 6b3b fdc9 b036
000003a0: 29f2 8636 556f 1d3a 9646 a233 ed44 8434
000003b0: 0fe3 3837 338a b436 7dc3 8135 f9a8 0538
000003c0: 02b2 ef35 9e92 0637 2e71 e939 c29d 0e38
000003d0: 7047 da36 66b0 e239 1904 b135 4dae 8536
000003e0: 7876 2739 49d6 a837 99fd b836 6294 a339
000003f0: 477e c638 ada0 6939 cf00 6e3c 22d2 0635
