_models/Pendulum-v1_DDPG.pt (torch, 812554 bytes, 15 tensors)

mlp.0.weight f4 [256, 3]
00000000: 16fe 9f3e b937 90be dbe5 c9bd 37f7 413e
00000010: 6e89 29bf b7ec c13e 69d6 dcbd 8667 b23e
00000020: 3f34 8f3d 5df4 8bbd 9ad1 7a3e 6a65 ea3c
00000030: 3d6b 8a3e 8e70 6bbe fa5f 9ebd d77f 0ebd
00000040: 1494 a93d 35e9 093b f66c 103f 4e83 493e
00000050: 28c6 5dbe 53e9 bcbe edf4 0dbd dc81 80be
00000060: 97d6 82be a0c9 de3c b90f aa3e 4787 943e
00000070: 7b8c 20bf 3896 bc3e fef1 513e 911e 0c3f
00000080: d7e1 c73e 756f 09bf 6ef5 13bf ada9 8fbe
00000090: dad4 063f 50f6 06be a040 743e a664 87be
000000a0: 84e4 283f 7afd 86be 86d3 e43e 02c1 7e3c
000000b0: 7843 9abe 0744 863e 7d87 b9be 01b0 4c3e
000000c0: 67b1 fbbd 5fc0 1fbd eb22 0dbf d496 98be
000000d0: 6f67 ab3e 17b5 1bbe 7614 1d3f 24eb 053f
000000e0: c740 c73b e564 ccbe b2c9 de3e d3aa 1f3e
000000f0: 25c5 c9be 8f0c f13e 719a a03e f8c2 073f
00000100: 420c cdbe 7acf 3bbd be93 463b 6f6c ee3d
00000110: 68ac dfbe 7e07 c3be d716 be3e aef9 26be
00000120: 9a74 9b3e a23c b03c b13a 553e 5b8a 193e
00000130: 0a64 7a3e cd4e 933e a2c7 1bbf 0eff ad3e
00000140: 72d0 c5be 7938 f9be f573 c23d 2d25 c3bd
00000150: 9818 bf3e 9693 b9be 1495 04bf 3112 d13e
00000160: 8329 22be 29f4 b03e d407 ab3d 2151 08bf
00000170: 7e20 253e 14d5 043e 2eb9 a5be 1d45 96be
00000180: 8d5e 2b3e 6fc5 0e3e 056b 72be f11b 4cbe
00000190: 7bd8 0d3f 322b d3bd 2178 993e cb0c a23e
000001a0: ffd5 b8be 4824 fdbe 2adc 213f 7159 c33c
000001b0: 22f4 bb3e 05fe 053e 92ac 523e ff16 f23e
000001c0: a408 183f 5aaf c0be 31ec ba3d 2e3f fe3e
000001d0: 2f53 d13e 9f1f ca3e 3030 f7be 5f98 c6be
000001e0: b36b bfbe 0247 613d 1e6b 123f bb52 d4be
000001f0: 56ed c23e 9364 a6be 3641 1ebf 2880 fabd
00000200: 476e a83e b8ed 023f 5b3d dabe 8e12 223e
00000210: 51a7 0c3f 0595 d93e 890e b93e e138 d73e
00000220: 8665 d53e ab93 1e3e 89e8 d3be 5032 fbbe
00000230: 8183 85be c847 edbd 9834 c2be 6813 643e
00000240: 6536 363e b47e 03be e5a3 6f3e b255 293e
00000250: b5dd 953e a84e cf3e b14c 16be f09f 233f
00000260: 457b eebd b197 adbc 4d53 19bf 20bc b6be
00000270: e458 c3be e299 73be 2ee7 dd3e ea30 5bbe
00000280: 5616 ecbe 5c00 833e 061c 4a3e 9d80 d03e
00000290: 6f64 98be 2d27 233e 1720 7dbe f045 c0bd
000002a0: 7cb4 04bf f1a9 84be b7aa 15be 2b5b 6f3e
000002b0: aaf4 af3d 20a4 2c3e a70d 123f b8fc 1b3f
000002c0: 1e5d ce3e 4014 04bd aefb e8be ce9a eb3e
000002d0: 4a72 efbd 9f56 cdbc a3bf fcbe 1233 5bbe
000002e0: 73d4 debe a93c 0a3f 52ac 0abf e862 fabe
000002f0: 2261 253c e6bb cabe f1f3 3a3e 5bdd 25be
00000300: a84b 8cbe 1a6c b03d e3e8 d33e 26be c8be
00000310: 9bd3 a33e 0076 b93e d860 0b3f 4f26 e5be
00000320: 307b 2e3e 8d18 e1be 58a3 093f 1562 78be
00000330: 2487 af3e 6843 72bd 7fd4 1dbc 5c40 8c3a
00000340: bf5d a03d 2c01 983e 20d7 bd3d 61bd 3e3e
00000350: 58bc 04bf efbf ed3e 8ff4 0c3f df8b f43e
00000360: 4a98 f63e 961e e3be f0fc 33be e88b 003f
00000370: bddd f7be fce9 053f 63b4 09bf e147 e6be
00000380: 8204 943e 85da fbbe 0863 30be 3e5d d83e
00000390: bdd5 f53e aa77 123f c358 dfbd 344d 07bf
000003a0: f1f8 163f 9431 f0bd 78c8 66be 7ac9 203e
000003b0: 7fc2 ccbe 75ee d63e af4c c23e 34c8 ebbe
000003c0: 34f0 08bf de25 34bd 6935 7a3e 62d9 cebc
000003d0: ebc8 c5be dd87 233d 50a6 0bbf 71c5 dfbe
000003e0: fb28 c2be a353 ff3e 67e7 073f 6ae3 34be
000003f0: 9100 9c3c 77ab 863e 0be6 943d 7a3d 9abe
0.3124854 -0.28167513 -0.098582946 0.18941961 -0.66225326 0.37875912 -0.10783083 0.34844607
0.06992387 -0.06833718 0.24494019 0.028612811 0.2703494 -0.22992155 -0.0773315 -0.034789886
0.08280197 0.0021043543 0.5641626 0.19678995 -0.21657622 -0.36896762 -0.034657408 -0.25099075
-0.25554344 0.027195752 0.3321512 0.29009458 -0.62714356 0.36833358 0.20502469 0.5473414
0.3903949 -0.53685695 -0.5779637 -0.2805914 0.52668536 -0.13179898 0.23852777 -0.26443976
0.6597369 -0.26365262 0.4469263 0.015548946 -0.301296 0.26223776 -0.36236182 0.19989015
-0.12289696 -0.03900182 -0.55131406 -0.29802573 0.3347735 -0.15205799 0.61359346 0.5231192
0.00608072 -0.39920726 0.43513256 0.15592508 -0.39408222 0.47079894 0.3136783 0.53031874
-0.40048414 -0.045852162 0.0030300464 0.11641776 -0.43686223 -0.38091654 0.371268 -0.16306183
0.30362397 0.021513287 0.2082317 0.14994185 0.24452224 0.28771058 -0.6085149 0.33983654
-0.38635594 -0.48675898 0.09494773 -0.09528575 0.3732345 -0.36245412 -0.51789975 0.4083419
-0.15836148 0.3456128 0.083511025 -0.5324879 0.16125676 0.12971908 -0.32367843 -0.29349604
0.16735287 0.13942502 -0.23673637 -0.19932534 0.5540845 -0.10310973 0.29974464 0.31650385
-0.36100766 -0.49441743 0.6322657 0.02384636 0.36709696 0.13085182 0.20573643 0.4728317
0.59388185 -0.37633783 0.09127081 0.49657577 0.40883777 0.3947725 -0.48278952 -0.38788125
-0.37386855 0.05499936 0.571947 -0.41469368 0.38071698 -0.32498607 -0.61818254 -0.12231475
0.32896635 0.5114398 -0.42624936 0.1582739 0.54942805 0.42496505 0.36143902 0.42035583
0.4167902 0.15486018 -0.41388348 -0.49061823 -0.26076892 -0.11585957 -0.3793075 0.22273028
0.17794187 -0.12841302 0.23402365 0.16536596 0.29270712 0.40489697 -0.14677693 0.6391592
-0.116446055 -0.021190496 -0.5989273 -0.35690403 -0.38153756 -0.2378917 0.4334044 -0.21405378
-0.4611079 0.25586212 0.19737253 0.40723124 -0.29764125 0.15932913 -0.24719273 -0.093883395
-0.518379 -0.25910905 -0.14615904 0.23374622 0.08591588 0.16859484 0.5705208 0.60932493
0.40305418 -0.032245874 -0.45504516 0.46016544 -0.11691721 -0.025065718 -0.49364957 -0.214062
-0.4352146 0.5399881 -0.5416919 -0.48903584 0.010093959 -0.3959648 0.18257119 -0.16197722
-0.2740147 0.08614369 0.41388616 -0.39207572 0.3199738 0.3622284 0.54444647 -0.4475579
0.1703918 -0.43964043 0.5376487 -0.24256165 0.34282792 -0.059146315 -0.009633183 0.0010700333
0.07830381 0.29688394 0.092695475 0.1862693 -0.5184989 0.46435496 0.55060667 0.47762963
0.48163062 -0.44359273 -0.17576957 0.5021348 -0.4841136 0.52310157 -0.53790873 -0.44976714
0.2890969 -0.49190155 -0.17225277 0.42258638 0.48014632 0.5721384 -0.10905602 -0.5285218
0.58973604 -0.11728206 -0.2253741 0.15701857 -0.3999214 0.41978803 0.3794913 -0.4605118
-0.5349152 -0.043981425 0.24434437 -0.02525014 -0.3862985 0.03992449 -0.5455065 -0.43705323
-0.3792189 0.49868497 0.53087467 -0.17664877 0.019043239 0.26302692 0.0727044 -0.30125028

mlp.0.bias f4 [256]
00000000: d937 63bd c35f a83e e960 e2be 1c55 893d
00000010: ffee f9be 4836 ca3e df89 0c3f 4df9 52be
00000020: 6943 b33d 30a0 98be 7c12 b8be 175c 83be
00000030: 2c10 97be 30b1 ed3d 7809 93bd 3cd6 a13d
00000040: 3b8c f7be addb abbe 761c eabe 5bf8 d5be
00000050: cfab fc3e 5fde 7f3e 4508 17bf 2683 e3bd
00000060: 06d5 803d ebcc 963e e052 183f 6888 213e
00000070: cfd9 cd3e b0b2 54be 7998 c93d 3136 b2be
00000080: 612c 373e 8a82 0c3f 9630 d33e a1da 0e3f
00000090: c3c4 79be e916 aabd bd17 b33d b12a 013f
000000a0: 8736 03bf ff84 66be 629b cc3d 5dc4 92be
000000b0: 7c57 593e a81e 82bc 0dd3 19be 05d0 a33e
000000c0: 808d dd3e 8a44 133f 058c 553e 3c9a 123a
000000d0: 1a69 063f 8ce4 e63e 4b4a a8be c431 a03e
000000e0: 6be1 dc3d 696a 6abe 5d2a 0cbe e5fb c9bd
000000f0: a51f e5be 62e8 cebd bb09 613e 9fc6 f83e
00000100: 5448 a53c 530f 12bf 5805 b33e 7dc4 15be
00000110: 3bf7 0b3f 26aa 09bf 8985 0bbe 93f5 de3e
00000120: 71ed 923e cdf4 96be 942b d9be e586 393d
00000130: 2489 793e 8e83 e6be c1e9 04bf 23c4 7cbd
00000140: dc36 cdbd f39a c33e 3c7a 0ebf d3d9 86bd
00000150: e8b0 e3be 8142 e8bd 1c69 b5be a8a0 6f3e
00000160: 8070 ffbe 2251 c7be d3f8 8cbe 0680 fbbe
00000170: e9ed db3e 41b2 a0bc a8cb abbe 9c7c e33e
00000180: b813 a2bd c243 953e e7b2 52be 1722 02bf
00000190: 66f7 0a3e 096a d43e 9b80 02bf 4091 b13d
000001a0: c46b 053e fd71 b43d a929 4b39 2db8 53be
000001b0: 7c82 d7be edaf 263e d6d6 d0be 8b42 e2be
000001c0: 21ac 14be 750d e2be 8bad f93d 749d ef3e
000001d0: 1bc1 f43e bf4e bfbe 613a 9b3e aad3 be3e
000001e0: 3f93 503d 575f 7f3e 2c1d aa3e 0785 f13e
000001f0: b938 b13e c698 9c3e f42a 56be 16f5 91be
00000200: 2d2e 94be aa0a 093f 4815 f7bd 5a7c 293d
00000210: 35bb 0abf d231 9f3c 6e90 1cbe 5803 c3be
00000220: 27a2 ef3e f723 febe 0a53 19be 22eb c83b
00000230: 10ff fcbe c30c bd3e fb29 e0bd 1f66 833e
00000240: 4d15 a53e b467 003f c11a 023e 6205 083f
00000250: c381 0b3f 4d6b 9b3d a840 f3bd 691b 25be
00000260: 3e51 103e 57b2 513e 0c51 06bf 29c7 f63e
00000270: 9378 083e 652f 08bf 279e 0c3e 1eb4 cc3e
00000280: 0e0a 9a3e eaf9 053f fa5c a63c c8b1 00bf
00000290: 1899 3b3d 3815 f63e 5533 80be 09d0 963e
000002a0: 16c7 233e 4cf1 f6bd 158b ae3c 74e4 733e
000002b0: d6d1 cdbe b227 d33e 821a d63e 90b3 993e
000002c0: 3117 1d3f db00 abbc e1f1 9dbe 9090 ba3d
000002d0: 2a4a 34be 29ba 623e 96c0 f03e 2e5c a8be
000002e0: c8f3 0d3d fa3c 0e3f c7d1 fbbe 5715 b8bd
000002f0: 112e 1a3f 55d3 d03e d7b9 1f3e ebd8 87be
00000300: 6602 43bc 8f4a 00bf dc5e 09bf c357 fcbe
00000310: 5be5 103f 61d3 e43e 83ff 583e 2fa1 28be
00000320: e806 f13e 8c03 46be 41ca c33e 87af f4bb
00000330: f1fc 87be 6baf 0dbe 5676 bdbd 3e58 02bf
00000340: bb36 373e 134a 4abe ddee 9d3e 407f d23e
00000350: 9501 1bbe 65df a93e 780c e33d 06c7 fc3e
00000360: 39a2 c5be 9652 2cbd c155 4dbe 4012 0e3f
00000370: 2f64 f9be dffd 9bbe b8fb 443d c56e 003f
00000380: 8f61 d03e 8790 13bf 643b d2be c73f 1b3f
00000390: 9b3e 263e 82f6 0abf 19e2 58be 5ff2 773e
000003a0: 5eb9 73bd e4fb e5be 8b3e a9be 0faf adbe
000003b0: 14ee 353d 4ed1 803e 9fd8 9f3e 9760 9dbe
000003c0: d26d a0bd 67ac f8be 3947 df3e a445 0d3f
000003d0: 0240 163f fbc1 753e 0666 35be fa0d aebb
000003e0: 1a55 673e 6900 eabe 1550 043c fb2b e4be
000003f0: 4aaf 12bf ca77 3fbd 1711 d8bd 7c0e c1be
-0.055473182 0.3288556 -0.44214562 0.067056865 -0.48815152 0.39494538 0.54897875 -0.20602913
0.08753092 -0.29809713 -0.35951602 -0.25656196 -0.29504526 0.116060615 -0.071795404 0.0790219
-0.48349175 -0.33566037 -0.4572484 -0.41791043 0.4934983 0.24987172 -0.58996993 -0.11108999
0.06290631 0.29453215 0.5950146 0.15774691 0.40205237 -0.20771289 0.09843535 -0.3480697
0.17888023 0.54886687 0.41248006 0.5580235 -0.24391465 -0.08305151 0.08744762 0.50455767
-0.5125508 -0.22511671 0.099905744 -0.28665438 0.21224779 -0.015883759 -0.15021916 0.31994644
0.43272018 0.5752646 0.20854194 0.0005592441 0.5250412 0.45096242 -0.3286918 0.31287968
0.107851826 -0.22892155 -0.13688035 -0.09862498 -0.44750705 -0.10102917 0.21976368 0.48589036
0.02017609 -0.5705463 0.34965014 -0.14625736 0.5467412 -0.5377525 -0.13625158 0.43546733
0.28696778 -0.29483643 -0.4241606 0.04529466 0.24368721 -0.45022243 -0.5191918 -0.061710488
-0.10020229 0.38204154 -0.55655265 -0.065845154 -0.44470906 -0.113408096 -0.35431755 0.23401129
-0.49890518 -0.38929087 -0.27533588 -0.49121112 0.4295495 -0.019616248 -0.33553815 0.44431007
-0.07913917 0.29153258 -0.20576058 -0.50833267 0.13570938 0.41487148 -0.50977486 0.08670282
0.1302939 0.08810804 0.00019375108 -0.20675726 -0.4209174 0.16278048 -0.40788907 -0.44191393
-0.14518787 -0.44150892 0.12191304 0.46799815 0.47803578 -0.37364766 0.30317977 0.37270862
0.050921675 0.24938713 0.3322538 0.47171804 0.34613588 0.30585307 -0.20914823 -0.28507298
-0.2894148 0.535319 -0.12064606 0.041378357 -0.54191905 0.019432936 -0.1528947 -0.3808849
0.468034 -0.49636814 -0.14973083 0.0061315456 -0.49413347 0.369238 -0.10945507 0.2566385
0.32242814 0.5015824 0.12705518 0.53133214 0.54494876 0.075888254 -0.118775666 -0.16123737
0.14093491 0.20478188 -0.5246742 0.48198822 0.13327245 -0.5319732 0.13732205 0.39981169
0.30085796 0.52334464 0.020308007 -0.5027127 0.0458003 0.48063064 -0.25039163 0.29455593
0.15993914 -0.120577425 0.021306554 0.23817617 -0.40199155 0.41241223 0.418171 0.30019808
0.6136351 -0.020874431 -0.308486 0.09109604 -0.17606416 0.22141327 0.4702193 -0.32882828
0.034656316 0.5556179 -0.49183485 -0.08988445 0.6022654 0.40786234 0.15598236 -0.26532683
-0.011902427 -0.5011377 -0.5366037 -0.49285707 0.5659997 0.4469252 0.2119122 -0.16467737
0.47075582 -0.1933729 0.38240245 -0.0074672136 -0.26560166 -0.13836448 -0.092510864 -0.50915897
0.17891972 -0.1975482 0.308463 0.4111271 -0.15137322 0.3317825 0.110863626 0.49370593
-0.3860033 -0.042070948 -0.20052244 0.554966 -0.48709247 -0.30467126 0.04809162 0.5016902
0.4069943 -0.57642406 -0.41060936 0.6064419 0.1623482 -0.5428239 -0.2118 0.24213551
-0.05950295 -0.4491874 -0.3305553 -0.33922622 0.044416502 0.25159687 0.31219956 -0.30737755
-0.078334466 -0.48569033 0.43609026 0.5518439 0.5869142 0.23999779 -0.177147 -0.0053117247
0.22591057 -0.45703438 0.008075734 -0.44564804 -0.5729872 -0.0467451 -0.10550135 -0.37706363

mlp.2.weight f4 [256, 256]
00000000: 9194 153b c403 93ba c13a f73b 0bdd 20bd
00000010: d2b7 7fbd 2fcd 99bb e685 0dbd ff54 bebc
00000020: 8c30 313d a2e4 013c f908 d13c 3a03 a1bc
00000030: c878 5abd 66bf 293c 9174 49bd 9c11 7b3b
00000040: bebf 50bd 89bf 383d dcde 4bbd 6d66 593d
00000050: dc09 263d 0db2 2b3d e0a6 103d 789b 4b3c
00000060: bdaa f1bb 3445 acbb fd3e ddbc aeeb 73bd
00000070: b52c 483d 86d0 b4b9 4afb dd3c 9c6d 2f38
00000080: 8366 183c 579d 3ebd 5dd2 6ebd f7dc 2d3d
00000090: f229 a23c be13 c43c 5cc0 86bd 1dc0 a2bb
000000a0: 83f9 72bd 1006 18bc 1367 8ebb 5a92 36bd
000000b0: 1c1e 88bd 28e6 94bb 243a 5d3d 3298 583d
000000c0: 570f 2ebd bf46 7fbc 5ea4 72bd 0410 51bd
000000d0: 0699 a5bc db8c 6a3d b460 97bc 1745 c4bb
000000e0: 25f9 673d 420d fd3b 0cc8 3c3d 85a2 203d
000000f0: 6817 673d fd4d 0f3c 07ab 4cbd a905 65bd
00000100: 30e6 0dbd 4d3c 503d 656b 013d 38ea 843c
00000110: 6100 56bd 5c17 3fbd b9df 473d 3dbc 33bc
00000120: 72a3 92bd 1844 32bc e23e 74bc 45a4 01ba
00000130: 63cd 9b3c 79b1 b53c 74be 4cbd 2f36 3dbb
00000140: 6f0f 01bd 137a 1c3d 60b5 eb3c 14a7 ca3c
00000150: a316 623d 9e4f ea3c 1862 84bd 1e57 433c
00000160: 94c1 31bd d08a cc3b f591 a3ba 1666 743d
00000170: 37bc 37bd 2a03 82bd df9c c6bc 0d42 ed3b
00000180: 7dfd 313d a7b7 423d 2d02 3c3d 7f67 8f3c
00000190: 59d6 a9bc 2ffc 84bc f81a 15bd 454c 4e3b
000001a0: fed3 36bd 82e5 a83c 43c9 ff3c 9f34 503d
000001b0: 8bc2 82bd 5ea4 313d f24c 2dbd 0d16 ecbb
000001c0: 18b9 6a3d 17a2 013d d951 c2bc 6328 083d
000001d0: dc4f 81bd baf0 3e3d 0558 673d 9e84 11bc
000001e0: 6412 1d3c 8320 a5bc 5de3 23bd 1590 01bd
000001f0: e57e 03bc 30d9 5fbd 6b64 58bd 3e36 a03b
00000200: 12ff 2abd e774 32bd 1e76 9dbb c1ce 13bd
00000210: 8bd4 603d 237e d5bc c3b1 17bd 5635 9abc
00000220: 685c 67bd 33b7 f53c 7af5 523d f1ef 37bd
00000230: 07bc d0bc 0917 5c3d 685c 30bd 4d56 713c
00000240: f619 62bd e9ef 74bd 94ef 06bc c599 23bd
00000250: 9dec c43c 7ca8 b0bc 68fc 38bb a4e2 11bd
00000260: d901 c63c 4d52 643d 08f0 19bc 0a1f 3bbd
00000270: 0d72 81bd 1c40 6f3d 7ca8 913c 4039 8d3c
00000280: 6584 d53b ca1c b13c 9145 a63c 05dd e73c
00000290: bc68 1d3d 4922 5cba 62ae 533d f233 163d
000002a0: 1b5d 87bb 482d f5bc 0cd3 013b b7c3 273d
000002b0: 283e 193d 1d1d 09bd 849b b9bc 1cdb b83c
000002c0: 353d a03c 4cea 623d 2265 f63c 6466 8c3c
000002d0: 725b 473c fdc0 7abd cce5 cdbc ed06 8f3b
000002e0: e108 50bd e6a8 83bd a8c8 233d 1c37 9c3c
000002f0: b7e7 75bd efff 01bb 46a9 f13c fac0 0a3d
00000300: cee8 5d3d d2cb d7bc 9ab9 d63c 060a 50bd
00000310: efcb 62bc 2af2 37bd 8508 87bc 74eb 073d
00000320: 0267 dd3c 5cc9 0fbd 9e67 cebc 84a4 b2bc
00000330: d558 c9bc 2e1c 1dbd 2cab 273d 08c2 273d
00000340: 31cd 313d bc9c 1abd b3f0 2c3d eb36 adbc
00000350: 5e5e 8abc 988b 9bbc e291 f4bb 8fd1 febc
00000360: 0811 d13b ba42 2ebd c8a6 c03c ed46 6bbd
00000370: fefd c8bc 86f8 3abd 44a3 0d3d 7ce2 163d
00000380: fdfa 54bd 89d8 14bd 113e 5a3d 324e 103c
00000390: 1c61 263d e13d 4dbd d6bd d43c f4ec 193d
000003a0: 8a1e 90bc f2fa a8bb b093 333d 2277 743c
000003b0: d3c9 143c 0f0c 00bb 244f e7bc 24c0 25bd
000003c0: 80f6 6a3d 09c7 bbbb 9045 4f3d bdc1 413d
000003d0: 6638 15bd feaf 86bb b12c 95bc 85ad 21bb
000003e0: a957 1e3d 86f7 0c3d bda2 23bd d28d 00bd
000003f0: 1aef 3ebd 1471 62bd e2c2 043d 1e16 17bd
0.0022824148 -0.0011216332 0.007544846 -0.039273303 -0.062431164 -0.0046936492 -0.034551524 -0.023233889
0.04325919 0.0079280455 0.025516974 -0.019654859 -0.053337842 0.010360574 -0.049183432 0.0038310057
-0.05096411 0.045104537 -0.049773082 0.053076196 0.040536746 0.04191785 0.035315394 0.012427203
-0.00737509 -0.005257273 -0.027007574 -0.059550934 0.04887076 -0.00034487637 0.027097363 4.1825333e-05
0.009301784 -0.04653677 -0.058306087 0.042447057 0.019795392 0.023935195 -0.065796584 -0.0049667493
-0.059319984 -0.009278789 -0.0043457835 -0.044573165 -0.06646368 -0.0045440383 0.054010525 0.05287952
-0.042495098 -0.015580832 -0.059238784 -0.051040664 -0.020214569 0.057263236 -0.018478729 -0.0059896815
0.056634087 0.0077225277 0.046089217 0.03921749 0.056418806 0.008746621 -0.049967792 -0.0559136
-0.034643352 0.050838757 0.03159656 0.016224965 -0.052246455 -0.046653137 0.048797343 -0.0109701725
-0.07160081 -0.010880493 -0.014907571 -0.00049454375 0.019018834 0.022179352 -0.049986318 -0.0028871407
-0.03150886 0.038202357 0.02877301 0.024737872 0.05519737 0.028602418 -0.064640224 0.011922626
-0.0433975 0.0062421337 -0.0012479412 0.05966767 -0.04485723 -0.0634826 -0.024244724 0.00724054
0.043454636 0.047538426 0.045900512 0.017505405 -0.020732092 -0.016233532 -0.036402673 0.0031478566
-0.044635765 0.02061725 0.031223899 0.050831433 -0.063847624 0.043369643 -0.04230971 -0.007204777
0.057305425 0.03164872 -0.023720669 0.03324164 -0.0631406 0.046616293 0.056480426 -0.008881716
0.009586904 -0.020157104 -0.040011752 -0.031631548 -0.0080258595 -0.054650486 -0.05283014 0.0048892787
-0.04174716 -0.043568518 -0.0048053404 -0.036085848 0.054890197 -0.026061123 -0.03703476 -0.01882426
-0.05648461 0.029994583 0.051503636 -0.04490656 -0.025480283 0.053732906 -0.043056875 0.014730048
-0.05520054 -0.05979911 -0.008235831 -0.039941568 0.024038607 -0.021564715 -0.0028226618 -0.035616532
0.024170803 0.05574255 -0.009395607 -0.045683898 -0.063205816 0.05841075 0.017780535 0.017239213
0.006516027 0.021620173 0.020296844 0.028303633 0.03842996 -0.0008397443 0.051679976 0.036670633
-0.004130972 -0.029928818 0.0019809632 0.040958133 0.037412792 -0.03347503 -0.022657163 0.022565417
0.019560436 0.055399224 0.03007752 0.017138667 0.012167798 -0.061219204 -0.02513399 0.0043648393
-0.050789718 -0.06428699 0.039986283 0.019069247 -0.060035434 -0.0019836386 0.029499661 0.033875443
0.054177098 -0.026342306 0.026211549 -0.05079081 -0.013842567 -0.04490868 -0.016483555 0.03318353
0.027026657 -0.03510414 -0.025195893 -0.021806963 -0.024578491 -0.038356952 0.040934727 0.040956527
0.043408576 -0.03774713 0.042221736 -0.021144351 -0.0168907 -0.018987462 -0.0074636796 -0.031105785
0.006380204 -0.042544104 0.023517027 -0.057440687 -0.024535175 -0.045647167 0.03457953 0.036837086
-0.051997174 -0.036339317 0.053281847 0.008807706 0.040619954 -0.05010784 0.025969427 0.03757949
-0.017592687 -0.005156868 0.043842018 0.014920982 0.009081322 -0.0019538437 -0.02823598 -0.040466443
0.057363987 -0.005730514 0.05060345 0.047303904 -0.03643074 -0.0041103354 -0.018209787 -0.0024670076
0.038657818 0.034415744 -0.03995012 -0.03138525 -0.046614744 -0.05528362 0.032412417 -0.036886327

mlp.2.bias f4 [256]
00000000: 2a0b 013c c2fc 713c 9222 35bd f448 df3c
00000010: a81b 583a 1cda d5bc ddf2 4ebb e0ee 013d
00000020: 7fa6 40bc 4a1b 753c 4e56 843d e990 c83b
00000030: 7875 323c 2864 3abd 2eb2 1cbd efda 663d
00000040: 50f8 4f3d 1fa8 f7bc 2a43 2c3b 8bcb d93c
00000050: 89c0 f73c 2093 77bd 8079 193c 0ac7 eb3c
00000060: e1bc 37bd 882b 4e3d 6882 3bbd a875 0d3c
00000070: 7f95 68bc fe74 1d3d c3ab c23b 605d 35bc
00000080: 7534 253c acec 643d 5dc7 91bb bc7b 653d
00000090: ec0f 10bd 262c 393d f1ca 493d e7d0 f23c
000000a0: e9b8 5e3b 1be3 2ebd ac91 3a3d bc5f 4a3d
000000b0: b463 3d3d ad87 80bd 73d8 933c d2a5 3c3c
000000c0: 624e 5fbc 74ac 303d b9ee 443d 6e34 b8bc
000000d0: 868f 283d afc0 32bd bf60 433d be4f ad3c
000000e0: 3022 95bd c374 e9bc 0d27 48bc 081c 413c
000000f0: a824 60bd 4b23 743d 3dd7 62bd 7c0b d1bc
00000100: 6d54 bfba 826f 503d 9913 513d 9cda a0bb
00000110: 463b 3e3d 1537 14bd f650 5a3d b3e6 b33c
00000120: 3de8 cdbc 6837 6e3d 0c58 13bd c7ee 6bbd
00000130: a86c 8a3d a57a 9cbc 1603 353c 8aae 8cbd
00000140: d557 dd3c b52a ed3c edc2 bfbc 69f0 003b
00000150: e81f eb3c 647b 6a3d f39c 4ebd 757e 9f3c
00000160: c202 5d3d 8dcf 263d de43 923b 5e86 243d
00000170: f2f4 2f3c 72bf 8a3c d132 dabc 6c0c 063b
00000180: c78d 243c 67d1 33bc 54af b43a fd73 b93c
00000190: 09ec 89bd 7b97 243b 75ad ab3a 5c66 2c3d
000001a0: 70fb 7f3c 510c c5bc a52e 593d 3d9d 4c3b
000001b0: 2cad 23bd 1c4c 74bd b6b5 7fbc 8e45 41bd
000001c0: 83fa de3c e9a5 7fbc 3f24 2f3d 68e8 913d
000001d0: d011 113d 3972 4fbd 0a68 1d3d 1bb3 143d
000001e0: de9d 1abc e230 f43c f3f8 9a3d 345c 9b3b
000001f0: 580c 813d 1607 cebb e609 23bd e0c1 cabc
00000200: 0fbb 3f3a 845e d5bc 79dc 6f3d e54a 31bd
00000210: 9e48 293d 9cb7 0d3d e722 9e3d 893f 3c3d
00000220: 028c 053d a9ea 3d3d 4974 34bd f653 f33c
00000230: ae25 45bc 1237 65bb 62fe 3e3d 4e44 0fbd
00000240: 85bc 4ebd 5335 23bd 4464 e1bc 2b08 4a3d
00000250: a56c eabb b9bd a5bb cf36 4dbc 8b8f 83bc
00000260: 4b84 633d d8ca 0bbc 457a 9a3c bb84 213c
00000270: 6318 bfbc 0c67 27bd 2c0d cdbc 97c4 d8bc
00000280: a57c b73c db05 203d fc25 363d 8a44 00bd
00000290: c93e 453d 5d87 d4bc e178 6c3c d01b 693d
000002a0: d98b fd3b f5d3 72bc e6da 1cbd 3029 49bd
000002b0: c8b4 003d 293a 893d 4a34 933d 46a1 853d
000002c0: e350 79bc 4348 5a3d d75a 163c 48d3 7f3c
000002d0: 003f 3c3d 1a0e 563c a8cd 09bd 56b4 173d
000002e0: 1717 3cbb 0c54 083d 701d 0d3d e09e ebbc
000002f0: be9a 94bd 9898 febc 11ef 153d 22fc 31bd
00000300: 2470 363d 97b9 01bd bb5e 85bd 18fd f23c
00000310: bdb3 43bd e6ed 6c3d 9b08 98bc edcb 493d
00000320: 14b8 1a3d 8022 ce3c c639 6c3c 6963 73bd
00000330: 3c19 4b3d 3e19 3dbd 7e56 5dbd 0d0b 823b
00000340: 393f 1a3d 3091 6abd e49d b9bc 08aa 6dbd
00000350: c49c 9b3d f56d 4b3b d44c 113d 9d67 06bd
00000360: 5c46 a7bc 913c 013d be12 1bbc c480 773b
00000370: 37be 9f3d 8591 363d 4315 7cbd 4a13 62bd
00000380: 6218 333c 0277 5d3c 6c4d 04bc 322f 90bc
00000390: bd82 773d bad3 f63c 54e6 0d3d c21d 0d3d
000003a0: 9c83 873c 0600 62bd f25b 153d a1aa ba3c
000003b0: 71be 7f3c 7928 433c aee7 57bb f9c4 ab3b
000003c0: 59f9 edbb c13a d13c 9013 2c3d 6aaa 8cbc
000003d0: 82bd 403d bcdd 18bc 81f0 553d e183 7a3d
000003e0: 10ef 723c 7b49 373d 54ea 5dbd 3d37 05bd
000003f0: 650a 07bd a933 b13d 518a 8d3c d9f3 4f3c
0.007876197 0.014769735 -0.044222422 0.027256466 0.0008243867 -0.02610498 -0.0031577863 0.03172195
-0.011758446 0.0149601195 0.06461774 0.0061207903 0.010892265 -0.045505673 -0.038255863 0.056361135
0.05077392 -0.030231534 0.002628515 0.026586315 0.030243175 -0.060443044 0.009367347 0.028781433
-0.044857863 0.050334483 -0.045778662 0.0086340085 -0.014195799 0.03844165 0.0059408857 -0.011069626
0.0100833075 0.05588977 -0.004448815 0.056026205 -0.035171434 0.04520812 0.049265806 0.029640628
0.0033984727 -0.042697053 0.04554908 0.049407706 0.046237662 -0.06275878 0.018047547 0.011514144
-0.013629528 0.043133214 0.048079226 -0.022485938 0.0411525 -0.04364079 0.047699686 0.021156188
-0.072819114 -0.02849806 -0.012216342 0.011786468 -0.054722458 0.05960397 -0.05538105 -0.025518171
-0.0014597304 0.050887592 0.05104408 -0.004908873 0.046443246 -0.036185343 0.053299867 0.021960592
-0.025135154 0.05815831 -0.03597264 -0.057600763 0.06759006 -0.01910145 0.011048099 -0.06869228
0.02701942 0.028951028 -0.023408378 0.0019674546 0.028701738 0.05724658 -0.050442647 0.01946948
0.05395771 0.04072528 0.004463657 0.040167205 0.010739552 0.016936991 -0.02663556 0.0020454181
0.010043568 -0.010975218 0.0013785162 0.022638315 -0.06734473 0.0025114703 0.0013097959 0.042089805
0.015623912 -0.024053724 0.053023 0.003122165 -0.03996007 -0.059642896 -0.015607288 -0.047185473
0.027219063 -0.015603521 0.042759176 0.07124406 0.035417378 -0.05064604 0.038429298 0.03630362
-0.0094370525 0.029808465 0.075670145 0.004741216 0.063011825 -0.006287466 -0.03980436 -0.02475065
0.00073139457 -0.026046045 0.05855987 -0.043284316 0.04132902 0.03459893 0.07721501 0.04595903
0.032604225 0.046366367 -0.04405621 0.029703122 -0.012032909 -0.0034975451 0.046629317 -0.03497725
-0.050472755 -0.039845776 -0.02751363 0.049324196 -0.0071540647 -0.005058017 -0.012525274 -0.016059658
0.055546086 -0.008532248 0.01885713 0.009858306 -0.023327058 -0.040869758 -0.025030695 -0.026460929
0.022398302 0.039068084 0.04446982 -0.031315364 0.04815558 -0.025943452 0.014433117 0.05691129
0.0077376184 -0.014821042 -0.038294695 -0.049111545 0.031422406 0.06700546 0.07187708 0.06524901
-0.015217039 0.05329157 0.009176931 0.015614338 0.04595852 0.0130648855 -0.033643395 0.037037216
-0.0028700286 0.03328328 0.034451902 -0.028762281 -0.07256077 -0.031078622 0.036604945 -0.043453343
0.04454054 -0.031671133 -0.06512209 0.0296617 -0.047778834 0.057844065 -0.01855879 0.049266744
0.037773207 0.025162935 0.014418071 -0.059420977 0.049584612 -0.04616665 -0.054037564 0.0039686025
0.03765795 -0.057267368 -0.022658296 -0.058023483 0.0759826 0.0031040881 0.03547366 -0.032813657
-0.020419292 0.0315519 -0.009464918 0.003776596 0.077999525 0.044572372 -0.061543714 -0.055194177
0.010931106 0.013517143 -0.008075099 -0.01760063 0.060427416 0.030130256 0.034643486 0.034452207
0.016542248 -0.055175804 0.03646464 0.02278644 0.01560937 0.011911505 -0.0032944488 0.005241987
-0.0072623906 0.025540711 0.042010844 -0.017171104 0.04705573 -0.009330209 0.052231316 0.061160926
0.014827505 0.04474781 -0.05417855 -0.032523382 -0.032968897 0.086524315 0.017277868 0.012692415

mlp.4.weight f4 [1, 256]
00000000: b7a4 463d 034b bfbd 9356 f13c 2931 7c3d
00000010: ccb2 b13d 3c44 61bc 9170 dbbd 6ebc 6fbd
00000020: 70c7 93bd f433 023e 3d4e b33c fd29 a3bd
00000030: 9bbe 07bd 04f2 af3c 46c1 d43c 37c5 6e3d
00000040: b213 693d 94de b5bc 843d 873c b163 c73d
00000050: e76e 48bd 3670 9b3d efad 4dbd 4e11 b2bd
00000060: f2a1 b9bc d615 813d dd28 a73c d010 543d
00000070: 6599 483d 8ecc 823d 972a 823d f475 08bd
00000080: 0e93 7e3d 96a9 aa3d aad0 bebd fdb8 be3d
00000090: fb87 d6bd ba37 84bd a5af 59bd b5c7 46bd
000000a0: 0737 f03c 5ca0 cf3a 9786 83bd a8c6 913d
000000b0: 7741 4b3d 79bf 3bbd 5ab7 b93c 561b 0bbd
000000c0: 51d5 a43d 7eac 403d 503d 6fbd 4c06 92bd
000000d0: 5feb 10bd 5db5 94bc d8d4 29bd adc3 08bd
000000e0: 02ef 0c3d 587d 703d a4ef 23be 1ce8 a0bc
000000f0: 75f5 edbc d9ef 26be c985 81bb aeef 8e3d
00000100: d100 bbbc 32b9 92bc 52dc 693d a95e f03a
00000110: 963f 5f3d f957 cf3d fad1 d8bc 4284 c4bd
00000120: 4108 38bd dac2 35bd d6ed 26bd 0d64 37bc
00000130: 35c7 853c c663 64bd 5dca 923d c1ce 503d
00000140: 1938 04be f323 ce3b fa2a fbbc 8252 16bd
00000150: 0cfe cd3c b5e7 aebd 4cf6 5dbd 3526 183d
00000160: 32b9 73bc bb42 86bc f0ae 653d 74b2 d9bc
00000170: ac90 cb3c 4a33 da3c aca8 ec3d 87c5 433d
00000180: 0659 e5bd cb67 be3d 56fb 083e 35c7 9a3c
00000190: 09ca 623c 106a fdbd 0288 81bd 3d24 87bd
000001a0: 423c 52bd fd93 f33d 08c7 323d 98af 0f3d
000001b0: 6ec1 8dbd eed1 06bd 1a23 94bd 93c0 a3bb
000001c0: 932b 60bd 491d d23d fcfc 20be 7757 643d
000001d0: 52ba 83bc daa9 6cbd 9879 a63c 3a83 d53d
000001e0: f654 923d bdca 7fbd 50cc 983d 7880 a7bd
000001f0: 0420 2fbd 67f9 3dbc be65 78bd cc40 81bd
00000200: 9a2a 82bd cae4 763d 7054 81bd ec3b 25be
00000210: 2cb3 b63d db2c c83d 77cb 9d3d 663f 9abc
00000220: ed4d 4ebd 7c06 62bd 8c3d 98bd 7f0d dbba
00000230: fd13 603d 73cc d7bd 247c 9fbd 6d45 863c
00000240: 0234 fe3c 9300 7ebd 0957 d83d 3aab b53d
00000250: 38f9 14bd b5a2 553d fd13 3abd 8cdd 46bd
00000260: 6e45 193d 44c1 c43c 1223 00bd 5c6d 2cbc
00000270: df89 1f3d b47d 57bd 3fe6 b8bd 6369 a23d
00000280: 598f 09bd 6030 853d 7a3d 063d 5a34 babc
00000290: f769 5f3b d6db b1bc d856 293d 6102 d73c
000002a0: 180a 5a3d 91ec 81bd 22da 853d 4789 da3c
000002b0: c611 193e fb92 e83c 6f70 743d d837 623d
000002c0: e4ac ebbd 3f73 623c 56b7 4c3c 2634 debd
000002d0: 746a eabd 0552 dfbc 9d35 a2bd 68fe b03d
000002e0: 9050 fc3c d024 80bc 05c6 c33c 0bc2 9ebd
000002f0: 9c27 bebc 5e4d 183d 99d3 89bd 2fed c23b
00000300: ad09 39bc d5da 243d 28e4 c63c 2200 ec3b
00000310: 20f1 2a3b 4c02 b53d e6d0 1a3d c6e1 473d
00000320: 703b febd e719 323d a998 be3d ca9b 7ebd
00000330: 66f4 a0bd 29d7 d4bd ccd1 043d 9a9b 853d
00000340: 5510 15bd ac55 3dbd 8fa0 10bd 2eb3 95bd
00000350: 4cf7 813d 5fdd 8f3d 01e6 a3bd 19dc 7b3c
00000360: 3359 d03c 3f65 c2bc 9462 933d b059 5bbd
00000370: 140f a0bd 18af 2cbd 3536 6fbd cf1d 64bd
00000380: e0b9 80bd 0074 b4bd 26c3 6cbd 33b8 b9bd
00000390: dd77 3d3d 4d4e e9bd 6e8f 6c3d 841d e9ba
000003a0: a4f0 623d d001 9cbb 28ed 3b3d a6fb 7abc
000003b0: ed48 74bd 23ad 753d 6317 84bb c87c 423d
000003c0: 0bab 7cbd 2329 da3b 4635 8c3c 9b08 d03d
000003d0: 6d8b c7bd 0bbf 703d 2f3e 98bd ac66 93bd
000003e0: 68f1 f23c 48d3 c13d 8caa 963b dee6 c3bd
000003f0: 540d 5abc de9a 2dbe c3b2 d7bd 3b37 793d
0.048496928 -0.09340479 0.029460227 0.06157032 0.08676681 -0.0137491785 -0.1071483 -0.05852931
-0.07215774 0.12715131 0.021887893 -0.07966993 -0.03314076 0.021477707 0.025971066 0.058293547
0.05690355 -0.02220086 0.016508825 0.097358115 -0.04893389 0.07589762 -0.050214704 -0.08694707
-0.02266023 0.06302993 0.020405227 0.051773846 0.048974413 0.06386672 0.063557796 -0.033315614
0.06215196 0.08333127 -0.09317143 0.093126275 -0.10475155 -0.064559415 -0.053146023 -0.0485303
0.029323114 0.0015840637 -0.06422155 0.07117969 0.04962298 -0.0458369 0.022670437 -0.033961616
0.080484994 0.0470395 -0.05840808 -0.07130107 -0.035380717 -0.018152887 -0.04146275 -0.033389736
0.034407623 0.058713287 -0.16009384 -0.019641928 -0.029047707 -0.16302432 -0.003952716 0.06979309
-0.022827538 -0.017910574 0.05709488 0.0018338758 0.054504 0.10124201 -0.026467312 -0.09595539
-0.044929747 -0.044375278 -0.04075416 -0.011193288 0.01633034 -0.055759214 0.07167504 0.050978426
-0.12912025 0.0062909066 -0.030660141 -0.03669978 0.025145553 -0.08540288 -0.054189965 0.037145812
-0.014875697 -0.016389241 0.056075037 -0.02657435 0.024849258 0.026635785 0.11555609 0.0477958
-0.111986205 0.09297141 0.13377127 0.018893817 0.013842114 -0.123737454 -0.063247696 -0.06598709
-0.051326998 0.11893461 0.043646842 0.03507957 -0.069216594 -0.03291505 -0.072332576 -0.004997322
-0.054729056 0.10259492 -0.15721506 0.055747475 -0.016080055 -0.05777917 0.020321652 0.1042542
0.07145111 -0.062449206 0.074608445 -0.081788 -0.04275514 -0.011595107 -0.060643904 -0.06311187
-0.06355782 0.060276784 -0.06314933 -0.1613614 0.08920893 0.097741805 0.077048235 -0.018829059
-0.050367285 -0.055181965 -0.07433614 -0.0016712396 0.054706562 -0.105370425 -0.0778735 0.016390527
0.031030659 -0.062012266 0.10563476 0.088705495 -0.036370486 0.052157123 -0.04542922 -0.048551127
0.03741973 0.024017937 -0.031283446 -0.01052412 0.038949843 -0.052610114 -0.09028291 0.07930257
-0.033583973 0.065033674 0.032773472 -0.022730041 0.003409026 -0.021711271 0.041342586 0.026246252
0.053232282 -0.063439496 0.06535746 0.026676787 0.14948186 0.028390398 0.059677538 0.055229038
-0.11507586 0.013821422 0.012494883 -0.1084979 -0.114460856 -0.02726079 -0.07920382 0.08642274
0.030800134 -0.015642554 0.023898134 -0.077518545 -0.023212247 0.037183158 -0.06729812 0.0059486846
-0.011293811 0.040247757 0.024278715 0.0072021643 0.0026083663 0.08838329 0.037796877 0.0487993
-0.124136806 0.043481734 0.09306461 -0.06216029 -0.07859115 -0.10392601 0.03242664 0.06523819
-0.03639253 -0.04622428 -0.03530937 -0.073095664 0.06345996 0.07024645 -0.08002854 0.0153723
0.025433159 -0.023729919 0.07196537 -0.05355233 -0.07815376 -0.04215917 -0.058401305 -0.05569249
-0.06285453 -0.08811188 -0.057803296 -0.09068336 0.04625689 -0.11391888 0.057753973 -0.0017785286
0.055405274 -0.0047609583 0.045880467 -0.015318787 -0.05963986 0.05997957 -0.004031108 0.047482282
-0.061686557 0.006657736 0.017115247 0.10157891 -0.0974339 0.058775943 -0.074337356 -0.071973175
0.029656127 0.09464127 0.0045979675 -0.09565519 -0.013308842 -0.16953608 -0.10532143 0.060843688

exp_avg f4 [256, 3]
00000000: 2377 033a c1f6 6139 0711 0e3b 8530 adba
00000010: 7938 cdb8 8576 fe39 9e01 71ba 77bf 393a
00000020: 6526 2a3b 2187 14b9 a560 c5b9 2d71 5cbb
00000030: c0bb bc36 9fed a937 7329 7938 e6a6 d839
00000040: f662 ef38 df4d c8ba 4184 61b7 c4a4 0eb9
00000050: 19c5 3839 3b61 5db9 7605 65b9 74aa 73b8
00000060: 2c78 c33a 566a fa38 e242 15bb 5c47 32b9
00000070: 416d 7bb8 470b c63a 528b ccbb 111d 99ba
00000080: 1e98 543b 9dda aa38 aec0 4f38 930b 043a
00000090: 8e20 86b9 7909 8d38 cebc a839 984c a53a
000000a0: bb01 a4b9 89d7 a039 58ba 10ba dbef d339
000000b0: 63b6 d03a d4d0 4dba 741f a2b8 b767 b43a
000000c0: 3753 093a 39cf ae39 7a8b 99b9 5074 8239
000000d0: 0bb6 acb6 0c38 1d39 8179 4bb9 5072 f5ba
000000e0: 5094 6cba 2897 5c38 497a 85b8 54bf 8b39
000000f0: 9839 8e39 26e0 9db9 f0f0 1bba c8d0 fbb9
00000100: 9b33 673a c959 8abb 39e3 f939 28ac 9839
00000110: ce95 8cb9 b5de 85ba ad68 d0b8 be5d 2b3a
00000120: 42e6 34ba 8fb0 0ab9 692d 113b 91bb 4b39
00000130: 22ae a5b7 ec63 983a 7513 9b38 cbd6 ceb8
00000140: a2d5 1cba a634 9d3a 4034 c5b9 92b5 10bb
00000150: ddce 5a39 e86c 3439 186d ca3a b1b5 10ba
00000160: e36d b238 492d e63a 112b b1ba aa7b f3b9
00000170: e8a0 23b9 2fb0 f639 1855 dc39 758d 9339
00000180: b842 bbba 79dc 09b9 3313 18bb aa29 c93a
00000190: b206 94b9 6989 6e39 c4e8 53ba f161 19b9
000001a0: 56f1 08bb 29fe 3739 be47 9cb9 53ad 67ba
000001b0: a403 09b8 d18a 1239 8957 5a3a 53a3 59b8
000001c0: c594 4639 9283 a83a 5a08 bbb6 1845 9a38
000001d0: a723 be3a 446f 153a dfa2 f539 5204 353b
000001e0: dbcf 1739 63df ceb8 ff17 9238 df37 dcb9
000001f0: f973 b4b9 fb14 6d39 92df c538 352d c1b8
00000200: 2dd0 9abb 67d6 84ba 980b b239 5c5c 773a
00000210: a501 8938 2903 91b8 4478 f63a cfac 39ba
00000220: 59ae 58ba 009d 9e3b 2110 1bb7 5661 f838
00000230: 5259 1cb8 cf87 e8b9 fc3c 9db8 723b 32ba
00000240: 173f adb9 b297 1839 b06e df39 5611 0e39
00000250: 797d 8538 a4c4 25ba 23a6 81b9 abc5 29b8
00000260: 5793 93ba c048 8638 fbea 6d39 c6dd f436
00000270: 3f42 0f3a c1f3 2d36 4c95 06bb 4116 0eb9
00000280: f539 fb38 859c f4ba a721 b639 a262 e238
00000290: 7fe9 4f39 1c5b 5539 cb3a 9a3a 0f42 06bb
000002a0: 3ee9 b439 920d 8939 b121 7539 4107 16bb
000002b0: b78b d9b8 3c97 343b dfdc 4a39 8b4a 3038
000002c0: 6634 8c3a 3497 fb39 39b4 b7b6 ed2a b7ba
000002d0: 7bc9 a239 10d7 1b39 84c7 8138 f570 e939
000002e0: 7347 2db9 d3aa d0ba b817 9039 9447 a7b9
000002f0: 2aec d0bb b002 4d3a 7004 c1b9 b8d3 a0ba
00000300: 5a42 8ab9 f387 c0b8 0892 b939 cad0 c438
00000310: 49ee 5cb8 0eae b33a c199 2aba 1b27 ae37
00000320: 510f 283b 31d1 5dba 7f95 21ba b4b6 bf36
00000330: 67eb cf38 17bb 2db8 edb6 61ba a2b6 d037
00000340: 9fec a038 0e08 b63b 99be 9439 2b66 e137
00000350: 9f5d d8b9 f06c 5938 18e1 77b9 768c 0c3b
00000360: 2238 18b9 a0f4 9e3a b06b 52ba a3e9 75b9
00000370: 6ffc 8b38 d92e 6c3a 74ce ca39 918b 91b9
00000380: f8e7 96bb 5153 cf39 7016 83b9 a087 69bb
00000390: b65c 1739 6428 4bb7 a103 3d3a 8080 0dba
000003a0: 2615 fb39 34ab e93a d405 5039 a6b0 a738
000003b0: 77f6 c2b8 6853 12b9 57f7 8239 a868 033a
000003c0: f904 8a38 4aa4 31b8 9caa 90bb effd e038
000003d0: 1812 8ab9 5778 4fbb a5d6 3a37 ca57 b738
000003e0: e48b 8cb8 b873 18ba 1b07 a2b8 0a07 afba
000003f0: 3916 6e39 d349 64b9 6c3c d1ba 6efc cf38
0.0005015006 0.00021549595 0.002167763 -0.0013213312 -9.7856806e-05 0.0004853496 -0.00091936614 0.00070857204
0.0025962826 -0.0001416472 -0.00037646774 -0.0033636794 5.6246936e-06 2.025702e-05 5.940483e-05 0.0004132308
0.00011414841 -0.0015281996 -1.3441838e-05 -0.00013603555 0.00017621032 -0.00021112424 -0.00021841176 -5.809446e-05
0.0014913133 0.000119407356 -0.002277546 -0.00017001986 -5.9944814e-05 0.0015109562 -0.006242194 -0.0011681636
0.0032439302 8.1469516e-05 4.9532093e-05 0.0005037125 -0.00025582727 6.725168e-05 0.00032184127 0.0012611328
-0.00031281807 0.00030678164 -0.00055209314 0.00040423762 0.0015923496 -0.0007851247 -7.7306206e-05 0.001376382
0.0005238535 0.0003334226 -0.00029286352 0.00024882192 -5.147192e-06 0.00014993566 -0.00019404852 -0.0018726084
-0.0009024786 5.2592863e-05 -6.3647116e-05 0.00026654697 0.0002712726 -0.00030112377 -0.0005948683 -0.00048030005
0.00088196405 -0.004222129 0.00047662275 0.00029119966 -0.00026814494 -0.0010213467 -9.93771e-05 0.0006537101
-0.0006900766 -0.00013226479 0.002215231 0.00019429463 -1.975062e-05 0.0011626459 7.3946e-05 -9.862854e-05
-0.00059827615 0.001199384 -0.00037613697 -0.002208088 0.00020867163 0.00017206708 0.001544389 -0.0005520238
8.5081694e-05 0.0017561103 -0.0013516863 -0.0004644071 -0.00015604834 0.00047052043 0.0004202507 0.0002814342
-0.0014286852 -0.0001314747 -0.0023204803 0.00153475 -0.00028233748 0.00022748638 -0.0008083696 -0.00014627703
-0.00208958 0.00017546922 -0.0002980809 -0.0008837778 -3.2666736e-05 0.00013975358 0.0008329084 -5.188894e-05
0.00018938172 0.0012856594 -5.5740065e-06 7.356162e-05 0.0014506475 0.0005700479 0.0004685139 0.0027620983
0.00014477914 -9.8644545e-05 6.966292e-05 -0.00042003297 -0.00034418682 0.00022609897 9.435335e-05 -9.2113776e-05
-0.0047245235 -0.0010134698 0.00033959444 0.0009436065 6.5329754e-05 -6.9147274e-05 0.0018804152 -0.00070829404
-0.0008265726 0.004840493 -9.242475e-06 0.00011843692 -3.7276484e-05 -0.00044351674 -7.4977026e-05 -0.0006799019
-0.00033044137 0.0001455236 0.00042616343 0.00013548633 6.365305e-05 -0.0006323552 -0.0002472858 -4.0476833e-05
-0.0011259121 6.403169e-05 0.00022689618 7.2975845e-06 0.00054648885 2.5920892e-06 -0.0020535765 -0.00013550466
0.00011979408 -0.0018662369 0.00034738818 0.000107948916 0.00019828042 0.00020347204 0.0011766789 -0.0020486151
0.00034506054 0.00026140787 0.00023377572 -0.0022892507 -0.0001037339 0.0027555963 0.00019346502 4.2031093e-05
0.0010696768 0.00047987106 -5.4748057e-06 -0.0013974585 0.00031049162 0.00014862069 6.188362e-05 0.00044525383
-0.00016525183 -0.001592005 0.00027483492 -0.00031906052 -0.006375809 0.000782053 -0.00036815135 -0.0012270128
-0.00026370847 -9.180596e-05 0.00035394751 9.384898e-05 -5.2674008e-05 0.0013708489 -0.00065078965 2.0760626e-05
0.0025643895 -0.0008461653 -0.0006163939 5.713513e-06 9.914376e-05 -4.1420655e-05 -0.0008610327 2.4880577e-05
7.673469e-05 0.0055551594 0.00028370766 2.6869666e-05 -0.00041268484 5.1838288e-05 -0.0002363961 0.0021446026
-0.0001451676 0.0012127347 -0.0008026911 -0.00023452057 6.675056e-05 0.00090096664 0.00038682262 -0.0002776054
-0.0046052895 0.00039544192 -0.00025002984 -0.0035633817 0.0001443502 -1.2109147e-05 0.00072103186 -0.0005397871
0.00047890207 0.0017827512 0.00019838597 7.996084e-05 -9.2965485e-05 -0.00013954716 0.00024979815 0.00050128484
6.581279e-05 -4.2353095e-05 -0.0044148695 0.00010728451 -0.00026334892 -0.0031657421 1.113644e-05 8.742472e-05
-6.701777e-05 -0.0005815583 -7.7260855e-05 -0.0013353538 0.00022705727 -0.00021771276 -0.0015963442 9.917548e-05

exp_avg_sq f4 [256, 3]
00000000: c3a5 6035 485f 8034 7932 f536 5641 0a37
00000010: efc0 b535 281b 3737 46c7 af35 b6f0 4035
00000020: 40e5 c437 88d0 bc37 3939 8e36 bf6f eb38
00000030: 7d18 a835 16db 5a35 29ea 9138 b07a 0e35
00000040: b49a 8c34 e8fe 3a37 52f7 e434 0d4c de33
00000050: 9e17 e336 1614 4c35 f592 8a33 4e16 6936
00000060: 485e a835 c1ef bc34 705b 3c37 f8ce 5635
00000070: 8986 0935 272c af37 9553 cb36 8e98 dd35
00000080: e2d8 6238 96cb 0c36 d02b d234 ec23 ba37
00000090: c5a8 3f35 eabd a934 2ae2 3837 4c69 8837
000000a0: a2b6 3236 2426 8c38 82c6 b635 d4a0 3e34
000000b0: 87af 3637 337e 7735 01ee 0635 84a1 9137
000000c0: dd25 9535 6bea 7734 38b7 8737 ee23 0135
000000d0: 1a90 b833 57bd 1e37 b950 1f37 ec83 b435
000000e0: 7f86 8f37 5285 6036 7a20 8435 236e a737
000000f0: 8570 3b36 92dc 6e35 907a 7237 4388 8b35
00000100: 9cb7 3335 fc6d cc37 13c4 d834 42f1 d933
00000110: 5c73 f936 0337 6d37 880b 1e36 8e86 af38
00000120: 8ba1 8b36 e0e7 0236 8527 9338 b554 8835
00000130: 8787 ec34 a0ea 8237 4613 5835 73f9 0434
00000140: a6d2 ed36 52c7 3f36 ae43 7635 6634 1b38
00000150: cfc2 e435 3d75 7334 3032 5b37 fc39 4b35
00000160: c508 0535 b2a1 9737 63e3 a537 7e04 9035
00000170: 7c04 ca37 c3e2 1b36 e30e ac34 b862 c137
00000180: df6c f335 e5ed 9b34 ed2d a137 3dfa 1536
00000190: 3464 e034 bf10 e937 872d 5b35 a911 d133
000001a0: 8d9b 7636 e145 3a37 272e 3636 202a 9e38
000001b0: 3ea2 eb35 fdd2 2435 3589 d937 07ec f635
000001c0: 6dfb 8e34 fcbd d837 4ab0 ac36 18ad 9e35
000001d0: 3691 f337 0c9c 6136 0d4c 3d35 55f9 4d37
000001e0: 1b23 4f35 7fc9 a834 352b ef36 9c9c 5636
000001f0: 29e1 7034 2c5c 2837 5f47 0236 4ca0 7335
00000200: b1d6 0c38 04f8 9535 7a59 8c34 46e4 f936
00000210: a3f9 4c36 315b 3d35 b63b b037 c74d 0e37
00000220: 7d92 3b36 36f1 a438 f007 9934 b7d6 9b33
00000230: 9486 3636 a882 1637 3ae8 e735 2132 3f38
00000240: 91d6 1735 960e cd34 5b39 5b37 2303 0c35
00000250: 5398 6034 5a74 5236 5c03 9737 b6c0 5136
00000260: 7b11 b838 f622 fb35 47ac 6634 02ff 2a37
00000270: f589 ee35 46ae e534 bc44 5a37 66b6 df36
00000280: 147c cb35 53ab 4738 4ef4 6835 56d9 3234
00000290: 4e7e 8737 efa6 c136 6110 f535 2f4a 1638
000002a0: 1207 0837 c06f ed35 ce6a 1f38 23f4 0936
000002b0: 7e77 3335 f656 c837 d635 8636 a725 8235
000002c0: d5a3 dc37 0e48 8a35 6c06 6a34 857f d536
000002d0: ed6e 0535 35a3 9c33 affb cd36 e9ce 0c36
000002e0: 4415 8934 261a c636 a881 d537 31ac 0837
000002f0: e04d bf39 f7f5 2336 3482 fe34 148c a637
00000300: 4170 3135 0209 d834 aac4 3437 0ab2 9a34
00000310: 1aa0 1634 57ba 4d36 92bc cf35 5904 9635
00000320: c129 2938 85b4 8337 6350 1136 3ac6 ac38
00000330: a053 8e36 d2cb de35 a677 6f38 c5f0 6a35
00000340: 8bd3 3335 d786 ca37 1d6b 1f34 6f48 7b33
00000350: 8281 7936 c411 8f36 f940 b535 7e48 4438
00000360: 5f9a 9436 48e0 d735 d765 e937 f31a a435
00000370: 5b82 1c35 9976 bd37 fbd6 2537 000a fa35
00000380: a996 7238 a238 2036 dfcf ff34 4b43 6237
00000390: 7c97 5635 dc21 9134 b6bb 8c37 2a4b 8137
000003a0: 024c d735 92f7 9938 47ac 3534 d481 5233
000003b0: 70c6 9c36 9adc a135 4ee9 2634 af3d 5c37
000003c0: 16f3 3336 e59f 7835 5572 0a38 f53a b137
000003d0: 727a 8a36 aeda 1039 5b99 9d34 6a6a f533
000003e0: 8fda 0937 71d8 9835 3d51 e434 1d87 0a38
000003f0: 3bd7 1633 f901 d232 3abb 3d36 0712 a134
8.368772e-07 2.3911184e-07 7.307445e-06 8.240653e-06 1.3541702e-06 1.0913973e-05 1.3096512e-06 7.1875854e-07
2.3471774e-05 2.2508451e-05 4.2385914e-06 0.000112264875 1.2524102e-06 8.153014e-07 6.9577545e-05 5.3077656e-07
2.6189593e-07 1.1145814e-05 4.264826e-07 1.0351514e-07 6.7678766e-06 7.602515e-07 6.452857e-08 3.4732689e-06
1.2544415e-06 3.5192173e-07 1.1226963e-05 8.002239e-07 5.123225e-07 2.0882186e-05 6.0596017e-06 1.6510182e-06
5.4084587e-05 2.0980128e-06 3.9147426e-07 2.2189655e-05 7.1398637e-07 3.1616884e-07 1.1019913e-05 1.6261496e-05
2.6630373e-06 6.6828245e-05 1.361783e-06 1.7753638e-07 1.08889135e-05 9.2198314e-07 5.026523e-07 1.7360559e-05
1.1112385e-06 2.3088948e-07 1.6178572e-05 4.810853e-07 8.5943796e-08 9.461618e-06 9.495933e-06 1.3449439e-06
1.7109558e-05 3.3456204e-06 9.844218e-07 1.9959238e-05 2.7930666e-06 8.898288e-07 1.445286e-05 1.0395964e-06
6.6949883e-07 2.436991e-05 4.0375798e-07 1.01487345e-07 7.434208e-06 1.4139109e-05 2.3550547e-06 8.369713e-05
4.161329e-06 1.9506479e-06 7.016867e-05 1.0157443e-06 4.4057035e-07 1.5606463e-05 8.0494317e-07 1.2384207e-07
7.087673e-06 2.8577238e-06 9.174063e-07 3.700368e-05 1.704402e-06 2.267379e-07 1.3065102e-05 7.570777e-07
4.955912e-07 1.8075898e-05 1.9775418e-05 1.0730143e-06 2.4082365e-05 2.3228793e-06 3.2048328e-07 2.3053362e-05
1.8136597e-06 2.904409e-07 1.9214081e-05 2.2348388e-06 4.179616e-07 2.7783562e-05 8.165011e-07 9.735533e-08
3.67474e-06 1.1102734e-05 2.7146978e-06 7.5418735e-05 1.7556083e-06 6.140179e-07 2.5932308e-05 1.8397121e-06
2.6632497e-07 2.5837675e-05 5.146522e-06 1.1822294e-06 2.9035476e-05 3.3618444e-06 7.0518655e-07 1.2277004e-05
7.7164594e-07 3.1439046e-07 7.127785e-06 3.1979644e-06 2.2433655e-07 1.0035041e-05 1.9413053e-06 9.0757817e-07
3.3578548e-05 1.1173547e-06 2.6142135e-07 7.447353e-06 3.0543677e-06 7.054069e-07 2.100864e-05 8.4819685e-06
2.7950439e-06 7.8650584e-05 2.8504246e-07 7.2568064e-08 2.7198448e-06 8.9711175e-06 1.7278428e-06 4.5584635e-05
5.656412e-07 3.8194838e-07 1.3066771e-05 5.215863e-07 2.0917041e-07 3.1360164e-06 1.8002167e-05 3.12556e-06
8.77706e-05 1.8711132e-06 2.1483093e-07 1.0192163e-05 1.7772533e-06 4.2781375e-07 1.3009816e-05 6.667152e-06
1.516079e-06 4.7604855e-05 8.6782245e-07 1.6656608e-07 1.615207e-05 5.771282e-06 1.8258689e-06 3.5831876e-05
8.107878e-06 1.76904e-06 3.8008024e-05 2.0556697e-06 6.685658e-07 2.3882352e-05 3.9997785e-06 9.696713e-07
2.6302334e-05 1.0302772e-06 2.1795285e-07 6.36274e-06 4.970778e-07 7.294003e-08 6.138776e-06 2.0982063e-06
2.553371e-07 5.903904e-06 2.5451955e-05 8.146323e-06 0.0003648838 2.4432063e-06 4.7405922e-07 1.9853971e-05
6.610099e-07 4.023969e-07 1.07746255e-05 2.8814276e-07 1.4028083e-07 3.0655845e-06 1.5477583e-06 1.1177136e-06
4.0331626e-05 1.5700478e-05 2.1653475e-06 8.238522e-05 4.241665e-06 1.6599608e-06 5.709347e-05 8.752216e-07
6.699053e-07 2.4143066e-05 1.4846997e-07 5.850637e-08 3.7179275e-06 4.2638003e-06 1.350446e-06 4.6797555e-05
4.428715e-06 1.6084023e-06 2.7823187e-05 1.2226795e-06 5.830422e-07 2.2585782e-05 9.88482e-06 1.8629362e-06
5.783761e-05 2.3874823e-06 4.7648697e-07 1.3486318e-05 7.994165e-07 2.703299e-07 1.677671e-05 1.5413e-05
1.604087e-06 7.341722e-05 1.6919613e-07 4.9012513e-08 4.6722635e-06 1.2059638e-06 1.554483e-07 1.3127384e-05
2.6814573e-06 9.2619877e-07 3.3008244e-05 2.1127498e-05 4.126975e-06 0.00013814375 2.935511e-07 1.1428058e-07
8.2167235e-06 1.1387875e-06 4.2527418e-07 3.3027598e-05 3.5120348e-08 2.4448115e-08 2.8272175e-06 3.0001704e-07
