_models/Pendulum-v1_DDPG.pt (torch, 812554 bytes, 15 tensors)

mlp.0.weight f4 [256, 3]
0	0x3ea10098	0.31445765
1	0xbe781817	-0.2422794
2	0xbdcc353e	-0.09971093
3	0x3e87e5c2	0.2654248
4	0xbf08a32b	-0.53373975
5	0x3ebbb9e5	0.36665264
6	0xbdd0dd56	-0.101984665
7	0x3eac6318	0.33669353
8	0x3d917df8	0.07104105
9	0xbdeaaed8	-0.1145913
10	0x3e38a80a	0.18032852
11	0x3c92f41a	0.017938662
12	0x3e8ed4c3	0.278967
13	0xbe805c88	-0.25070596
14	0xbd87eabb	-0.06636568
15	0xbd30581c	-0.043052778
16	0x3df23163	0.11825826
17	0x3c7a6c7c	0.015284654
18	0x3f076015	0.52880985
19	0x3e2a6c52	0.16642883
20	0xbe643d3f	-0.22288989
21	0xbec45dd5	-0.38352838
22	0xbdd74b7f	-0.105124466
23	0xbe744720	-0.23855257
24	0xbe67ccf3	-0.22636776
25	0x3ce572be	0.028008815
26	0x3ea680b1	0.3252006
27	0x3ea71e6f	0.32640406
28	0xbf16711b	-0.58766335
29	0x3ebcc6d4	0.36870444
30	0x3dbe78a0	0.09300351
31	0x3f14e2a4	0.58158326
32	0x3ec5ceb1	0.38634256
33	0xbf0bda45	-0.5462993
34	0xbf1031fd	-0.56326276
35	0xbe8a0c2e	-0.26962417
36	0x3f024b4c	0.50896144
37	0xbdd5431f	-0.10413193
38	0x3e841e24	0.25804245
39	0xbe8cd0dd	-0.275031
40	0x3f1194ee	0.56867874
41	0xbe7be5a8	-0.24599326
42	0x3ef0bf08	0.47020745
43	0xbd0a8485	-0.033817787
44	0xbe8e67f1	-0.27813676
45	0x3e9a1f83	0.30102167
46	0xbe9eca10	-0.31013536
47	0x3e460c21	0.19340564
48	0xbe145e70	-0.1448915
49	0xbd754cc6	-0.05988767
50	0xbf0ca5e0	-0.54940605
51	0xbe994825	-0.29937854
52	0x3e8667f3	0.26251182
53	0xbe1099d2	-0.14121178
54	0x3f0bd275	0.54618007
55	0x3ef6aad8	0.48177218
56	0xbd33d2fb	-0.04390238
57	0xbed3ff06	-0.41405505
58	0x3ebd6ac2	0.36995512
59	0x3e26e456	0.16298041
60	0xbece57aa	-0.40301257
61	0x3ed5d5a5	0.4176456
62	0x3ea904ac	0.33011377
63	0x3f037922	0.5135671
64	0xbeb51e98	-0.35374904
65	0xbd9422c1	-0.07233191
66	0xbcc3db8a	-0.023908395
67	0x3d870098	0.0659191
68	0xbee00e41	-0.43760875
69	0xbee42c97	-0.4456527
70	0x3e94dd3d	0.2907504
71	0xbdfe3d10	-0.124139905
72	0x3e93f812	0.289002
73	0x3d95b082	0.07309057
74	0x3e541278	0.2071017
75	0x3df0b2c6	0.11752848
76	0x3e84a557	0.25907394
77	0x3e90e258	0.28297687
78	0xbf14a800	-0.5806885
79	0x3e864ccd	0.2623047
80	0xbed39ee4	-0.4133216
81	0xbef52678	-0.47880912
82	0x3d0ddad8	0.034632534
83	0xbdd7bedd	-0.10534451
84	0x3ecd2260	0.4006529
85	0xbeda9ca1	-0.42697623
86	0xbef9afa5	-0.4876682
87	0x3ec3ff06	0.38280505
88	0xbd6fa6bf	-0.05850863
89	0x3eadbaa0	0.33931446
90	0x3e44041b	0.19142191
91	0xbed28a56	-0.41121167
92	0x3e11d924	0.14242989
93	0x3e0a6de9	0.1351849
94	0xbeb23a16	-0.3480994
95	0xbe888fa6	-0.26672095
96	0x3e36d114	0.17853194
97	0x3dd9c8ce	0.106340036
98	0xbe76678f	-0.24062942
99	0xbe427148	-0.18988526
100	0x3f0da3f1	0.5532828
101	0xbe086964	-0.13321453
102	0x3eafa9e3	0.343093
103	0x3e78c9a2	0.24295667
104	0xbebfb212	-0.37440544
105	0xbf058b3c	-0.5216558
106	0x3f144df6	0.5793146
107	0x3c88c434	0.01669512
108	0x3ec617af	0.38689944
109	0x3e230cde	0.15922877
110	0x3e39709d	0.18109365
111	0x3eee457a	0.4653738
112	0x3f106960	0.5641079
113	0xbec71295	-0.38881364
114	0x3d49346e	0.049122266
115	0x3efce980	0.49396896
116	0x3ed1f730	0.41008902
117	0x3ebb34e8	0.36563802
118	0xbeeebba9	-0.46627548
119	0xbed3673d	-0.41289702
120	0xbebbe01b	-0.36694416
121	0x3d49f640	0.049307108
122	0x3f1248af	0.57142156
123	0xbec10ead	-0.3770651
124	0x3e8a8d32	0.27060848
125	0xbea0582a	-0.31317264
126	0xbf145c54	-0.5795338
127	0xbe130d0f	-0.1436045
128	0x3ea24282	0.31691366
129	0x3f0cd10b	0.55006474
130	0xbeb5ed9b	-0.3553284
131	0x3e021b55	0.12705739
132	0x3ef1f947	0.47260496
133	0x3ee781b2	0.45216137
134	0x3eb35d79	0.3503225
135	0x3ed9df34	0.42553103
136	0x3ee21ee3	0.4416419
137	0x3de7b001	0.11312867
138	0xbedcdae0	-0.43135738
139	0xbf030b16	-0.5118879
140	0xbe7f5c2b	-0.24937503
141	0xbd4d21a1	-0.0500809
142	0xbec07b25	-0.37593952
143	0x3e543df7	0.20726763
144	0x3e3aa96c	0.18228692
145	0xbdd3a59d	-0.103343226
146	0x3e68bc57	0.22728096
147	0x3e2ad5f7	0.16683184
148	0x3ee58297	0.44826195
149	0x3eb56a2b	0.35432562
150	0xbe499e39	-0.19689263
151	0x3f17f969	0.59364945
152	0xbda1995a	-0.078905776
153	0xbd0195fe	-0.031637184
154	0xbf0c61ed	-0.5483692
155	0xbeb89b26	-0.3605587
156	0xbea43b26	-0.32076377
157	0xbe6af9b2	-0.22946814
158	0x3edb5cc4	0.42844212
159	0xbe3d209a	-0.18469468
160	0xbed561d8	-0.4167621
161	0x3e707396	0.23481593
162	0x3e510b22	0.20414403
163	0x3ec31419	0.3810127
164	0xbe9ae3b5	-0.30251852
165	0x3e0f3c85	0.1398793
166	0xbe81d0b3	-0.25354537
167	0xbdd444e5	-0.10364703
168	0xbef3182b	-0.47479376
169	0xbe93234a	-0.2873786
170	0xbe2c39fb	-0.16818993
171	0x3e8458ae	0.25848907
172	0x3df72b1f	0.120687716
173	0x3e1c2436	0.15248188
174	0x3f0ac6dd	0.5420969
175	0x3f1f409a	0.6220795
176	0x3ec9f5d0	0.39445353
177	0xbd044e82	-0.032301433
178	0xbec1811d	-0.37793818
179	0x3eee61f4	0.46559107
180	0xbe22dfd1	-0.15905692
181	0xbcf99f3a	-0.030471433
182	0xbefa6f83	-0.48913202
183	0xbe0ea5e2	-0.13930467
184	0xbec79ba3	-0.3898593
185	0x3f08546a	0.53253806
186	0xbef5e019	-0.48022535
187	0xbef76946	-0.48322505
188	0xbb745b0b	-0.003728571
189	0xbeb4db83	-0.35323724
190	0x3e1d57b4	0.15365487
191	0xbe6b2629	-0.22963776
192	0xbe883758	-0.26604724
193	0x3d538ddf	0.05164897
194	0x3ed3618c	0.4128536
195	0xbed97171	-0.4246936
196	0x3e8fbc4f	0.28073356
197	0x3eb4950c	0.35269964
198	0x3f13be6b	0.5771243
199	0xbeb72cd2	-0.35776383
200	0x3e318663	0.1733642
201	0xbedf8575	-0.43656507
202	0x3ef171a1	0.47157004
203	0xbe6af864	-0.22946316
204	0x3eafe3f6	0.34353608
205	0x3cc16529	0.023607807
206	0xbc984a5b	-0.018590143
207	0xbd517855	-0.05114015
208	0x3dc9d216	0.09854524
209	0x3e893a16	0.2680213
210	0x3d972864	0.07380751
211	0x3e33c119	0.1755413
212	0xbf03f8d1	-0.5155154
213	0x3ed60b66	0.4180557
214	0x3f12dd4c	0.5736892
215	0x3eeb3be8	0.45944142
216	0x3eeac887	0.45856115
217	0xbede3dcd	-0.43406525
218	0xbe44076b	-0.19143455
219	0x3f019b29	0.5062738
220	0xbeea7572	-0.4579273
221	0x3f07d7a4	0.53063416
222	0xbeecbe81	-0.46239093
223	0xbedb7aa9	-0.4286702
224	0x3e9343c2	0.28762633
225	0xbed51c3a	-0.41623098
226	0xbe29fa59	-0.16599406
227	0x3ed89677	0.42302296
228	0x3ef66af1	0.48128465
229	0x3f115667	0.56772465
230	0xbde3b406	-0.11118321
231	0xbefc1890	-0.4923749
232	0x3f062d2b	0.5241267
233	0xbe062f08	-0.13103878
234	0xbe841518	-0.25797343
235	0x3e0bece8	0.13664591
236	0xbecef3f9	-0.4042051
237	0x3ec74416	0.38919133
238	0x3ea43c1b	0.32077107
239	0xbeec2b69	-0.4612687
240	0xbf059a60	-0.5218868
241	0xbd8477d8	-0.06468171
242	0x3e674c10	0.2258761
243	0x3b6eb088	0.0036421139
244	0xbe9bcffd	-0.3043212
245	0x3d287c68	0.041134268
246	0xbf13b991	-0.57705027
247	0xbee23bb9	-0.4418619
248	0xbec005e9	-0.3750451
249	0x3f00eed5	0.5036443
250	0x3f022ed7	0.5085272
251	0xbe4f629a	-0.20252457
252	0x3d1d4957	0.03840002
253	0x3e963c71	0.29342988
254	0x3da6139d	0.0810921
255	0xbe9ea97b	-0.30988678

mlp.0.bias f4 [256]
0	0xbd9ce065	-0.07659987
1	0x3e879d36	0.2648713
2	0xbedf652e	-0.4363188
3	0x3dbef342	0.093237415
4	0xbefb3f97	-0.49071953
5	0x3ebe4b94	0.37167037
6	0x3f120fb4	0.5705521
7	0xbe712abe	-0.23551461
8	0x3d54cadb	0.05195127
9	0xbe8b9af5	-0.2726666
10	0xbeb75d9a	-0.358136
11	0xbe9f6376	-0.3113057
12	0xbe845f69	-0.25854042
13	0x3e00d8d8	0.1258272
14	0xbd8c66e8	-0.06855565
15	0x3d94f0d1	0.072724946
16	0xbee43000	-0.4456787
17	0xbec27173	-0.3797718
18	0xbf03e90e	-0.5152749
19	0xbee25b51	-0.44210294
20	0x3ef6922e	0.481584
21	0x3e615585	0.2200528
22	0xbf0eaef9	-0.5573574
23	0xbde0edfa	-0.109828904
24	0x3daa980e	0.083297834
25	0x3eadd544	0.3395177
26	0x3f06e993	0.52700156
27	0x3e04e232	0.12976912
28	0x3ec5e908	0.3865435
29	0xbe4a62f3	-0.19764309
30	0x3c638d5e	0.013888685
31	0xbeba49d1	-0.36384442
32	0x3e0c0e75	0.1367739
33	0x3f0a09d3	0.5392124
34	0x3ec954f2	0.3932262
35	0x3f0e147e	0.5550002
36	0xbe85821e	-0.26075834
37	0xbd81f189	-0.06344897
38	0x3dfe4dc7	0.124171786
39	0x3ee3041e	0.4433908
40	0xbf0cb836	-0.54968584
41	0xbe9646ef	-0.29350993
42	0x3d5598e4	0.05214776
43	0xbea91a38	-0.33027816
44	0x3e85dd36	0.26145333
45	0xbca36de2	-0.019949857
46	0xbe3aa9d9	-0.18228854
47	0x3e991568	0.29899144
48	0x3edfcf11	0.43712667
49	0x3f16e874	0.58948445
50	0x3e8c3fd3	0.27392444
51	0xbcca2af1	-0.02467868
52	0x3eeadd38	0.45871902
53	0x3ef0b372	0.47011906
54	0xbe8b9089	-0.2725871
55	0x3e85f6d1	0.26164868
56	0x3d24a0f2	0.040192552
57	0xbe6c0ac7	-0.23050986
58	0xbdf34ac0	-0.11879492
59	0xbdf62f14	-0.12020698
60	0xbed9b255	-0.4251887
61	0xbe3fd1d5	-0.18732388
62	0x3e6b50f9	0.22980107
63	0x3ebe7049	0.37195042
64	0x3ce607da	0.028079916
65	0xbf1789cf	-0.59194654
66	0x3ea62ce6	0.3245613
67	0xbe29a950	-0.16568494
68	0x3f0ad91a	0.5423752
69	0xbf15c7b3	-0.5850784
70	0xbe0f0106	-0.13965234
71	0x3eef83c0	0.46780205
72	0x3e893623	0.26799116
73	0xbe8c64c4	-0.27420628
74	0xbf02fa84	-0.51163507
75	0xbb990fd7	-0.0046710777
76	0x3e82dfe7	0.2556145
77	0xbef56d9d	-0.4793519
78	0xbefced8e	-0.4939999
79	0xbc88f20a	-0.016716976
80	0xbe12ec1f	-0.14347886
81	0x3eb45dbd	0.35227767
82	0xbf13ed67	-0.5778412
83	0xbd9f2394	-0.07770458
84	0xbed885a8	-0.42289472
85	0xbdbfea83	-0.093709014
86	0xbe957535	-0.29190984
87	0x3e5b9737	0.21444403
88	0xbef9fe0d	-0.48826638
89	0xbee2859f	-0.4424257
90	0xbe9da936	-0.3079316
91	0xbf0ca0e0	-0.54932976
92	0x3eabadf9	0.33531168
93	0xbde08f71	-0.10964859
94	0xbea6bfa9	-0.325681
95	0x3ec8e8b8	0.3924005
96	0xbe0024de	-0.12514064
97	0x3e9c7895	0.30560747
98	0xbe43ecd2	-0.19133309
99	0xbf04f60e	-0.5193795
100	0x3def031d	0.11670516
101	0x3eb12693	0.34599742
102	0xbf0ada82	-0.54239666
103	0x3d513923	0.05107988
104	0x3dda1be4	0.10649851
105	0x3d3bc796	0.045844637
106	0xbc524339	-0.01283341
107	0xbe3c71ba	-0.18402758
108	0xbeedf183	-0.4647332
109	0x3de870bb	0.11349627
110	0xbecf2fb3	-0.4046608
111	0xbf019c16	-0.50628793
112	0xbe4a3291	-0.19745852
113	0xbed4f5cc	-0.41593778
114	0x3e5c5f9c	0.21520847
115	0x3ed4cddb	0.41563305
116	0x3ee4dc40	0.44699287
117	0xbebb98cd	-0.36640015
118	0x3eaf4cf8	0.3423841
119	0x3ee438b5	0.44574514
120	0xbb8d8139	-0.004318383
121	0x3e85208e	0.260014
122	0x3e9228ea	0.2854684
123	0x3ee2bd17	0.4428489
124	0x3ead1c2b	0.33810553
125	0x3e7f4c6d	0.24931498
126	0xbe5a4fef	-0.21319555
127	0xbea1eecc	-0.316275
128	0xbe8e6979	-0.27814844
129	0x3ef2b81f	0.47406098
130	0xbda238a2	-0.07920958
131	0x3cc0b1da	0.023522306
132	0xbf08df72	-0.5346595
133	0xbcc6dff8	-0.024276718
134	0xbe38651e	-0.18007323
135	0xbecd8735	-0.40142217
136	0x3eed94fa	0.46402723
137	0xbef4651d	-0.47733393
138	0xbd7e2492	-0.062046595
139	0xbcdaa8d4	-0.026691832
140	0xbf0ab522	-0.54182637
141	0x3ec7ce08	0.39024377
142	0xbe294e83	-0.16533856
143	0x3e86fb00	0.26363373
144	0x3eae6c90	0.34067202
145	0x3f02067d	0.5079115
146	0x3e1467f9	0.14492787
147	0x3eebe058	0.46069598
148	0x3f03eea2	0.51536
149	0x3db84f7f	0.08999538
150	0xbd9d337f	-0.07675838
151	0xbe1b90d3	-0.15191965
152	0x3daec166	0.085329816
153	0x3e57ef9c	0.21087497
154	0xbf082958	-0.53188086
155	0x3eebbfdd	0.46044818
156	0x3da02042	0.07818653
157	0xbf00b854	-0.5028126
158	0x3e3c6c44	0.18400675
159	0x3eba934e	0.3644051
160	0x3e6fdf3e	0.23425004
161	0x3ef92eae	0.48668426
162	0x3cb23c27	0.021757198
163	0xbef89729	-0.48552826
164	0x3ce0debb	0.027449956
165	0x3ee7f59d	0.45304576
166	0xbe92f160	-0.2869978
167	0x3e5c3ffc	0.21508783
168	0x3de3b16c	0.11117825
169	0xbdd4063a	-0.1035275
170	0xbc3766bb	-0.011193926
171	0x3e841947	0.25800535
172	0xbed92026	-0.4240734
173	0x3ec20e05	0.3790132
174	0x3ec8d44f	0.3922448
175	0x3e98dbf7	0.2985532
176	0x3f10ba3b	0.56534165
177	0x3c27dce8	0.010245539
178	0xbed7953c	-0.42106044
179	0x3d071ede	0.03298842
180	0xbe40cec9	-0.18828882
181	0x3e484ba7	0.19560109
182	0x3f012394	0.5044491
183	0xbea58e62	-0.32335192
184	0x3cda7e41	0.02667153
185	0x3f0c2708	0.54747057
186	0xbefb641e	-0.4909982
187	0xbdffd717	-0.12492197
188	0x3f0d913b	0.5529973
189	0x3ec7aa4c	0.38997114
190	0x3e20cc4b	0.15702932
191	0xbe95affc	-0.29235828
192	0xbd0506e9	-0.032477293
193	0xbf0c07b4	-0.54699254
194	0xbf0f6e97	-0.5602812
195	0xbf0dce3f	-0.5539283
196	0x3f11adfe	0.56906116
197	0x3efee1c4	0.4978162
198	0x3e6d8fa9	0.23199333
199	0xbe108c7e	-0.14116094
200	0x3f0231e6	0.5085739
201	0xbe176adb	-0.14786856
202	0x3ece480a	0.40289336
203	0xbc4b2e71	-0.012401209
204	0xbe98a54b	-0.2981361
205	0xbe066883	-0.13125806
206	0xbd98e540	-0.07465601
207	0xbf07d005	-0.5305179
208	0x3e3477fd	0.17623897
209	0xbe27677f	-0.16348074
210	0x3e87f1bf	0.26551625
211	0x3ec08995	0.37604967
212	0xbdfe98b2	-0.12431468
213	0x3e828d39	0.2549837
214	0x3e28736f	0.16450284
215	0x3ecc2ef4	0.39879572
216	0xbecd1573	-0.40055427
217	0xbd2d9573	-0.042378854
218	0xbe58fbad	-0.21189757
219	0x3f0cf4e0	0.5506115
220	0xbf025510	-0.50911045
221	0xbea57c8b	-0.3232158
222	0x3d4d0401	0.050052647
223	0x3f028c6e	0.5099553
224	0x3ed28278	0.41115165
225	0xbf101b36	-0.5629152
226	0xbebb882e	-0.36627334
227	0x3f0f4bd4	0.5597508
228	0x3dc56a63	0.09639432
229	0xbf03b7e3	-0.51452464
230	0xbe683079	-0.22674741
231	0x3e6117f7	0.21981798
232	0xbde0c30c	-0.10974702
233	0xbef0549c	-0.46939552
234	0xbeb6eb6d	-0.3572649
235	0xbe91bad2	-0.28462845
236	0x3c72ff0c	0.014831316
237	0x3e665856	0.22494635
238	0x3e84da38	0.25947738
239	0xbe955fd0	-0.29174662
240	0xbd81d412	-0.06339277
241	0xbef3e15c	-0.47632873
242	0x3ee85461	0.45376876
243	0x3f1315df	0.5745525
244	0x3f0ee6b0	0.5582075
245	0x3e755383	0.23957638
246	0xbe1ba836	-0.15200886
247	0xbd1d8754	-0.038459137
248	0x3e3ba590	0.18324876
249	0xbeec3e17	-0.4614112
250	0x3da89c52	0.08232941
251	0xbef695f0	-0.48161268
252	0xbf11ea16	-0.5699781
253	0xbccc6174	-0.024948813
254	0xbe199337	-0.14997564
255	0xbeb1a72a	-0.3469785

mlp.2.weight f4 [256, 256]
0	0x3b3b950a	0.002862277
1	0xbaa45675	-0.0012537973
2	0x3c010057	0.007873616
3	0xbd1f3b6a	-0.03887502
4	0xbd8251dc	-0.0636327
5	0xbb8f153f	-0.0043665464
6	0xbd0a1cfe	-0.033719055
7	0xbcc4854f	-0.023989348
8	0x3d2ff3ab	0.04295699
9	0x3befc288	0.007316891
10	0x3cd014ee	0.025400605
11	0xbca7440d	-0.020418191
12	0xbd5a87c7	-0.053352144
13	0x3c1d6ec1	0.009608925
14	0xbd42cb2a	-0.047557034
15	0x3b79c4a5	0.0038111594
16	0xbd53e7b5	-0.051734645
17	0x3d360b4b	0.044444364
18	0xbd42adfd	-0.04752921
19	0x3d59064a	0.052984513
20	0x3d25f279	0.040514443
21	0x3d2cae56	0.042158447
22	0x3d0d8470	0.03455013
23	0x3c406bb6	0.01174443
24	0xbbeb0585	-0.007172289
25	0xbba72e3c	-0.005101947
26	0xbce38880	-0.02777505
27	0xbd76d8e9	-0.060265455
28	0x3d4c4425	0.049869675
29	0xb9e33d39	-0.00043342428
30	0x3cd6c1cb	0.026215455
31	0xba463bc8	-0.00075620087
32	0x3c2eba53	0.01066454
33	0xbd3aaed3	-0.04557688
34	0xbd69784d	-0.056999493
35	0x3d2efb62	0.042720206
36	0x3ca307ef	0.019901244
37	0x3ccc7616	0.024958652
38	0xbd86b312	-0.06577124
39	0xbb7c1606	-0.0038465275
40	0xbd75d8bb	-0.060021143
41	0xbc242cbd	-0.010020432
42	0xbba666c8	-0.0050781704
43	0xbd3d9bfd	-0.04629134
44	0xbd878766	-0.06617622
45	0xbb84a7bd	-0.0040483163
46	0x3d5a091e	0.05323135
47	0x3d5787b6	0.05261966
48	0xbd2d4738	-0.042304248
49	0xbc7b98dd	-0.01535627
50	0xbd72c252	-0.05926735
51	0xbd5454f7	-0.05183884
52	0xbca7cb35	-0.020482639
53	0x3d69795e	0.05700051
54	0xbc9d92d9	-0.019235061
55	0xbba9058f	-0.0051581333
56	0x3d64de0f	0.055875834
57	0x3bfac007	0.007652286
58	0x3d3daccc	0.04630737
59	0x3d1e8b90	0.038707316
60	0x3d63effa	0.05564878
61	0x3c05f7bc	0.00817674
62	0xbd58fe99	-0.05297718
63	0xbd682c32	-0.056682773
64	0xbd0f7dfc	-0.035032257
65	0x3d4d947e	0.05019044
66	0x3d020a0d	0.031747866
67	0x3c7e1383	0.015507582
68	0xbd55e73b	-0.05222247
69	0xbd422b49	-0.04740456
70	0x3d44b73d	0.048026312
71	0xbc2fb6ea	-0.010724762
72	0xbd913631	-0.07090414
73	0xbc368595	-0.011140247
74	0xbc83874b	-0.016055724
75	0xba9531d2	-0.0011382645
76	0x3ca72b3f	0.020406364
77	0x3cb022dc	0.021500997
78	0xbd4fd74c	-0.050742432
79	0xbb6f5478	-0.0036518853
80	0xbd044a0c	-0.03229718
81	0x3d19c586	0.03754189
82	0x3ce58a4f	0.028020052
83	0x3cd34297	0.025788588
84	0x3d6348df	0.055489417
85	0x3ce7725c	0.028252773
86	0xbd854fe7	-0.06509381
87	0x3c42ee59	0.011897647
88	0xbd360b6c	-0.044444486
89	0x3bb49cda	0.005511862
90	0xbad27e88	-0.0016059438
91	0x3d714545	0.05890395
92	0xbd3ae1cf	-0.045625504
93	0xbd830ebb	-0.06399294
94	0xbcb7c82d	-0.022434318
95	0x3be0edb8	0.006864276
96	0x3d331607	0.04372218
97	0x3d423909	0.047417674
98	0x3d38c03d	0.045105208
99	0x3c88f71e	0.016719397
100	0xbcad09ec	-0.021122895
101	0xbc8f4645	-0.017489562
102	0xbd14138a	-0.036151446
103	0x3b7cf661	0.0038599002
104	0xbd39d5e1	-0.045369986
105	0x3ca25bc6	0.019819152
106	0x3d02fd10	0.03197962
107	0x3d4d041a	0.05005274
108	0xbd845be5	-0.0646284
109	0x3d361b7c	0.044459805
110	0xbd2e1949	-0.042504583
111	0xbc008d44	-0.00784618
112	0x3d6542f5	0.05597206
113	0x3cfcd950	0.030865341
114	0xbcc4250b	-0.023943445
115	0x3d044050	0.032287896
116	0xbd824fce	-0.06362878
117	0x3d3bb7c5	0.045829553
118	0x3d67e4a1	0.056614522
119	0xbc07434f	-0.008255794
120	0x3c0c81ac	0.008575838
121	0xbca16971	-0.019703599
122	0xbd27ea0d	-0.040994693
123	0xbd02e669	-0.031958017
124	0xbc042211	-0.008064763
125	0xbd60627e	-0.05478143
126	0xbd5b3d8c	-0.053525493
127	0x3b8adab6	0.004237498
128	0xbd2c9041	-0.04212976
129	0xbd2ec391	-0.042666975
130	0xbb903b1a	-0.0044015767
131	0xbd13c015	-0.036071856
132	0x3d5fe96a	0.05466596
133	0xbcd6b2be	-0.026208278
134	0xbd1b2f72	-0.037887044
135	0xbca07241	-0.01958573
136	0xbd65cdf7	-0.056104627
137	0x3cef7b50	0.029233605
138	0x3d4fcf86	0.05073502
139	0xbd33dcfb	-0.043911915
140	0xbcce6031	-0.025192352
141	0x3d5d3f9a	0.054015733
142	0xbd3ca0ac	-0.046051666
143	0x3c64899f	0.013948827
144	0xbd617373	-0.05504174
145	0xbd74c40f	-0.05975729
146	0xbbdb71a5	-0.006696897
147	0xbd231a1d	-0.039819825
148	0x3cd007b1	0.025394293
149	0xbcb71225	-0.02234752
150	0xbb3e0618	-0.0028995331
151	0xbd126aa4	-0.03574623
152	0x3cbfb34e	0.023400929
153	0x3d612c22	0.05497373
154	0xbc3eaba8	-0.011637606
155	0xbd37d9ff	-0.04488563
156	0xbd831b9a	-0.06401749
157	0x3d6d50d6	0.05793842
158	0x3c9e2897	0.019306464
159	0x3c9925ec	0.01869484
160	0x3bd6139f	0.0065331007
161	0x3cbb5abc	0.022870414
162	0x3ca3fc65	0.020017812
163	0x3ce1d222	0.02756602
164	0x3d159b14	0.036524847
165	0x3991a515	0.0002777955
166	0x3d509483	0.05092288
167	0x3d12f996	0.035882555
168	0xbba1644c	-0.0049252864
169	0xbcfaa6a2	-0.030597035
170	0x3a9f63cf	0.0012160483
171	0x3d2cf931	0.042229835
172	0x3d1622bd	0.036654223
173	0xbcfcf56b	-0.030878743
174	0xbcb1d53a	-0.02170812
175	0x3cb749c1	0.022374036
176	0x3c9f510a	0.019447822
177	0x3d638580	0.055547237
178	0x3ced97da	0.029003073
179	0x3c895646	0.016764771
180	0x3c3a4bb2	0.011370586
181	0xbd7cd15f	-0.06172311
182	0xbcd41cb2	-0.02589259
183	0x3b6c22e7	0.0036031546
184	0xbd4a4c1d	-0.049388994
185	0xbd817f1f	-0.063230745
186	0x3d20b0df	0.039231177
187	0x3c95dd5f	0.018294035
188	0xbd708a36	-0.05872556
189	0xbb0907ef	-0.002090927
190	0x3cfbf92a	0.03075846
191	0x3d08123a	0.033220507
192	0x3d5c966e	0.0538544
193	0xbcd5f112	-0.026115928
194	0x3cd8078e	0.02637079
195	0xbd541953	-0.051781964
196	0xbc5735a3	-0.013135347
197	0xbd35b44f	-0.04436141
198	0xbc83fe9b	-0.016112616
199	0x3d064f4f	0.03279048
200	0x3cde2169	0.02711554
201	0xbd12ffdf	-0.03588855
202	0xbcc4b8b9	-0.024013864
203	0xbca990c3	-0.02069891
204	0xbccd6a0f	-0.025074987
205	0xbd1c8d66	-0.038220786
206	0x3d2a4fce	0.041580014
207	0x3d2908bd	0.0412681
208	0x3d364cdc	0.044506893
209	0xbd1b2c55	-0.037884075
210	0x3d2b84b5	0.041874606
211	0xbcb3bc08	-0.021940246
212	0xbc90c2f1	-0.01767108
213	0xbca1e020	-0.019760191
214	0xbbecd373	-0.007227355
215	0xbcff7bbf	-0.031186936
216	0x3bb83dd1	0.0056226035
217	0xbd318b12	-0.04334552
218	0x3cba5145	0.02274383
219	0xbd693816	-0.056938253
220	0xbcce2dea	-0.025168378
221	0xbd3d9c30	-0.04629153
222	0x3d144035	0.036194045
223	0x3d16558d	0.03670268
224	0xbd595b98	-0.053065866
225	0xbd180e12	-0.037122793
226	0x3d58a55f	0.052892085
227	0x3c1cc38c	0.009568106
228	0x3d23555a	0.03987632
229	0xbd506771	-0.0508799
230	0x3cce4f8c	0.025184415
231	0x3d16b66a	0.036795057
232	0xbc923c30	-0.017850965
233	0xbbc2c336	-0.005943681
234	0x3d30cd90	0.04316479
235	0x3c6e5010	0.014545456
236	0x3c1ca775	0.009561409
237	0xbb322063	-0.0027179949
238	0xbced9160	-0.028999984
239	0xbd28e673	-0.0412354
240	0x3d6d32c7	0.057909753
241	0xbbd0a5b9	-0.006367412
242	0x3d50444d	0.050846387
243	0x3d41e672	0.04733891
244	0xbd15a4bc	-0.036534056
245	0xbb38c367	-0.002819264
246	0xbc9b9574	-0.018992163
247	0xbb4283d9	-0.0029680638
248	0x3d1d3200	0.03837776
249	0x3d029147	0.03187683
250	0xbd2298d9	-0.039696548
251	0xbd04291d	-0.03226577
252	0xbd41e275	-0.047335107
253	0xbd65b173	-0.056077432
254	0x3d08625c	0.033296928
255	0xbd1fae6b	-0.038984697

mlp.2.bias f4 [256]
0	0x3c06100d	0.008182538
1	0x3cf43694	0.029811181
2	0xbd77f3fd	-0.06053542
3	0x3d34cd79	0.044141266
4	0x39ce7942	0.00039381726
5	0xbcde4b0e	-0.027135398
6	0xbcba6cd9	-0.02275698
7	0x3d01eee0	0.03172195
8	0xbd23c221	-0.039980058
9	0xbc45ae33	-0.012065458
10	0x3d37d528	0.044881016
11	0xbc8c1270	-0.017098635
12	0x3c8c6534	0.017138101
13	0xbccea1c9	-0.02522363
14	0xbd52e412	-0.051487036
15	0x3d49fa18	0.049310774
16	0x3d511354	0.051043823
17	0xbc8c830a	-0.017152328
18	0xbc594565	-0.013261174
19	0xbc25c87c	-0.0101186
20	0x3d25a939	0.040444586
21	0xbd08baa6	-0.033381127
22	0x3c1898a6	0.009313738
23	0x3cb9702f	0.022636501
24	0xbd1a9fdb	-0.037750106
25	0x3cd3b3ee	0.025842633
26	0xbd3812ba	-0.044939734
27	0x3c1b8a87	0.009493477
28	0xbc014358	-0.007889591
29	0x3cc71105	0.024300108
30	0xbc28f533	-0.010312366
31	0xbc355d60	-0.011069626
32	0xbbb4efbb	-0.005521742
33	0x3cc48a0a	0.023991603
34	0x3c0fb84b	0.008771966
35	0x3d07595a	0.033044197
36	0xbcdc4c44	-0.026891835
37	0x3d68c3ae	0.05682724
38	0x3d1e2a06	0.038614295
39	0x3cca2522	0.02467591
40	0xbbf02daf	-0.0073296647
41	0xbd2b24f1	-0.041783277
42	0x3d445975	0.047936875
43	0x3b91ad71	0.0044457247
44	0x3cf0c3cd	0.02939024
45	0xbd8a4430	-0.06751287
46	0xbc443154	-0.011974651
47	0x3c8adfec	0.016952477
48	0xbd3632e4	-0.044482127
49	0x3ce756cd	0.028239632
50	0x3d7ac895	0.061226446
51	0x39ea7a9c	0.0004472331
52	0x3cb6640a	0.0222645
53	0xbc4857fd	-0.012228009
54	0x3d8c8d99	0.06862945
55	0x3c59382b	0.01325802
56	0xbd76dbc9	-0.060268197
57	0xbd513e94	-0.05108507
58	0xbcf6906a	-0.030098159
59	0x3c411c08	0.011786468
60	0xbd21693e	-0.039407007
61	0x3ce41122	0.0278402
62	0xbd314bbf	-0.043285128
63	0xbd2a7ad7	-0.041621055
64	0x3cad40a3	0.021148985
65	0x3d9c4950	0.07631171
66	0x3cef033d	0.029176349
67	0xbb7efe72	-0.0038908985
68	0x3d3c01a1	0.04589999
69	0xbd5b61ba	-0.053559996
70	0x3d5d4d13	0.05402858
71	0x3bd1494b	0.006386911
72	0xbc6cb937	-0.014448456
73	0x3d6de8ee	0.058083467
74	0xbd13580c	-0.03597264
75	0xbd6b782e	-0.05748766
76	0x3d430ed0	0.04762155
77	0xbbf84dfc	-0.007577656
78	0xbca19285	-0.019723186
79	0xbd46c313	-0.04852588
80	0xbb9802db	-0.0046390123
81	0x3cf01ba8	0.029310063
82	0x3c0ef81f	0.008726149
83	0x3bff9916	0.0078002317
84	0x3c7fb0f9	0.015606158
85	0x3d88955e	0.066691145
86	0xbd4ee3c2	-0.050510176
87	0xbb5b0a97	-0.003342306
88	0x3d8818a8	0.06645328
89	0x3cf1768d	0.029475475
90	0x3c1ca802	0.009561541
91	0x3d0187eb	0.031623762
92	0x3c1eae7b	0.009685154
93	0x3c8fd108	0.017555729
94	0xbd8c3f9e	-0.068480715
95	0xbc8773eb	-0.016534766
96	0xbc39e016	-0.01134493
97	0xbcd42ddb	-0.025900772
98	0xbd186029	-0.03720108
99	0x3cff17a9	0.031139212
100	0xbd87b908	-0.06627089
101	0x3c55dff2	0.013053881
102	0x3c821c4e	0.015882637
103	0x3d0a05c8	0.03369692
104	0x3c7ffb70	0.015623912
105	0xbd64284b	-0.05570249
106	0x3cec8c5b	0.02887552
107	0x3bc2ef1d	0.0059489147
108	0xbccc4ad8	-0.024938032
109	0xbd1f1bf9	-0.038845036
110	0xbc70f5dc	-0.014707055
111	0xbd3d3726	-0.04619517
112	0x3d23a947	0.039956357
113	0xbd37ee9f	-0.0449053
114	0x3d2717b6	0.040794097
115	0x3d4d854f	0.05017596
116	0x3d98e0cd	0.07464752
117	0xbd868148	-0.06567627
118	0x3cbd749b	0.02312689
119	0xbbcc20c0	-0.00622949
120	0xbc9e4cd1	-0.019323738
121	0x3ca8e0d6	0.020615023
122	0x3d0293c6	0.03187921
123	0xbb806217	-0.003917943
124	0x3d35a247	0.044344213
125	0x3c31b112	0.0108454395
126	0xbd2309e6	-0.03980436
127	0xbd0261de	-0.031831615
128	0x3c66e28d	0.0140921
129	0xbcd55e84	-0.026046045
130	0x3d1218ee	0.035668306
131	0xbd0f68e0	-0.035012126
132	0x3c8aa717	0.016925378
133	0xbb353d1d	-0.0027654835
134	0x3d31fc69	0.043453608
135	0x3d94572a	0.07243188
136	0x3d2a4a95	0.041575033
137	0x3d721b4d	0.059108067
138	0xbd0aa2ea	-0.033846773
139	0x3d456769	0.048194323
140	0xbc5f0b95	-0.013613601
141	0xbca0c8d7	-0.019627018
142	0x3d2dc21e	0.042421453
143	0xbce40c4f	-0.0278379
144	0xbd4d0fb5	-0.050063808
145	0xbd73c895	-0.05951746
146	0xbd665243	-0.056230795
147	0x3ca6173a	0.020274747
148	0xbccd1d96	-0.025038522
149	0xbcbfa2ac	-0.023392998
150	0x39e9cd54	0.00044594205
151	0xbd0fb2c4	-0.035082594
152	0x3d057777	0.032584634
153	0xbcc6aaba	-0.02425133
154	0x3d1a1391	0.037616316
155	0x3cbd8cf6	0.023138504
156	0xbd17d869	-0.03707162
157	0xbd7d5183	-0.061845314
158	0xbb6660ea	-0.003515298
159	0xbd197512	-0.037465163
160	0x3d2d002b	0.04223649
161	0x3d379e7b	0.044828873
162	0x3d2b5feb	0.04183952
163	0xbc91bf2a	-0.01779135
164	0x3d4b9bd7	0.049709167
165	0xbcdc4a52	-0.026890907
166	0xbb585e1d	-0.003301508
167	0x3d8e856a	0.069590405
168	0x3cbcfbfe	0.023069378
169	0xb9e49609	-0.00043599334
170	0xbd6631bb	-0.05619977
171	0xbd5108ea	-0.05103389
172	0xbb80b5ad	-0.0039279074
173	0x3d62b0d3	0.055344414
174	0x3cc280db	0.023743084
175	0x3d0f21d7	0.03494438
176	0x3bf62b5b	0.0075124926
177	0x3cfd312a	0.030907232
178	0x3cb30fb5	0.021858076
179	0x3ca98614	0.020693816
180	0x3d4619ff	0.048364636
181	0x3d1225af	0.03568047
182	0xbd227f53	-0.039672207
183	0x3c9c888a	0.019108076
184	0xbd0d9161	-0.034562472
185	0x3d430cee	0.047619753
186	0x3cc0a36b	0.023515424
187	0xbd42b8f0	-0.04753965
188	0xbd945b68	-0.07243997
189	0xbd2db425	-0.042408127
190	0x3d2c93f6	0.042133294
191	0xbccfb6e4	-0.025355764
192	0x3d9f4a85	0.07777885
193	0xbd302da8	-0.04301229
194	0xbd565dca	-0.052335538
195	0x3cf776a0	0.030207932
196	0xbd5687b4	-0.05237551
197	0x3ce11ec5	0.027480492
198	0xbc6a0a33	-0.014284658
199	0x3d36b4ae	0.044605903
200	0x3d80a627	0.06281691
201	0x3c00496a	0.007830003
202	0x3d083cad	0.03326099
203	0xbd8fa4ee	-0.0701388
204	0x3d3492c4	0.04408528
205	0xbd603207	-0.05473521
206	0xbd254e0b	-0.04035763
207	0xbc272e84	-0.010203961
208	0x3c95e719	0.018298673
209	0xbd1cb0e0	-0.03825462
210	0xbc92e6f3	-0.01793239
211	0xbd836dd6	-0.06417434
212	0x3d44ad79	0.048017
213	0xbce2d915	-0.027691403
214	0x3d3e82c4	0.046511427
215	0xbc839867	-0.016063882
216	0xbca990a7	-0.020698858
217	0x3d3d34a4	0.04619278
218	0xbce17c57	-0.02752511
219	0xbc9628dd	-0.018330032
220	0x3daa9324	0.08328846
221	0x3d99376b	0.07481273
222	0xbd14a5c3	-0.036290895
223	0xbc503a64	-0.012709234
224	0x3c1c263e	0.009530602
225	0x3c337f30	0.010955617
226	0x3aa60a5c	0.0012667882
227	0xbcf7c686	-0.03024603
228	0x3d8c24bb	0.06842943
229	0x3ce7df0f	0.028304605
230	0x3d104071	0.035217706
231	0x3d119c97	0.035549726
232	0xbc288c48	-0.010287352
233	0xbd620006	-0.055175804
234	0x3c492d28	0.0122788325
235	0x3d1854bf	0.037190195
236	0x3ce84c03	0.028356558
237	0x3c442894	0.011972565
238	0xbb5a0a37	-0.0033270249
239	0xbc6b5b5d	-0.014365044
240	0xbd03f5f4	-0.03221698
241	0x3cd55187	0.026039852
242	0x3d4cd0cb	0.050003808
243	0xbd221564	-0.03957118
244	0x3d2499be	0.040185682
245	0xbc1bf93b	-0.00951987
246	0x3d974340	0.07385874
247	0x3d9917ef	0.07475268
248	0xbc53973d	-0.012914476
249	0x3c6f4776	0.01460444
250	0xbd5bb62d	-0.053640533
251	0xbd4ccb89	-0.049998794
252	0xbd0a3a89	-0.03374723
253	0x3da5ea59	0.08101339
254	0x3cb494ee	0.022043671
255	0x3cc9b0ab	0.024620375

mlp.4.weight f4 [1, 256]
0	0x3d449427	0.04799285
1	0xbd90e831	-0.07075537
2	0x3ca670b7	0.020317419
3	0x3dafc39c	0.085822314
4	0x3d69ab96	0.057048403
5	0xbc79f053	-0.015255052
6	0xbda87957	-0.08226269
7	0xbd6fbc6e	-0.05852931
8	0xbc4ddd8e	-0.01256503
9	0x3d549ebb	0.05190919
10	0x3c92dd58	0.01792781
11	0xbda7c100	-0.08191109
12	0xbc93688d	-0.01799419
13	0x3c769773	0.015050757
14	0x3ca4a184	0.020096548
15	0x3d34a5d7	0.04410347
16	0x3d67eb31	0.05662078
17	0xbc952113	-0.018204248
18	0x3c3fa2c2	0.011696519
19	0x3d3d7cd6	0.04626163
20	0xbd290e69	-0.04127351
21	0x3ce50aba	0.027959216
22	0xbd4d8701	-0.050177578
23	0xbb634539	-0.003467871
24	0xbd51d2b6	-0.05122634
25	0x3d5d2a00	0.053995132
26	0x3ca45a6b	0.020062646
27	0x3dc3bb5a	0.09557219
28	0x3d4eb71a	0.050467588
29	0x3d669392	0.056293078
30	0x3d1714f0	0.036885202
31	0xbd0875f4	-0.033315614
32	0x3d23e472	0.040012784
33	0x3d2601bf	0.04052901
34	0xbdb35815	-0.08757035
35	0x3d4c6261	0.04989851
36	0xbd69fda2	-0.05712665
37	0xbd1dc0d7	-0.038513985
38	0xbc3607b9	-0.01111024
39	0xbd56de37	-0.052458014
40	0x3d175fd6	0.03695663
41	0x3b223ff9	0.002475737
42	0xbd1a4f08	-0.037673026
43	0x3d158216	0.036501013
44	0x3d37aac4	0.04484059
45	0xbce41a22	-0.027844492
46	0x3ca062e0	0.019578397
47	0xbd7cd0ed	-0.061722685
48	0x3d57c52c	0.052678272
49	0x3d1c18b5	0.0381095
50	0xbd7483f0	-0.059696138
51	0xbd835b27	-0.0641387
52	0xba839580	-0.0010039061
53	0xbd5caaf3	-0.053873967
54	0xbd68317e	-0.056687824
55	0xbd256cd5	-0.040386993
56	0x3d49f570	0.049306333
57	0x3d60e95c	0.05491005
58	0xbd509416	-0.050922476
59	0xbca0e81c	-0.019641928
60	0xbcffc65f	-0.03122252
61	0xbd1b2e1a	-0.037885763
62	0xbc843c4c	-0.016142033
63	0x3c74b501	0.014935733
64	0xbc811fb8	-0.015762195
65	0xbd0ba952	-0.034097023
66	0x3d1a9db2	0.037748046
67	0x3a958eaf	0.0011410321
68	0x3ceaa86b	0.028644761
69	0x3d916c98	0.07100791
70	0xbce50be2	-0.027959768
71	0xbd0ba0ff	-0.034089085
72	0xbd43c76b	-0.0477976
73	0xbd359881	-0.044334892
74	0xbd26edd6	-0.04075416
75	0xbc36ca08	-0.011156566
76	0x3c32d4e8	0.010915019
77	0xbd59fa30	-0.053217113
78	0x3ca94e6b	0.020667275
79	0x3d4ad2b3	0.049517345
80	0xbdaa6cc7	-0.08321529
81	0x3d8a140d	0.06742106
82	0xbd845797	-0.06462019
83	0xbd2298fc	-0.03969668
84	0x3caff7aa	0.0214804
85	0xbd9dc8d2	-0.07704319
86	0xbd61d255	-0.05513223
87	0x3caea0d6	0.021316927
88	0xbc676a9b	-0.014124538
89	0xbc6f0026	-0.014587438
90	0x3dc1241f	0.09430718
91	0xbd24cac1	-0.040232424
92	0x3cd82a16	0.026387256
93	0x3d5fe750	0.054663956
94	0x3d9e5bbd	0.077323414
95	0x3d40b296	0.047045313
96	0xbd1ca622	-0.038244374
97	0x3d0827ee	0.033241205
98	0x3d8e55b1	0.06949938
99	0x3c8ad46c	0.016946994
100	0x3c648ae1	0.013949127
101	0xbd2e29d1	-0.042520348
102	0xbda35e77	-0.07977002
103	0xbc9362e9	-0.0179915
104	0xbd523c42	-0.051326998
105	0x3d8d9e7d	0.06914995
106	0x3d7fc702	0.062445648
107	0xbc8030b4	-0.015648223
108	0xbd2cebcb	-0.042217057
109	0xbd37866f	-0.04480594
110	0xbcfc6dc7	-0.030814065
111	0xbbc9f573	-0.006163293
112	0xbd3281f5	-0.043580968
113	0x3d67a9e9	0.056558523
114	0xbd84b323	-0.0647948
115	0x3d37d50e	0.04488092
116	0xbd22d9aa	-0.039758362
117	0xbd41c8e9	-0.047310743
118	0x3c70f977	0.014707915
119	0x3bd94548	0.0066305734
120	0x3d8fe14a	0.07025392
121	0xbd73a425	-0.059482712
122	0x3b33b719	0.0027422367
123	0xbd5aa268	-0.05337754
124	0xbd0cae13	-0.034345698
125	0xbc478479	-0.01217758
126	0xbd7865be	-0.060643904
127	0xbc9f10cb	-0.019417187
128	0xbd0da50b	-0.034581225
129	0x3d76e4ca	0.060276784
130	0xbccce657	-0.025012178
131	0xbd8726f6	-0.06599228
132	0x3d3cb07c	0.046066746
133	0x3d8042f8	0.06262773
134	0x3d38c14b	0.045106214
135	0xbcc56470	-0.024095744
136	0xbd435b9e	-0.047694795
137	0xbd4fa21f	-0.05069172
138	0xbd96b394	-0.073584706
139	0xbc96ed79	-0.018423783
140	0x3d6668a0	0.056252122
141	0xbbcb9e61	-0.0062139486
142	0xbc70fad8	-0.014708243
143	0x3c65db02	0.014029266
144	0x3cf74c89	0.030187862
145	0xbcaadfdc	-0.020858698
146	0x3d933364	0.07187536
147	0x3cb98551	0.022646578
148	0xbb9330e0	-0.0044919103
149	0x3d2f389a	0.04277859
150	0xbd287857	-0.04113039
151	0xbc4459ca	-0.011984298
152	0x3ce5bc32	0.02804384
153	0x3ca16d12	0.01970533
154	0xbd57b102	-0.052659042
155	0xbd466172	-0.048432775
156	0x3c19d924	0.009390149
157	0x3aefaf4a	0.0018286493
158	0xbdb5d6d7	-0.08878868
159	0x3d8b84c7	0.06812435
160	0xbd72ffaf	-0.05932587
161	0x3daf8d52	0.085718766
162	0x3d2e6265	0.042574305
163	0xbcd91a32	-0.026501749
164	0xbb525489	-0.0032093844
165	0xbcaa8055	-0.020813147
166	0x3ce413f9	0.027841555
167	0x3d2aeaa4	0.041727677
168	0x3db2c195	0.08728329
169	0xbd5866b0	-0.052832305
170	0x3d92571c	0.07145521
171	0x3d187743	0.03722311
172	0x3da84a5e	0.082173094
173	0x3ced18cb	0.028942486
174	0x3c953e1e	0.018218096
175	0x3d2fe71d	0.042945016
176	0xbd849a9d	-0.06474803
177	0x3c2230a6	0.009899294
178	0x3d7ea837	0.06217214
179	0xbd94447f	-0.07239627
180	0xbd7b6755	-0.061377842
181	0xbd106d68	-0.035260588
182	0xbd16b22f	-0.036791023
183	0x3d9ea60b	0.07746514
184	0x3c8813b5	0.01661096
185	0xbc80e137	-0.01573239
186	0x3bea8811	0.0071573337
187	0xbd787003	-0.060653698
188	0xbcefdbfd	-0.029279703
189	0x3d2aeee3	0.041731726
190	0xbd20f8e0	-0.039299846
191	0x3ceeef92	0.02916697
192	0xbcd312fc	-0.025765888
193	0x3cb7ea01	0.022450449
194	0x3d0e088f	0.03467613
195	0x3bf19f25	0.007373708
196	0x3c25ec28	0.010127105
197	0x3d88bdfb	0.06676861
198	0x3d761282	0.060076244
199	0x3d4f335a	0.050586082
200	0xbcb09eb8	-0.021560058
201	0x3d29c857	0.041450825
202	0x3d2b4741	0.041816
203	0xbd26a983	-0.040689003
204	0xbd29232e	-0.041293316
205	0xbd399f62	-0.045318015
206	0x3d109b92	0.035304613
207	0x3d306d8a	0.043073215
208	0xbd0e5a2d	-0.034753967
209	0xbd087e03	-0.0333233
210	0xbcb0d3c3	-0.02158535
211	0xbd103100	-0.03520298
212	0x3d38fa3e	0.045160525
213	0x3d4ddd1b	0.05025969
214	0xbd807b79	-0.062735505
215	0xbc97715f	-0.018486677
216	0x3be986ce	0.0071266657
217	0xbc9e8d63	-0.019354528
218	0x3d6d4a70	0.057932317
219	0xbd3ab3b9	-0.045581553
220	0xbd2ae280	-0.041719913
221	0xbe2c4ca3	-0.1682611
222	0xbd4f2848	-0.050575525
223	0xbc9ba2d4	-0.018998541
224	0xbd705e89	-0.058683906
225	0xbd7f7d03	-0.06237508
226	0x3cf25fa8	0.029586628
227	0xbd8efcce	-0.069818124
228	0x3d6c1f0e	0.057646804
229	0xbd9b7d1d	-0.07592223
230	0x3d6dd275	0.058062036
231	0xbab2ac59	-0.0013631686
232	0x3d2572d0	0.040392697
233	0xbb9c01d0	-0.0047609583
234	0x3cc6f274	0.024285533
235	0x39119c01	0.00013886394
236	0xbd65fb44	-0.05614783
237	0x3d7695a1	0.06020129
238	0xbb837d4a	-0.0040127384
239	0x3d153301	0.036425594
240	0xbd7dfe12	-0.06200988
241	0x3be40e07	0.00695968
242	0x3d7cc93a	0.061715342
243	0x3d9fe8ee	0.078081
244	0xbd528c12	-0.051403113
245	0x3d706095	0.058685858
246	0xbd10acc9	-0.03532103
247	0xbd0a935a	-0.03383193
248	0x3c40b445	0.01176173
249	0x3d727d44	0.059201494
250	0x3b925e6a	0.0044668214
251	0xbd21bc54	-0.039486244
252	0xbc5796a1	-0.013158471
253	0xbdaa7c38	-0.08324474
254	0xbd6d4b9a	-0.057933427
255	0x3da24b23	0.079244874

exp_avg f4 [256, 3]
0	0x3a5bdb63	0.0008386878
1	0x3a6cc3de	0.0009031872
2	0xbb3b5ea3	-0.0028590343
3	0x3a34eb0a	0.00069014786
4	0x39583b57	0.00020621471
5	0xb9627c5e	-0.0002159937
6	0x38709cd7	5.7366527e-05
7	0xb8793939	-5.941952e-05
8	0xb9e4dd4e	-0.00043652434
9	0xbaa345c6	-0.0012456707
10	0xb9df989d	-0.0004264758
11	0x39470c98	0.0001898281
12	0xbd075209	-0.03303722
13	0x3bac3724	0.0052555967
14	0x3d8a511f	0.06753754
15	0x398e009f	0.00027084813
16	0xbb43671c	-0.0029816097
17	0xbbd8ece8	-0.0066200383
18	0xbc02ac99	-0.007975721
19	0x3bafb502	0.005362154
20	0x3b379398	0.0028011557
21	0x3b9f68ea	0.0048648017
22	0xba8b941c	-0.0010648998
23	0xbc0f4334	-0.00874405
24	0xb5db0536	-1.6318288e-06
25	0x383fed02	4.575868e-05
26	0xb8ff6622	-0.00012178371
27	0xb794e0a7	-1.7747587e-05
28	0x3a4921e8	0.0007672594
29	0xb9c81fe3	-0.0003817073
30	0xb9a8f0b6	-0.000322228
31	0xb9897fe8	-0.00026225974
32	0xb8540d41	-5.0557082e-05
33	0x3c2a0d0a	0.010379085
34	0xbba3775d	-0.0049885944
35	0xbbb99be5	-0.005664336
36	0x3aeeb554	0.0018211999
37	0x39dee4b3	0.00042513534
38	0xba935b50	-0.0011242423
39	0xbb7e4987	-0.003880115
40	0x394160fa	0.00018442041
41	0x3bb4aef2	0.005514019
42	0xbac10768	-0.0014726939
43	0x3b30d3ea	0.002698178
44	0x3a798a2c	0.00095191854
45	0x3ab7f632	0.0014035164
46	0x3a42a649	0.0007425291
47	0xba6e3287	-0.00090865087
48	0xbb4cd8b0	-0.0031257086
49	0x3b067d14	0.002052133
50	0x3af01032	0.0018315373
51	0x39f187d0	0.0004606829
52	0xb6681f50	-3.458892e-06
53	0xbb7a1136	-0.0038157231
54	0x3a9db518	0.001203212
55	0x3ba0376a	0.0048894184
56	0xbc50936d	-0.012730462
57	0x383b53aa	4.4662193e-05
58	0x393cb33e	0.0001799585
59	0xb9f6a57f	-0.0004704408
60	0xba9f1fd4	-0.0012140223
61	0xba145147	-0.0005657863
62	0x3a54b9f1	0.00081148656
63	0x3b09650d	0.0020964772
64	0x3ac13a3e	0.0014742089
65	0xbbdafda8	-0.00668307
66	0xbb6b1eac	-0.0035876436
67	0x3b15eb7d	0.0022875958
68	0x3b098f3b	0.0020989913
69	0xbaa4ac21	-0.0012563505
70	0xb99235d0	-0.00027887383
71	0x3c7dd6d3	0.015493113
72	0xbb49341b	-0.0030701223
73	0xba68d757	-0.0008882186
74	0x3b14f203	0.0022727258
75	0xbb36df40	-0.0027904063
76	0xba2421b2	-0.00062611245
77	0x3b178929	0.0023122525
78	0xb9a34547	-0.00031141398
79	0xba8c7f86	-0.0010719157
80	0x3bbfb43d	0.0058503435
81	0x3bb674b0	0.0055681095
82	0xbb371059	-0.0027933328
83	0x39ddc6ff	0.00042300668
84	0xba301ed8	-0.0006718463
85	0x3af7bc2b	0.0018900683
86	0x3a97411d	0.0011539791
87	0x3988712e	0.00026024267
88	0x381d92e5	3.7568523e-05
89	0x3800ec0a	3.0737407e-05
90	0x3b21fd1b	0.0024717513
91	0x3a7c5149	0.00096251495
92	0xba76e1dc	-0.0009417811
93	0xbb651d0f	-0.0034959947
94	0x3b26a3b0	0.0025427155
95	0x3b9ded7d	0.0048195706
96	0x3af3f03f	0.0018611028
97	0xbb355ff9	-0.0027675612
98	0xbb733708	-0.0037111659
99	0x37e9002d	2.7775846e-05
100	0xbb605e78	-0.0034235995
101	0xbc0014d9	-0.0078174705
102	0xbab3fadb	-0.0013731377
103	0xb898ebd5	-7.291852e-05
104	0xbb0dfa76	-0.002166418
105	0xbb5b6c9c	-0.0033481484
106	0xbaa89d99	-0.001286435
107	0x3bdfbde4	0.0068280566
108	0xba692255	-0.00088933605
109	0xb965c6f7	-0.00021913262
110	0x39e6a42c	0.00043991336
111	0xbbc1fa0a	-0.0059196996
112	0x3b603a59	0.0034214465
113	0x3b7c362d	0.003848444
114	0xbae7d85c	-0.0017688381
115	0xba2e8bc8	-0.0006658402
116	0x3a902ad7	0.0010999095
117	0xba781059	-0.0009462885
118	0x3b64f983	0.003493876
119	0x3b9f8bea	0.004868974
120	0x373b776d	1.1173875e-05
121	0x39807b4e	0.00024505932
122	0xb9ba9fa0	-0.00035595614
123	0xbac72c9f	-0.0015195793
124	0x3ab3345a	0.0013672218
125	0x3b9d116b	0.004793336
126	0xb73ca0e6	-1.1243135e-05
127	0x39c69f54	0.00037884212
128	0xb9d94175	-0.00041438235
129	0x396a4224	0.00022340618
130	0x3a06adfa	0.0005137619
131	0xb9819997	-0.0002471923
132	0xbb84f3d7	-0.0040573883
133	0xba95a48b	-0.0011416835
134	0x3b79961b	0.0038083855
135	0xbbf01501	-0.0073267226
136	0xbb658c1e	-0.0035026143
137	0x3c2a0b6d	0.010378701
138	0x3c59de6c	0.013297658
139	0xbbbd03b6	-0.0057682646
140	0xbc534238	-0.012894206
141	0x3b453f5b	0.0030097577
142	0x3a33fabe	0.00068656716
143	0xbaae2d8f	-0.0013288724
144	0xba149e56	-0.0005669346
145	0xba4fee53	-0.00079319364
146	0xb972fc9d	-0.00023173024
147	0xbb3a0de1	-0.002838962
148	0xba805114	-0.0009789788
149	0x3b2ef98b	0.0026699032
150	0x3adab224	0.001668517
151	0xbbf0e2b1	-0.0073512425
152	0xbbd81e4e	-0.0065954095
153	0x3b79afda	0.00380992
154	0xba3d4db6	-0.00072213577
155	0xbb474e51	-0.003041167
156	0x3671968e	3.5999433e-06
157	0x39148c18	0.00014166569
158	0xb8e2bcc0	-0.00010811677
159	0x399a623f	0.00029446368
160	0x390cfd47	0.00013445794
161	0x391f34b5	0.00015183057
162	0xbb9e25f4	-0.0048263017
163	0x3ae25e8d	0.001727061
164	0x3b9de459	0.004818481
165	0x3b6169c0	0.0034395307
166	0x39ee26c9	0.00045423795
167	0xbbb16414	-0.0054135416
168	0x3bd2701f	0.0064220573
169	0xbb189135	-0.002327991
170	0xbbbbfd72	-0.005737
171	0xb88c3069	-6.684737e-05
172	0xb8a1f702	-7.723087e-05
173	0x384678f4	4.7319525e-05
174	0xbb1a4217	-0.0023537928
175	0xb9f0426e	-0.0004582586
176	0x3acd9683	0.0015685115
177	0xb75d24b3	-1.3181171e-05
178	0x383f61ac	4.5628913e-05
179	0xb82a6810	-4.0628074e-05
180	0xbb96e95f	-0.0046054567
181	0x3b4849ab	0.0030561488
182	0x3bd207d9	0.006409627
183	0xb6de7c5a	-6.630592e-06
184	0x384d1290	4.8893096e-05
185	0x38f4d479	0.00011674403
186	0x3a96dfb2	0.0011510758
187	0x3a963819	0.001146081
188	0xbaad6378	-0.0013228497
189	0x3acacc89	0.0015472333
190	0xbac5f950	-0.0015104208
191	0x3ae627eb	0.0017559504
192	0xb83127a8	-4.223702e-05
193	0xb9727a10	-0.0002312439
194	0x39bbd825	0.0003582846
195	0x37bd211b	2.2545972e-05
196	0x38dfee01	0.000106778
197	0xb9595989	-0.00020728087
198	0x3baf0ffa	0.0053424807
199	0xba9cf8af	-0.0011975969
200	0xbc7e0163	-0.01550326
201	0x3a36e945	0.0006977509
202	0xb90a134b	-0.00013167893
203	0x3b69d696	0.0035680882
204	0xba19f5ec	-0.0005873132
205	0xbb1fefce	-0.002440441
206	0xbb113bec	-0.002216096
207	0x379f13bb	1.8963465e-05
208	0x39100b44	0.00013737107
209	0xb93083eb	-0.00016833811
210	0x3ac943a9	0.0015355247
211	0xbb22ce9c	-0.0024842387
212	0xbb0a70ea	-0.002112443
213	0xbb8075d4	-0.003920296
214	0xbaa109ed	-0.0012286283
215	0x3b89ec20	0.0042090565
216	0x39af221b	0.00033404012
217	0x3b36adef	0.0027874669
218	0xbc15e149	-0.00914795
219	0x39a53271	0.00031508834
220	0x39d4a7b0	0.00040560728
221	0xb9885645	-0.00026004217
222	0x36a9877e	5.052366e-06
223	0x3a1e9f18	0.00060509285
224	0xba753667	-0.0009354115
225	0xb78c9906	-1.6760558e-05
226	0x38713ecd	5.7517365e-05
227	0x384ebc43	4.928956e-05
228	0xbbf00868	-0.007325221
229	0x3a44d64a	0.0007508738
230	0x37d38443	2.521475e-05
231	0x398d5ee0	0.00026964303
232	0x3970f656	0.00022979951
233	0xba051e58	-0.0005078069
234	0x38b560d0	8.648785e-05
235	0xb93cf05d	-0.0001801862
236	0x3bc00266	0.005859661
237	0xbb53ca9b	-0.0032316807
238	0x3a06f0bc	0.00051475666
239	0x3b03604c	0.002004641
240	0x3581fe66	9.685289e-07
241	0x39adf9ac	0.0003318315
242	0xb9ee7440	-0.0004548151
243	0xb9d0809b	-0.0003976867
244	0x3b02098e	0.001984212
245	0x3ba00852	0.0048838044
246	0x3bf8becc	0.007591104
247	0xbb414498	-0.0029490348
248	0xbb811a37	-0.0039398926
249	0xbb8d92ba	-0.0043204697
250	0x3b0f30fc	0.0021849265
251	0x3ac4c62a	0.0015012671
252	0x3896ea1e	7.196165e-05
253	0xb8c794ee	-9.5168e-05
254	0xba209148	-0.0006125164
255	0xb75d0fdb	-1.3176318e-05

exp_avg_sq f4 [256, 3]
0	0x362405fa	2.4441383e-06
1	0x361bcc6a	2.3215784e-06
2	0x3870d56a	5.7419216e-05
3	0x34f05641	4.4766242e-07
4	0x3577c66d	9.230342e-07
5	0x3714d918	8.8720335e-06
6	0x3500f20f	4.803596e-07
7	0x345cd973	2.0568204e-07
8	0x37b7d220	2.1913147e-05
9	0x36a36a92	4.870185e-06
10	0x366532ce	3.4153231e-06
11	0x395b1cab	0.00020896147
12	0x38939bad	7.038503e-05
13	0x37db7fe9	2.6166397e-05
14	0x3ad97647	0.0016591036
15	0x364dde4f	3.067678e-06
16	0x3605a548	1.991475e-06
17	0x3835fb7c	4.3387976e-05
18	0x379509d4	1.776676e-05
19	0x37a342d1	1.9462228e-05
20	0x3a08340d	0.00051957445
21	0x3582e516	9.752428e-07
22	0x353c3ac5	7.012098e-07
23	0x379bf4b9	1.8591398e-05
24	0x345e1c4f	2.068566e-07
25	0x350dfe47	5.2896615e-07
26	0x36d73a41	6.414281e-06
27	0x356bc3b9	8.7829136e-07
28	0x358019af	9.544218e-07
29	0x378d5fc7	1.685311e-05
30	0x357916be	9.279282e-07
31	0x355b9299	8.1797185e-07
32	0x371cc927	9.345159e-06
33	0x3728455c	1.0029729e-05
34	0x370aa621	8.264121e-06
35	0x398aed43	0.00026498185
36	0x3559323a	8.091189e-07
37	0x3497d545	2.8281116e-07
38	0x36dbc998	6.550177e-06
39	0x36579b98	3.2128064e-06
40	0x35d1a85b	1.5620711e-06
41	0x38733f14	5.799446e-05
42	0x35317ae1	6.611645e-07
43	0x3583b202	9.812068e-07
44	0x37cdcc6d	2.4533098e-05
45	0x35051591	4.9577744e-07
46	0x35596f07	8.1000366e-07
47	0x37145fc4	8.843785e-06
48	0x3660452a	3.341886e-06
49	0x36485faf	2.9858018e-06
50	0x38a4266f	7.827288e-05
51	0x35d8ecc1	1.6162159e-06
52	0x35af9943	1.3083121e-06
53	0x38d3b084	0.000100941426
54	0x372e3052	1.0382459e-05
55	0x3746597f	1.1822557e-05
56	0x3a0488fa	0.00050558115
57	0x34f670ce	4.5903147e-07
58	0x3543ed0a	7.29881e-07
59	0x37838cd1	1.568199e-05
60	0x35f596a3	1.8297764e-06
61	0x35c371ce	1.4561754e-06
62	0x3749bb1a	1.2024097e-05
63	0x36e30895	6.7661263e-06
64	0x36c7adec	5.9509093e-06
65	0x393c5de6	0.00017964057
66	0x362d1fb6	2.5797467e-06
67	0x35d8fa9f	1.6166194e-06
68	0x3846233c	4.7239693e-05
69	0x361cb233	2.3349537e-06
70	0x36c2cbd4	5.8053793e-06
71	0x38cdd097	9.8140146e-05
72	0x366e83b3	3.5541423e-06
73	0x369d4246	4.68668e-06
74	0x384bb55e	4.8567883e-05
75	0x35d73cb4	1.6036415e-06
76	0x35e16086	1.6791898e-06
77	0x3791cf8b	1.7381992e-05
78	0x34f2d69f	4.523217e-07
79	0x353b903e	6.987283e-07
80	0x37169a60	8.97664e-06
81	0x36ed310b	7.0688598e-06
82	0x3717ebad	9.055174e-06
83	0x3961a93f	0.00021520721
84	0x3526ca7b	6.2134467e-07
85	0x354d6781	7.651907e-07
86	0x373aadd1	1.1126934e-05
87	0x33fc97d4	1.1762282e-07
88	0x33f2b8f8	1.1302649e-07
89	0x35e02127	1.6698949e-06
90	0x357486ea	9.109341e-07
91	0x35761968	9.167911e-07
92	0x3749d896	1.2030961e-05
93	0x35f4de00	1.8244027e-06
94	0x35ac6399	1.2843985e-06
95	0x37d1ac31	2.4994924e-05
96	0x3665d955	3.4250163e-06
97	0x3666fc9c	3.4419709e-06
98	0x38a5ce89	7.906283e-05
99	0x36de42c5	6.6238886e-06
100	0x367a350a	3.7283776e-06
101	0x389230e4	6.970929e-05
102	0x359eb5b1	1.1824797e-06
103	0x35748753	9.1094006e-07
104	0x38027144	3.1099902e-05
105	0x3652ca42	3.1410168e-06
106	0x36058645	1.98967e-06
107	0x38c04cc7	9.169574e-05
108	0x35db7080	1.6349513e-06
109	0x362e1b6e	2.5943987e-06
110	0x37faade2	2.9883293e-05
111	0x37075de0	8.068484e-06
112	0x36ef15c0	7.125287e-06
113	0x397ded54	0.00024216372
114	0x36353168	2.699986e-06
115	0x35d5f1ea	1.5940143e-06
116	0x37ba5e0f	2.2216727e-05
117	0x35e9d44d	1.742164e-06
118	0x360e4cd8	2.1204378e-06
119	0x37a0507c	1.9110965e-05
120	0x35e91fe9	1.736914e-06
121	0x3661620e	3.3584688e-06
122	0x3843839f	4.6614205e-05
123	0x360979ae	2.0485418e-06
124	0x35aab70f	1.2719264e-06
125	0x38562d8a	5.1063987e-05
126	0x3582fee8	9.759942e-07
127	0x361c8a22	2.3326215e-06
128	0x37fcbd48	3.0128882e-05
129	0x3553b908	7.887288e-07
130	0x36074c27	2.0160894e-06
131	0x37e3d332	2.7158854e-05
132	0x35e5ea6d	1.7130056e-06
133	0x35d34b5e	1.574266e-06
134	0x374891e5	1.1954898e-05
135	0x371e3ba9	9.431425e-06
136	0x370a4350	8.241113e-06
137	0x38e5148b	0.00010923397
138	0x379da2d8	1.8791688e-05
139	0x37812d76	1.5399168e-05
140	0x39f54926	0.0004678454
141	0x3548d64e	7.481766e-07
142	0x345f73ec	2.0810666e-07
143	0x36347192	2.6888197e-06
144	0x35e6e337	1.7202464e-06
145	0x3639a81c	2.7665e-06
146	0x38074e7c	3.2259602e-05
147	0x35c2da10	1.4517591e-06
148	0x35c22dbb	1.4467436e-06
149	0x3730cbc3	1.0537859e-05
150	0x378e2d9a	1.6948954e-05
151	0x3748739a	1.19478445e-05
152	0x39973d2b	0.00028846538
153	0x366a4a56	3.4911986e-06
154	0x3626eefe	2.487504e-06
155	0x38e08d7d	0.000107075066
156	0x3583327a	9.774951e-07
157	0x344f3692	1.929823e-07
158	0x3601616a	1.92792e-06
159	0x355ed290	8.3007853e-07
160	0x34a0da73	2.9961265e-07
161	0x363568b6	2.7032052e-06
162	0x365fc5fd	3.3344834e-06
163	0x35fe8e4b	1.8965887e-06
164	0x3899668a	7.314708e-05
165	0x36450ddf	2.9363362e-06
166	0x35e9809f	1.7397286e-06
167	0x388e4be3	6.785223e-05
168	0x36ad74bc	5.1693914e-06
169	0x3689c269	4.1055505e-06
170	0x391f6297	0.00015200149
171	0x3585cc30	9.968699e-07
172	0x3600b958	1.918137e-06
173	0x37aeed98	2.0853055e-05
174	0x3638d64f	2.754288e-06
175	0x3608b51a	2.0370994e-06
176	0x37c77b22	2.3779987e-05
177	0x34508711	1.9420646e-07
178	0x33a2f273	7.587814e-08
179	0x35bcdf73	1.4072124e-06
180	0x3686de7d	4.0194122e-06
181	0x3630edae	2.6364391e-06
182	0x38a6b6fd	7.949581e-05
183	0x33def23f	1.0381745e-07
184	0x338e30a6	6.6212394e-08
185	0x35cef7aa	1.5420276e-06
186	0x37137416	8.788911e-06
187	0x3744ad87	1.1722913e-05
188	0x39964825	0.0002866398
189	0x35108a05	5.3845025e-07
190	0x35abf5b5	1.2812003e-06
191	0x3733bd42	1.0713296e-05
192	0x34dfb9bf	4.1672135e-07
193	0x343acef2	1.7397886e-07
194	0x365f0534	3.3232618e-06
195	0x34734518	2.2656275e-07
196	0x35136262	5.4904933e-07
197	0x370c4208	8.360024e-06
198	0x37008c26	7.662025e-06
199	0x36aed137	5.20996e-06
200	0x3942edfb	0.00018589936
201	0x35e9faa7	1.7432802e-06
202	0x368332b6	3.9100078e-06
203	0x384ff9d6	4.9585324e-05
204	0x36c650cf	5.910267e-06
205	0x36dfb422	6.666888e-06
206	0x39199771	0.00014647633
207	0x34f121fb	4.4914472e-07
208	0x35168584	5.6073645e-07
209	0x374ee8df	1.2332776e-05
210	0x363ba560	2.7961432e-06
211	0x366f23d2	3.5634625e-06
212	0x38818bf6	6.177269e-05
213	0x3677556f	3.6855597e-06
214	0x364ebfe2	3.0808083e-06
215	0x37e90477	2.7777844e-05
216	0x362d7c3c	2.5851323e-06
217	0x36479699	2.974097e-06
218	0x385ca672	5.26071e-05
219	0x3588a8f7	1.0181965e-06
220	0x3524380e	6.117633e-07
221	0x378f64c8	1.7093858e-05
222	0x3694e04e	4.436856e-06
223	0x36dba5fe	6.5460326e-06
224	0x38ef5066	0.000114113835
225	0x343eabb8	1.77576e-07
226	0x3390b2b2	6.738027e-08
227	0x35be50db	1.4179635e-06
228	0x37410b8d	1.1506386e-05
229	0x36f42c01	7.2768894e-06
230	0x398bea90	0.0002668691
231	0x35b07403	1.3146786e-06
232	0x364c69ae	3.0459883e-06
233	0x3904e9e9	0.0001267564
234	0x350e6c05	5.305631e-07
235	0x35ac36d3	1.2830955e-06
236	0x37996111	1.8284221e-05
237	0x35b05558	1.313786e-06
238	0x352e7f68	6.500545e-07
239	0x37cb3f11	2.4228853e-05
240	0x35cba6a0	1.5173173e-06
241	0x362d5a7c	2.5831678e-06
242	0x380f9f97	3.4242486e-05
243	0x3611da85	2.1733879e-06
244	0x360b8d34	2.0794805e-06
245	0x385a7a6a	5.2089257e-05
246	0x3676b32b	3.6761146e-06
247	0x36650273	3.4125085e-06
248	0x38b7ddc7	8.767429e-05
249	0x365454a9	3.163974e-06
250	0x36476f8d	2.9718242e-06
251	0x38abd231	8.1930666e-05
252	0x35030ad0	4.881704e-07
253	0x35094f5f	5.115198e-07
254	0x3800c54e	3.0701332e-05
255	0x352e5a83	6.4951763e-07
